…
I1107 05:10:45.280110 16180 net.cpp:275] The NetState phase (0) differed from the phase (1) specified by a rule in layer accuracy
I1107 05:10:45.280395 16180 net.cpp:39] Initializing net from parameters: 
name: "ScrapeCaffeNet"
layers {
  top: "data"
  top: "label"
  name: "data"
  type: IMAGE_DATA
  image_data_param {
    source: "data/scrape_devC/train.txt"
    batch_size: 128
    new_height: 256
    new_width: 256
  }
  include {
    phase: TRAIN
  }
  transform_param {
    mirror: true
    crop_size: 227
    mean_file: "/homes/ad6813/data/controlpoint_mean_256-227.binaryproto"
  }
}
layers {
  bottom: "data"
  top: "conv1"
  name: "conv1"
  type: CONVOLUTION
  blobs_lr: 1
  blobs_lr: 2
  weight_decay: 1
  weight_decay: 0
  convolution_param {
    num_output: 96
    kernel_size: 11
    stride: 4
    weight_filler {
      type: "gaussian"
      std: 0.01
    }
    bias_filler {
      type: "constant"
      value: 0
    }
  }
}
layers {
  bottom: "conv1"
  top: "conv1"
  name: "relu1"
  type: RELU
}
layers {
  bottom: "conv1"
  top: "pool1"
  name: "pool1"
  type: POOLING
  pooling_param {
    pool: MAX
    kernel_size: 3
    stride: 2
  }
}
layers {
  bottom: "pool1"
  top: "norm1"
  name: "norm1"
  type: LRN
  lrn_param {
    local_size: 5
    alpha: 0.0001
    beta: 0.75
  }
}
layers {
  bottom: "norm1"
  top: "conv2"
  name: "conv2"
  type: CONVOLUTION
  blobs_lr: 1
  blobs_lr: 2
  weight_decay: 1
  weight_decay: 0
  convolution_param {
    num_output: 256
    pad: 2
    kernel_size: 5
    group: 2
    weight_filler {
      type: "gaussian"
      std: 0.01
    }
    bias_filler {
      type: "constant"
      value: 1
    }
  }
}
layers {
  bottom: "conv2"
  top: "conv2"
  name: "relu2"
  type: RELU
}
layers {
  bottom: "conv2"
  top: "pool2"
  name: "pool2"
  type: POOLING
  pooling_param {
    pool: MAX
    kernel_size: 3
    stride: 2
  }
}
layers {
  bottom: "pool2"
  top: "norm2"
  name: "norm2"
  type: LRN
  lrn_param {
    local_size: 5
    alpha: 0.0001
    beta: 0.75
  }
}
layers {
  bottom: "norm2"
  top: "conv3"
  name: "conv3"
  type: CONVOLUTION
  blobs_lr: 1
  blobs_lr: 2
  weight_decay: 1
  weight_decay: 0
  convolution_param {
    num_output: 384
    pad: 1
    kernel_size: 3
    weight_filler {
      type: "gaussian"
      std: 0.01
    }
    bias_filler {
      type: "constant"
      value: 0
    }
  }
}
layers {
  bottom: "conv3"
  top: "conv3"
  name: "relu3"
  type: RELU
}
layers {
  bottom: "conv3"
  top: "conv4"
  name: "conv4"
  type: CONVOLUTION
  blobs_lr: 1
  blobs_lr: 2
  weight_decay: 1
  weight_decay: 0
  convolution_param {
    num_output: 384
    pad: 1
    kernel_size: 3
    group: 2
    weight_filler {
      type: "gaussian"
      std: 0.01
    }
    bias_filler {
      type: "constant"
      value: 1
    }
  }
}
layers {
  bottom: "conv4"
  top: "conv4"
  name: "relu4"
  type: RELU
}
layers {
  bottom: "conv4"
  top: "conv5"
  name: "conv5"
  type: CONVOLUTION
  blobs_lr: 1
  blobs_lr: 2
  weight_decay: 1
  weight_decay: 0
  convolution_param {
    num_output: 256
    pad: 1
    kernel_size: 3
    group: 2
    weight_filler {
      type: "gaussian"
      std: 0.01
    }
    bias_filler {
      type: "constant"
      value: 1
    }
  }
}
layers {
  bottom: "conv5"
  top: "conv5"
  name: "relu5"
  type: RELU
}
layers {
  bottom: "conv5"
  top: "pool5"
  name: "pool5"
  type: POOLING
  pooling_param {
    pool: MAX
    kernel_size: 3
    stride: 2
  }
}
layers {
  bottom: "pool5"
  top: "fc6"
  name: "fc6"
  type: INNER_PRODUCT
  blobs_lr: 1
  blobs_lr: 2
  weight_decay: 1
  weight_decay: 0
  inner_product_param {
    num_output: 4096
    weight_filler {
      type: "gaussian"
      std: 0.005
    }
    bias_filler {
      type: "constant"
      value: 1
    }
  }
}
layers {
  bottom: "fc6"
  top: "fc6"
  name: "relu6"
  type: RELU
}
layers {
  bottom: "fc6"
  top: "fc6"
  name: "drop6"
  type: DROPOUT
  dropout_param {
    dropout_ratio: 0.5
  }
}
layers {
  bottom: "fc6"
  top: "fc7"
  name: "fc7"
  type: INNER_PRODUCT
  blobs_lr: 1
  blobs_lr: 2
  weight_decay: 1
  weight_decay: 0
  inner_product_param {
    num_output: 4096
    weight_filler {
      type: "gaussian"
      std: 0.005
    }
    bias_filler {
      type: "constant"
      value: 1
    }
  }
}
layers {
  bottom: "fc7"
  top: "fc7"
  name: "relu7"
  type: RELU
}
layers {
  bottom: "fc7"
  top: "fc7"
  name: "drop7"
  type: DROPOUT
  dropout_param {
    dropout_ratio: 0.5
  }
}
layers {
  bottom: "fc7"
  top: "fc8_scrape"
  name: "fc8_scrape"
  type: INNER_PRODUCT
  blobs_lr: 1
  blobs_lr: 2
  weight_decay: 1
  weight_decay: 0
  inner_product_param {
    num_output: 2
    weight_filler {
      type: "gaussian"
      std: 0.01
    }
    bias_filler {
      type: "constant"
      value: 0
    }
  }
}
layers {
  bottom: "fc8_scrape"
  bottom: "label"
  name: "loss"
  type: SOFTMAX_LOSS
}
state {
  phase: TRAIN
}
I1107 05:10:45.280561 16180 net.cpp:67] Creating Layer data
I1107 05:10:45.280578 16180 net.cpp:356] data -> data
I1107 05:10:45.280603 16180 net.cpp:356] data -> label
I1107 05:10:45.280630 16180 net.cpp:96] Setting up data
I1107 05:10:45.280642 16180 image_data_layer.cpp:30] Opening file data/scrape_devC/train.txt
I1107 05:10:45.348393 16180 image_data_layer.cpp:45] A total of 104401 images.
I1107 05:10:45.360396 16180 image_data_layer.cpp:73] output data size: 128,3,227,227
I1107 05:10:45.360451 16180 base_data_layer.cpp:36] Loading mean file from/homes/ad6813/data/controlpoint_mean_256-227.binaryproto
I1107 05:10:45.402850 16180 net.cpp:103] Top shape: 128 3 227 227 (19787136)
I1107 05:10:45.402889 16180 net.cpp:103] Top shape: 128 1 1 1 (128)
I1107 05:10:45.402915 16180 net.cpp:67] Creating Layer conv1
I1107 05:10:45.402922 16180 net.cpp:394] conv1 <- data
I1107 05:10:45.402971 16180 net.cpp:356] conv1 -> conv1
I1107 05:10:45.402992 16180 net.cpp:96] Setting up conv1
I1107 05:10:45.434650 16180 net.cpp:103] Top shape: 128 96 55 55 (37171200)
I1107 05:10:45.434710 16180 net.cpp:67] Creating Layer relu1
I1107 05:10:45.434720 16180 net.cpp:394] relu1 <- conv1
I1107 05:10:45.434730 16180 net.cpp:345] relu1 -> conv1 (in-place)
I1107 05:10:45.434744 16180 net.cpp:96] Setting up relu1
I1107 05:10:45.434758 16180 net.cpp:103] Top shape: 128 96 55 55 (37171200)
I1107 05:10:45.434769 16180 net.cpp:67] Creating Layer pool1
I1107 05:10:45.434774 16180 net.cpp:394] pool1 <- conv1
I1107 05:10:45.434785 16180 net.cpp:356] pool1 -> pool1
I1107 05:10:45.434795 16180 net.cpp:96] Setting up pool1
I1107 05:10:45.434818 16180 net.cpp:103] Top shape: 128 96 27 27 (8957952)
I1107 05:10:45.434831 16180 net.cpp:67] Creating Layer norm1
I1107 05:10:45.434837 16180 net.cpp:394] norm1 <- pool1
I1107 05:10:45.434849 16180 net.cpp:356] norm1 -> norm1
I1107 05:10:45.434859 16180 net.cpp:96] Setting up norm1
I1107 05:10:45.434870 16180 net.cpp:103] Top shape: 128 96 27 27 (8957952)
I1107 05:10:45.434881 16180 net.cpp:67] Creating Layer conv2
I1107 05:10:45.434895 16180 net.cpp:394] conv2 <- norm1
I1107 05:10:45.434909 16180 net.cpp:356] conv2 -> conv2
I1107 05:10:45.434924 16180 net.cpp:96] Setting up conv2
I1107 05:10:45.450462 16180 net.cpp:103] Top shape: 128 256 27 27 (23887872)
I1107 05:10:45.450510 16180 net.cpp:67] Creating Layer relu2
I1107 05:10:45.450518 16180 net.cpp:394] relu2 <- conv2
I1107 05:10:45.450531 16180 net.cpp:345] relu2 -> conv2 (in-place)
I1107 05:10:45.450542 16180 net.cpp:96] Setting up relu2
I1107 05:10:45.450553 16180 net.cpp:103] Top shape: 128 256 27 27 (23887872)
I1107 05:10:45.450562 16180 net.cpp:67] Creating Layer pool2
I1107 05:10:45.450582 16180 net.cpp:394] pool2 <- conv2
I1107 05:10:45.450590 16180 net.cpp:356] pool2 -> pool2
I1107 05:10:45.450600 16180 net.cpp:96] Setting up pool2
I1107 05:10:45.450613 16180 net.cpp:103] Top shape: 128 256 13 13 (5537792)
I1107 05:10:45.450629 16180 net.cpp:67] Creating Layer norm2
I1107 05:10:45.450636 16180 net.cpp:394] norm2 <- pool2
I1107 05:10:45.450644 16180 net.cpp:356] norm2 -> norm2
I1107 05:10:45.450656 16180 net.cpp:96] Setting up norm2
I1107 05:10:45.450664 16180 net.cpp:103] Top shape: 128 256 13 13 (5537792)
I1107 05:10:45.450675 16180 net.cpp:67] Creating Layer conv3
I1107 05:10:45.450680 16180 net.cpp:394] conv3 <- norm2
I1107 05:10:45.450688 16180 net.cpp:356] conv3 -> conv3
I1107 05:10:45.450700 16180 net.cpp:96] Setting up conv3
I1107 05:10:45.494771 16180 net.cpp:103] Top shape: 128 384 13 13 (8306688)
I1107 05:10:45.494822 16180 net.cpp:67] Creating Layer relu3
I1107 05:10:45.494832 16180 net.cpp:394] relu3 <- conv3
I1107 05:10:45.494842 16180 net.cpp:345] relu3 -> conv3 (in-place)
I1107 05:10:45.494853 16180 net.cpp:96] Setting up relu3
I1107 05:10:45.494863 16180 net.cpp:103] Top shape: 128 384 13 13 (8306688)
I1107 05:10:45.494879 16180 net.cpp:67] Creating Layer conv4
I1107 05:10:45.494885 16180 net.cpp:394] conv4 <- conv3
I1107 05:10:45.494894 16180 net.cpp:356] conv4 -> conv4
I1107 05:10:45.494905 16180 net.cpp:96] Setting up conv4
I1107 05:10:45.528507 16180 net.cpp:103] Top shape: 128 384 13 13 (8306688)
I1107 05:10:45.528553 16180 net.cpp:67] Creating Layer relu4
I1107 05:10:45.528563 16180 net.cpp:394] relu4 <- conv4
I1107 05:10:45.528576 16180 net.cpp:345] relu4 -> conv4 (in-place)
I1107 05:10:45.528589 16180 net.cpp:96] Setting up relu4
I1107 05:10:45.528599 16180 net.cpp:103] Top shape: 128 384 13 13 (8306688)
I1107 05:10:45.528611 16180 net.cpp:67] Creating Layer conv5
I1107 05:10:45.528617 16180 net.cpp:394] conv5 <- conv4
I1107 05:10:45.528626 16180 net.cpp:356] conv5 -> conv5
I1107 05:10:45.528636 16180 net.cpp:96] Setting up conv5
I1107 05:10:45.550830 16180 net.cpp:103] Top shape: 128 256 13 13 (5537792)
I1107 05:10:45.550879 16180 net.cpp:67] Creating Layer relu5
I1107 05:10:45.550886 16180 net.cpp:394] relu5 <- conv5
I1107 05:10:45.550899 16180 net.cpp:345] relu5 -> conv5 (in-place)
I1107 05:10:45.550910 16180 net.cpp:96] Setting up relu5
I1107 05:10:45.550921 16180 net.cpp:103] Top shape: 128 256 13 13 (5537792)
I1107 05:10:45.550931 16180 net.cpp:67] Creating Layer pool5
I1107 05:10:45.550936 16180 net.cpp:394] pool5 <- conv5
I1107 05:10:45.550945 16180 net.cpp:356] pool5 -> pool5
I1107 05:10:45.550954 16180 net.cpp:96] Setting up pool5
I1107 05:10:45.550966 16180 net.cpp:103] Top shape: 128 256 6 6 (1179648)
I1107 05:10:45.550983 16180 net.cpp:67] Creating Layer fc6
I1107 05:10:45.550989 16180 net.cpp:394] fc6 <- pool5
I1107 05:10:45.551000 16180 net.cpp:356] fc6 -> fc6
I1107 05:10:45.551012 16180 net.cpp:96] Setting up fc6
I1107 05:10:47.825042 16180 net.cpp:103] Top shape: 128 4096 1 1 (524288)
I1107 05:10:47.825096 16180 net.cpp:67] Creating Layer relu6
I1107 05:10:47.825105 16180 net.cpp:394] relu6 <- fc6
I1107 05:10:47.825119 16180 net.cpp:345] relu6 -> fc6 (in-place)
I1107 05:10:47.825130 16180 net.cpp:96] Setting up relu6
I1107 05:10:47.825152 16180 net.cpp:103] Top shape: 128 4096 1 1 (524288)
I1107 05:10:47.825162 16180 net.cpp:67] Creating Layer drop6
I1107 05:10:47.825167 16180 net.cpp:394] drop6 <- fc6
I1107 05:10:47.825176 16180 net.cpp:345] drop6 -> fc6 (in-place)
I1107 05:10:47.825184 16180 net.cpp:96] Setting up drop6
I1107 05:10:47.825196 16180 net.cpp:103] Top shape: 128 4096 1 1 (524288)
I1107 05:10:47.825207 16180 net.cpp:67] Creating Layer fc7
I1107 05:10:47.825212 16180 net.cpp:394] fc7 <- fc6
I1107 05:10:47.825222 16180 net.cpp:356] fc7 -> fc7
I1107 05:10:47.825232 16180 net.cpp:96] Setting up fc7
I1107 05:10:48.651835 16180 net.cpp:103] Top shape: 128 4096 1 1 (524288)
I1107 05:10:48.651891 16180 net.cpp:67] Creating Layer relu7
I1107 05:10:48.651901 16180 net.cpp:394] relu7 <- fc7
I1107 05:10:48.651926 16180 net.cpp:345] relu7 -> fc7 (in-place)
I1107 05:10:48.651938 16180 net.cpp:96] Setting up relu7
I1107 05:10:48.651959 16180 net.cpp:103] Top shape: 128 4096 1 1 (524288)
I1107 05:10:48.651970 16180 net.cpp:67] Creating Layer drop7
I1107 05:10:48.651976 16180 net.cpp:394] drop7 <- fc7
I1107 05:10:48.651984 16180 net.cpp:345] drop7 -> fc7 (in-place)
I1107 05:10:48.651993 16180 net.cpp:96] Setting up drop7
I1107 05:10:48.652000 16180 net.cpp:103] Top shape: 128 4096 1 1 (524288)
I1107 05:10:48.652010 16180 net.cpp:67] Creating Layer fc8_scrape
I1107 05:10:48.652016 16180 net.cpp:394] fc8_scrape <- fc7
I1107 05:10:48.652027 16180 net.cpp:356] fc8_scrape -> fc8_scrape
I1107 05:10:48.652039 16180 net.cpp:96] Setting up fc8_scrape
I1107 05:10:48.652465 16180 net.cpp:103] Top shape: 128 2 1 1 (256)
I1107 05:10:48.652489 16180 net.cpp:67] Creating Layer loss
I1107 05:10:48.652497 16180 net.cpp:394] loss <- fc8_scrape
I1107 05:10:48.652503 16180 net.cpp:394] loss <- label
I1107 05:10:48.652513 16180 net.cpp:356] loss -> (automatic)
I1107 05:10:48.652520 16180 net.cpp:96] Setting up loss
I1107 05:10:48.652537 16180 net.cpp:103] Top shape: 1 1 1 1 (1)
I1107 05:10:48.652544 16180 net.cpp:109]     with loss weight 1
I1107 05:10:48.652587 16180 net.cpp:170] loss needs backward computation.
I1107 05:10:48.652597 16180 net.cpp:170] fc8_scrape needs backward computation.
I1107 05:10:48.652604 16180 net.cpp:170] drop7 needs backward computation.
I1107 05:10:48.652609 16180 net.cpp:170] relu7 needs backward computation.
I1107 05:10:48.652614 16180 net.cpp:170] fc7 needs backward computation.
…
I1107 05:10:48.653964 16180 solver.cpp:151] Creating test net (#0) specified by net file: task/scrape_devC/train_val.prototxt
I1107 05:10:48.654032 16180 net.cpp:275] The NetState phase (1) differed from the phase (0) specified by a rule in layer data
I1107 05:10:48.654340 16180 net.cpp:39] Initializing net from parameters: 
name: "ScrapeCaffeNet"
layers {
  top: "data"
  top: "label"
  name: "data"
  type: IMAGE_DATA
  image_data_param {
    source: "data/scrape_devC/val.txt"
    batch_size: 8
    new_height: 256
    new_width: 256
  }
  include {
    phase: TEST
  }
  transform_param {
    mirror: true
    crop_size: 227
    mean_file: "/homes/ad6813/data/controlpoint_mean_256-227.binaryproto"
  }
}
layers {
  bottom: "data"
  top: "conv1"
  name: "conv1"
  type: CONVOLUTION
  blobs_lr: 1
  blobs_lr: 2
  weight_decay: 1
  weight_decay: 0
  convolution_param {
    num_output: 96
    kernel_size: 11
    stride: 4
    weight_filler {
      type: "gaussian"
      std: 0.01
    }
    bias_filler {
      type: "constant"
      value: 0
    }
  }
}
layers {
  bottom: "conv1"
  top: "conv1"
  name: "relu1"
  type: RELU
}
layers {
  bottom: "conv1"
  top: "pool1"
  name: "pool1"
  type: POOLING
  pooling_param {
    pool: MAX
    kernel_size: 3
    stride: 2
  }
}
layers {
  bottom: "pool1"
  top: "norm1"
  name: "norm1"
  type: LRN
  lrn_param {
    local_size: 5
    alpha: 0.0001
    beta: 0.75
  }
}
layers {
  bottom: "norm1"
  top: "conv2"
  name: "conv2"
  type: CONVOLUTION
  blobs_lr: 1
  blobs_lr: 2
  weight_decay: 1
  weight_decay: 0
  convolution_param {
    num_output: 256
    pad: 2
    kernel_size: 5
    group: 2
    weight_filler {
      type: "gaussian"
      std: 0.01
    }
    bias_filler {
      type: "constant"
      value: 1
    }
  }
}
layers {
  bottom: "conv2"
  top: "conv2"
  name: "relu2"
  type: RELU
}
layers {
  bottom: "conv2"
  top: "pool2"
  name: "pool2"
  type: POOLING
  pooling_param {
    pool: MAX
    kernel_size: 3
    stride: 2
  }
}
layers {
  bottom: "pool2"
  top: "norm2"
  name: "norm2"
  type: LRN
  lrn_param {
    local_size: 5
    alpha: 0.0001
    beta: 0.75
  }
}
layers {
  bottom: "norm2"
  top: "conv3"
  name: "conv3"
  type: CONVOLUTION
  blobs_lr: 1
  blobs_lr: 2
  weight_decay: 1
  weight_decay: 0
  convolution_param {
    num_output: 384
    pad: 1
    kernel_size: 3
    weight_filler {
      type: "gaussian"
      std: 0.01
    }
    bias_filler {
      type: "constant"
      value: 0
    }
  }
}
layers {
  bottom: "conv3"
  top: "conv3"
  name: "relu3"
  type: RELU
}
layers {
  bottom: "conv3"
  top: "conv4"
  name: "conv4"
  type: CONVOLUTION
  blobs_lr: 1
  blobs_lr: 2
  weight_decay: 1
  weight_decay: 0
  convolution_param {
    num_output: 384
    pad: 1
    kernel_size: 3
    group: 2
    weight_filler {
      type: "gaussian"
      std: 0.01
    }
    bias_filler {
      type: "constant"
      value: 1
    }
  }
}
layers {
  bottom: "conv4"
  top: "conv4"
  name: "relu4"
  type: RELU
}
layers {
  bottom: "conv4"
  top: "conv5"
  name: "conv5"
  type: CONVOLUTION
  blobs_lr: 1
  blobs_lr: 2
  weight_decay: 1
  weight_decay: 0
  convolution_param {
    num_output: 256
    pad: 1
    kernel_size: 3
    group: 2
    weight_filler {
      type: "gaussian"
      std: 0.01
    }
    bias_filler {
      type: "constant"
      value: 1
    }
  }
}
layers {
  bottom: "conv5"
  top: "conv5"
  name: "relu5"
  type: RELU
}
layers {
  bottom: "conv5"
  top: "pool5"
  name: "pool5"
  type: POOLING
  pooling_param {
    pool: MAX
    kernel_size: 3
    stride: 2
  }
}
layers {
  bottom: "pool5"
  top: "fc6"
  name: "fc6"
  type: INNER_PRODUCT
  blobs_lr: 1
  blobs_lr: 2
  weight_decay: 1
  weight_decay: 0
  inner_product_param {
    num_output: 4096
    weight_filler {
      type: "gaussian"
      std: 0.005
    }
    bias_filler {
      type: "constant"
      value: 1
    }
  }
}
layers {
  bottom: "fc6"
  top: "fc6"
  name: "relu6"
  type: RELU
}
layers {
  bottom: "fc6"
  top: "fc6"
  name: "drop6"
  type: DROPOUT
  dropout_param {
    dropout_ratio: 0.5
  }
}
layers {
  bottom: "fc6"
  top: "fc7"
  name: "fc7"
  type: INNER_PRODUCT
  blobs_lr: 1
  blobs_lr: 2
  weight_decay: 1
  weight_decay: 0
  inner_product_param {
    num_output: 4096
    weight_filler {
      type: "gaussian"
      std: 0.005
    }
    bias_filler {
      type: "constant"
      value: 1
    }
  }
}
layers {
  bottom: "fc7"
  top: "fc7"
  name: "relu7"
  type: RELU
}
layers {
  bottom: "fc7"
  top: "fc7"
  name: "drop7"
  type: DROPOUT
  dropout_param {
    dropout_ratio: 0.5
  }
}
layers {
  bottom: "fc7"
  top: "fc8_scrape"
  name: "fc8_scrape"
  type: INNER_PRODUCT
  blobs_lr: 1
  blobs_lr: 2
  weight_decay: 1
  weight_decay: 0
  inner_product_param {
    num_output: 2
    weight_filler {
      type: "gaussian"
      std: 0.01
    }
    bias_filler {
      type: "constant"
      value: 0
    }
  }
}
layers {
  bottom: "fc8_scrape"
  bottom: "label"
  name: "loss"
  type: SOFTMAX_LOSS
}
layers {
  bottom: "fc8_scrape"
  bottom: "label"
  top: "accuracy"
  name: "accuracy"
  type: PER_CLASS_ACCURACY
  include {
    phase: TEST
  }
}
state {
  phase: TEST
}
I1107 05:10:48.654521 16180 net.cpp:67] Creating Layer data
I1107 05:10:48.654535 16180 net.cpp:356] data -> data
I1107 05:10:48.654548 16180 net.cpp:356] data -> label
I1107 05:10:48.654559 16180 net.cpp:96] Setting up data
I1107 05:10:48.654566 16180 image_data_layer.cpp:30] Opening file data/scrape_devC/val.txt
I1107 05:10:48.655997 16180 image_data_layer.cpp:45] A total of 1976 images.
I1107 05:10:48.668134 16180 image_data_layer.cpp:73] output data size: 8,3,227,227
I1107 05:10:48.668164 16180 base_data_layer.cpp:36] Loading mean file from/homes/ad6813/data/controlpoint_mean_256-227.binaryproto
I1107 05:10:48.673064 16180 net.cpp:103] Top shape: 8 3 227 227 (1236696)
I1107 05:10:48.673090 16180 net.cpp:103] Top shape: 8 1 1 1 (8)
I1107 05:10:48.673106 16180 net.cpp:67] Creating Layer label_data_1_split
I1107 05:10:48.673113 16180 net.cpp:394] label_data_1_split <- label
I1107 05:10:48.673128 16180 net.cpp:356] label_data_1_split -> label_data_1_split_0
I1107 05:10:48.673143 16180 net.cpp:356] label_data_1_split -> label_data_1_split_1
I1107 05:10:48.673152 16180 net.cpp:96] Setting up label_data_1_split
I1107 05:10:48.673177 16180 net.cpp:103] Top shape: 8 1 1 1 (8)
I1107 05:10:48.673185 16180 net.cpp:103] Top shape: 8 1 1 1 (8)
I1107 05:10:48.673200 16180 net.cpp:67] Creating Layer conv1
I1107 05:10:48.673207 16180 net.cpp:394] conv1 <- data
I1107 05:10:48.673216 16180 net.cpp:356] conv1 -> conv1
I1107 05:10:48.673228 16180 net.cpp:96] Setting up conv1
I1107 05:10:48.675088 16180 net.cpp:103] Top shape: 8 96 55 55 (2323200)
I1107 05:10:48.675119 16180 net.cpp:67] Creating Layer relu1
I1107 05:10:48.675127 16180 net.cpp:394] relu1 <- conv1
I1107 05:10:48.675135 16180 net.cpp:345] relu1 -> conv1 (in-place)
I1107 05:10:48.675144 16180 net.cpp:96] Setting up relu1
I1107 05:10:48.675154 16180 net.cpp:103] Top shape: 8 96 55 55 (2323200)
I1107 05:10:48.675165 16180 net.cpp:67] Creating Layer pool1
I1107 05:10:48.675171 16180 net.cpp:394] pool1 <- conv1
I1107 05:10:48.675179 16180 net.cpp:356] pool1 -> pool1
I1107 05:10:48.675187 16180 net.cpp:96] Setting up pool1
I1107 05:10:48.675199 16180 net.cpp:103] Top shape: 8 96 27 27 (559872)
I1107 05:10:48.675209 16180 net.cpp:67] Creating Layer norm1
I1107 05:10:48.675215 16180 net.cpp:394] norm1 <- pool1
I1107 05:10:48.675222 16180 net.cpp:356] norm1 -> norm1
I1107 05:10:48.675231 16180 net.cpp:96] Setting up norm1
I1107 05:10:48.675238 16180 net.cpp:103] Top shape: 8 96 27 27 (559872)
I1107 05:10:48.675247 16180 net.cpp:67] Creating Layer conv2
I1107 05:10:48.675252 16180 net.cpp:394] conv2 <- norm1
I1107 05:10:48.675261 16180 net.cpp:356] conv2 -> conv2
I1107 05:10:48.675271 16180 net.cpp:96] Setting up conv2
I1107 05:10:48.690522 16180 net.cpp:103] Top shape: 8 256 27 27 (1492992)
I1107 05:10:48.690560 16180 net.cpp:67] Creating Layer relu2
I1107 05:10:48.690568 16180 net.cpp:394] relu2 <- conv2
I1107 05:10:48.690577 16180 net.cpp:345] relu2 -> conv2 (in-place)
I1107 05:10:48.690587 16180 net.cpp:96] Setting up relu2
I1107 05:10:48.690598 16180 net.cpp:103] Top shape: 8 256 27 27 (1492992)
I1107 05:10:48.690608 16180 net.cpp:67] Creating Layer pool2
I1107 05:10:48.690614 16180 net.cpp:394] pool2 <- conv2
I1107 05:10:48.690623 16180 net.cpp:356] pool2 -> pool2
I1107 05:10:48.690634 16180 net.cpp:96] Setting up pool2
I1107 05:10:48.690645 16180 net.cpp:103] Top shape: 8 256 13 13 (346112)
I1107 05:10:48.690655 16180 net.cpp:67] Creating Layer norm2
I1107 05:10:48.690660 16180 net.cpp:394] norm2 <- pool2
I1107 05:10:48.690668 16180 net.cpp:356] norm2 -> norm2
I1107 05:10:48.690677 16180 net.cpp:96] Setting up norm2
I1107 05:10:48.690685 16180 net.cpp:103] Top shape: 8 256 13 13 (346112)
I1107 05:10:48.690696 16180 net.cpp:67] Creating Layer conv3
I1107 05:10:48.690701 16180 net.cpp:394] conv3 <- norm2
I1107 05:10:48.690709 16180 net.cpp:356] conv3 -> conv3
I1107 05:10:48.690733 16180 net.cpp:96] Setting up conv3
I1107 05:10:48.734326 16180 net.cpp:103] Top shape: 8 384 13 13 (519168)
I1107 05:10:48.734380 16180 net.cpp:67] Creating Layer relu3
I1107 05:10:48.734387 16180 net.cpp:394] relu3 <- conv3
I1107 05:10:48.734397 16180 net.cpp:345] relu3 -> conv3 (in-place)
I1107 05:10:48.734408 16180 net.cpp:96] Setting up relu3
I1107 05:10:48.734419 16180 net.cpp:103] Top shape: 8 384 13 13 (519168)
I1107 05:10:48.734433 16180 net.cpp:67] Creating Layer conv4
I1107 05:10:48.734441 16180 net.cpp:394] conv4 <- conv3
I1107 05:10:48.734448 16180 net.cpp:356] conv4 -> conv4
I1107 05:10:48.734462 16180 net.cpp:96] Setting up conv4
I1107 05:10:48.767424 16180 net.cpp:103] Top shape: 8 384 13 13 (519168)
I1107 05:10:48.767475 16180 net.cpp:67] Creating Layer relu4
I1107 05:10:48.767484 16180 net.cpp:394] relu4 <- conv4
I1107 05:10:48.767495 16180 net.cpp:345] relu4 -> conv4 (in-place)
I1107 05:10:48.767505 16180 net.cpp:96] Setting up relu4
I1107 05:10:48.767516 16180 net.cpp:103] Top shape: 8 384 13 13 (519168)
I1107 05:10:48.767530 16180 net.cpp:67] Creating Layer conv5
I1107 05:10:48.767536 16180 net.cpp:394] conv5 <- conv4
I1107 05:10:48.767544 16180 net.cpp:356] conv5 -> conv5
I1107 05:10:48.767554 16180 net.cpp:96] Setting up conv5
I1107 05:10:48.789942 16180 net.cpp:103] Top shape: 8 256 13 13 (346112)
I1107 05:10:48.789999 16180 net.cpp:67] Creating Layer relu5
I1107 05:10:48.790009 16180 net.cpp:394] relu5 <- conv5
I1107 05:10:48.790019 16180 net.cpp:345] relu5 -> conv5 (in-place)
I1107 05:10:48.790030 16180 net.cpp:96] Setting up relu5
I1107 05:10:48.790040 16180 net.cpp:103] Top shape: 8 256 13 13 (346112)
I1107 05:10:48.790052 16180 net.cpp:67] Creating Layer pool5
I1107 05:10:48.790058 16180 net.cpp:394] pool5 <- conv5
I1107 05:10:48.790068 16180 net.cpp:356] pool5 -> pool5
I1107 05:10:48.790079 16180 net.cpp:96] Setting up pool5
I1107 05:10:48.790091 16180 net.cpp:103] Top shape: 8 256 6 6 (73728)
I1107 05:10:48.790102 16180 net.cpp:67] Creating Layer fc6
I1107 05:10:48.790108 16180 net.cpp:394] fc6 <- pool5
I1107 05:10:48.790119 16180 net.cpp:356] fc6 -> fc6
I1107 05:10:48.790129 16180 net.cpp:96] Setting up fc6
I1107 05:10:50.717398 16180 net.cpp:103] Top shape: 8 4096 1 1 (32768)
I1107 05:10:50.717450 16180 net.cpp:67] Creating Layer relu6
I1107 05:10:50.717459 16180 net.cpp:394] relu6 <- fc6
I1107 05:10:50.717473 16180 net.cpp:345] relu6 -> fc6 (in-place)
I1107 05:10:50.717484 16180 net.cpp:96] Setting up relu6
I1107 05:10:50.717505 16180 net.cpp:103] Top shape: 8 4096 1 1 (32768)
I1107 05:10:50.717515 16180 net.cpp:67] Creating Layer drop6
I1107 05:10:50.717521 16180 net.cpp:394] drop6 <- fc6
I1107 05:10:50.717530 16180 net.cpp:345] drop6 -> fc6 (in-place)
I1107 05:10:50.717538 16180 net.cpp:96] Setting up drop6
I1107 05:10:50.717545 16180 net.cpp:103] Top shape: 8 4096 1 1 (32768)
I1107 05:10:50.717563 16180 net.cpp:67] Creating Layer fc7
I1107 05:10:50.717571 16180 net.cpp:394] fc7 <- fc6
I1107 05:10:50.717579 16180 net.cpp:356] fc7 -> fc7
I1107 05:10:50.717589 16180 net.cpp:96] Setting up fc7
I1107 05:10:51.580073 16180 net.cpp:103] Top shape: 8 4096 1 1 (32768)
I1107 05:10:51.580126 16180 net.cpp:67] Creating Layer relu7
I1107 05:10:51.580135 16180 net.cpp:394] relu7 <- fc7
I1107 05:10:51.580147 16180 net.cpp:345] relu7 -> fc7 (in-place)
I1107 05:10:51.580157 16180 net.cpp:96] Setting up relu7
I1107 05:10:51.580178 16180 net.cpp:103] Top shape: 8 4096 1 1 (32768)
I1107 05:10:51.580188 16180 net.cpp:67] Creating Layer drop7
I1107 05:10:51.580193 16180 net.cpp:394] drop7 <- fc7
I1107 05:10:51.580204 16180 net.cpp:345] drop7 -> fc7 (in-place)
I1107 05:10:51.580212 16180 net.cpp:96] Setting up drop7
I1107 05:10:51.580229 16180 net.cpp:103] Top shape: 8 4096 1 1 (32768)
I1107 05:10:51.580240 16180 net.cpp:67] Creating Layer fc8_scrape
I1107 05:10:51.580245 16180 net.cpp:394] fc8_scrape <- fc7
I1107 05:10:51.580255 16180 net.cpp:356] fc8_scrape -> fc8_scrape
I1107 05:10:51.580270 16180 net.cpp:96] Setting up fc8_scrape
I1107 05:10:51.580709 16180 net.cpp:103] Top shape: 8 2 1 1 (16)
I1107 05:10:51.580741 16180 net.cpp:67] Creating Layer fc8_scrape_fc8_scrape_0_split
I1107 05:10:51.580749 16180 net.cpp:394] fc8_scrape_fc8_scrape_0_split <- fc8_scrape
I1107 05:10:51.580760 16180 net.cpp:356] fc8_scrape_fc8_scrape_0_split -> fc8_scrape_fc8_scrape_0_split_0
I1107 05:10:51.580770 16180 net.cpp:356] fc8_scrape_fc8_scrape_0_split -> fc8_scrape_fc8_scrape_0_split_1
I1107 05:10:51.580780 16180 net.cpp:96] Setting up fc8_scrape_fc8_scrape_0_split
I1107 05:10:51.580788 16180 net.cpp:103] Top shape: 8 2 1 1 (16)
I1107 05:10:51.580793 16180 net.cpp:103] Top shape: 8 2 1 1 (16)
I1107 05:10:51.580804 16180 net.cpp:67] Creating Layer loss
I1107 05:10:51.580811 16180 net.cpp:394] loss <- fc8_scrape_fc8_scrape_0_split_0
I1107 05:10:51.580817 16180 net.cpp:394] loss <- label_data_1_split_0
I1107 05:10:51.580826 16180 net.cpp:356] loss -> (automatic)
I1107 05:10:51.580833 16180 net.cpp:96] Setting up loss
I1107 05:10:51.580843 16180 net.cpp:103] Top shape: 1 1 1 1 (1)
I1107 05:10:51.580849 16180 net.cpp:109]     with loss weight 1
I1107 05:10:51.580876 16180 net.cpp:67] Creating Layer accuracy
I1107 05:10:51.580883 16180 net.cpp:394] accuracy <- fc8_scrape_fc8_scrape_0_split_1
I1107 05:10:51.580889 16180 net.cpp:394] accuracy <- label_data_1_split_1
I1107 05:10:51.580898 16180 net.cpp:356] accuracy -> accuracy
I1107 05:10:51.580907 16180 net.cpp:96] Setting up accuracy
I1107 05:10:51.580920 16180 net.cpp:103] Top shape: 1 1 1 4 (4)
I1107 05:10:51.580926 16180 net.cpp:172] accuracy does not need backward computation.
I1107 05:10:51.580932 16180 net.cpp:170] loss needs backward computation.
I1107 05:10:51.580939 16180 net.cpp:170] fc8_scrape_fc8_scrape_0_split needs backward computation.
I1107 05:10:51.580943 16180 net.cpp:170] fc8_scrape needs backward computation.
I1107 05:10:51.580950 16180 net.cpp:170] drop7 needs backward computation.
…
