…
I1028 02:08:52.849355 29701 net.cpp:275] The NetState phase (0) differed from the phase (1) specified by a rule in layer data
I1028 02:08:52.849397 29701 net.cpp:275] The NetState phase (0) differed from the phase (1) specified by a rule in layer accuracy
I1028 02:08:52.849695 29701 net.cpp:39] Initializing net from parameters: 
name: "ClampCaffeNet"
layers {
  top: "data"
  top: "label"
  name: "data"
  type: IMAGE_DATA
  image_data_param {
    source: "data/unsuit/train.txt"
    batch_size: 128
    new_height: 256
    new_width: 256
  }
  include {
    phase: TRAIN
  }
  transform_param {
    mirror: true
    crop_size: 227
    mean_file: "/homes/ad6813/data/controlpoint_mean_256-227.binaryproto"
  }
}
layers {
  bottom: "data"
  top: "conv1"
  name: "conv1"
  type: CONVOLUTION
  blobs_lr: 1
  blobs_lr: 2
  weight_decay: 1
  weight_decay: 0
  convolution_param {
    num_output: 96
    kernel_size: 11
    stride: 4
    weight_filler {
      type: "gaussian"
      std: 0.01
    }
    bias_filler {
      type: "constant"
      value: 0
    }
  }
}
layers {
  bottom: "conv1"
  top: "conv1"
  name: "relu1"
  type: RELU
}
layers {
  bottom: "conv1"
  top: "pool1"
  name: "pool1"
  type: POOLING
  pooling_param {
    pool: MAX
    kernel_size: 3
    stride: 2
  }
}
layers {
  bottom: "pool1"
  top: "norm1"
  name: "norm1"
  type: LRN
  lrn_param {
    local_size: 5
    alpha: 0.0001
    beta: 0.75
  }
}
layers {
  bottom: "norm1"
  top: "conv2"
  name: "conv2"
  type: CONVOLUTION
  blobs_lr: 1
  blobs_lr: 2
  weight_decay: 1
  weight_decay: 0
  convolution_param {
    num_output: 256
    pad: 2
    kernel_size: 5
    group: 2
    weight_filler {
      type: "gaussian"
      std: 0.01
    }
    bias_filler {
      type: "constant"
      value: 1
    }
  }
}
layers {
  bottom: "conv2"
  top: "conv2"
  name: "relu2"
  type: RELU
}
layers {
  bottom: "conv2"
  top: "pool2"
  name: "pool2"
  type: POOLING
  pooling_param {
    pool: MAX
    kernel_size: 3
    stride: 2
  }
}
layers {
  bottom: "pool2"
  top: "norm2"
  name: "norm2"
  type: LRN
  lrn_param {
    local_size: 5
    alpha: 0.0001
    beta: 0.75
  }
}
layers {
  bottom: "norm2"
  top: "conv3"
  name: "conv3"
  type: CONVOLUTION
  blobs_lr: 1
  blobs_lr: 2
  weight_decay: 1
  weight_decay: 0
  convolution_param {
    num_output: 384
    pad: 1
    kernel_size: 3
    weight_filler {
      type: "gaussian"
      std: 0.01
    }
    bias_filler {
      type: "constant"
      value: 0
    }
  }
}
layers {
  bottom: "conv3"
  top: "conv3"
  name: "relu3"
  type: RELU
}
layers {
  bottom: "conv3"
  top: "conv4"
  name: "conv4"
  type: CONVOLUTION
  blobs_lr: 1
  blobs_lr: 2
  weight_decay: 1
  weight_decay: 0
  convolution_param {
    num_output: 384
    pad: 1
    kernel_size: 3
    group: 2
    weight_filler {
      type: "gaussian"
      std: 0.01
    }
    bias_filler {
      type: "constant"
      value: 1
    }
  }
}
layers {
  bottom: "conv4"
  top: "conv4"
  name: "relu4"
  type: RELU
}
layers {
  bottom: "conv4"
  top: "conv5"
  name: "conv5"
  type: CONVOLUTION
  blobs_lr: 1
  blobs_lr: 2
  weight_decay: 1
  weight_decay: 0
  convolution_param {
    num_output: 256
    pad: 1
    kernel_size: 3
    group: 2
    weight_filler {
      type: "gaussian"
      std: 0.01
    }
    bias_filler {
      type: "constant"
      value: 1
    }
  }
}
layers {
  bottom: "conv5"
  top: "conv5"
  name: "relu5"
  type: RELU
}
layers {
  bottom: "conv5"
  top: "pool5"
  name: "pool5"
  type: POOLING
  pooling_param {
    pool: MAX
    kernel_size: 3
    stride: 2
  }
}
layers {
  bottom: "pool5"
  top: "fc6"
  name: "fc6"
  type: INNER_PRODUCT
  blobs_lr: 1
  blobs_lr: 2
  weight_decay: 1
  weight_decay: 0
  inner_product_param {
    num_output: 4096
    weight_filler {
      type: "gaussian"
      std: 0.005
    }
    bias_filler {
      type: "constant"
      value: 1
    }
  }
}
layers {
  bottom: "fc6"
  top: "fc6"
  name: "relu6"
  type: RELU
}
layers {
  bottom: "fc6"
  top: "fc6"
  name: "drop6"
  type: DROPOUT
  dropout_param {
    dropout_ratio: 0.5
  }
}
layers {
  bottom: "fc6"
  top: "fc7"
  name: "fc7"
  type: INNER_PRODUCT
  blobs_lr: 1
  blobs_lr: 2
  weight_decay: 1
  weight_decay: 0
  inner_product_param {
    num_output: 4096
    weight_filler {
      type: "gaussian"
      std: 0.005
    }
    bias_filler {
      type: "constant"
      value: 1
    }
  }
}
layers {
  bottom: "fc7"
  top: "fc7"
  name: "relu7"
  type: RELU
}
layers {
  bottom: "fc7"
  top: "fc7"
  name: "drop7"
  type: DROPOUT
  dropout_param {
    dropout_ratio: 0.5
  }
}
layers {
  bottom: "fc7"
  top: "fc8_unsuit"
  name: "fc8_unsuit"
  type: INNER_PRODUCT
  blobs_lr: 1
  blobs_lr: 2
  weight_decay: 1
  weight_decay: 0
  inner_product_param {
    num_output: 2
    weight_filler {
      type: "gaussian"
      std: 0.01
    }
    bias_filler {
      type: "constant"
      value: 0
    }
  }
}
layers {
  bottom: "fc8_unsuit"
  bottom: "label"
  name: "loss"
  type: SOFTMAX_LOSS
}
state {
  phase: TRAIN
}
I1028 02:08:52.849858 29701 net.cpp:67] Creating Layer data
I1028 02:08:52.849874 29701 net.cpp:356] data -> data
I1028 02:08:52.849897 29701 net.cpp:356] data -> label
I1028 02:08:52.849917 29701 net.cpp:96] Setting up data
I1028 02:08:52.849927 29701 image_data_layer.cpp:30] Opening file data/unsuit/train.txt
I1028 02:08:52.855084 29701 image_data_layer.cpp:45] A total of 7809 images.
I1028 02:08:52.863526 29701 image_data_layer.cpp:73] output data size: 128,3,227,227
I1028 02:08:52.863579 29701 base_data_layer.cpp:36] Loading mean file from/homes/ad6813/data/controlpoint_mean_256-227.binaryproto
I1028 02:08:52.891674 29701 net.cpp:103] Top shape: 128 3 227 227 (19787136)
I1028 02:08:52.891710 29701 net.cpp:103] Top shape: 128 1 1 1 (128)
I1028 02:08:52.891736 29701 net.cpp:67] Creating Layer conv1
I1028 02:08:52.891743 29701 net.cpp:394] conv1 <- data
I1028 02:08:52.891762 29701 net.cpp:356] conv1 -> conv1
I1028 02:08:52.891782 29701 net.cpp:96] Setting up conv1
I1028 02:08:52.893848 29701 net.cpp:103] Top shape: 128 96 55 55 (37171200)
I1028 02:08:52.893888 29701 net.cpp:67] Creating Layer relu1
I1028 02:08:52.893896 29701 net.cpp:394] relu1 <- conv1
I1028 02:08:52.893905 29701 net.cpp:345] relu1 -> conv1 (in-place)
I1028 02:08:52.893914 29701 net.cpp:96] Setting up relu1
I1028 02:08:52.893921 29701 net.cpp:103] Top shape: 128 96 55 55 (37171200)
I1028 02:08:52.893931 29701 net.cpp:67] Creating Layer pool1
I1028 02:08:52.893937 29701 net.cpp:394] pool1 <- conv1
I1028 02:08:52.893945 29701 net.cpp:356] pool1 -> pool1
I1028 02:08:52.893954 29701 net.cpp:96] Setting up pool1
I1028 02:08:52.893970 29701 net.cpp:103] Top shape: 128 96 27 27 (8957952)
I1028 02:08:52.893980 29701 net.cpp:67] Creating Layer norm1
I1028 02:08:52.893985 29701 net.cpp:394] norm1 <- pool1
I1028 02:08:52.893993 29701 net.cpp:356] norm1 -> norm1
I1028 02:08:52.894002 29701 net.cpp:96] Setting up norm1
I1028 02:08:52.894029 29701 net.cpp:103] Top shape: 128 96 27 27 (8957952)
I1028 02:08:52.894042 29701 net.cpp:67] Creating Layer conv2
I1028 02:08:52.894047 29701 net.cpp:394] conv2 <- norm1
I1028 02:08:52.894057 29701 net.cpp:356] conv2 -> conv2
I1028 02:08:52.894067 29701 net.cpp:96] Setting up conv2
I1028 02:08:52.908746 29701 net.cpp:103] Top shape: 128 256 27 27 (23887872)
I1028 02:08:52.908778 29701 net.cpp:67] Creating Layer relu2
I1028 02:08:52.908785 29701 net.cpp:394] relu2 <- conv2
I1028 02:08:52.908794 29701 net.cpp:345] relu2 -> conv2 (in-place)
I1028 02:08:52.908803 29701 net.cpp:96] Setting up relu2
I1028 02:08:52.908809 29701 net.cpp:103] Top shape: 128 256 27 27 (23887872)
I1028 02:08:52.908818 29701 net.cpp:67] Creating Layer pool2
I1028 02:08:52.908836 29701 net.cpp:394] pool2 <- conv2
I1028 02:08:52.908844 29701 net.cpp:356] pool2 -> pool2
I1028 02:08:52.908854 29701 net.cpp:96] Setting up pool2
I1028 02:08:52.908861 29701 net.cpp:103] Top shape: 128 256 13 13 (5537792)
I1028 02:08:52.908871 29701 net.cpp:67] Creating Layer norm2
I1028 02:08:52.908876 29701 net.cpp:394] norm2 <- pool2
I1028 02:08:52.908885 29701 net.cpp:356] norm2 -> norm2
I1028 02:08:52.908892 29701 net.cpp:96] Setting up norm2
I1028 02:08:52.908898 29701 net.cpp:103] Top shape: 128 256 13 13 (5537792)
I1028 02:08:52.908908 29701 net.cpp:67] Creating Layer conv3
I1028 02:08:52.908915 29701 net.cpp:394] conv3 <- norm2
I1028 02:08:52.908921 29701 net.cpp:356] conv3 -> conv3
I1028 02:08:52.908931 29701 net.cpp:96] Setting up conv3
I1028 02:08:52.951764 29701 net.cpp:103] Top shape: 128 384 13 13 (8306688)
I1028 02:08:52.951812 29701 net.cpp:67] Creating Layer relu3
I1028 02:08:52.951820 29701 net.cpp:394] relu3 <- conv3
I1028 02:08:52.951829 29701 net.cpp:345] relu3 -> conv3 (in-place)
I1028 02:08:52.951840 29701 net.cpp:96] Setting up relu3
I1028 02:08:52.951846 29701 net.cpp:103] Top shape: 128 384 13 13 (8306688)
I1028 02:08:52.951856 29701 net.cpp:67] Creating Layer conv4
I1028 02:08:52.951861 29701 net.cpp:394] conv4 <- conv3
I1028 02:08:52.951869 29701 net.cpp:356] conv4 -> conv4
I1028 02:08:52.951879 29701 net.cpp:96] Setting up conv4
I1028 02:08:52.984138 29701 net.cpp:103] Top shape: 128 384 13 13 (8306688)
I1028 02:08:52.984181 29701 net.cpp:67] Creating Layer relu4
I1028 02:08:52.984189 29701 net.cpp:394] relu4 <- conv4
I1028 02:08:52.984200 29701 net.cpp:345] relu4 -> conv4 (in-place)
I1028 02:08:52.984210 29701 net.cpp:96] Setting up relu4
I1028 02:08:52.984215 29701 net.cpp:103] Top shape: 128 384 13 13 (8306688)
I1028 02:08:52.984225 29701 net.cpp:67] Creating Layer conv5
I1028 02:08:52.984230 29701 net.cpp:394] conv5 <- conv4
I1028 02:08:52.984240 29701 net.cpp:356] conv5 -> conv5
I1028 02:08:52.984249 29701 net.cpp:96] Setting up conv5
I1028 02:08:53.005590 29701 net.cpp:103] Top shape: 128 256 13 13 (5537792)
I1028 02:08:53.005630 29701 net.cpp:67] Creating Layer relu5
I1028 02:08:53.005638 29701 net.cpp:394] relu5 <- conv5
I1028 02:08:53.005646 29701 net.cpp:345] relu5 -> conv5 (in-place)
I1028 02:08:53.005656 29701 net.cpp:96] Setting up relu5
I1028 02:08:53.005661 29701 net.cpp:103] Top shape: 128 256 13 13 (5537792)
I1028 02:08:53.005674 29701 net.cpp:67] Creating Layer pool5
I1028 02:08:53.005681 29701 net.cpp:394] pool5 <- conv5
I1028 02:08:53.005688 29701 net.cpp:356] pool5 -> pool5
I1028 02:08:53.005697 29701 net.cpp:96] Setting up pool5
I1028 02:08:53.005705 29701 net.cpp:103] Top shape: 128 256 6 6 (1179648)
I1028 02:08:53.005719 29701 net.cpp:67] Creating Layer fc6
I1028 02:08:53.005725 29701 net.cpp:394] fc6 <- pool5
I1028 02:08:53.005733 29701 net.cpp:356] fc6 -> fc6
I1028 02:08:53.005743 29701 net.cpp:96] Setting up fc6
I1028 02:08:54.822171 29701 net.cpp:103] Top shape: 128 4096 1 1 (524288)
I1028 02:08:54.822219 29701 net.cpp:67] Creating Layer relu6
I1028 02:08:54.822228 29701 net.cpp:394] relu6 <- fc6
I1028 02:08:54.822238 29701 net.cpp:345] relu6 -> fc6 (in-place)
I1028 02:08:54.822252 29701 net.cpp:96] Setting up relu6
I1028 02:08:54.822257 29701 net.cpp:103] Top shape: 128 4096 1 1 (524288)
I1028 02:08:54.822266 29701 net.cpp:67] Creating Layer drop6
I1028 02:08:54.822271 29701 net.cpp:394] drop6 <- fc6
I1028 02:08:54.822278 29701 net.cpp:345] drop6 -> fc6 (in-place)
I1028 02:08:54.822286 29701 net.cpp:96] Setting up drop6
I1028 02:08:54.822298 29701 net.cpp:103] Top shape: 128 4096 1 1 (524288)
I1028 02:08:54.822306 29701 net.cpp:67] Creating Layer fc7
I1028 02:08:54.822311 29701 net.cpp:394] fc7 <- fc6
I1028 02:08:54.822322 29701 net.cpp:356] fc7 -> fc7
I1028 02:08:54.822334 29701 net.cpp:96] Setting up fc7
I1028 02:08:55.628044 29701 net.cpp:103] Top shape: 128 4096 1 1 (524288)
I1028 02:08:55.628098 29701 net.cpp:67] Creating Layer relu7
I1028 02:08:55.628106 29701 net.cpp:394] relu7 <- fc7
I1028 02:08:55.628116 29701 net.cpp:345] relu7 -> fc7 (in-place)
I1028 02:08:55.628141 29701 net.cpp:96] Setting up relu7
I1028 02:08:55.628149 29701 net.cpp:103] Top shape: 128 4096 1 1 (524288)
I1028 02:08:55.628156 29701 net.cpp:67] Creating Layer drop7
I1028 02:08:55.628161 29701 net.cpp:394] drop7 <- fc7
I1028 02:08:55.628168 29701 net.cpp:345] drop7 -> fc7 (in-place)
I1028 02:08:55.628176 29701 net.cpp:96] Setting up drop7
I1028 02:08:55.628182 29701 net.cpp:103] Top shape: 128 4096 1 1 (524288)
I1028 02:08:55.628195 29701 net.cpp:67] Creating Layer fc8_unsuit
I1028 02:08:55.628201 29701 net.cpp:394] fc8_unsuit <- fc7
I1028 02:08:55.628208 29701 net.cpp:356] fc8_unsuit -> fc8_unsuit
I1028 02:08:55.628217 29701 net.cpp:96] Setting up fc8_unsuit
I1028 02:08:55.628648 29701 net.cpp:103] Top shape: 128 2 1 1 (256)
I1028 02:08:55.628669 29701 net.cpp:67] Creating Layer loss
I1028 02:08:55.628676 29701 net.cpp:394] loss <- fc8_unsuit
I1028 02:08:55.628684 29701 net.cpp:394] loss <- label
I1028 02:08:55.628691 29701 net.cpp:356] loss -> (automatic)
I1028 02:08:55.628700 29701 net.cpp:96] Setting up loss
I1028 02:08:55.628716 29701 net.cpp:103] Top shape: 1 1 1 1 (1)
I1028 02:08:55.628722 29701 net.cpp:109]     with loss weight 1
I1028 02:08:55.628764 29701 net.cpp:170] loss needs backward computation.
I1028 02:08:55.628772 29701 net.cpp:170] fc8_unsuit needs backward computation.
I1028 02:08:55.628777 29701 net.cpp:170] drop7 needs backward computation.
I1028 02:08:55.628782 29701 net.cpp:170] relu7 needs backward computation.
I1028 02:08:55.628785 29701 net.cpp:170] fc7 needs backward computation.
…
I1028 02:08:55.630105 29701 solver.cpp:151] Creating test net (#0) specified by net file: task/unsuit/train_val.prototxt
I1028 02:08:55.630173 29701 net.cpp:275] The NetState phase (1) differed from the phase (0) specified by a rule in layer data
I1028 02:08:55.630494 29701 net.cpp:39] Initializing net from parameters: 
name: "ClampCaffeNet"
layers {
  top: "data"
  top: "label"
  name: "data"
  type: IMAGE_DATA
  image_data_param {
    source: "data/unsuit/val.txt"
    batch_size: 103
    new_height: 256
    new_width: 256
  }
  include {
    phase: TEST
  }
  transform_param {
    mirror: false
    crop_size: 227
    mean_file: "/homes/ad6813/data/controlpoint_mean_256-227.binaryproto"
  }
}
layers {
  bottom: "data"
  top: "conv1"
  name: "conv1"
  type: CONVOLUTION
  blobs_lr: 1
  blobs_lr: 2
  weight_decay: 1
  weight_decay: 0
  convolution_param {
    num_output: 96
    kernel_size: 11
    stride: 4
    weight_filler {
      type: "gaussian"
      std: 0.01
    }
    bias_filler {
      type: "constant"
      value: 0
    }
  }
}
layers {
  bottom: "conv1"
  top: "conv1"
  name: "relu1"
  type: RELU
}
layers {
  bottom: "conv1"
  top: "pool1"
  name: "pool1"
  type: POOLING
  pooling_param {
    pool: MAX
    kernel_size: 3
    stride: 2
  }
}
layers {
  bottom: "pool1"
  top: "norm1"
  name: "norm1"
  type: LRN
  lrn_param {
    local_size: 5
    alpha: 0.0001
    beta: 0.75
  }
}
layers {
  bottom: "norm1"
  top: "conv2"
  name: "conv2"
  type: CONVOLUTION
  blobs_lr: 1
  blobs_lr: 2
  weight_decay: 1
  weight_decay: 0
  convolution_param {
    num_output: 256
    pad: 2
    kernel_size: 5
    group: 2
    weight_filler {
      type: "gaussian"
      std: 0.01
    }
    bias_filler {
      type: "constant"
      value: 1
    }
  }
}
layers {
  bottom: "conv2"
  top: "conv2"
  name: "relu2"
  type: RELU
}
layers {
  bottom: "conv2"
  top: "pool2"
  name: "pool2"
  type: POOLING
  pooling_param {
    pool: MAX
    kernel_size: 3
    stride: 2
  }
}
layers {
  bottom: "pool2"
  top: "norm2"
  name: "norm2"
  type: LRN
  lrn_param {
    local_size: 5
    alpha: 0.0001
    beta: 0.75
  }
}
layers {
  bottom: "norm2"
  top: "conv3"
  name: "conv3"
  type: CONVOLUTION
  blobs_lr: 1
  blobs_lr: 2
  weight_decay: 1
  weight_decay: 0
  convolution_param {
    num_output: 384
    pad: 1
    kernel_size: 3
    weight_filler {
      type: "gaussian"
      std: 0.01
    }
    bias_filler {
      type: "constant"
      value: 0
    }
  }
}
layers {
  bottom: "conv3"
  top: "conv3"
  name: "relu3"
  type: RELU
}
layers {
  bottom: "conv3"
  top: "conv4"
  name: "conv4"
  type: CONVOLUTION
  blobs_lr: 1
  blobs_lr: 2
  weight_decay: 1
  weight_decay: 0
  convolution_param {
    num_output: 384
    pad: 1
    kernel_size: 3
    group: 2
    weight_filler {
      type: "gaussian"
      std: 0.01
    }
    bias_filler {
      type: "constant"
      value: 1
    }
  }
}
layers {
  bottom: "conv4"
  top: "conv4"
  name: "relu4"
  type: RELU
}
layers {
  bottom: "conv4"
  top: "conv5"
  name: "conv5"
  type: CONVOLUTION
  blobs_lr: 1
  blobs_lr: 2
  weight_decay: 1
  weight_decay: 0
  convolution_param {
    num_output: 256
    pad: 1
    kernel_size: 3
    group: 2
    weight_filler {
      type: "gaussian"
      std: 0.01
    }
    bias_filler {
      type: "constant"
      value: 1
    }
  }
}
layers {
  bottom: "conv5"
  top: "conv5"
  name: "relu5"
  type: RELU
}
layers {
  bottom: "conv5"
  top: "pool5"
  name: "pool5"
  type: POOLING
  pooling_param {
    pool: MAX
    kernel_size: 3
    stride: 2
  }
}
layers {
  bottom: "pool5"
  top: "fc6"
  name: "fc6"
  type: INNER_PRODUCT
  blobs_lr: 1
  blobs_lr: 2
  weight_decay: 1
  weight_decay: 0
  inner_product_param {
    num_output: 4096
    weight_filler {
      type: "gaussian"
      std: 0.005
    }
    bias_filler {
      type: "constant"
      value: 1
    }
  }
}
layers {
  bottom: "fc6"
  top: "fc6"
  name: "relu6"
  type: RELU
}
layers {
  bottom: "fc6"
  top: "fc6"
  name: "drop6"
  type: DROPOUT
  dropout_param {
    dropout_ratio: 0.5
  }
}
layers {
  bottom: "fc6"
  top: "fc7"
  name: "fc7"
  type: INNER_PRODUCT
  blobs_lr: 1
  blobs_lr: 2
  weight_decay: 1
  weight_decay: 0
  inner_product_param {
    num_output: 4096
    weight_filler {
      type: "gaussian"
      std: 0.005
    }
    bias_filler {
      type: "constant"
      value: 1
    }
  }
}
layers {
  bottom: "fc7"
  top: "fc7"
  name: "relu7"
  type: RELU
}
layers {
  bottom: "fc7"
  top: "fc7"
  name: "drop7"
  type: DROPOUT
  dropout_param {
    dropout_ratio: 0.5
  }
}
layers {
  bottom: "fc7"
  top: "fc8_unsuit"
  name: "fc8_unsuit"
  type: INNER_PRODUCT
  blobs_lr: 1
  blobs_lr: 2
  weight_decay: 1
  weight_decay: 0
  inner_product_param {
    num_output: 2
    weight_filler {
      type: "gaussian"
      std: 0.01
    }
    bias_filler {
      type: "constant"
      value: 0
    }
  }
}
layers {
  bottom: "fc8_unsuit"
  bottom: "label"
  name: "loss"
  type: SOFTMAX_LOSS
}
layers {
  bottom: "fc8_unsuit"
  bottom: "label"
  top: "accuracy"
  name: "accuracy"
  type: ACCURACY
  include {
    phase: TEST
  }
}
state {
  phase: TEST
}
I1028 02:08:55.630682 29701 net.cpp:67] Creating Layer data
I1028 02:08:55.630694 29701 net.cpp:356] data -> data
I1028 02:08:55.630707 29701 net.cpp:356] data -> label
I1028 02:08:55.630718 29701 net.cpp:96] Setting up data
I1028 02:08:55.630724 29701 image_data_layer.cpp:30] Opening file data/unsuit/val.txt
I1028 02:08:55.631034 29701 image_data_layer.cpp:45] A total of 412 images.
I1028 02:08:55.634413 29701 image_data_layer.cpp:73] output data size: 103,3,227,227
I1028 02:08:55.634440 29701 base_data_layer.cpp:36] Loading mean file from/homes/ad6813/data/controlpoint_mean_256-227.binaryproto
I1028 02:08:55.653769 29701 net.cpp:103] Top shape: 103 3 227 227 (15922461)
I1028 02:08:55.653802 29701 net.cpp:103] Top shape: 103 1 1 1 (103)
I1028 02:08:55.653820 29701 net.cpp:67] Creating Layer label_data_1_split
I1028 02:08:55.653828 29701 net.cpp:394] label_data_1_split <- label
I1028 02:08:55.653838 29701 net.cpp:356] label_data_1_split -> label_data_1_split_0
I1028 02:08:55.653854 29701 net.cpp:356] label_data_1_split -> label_data_1_split_1
I1028 02:08:55.653863 29701 net.cpp:96] Setting up label_data_1_split
I1028 02:08:55.653877 29701 net.cpp:103] Top shape: 103 1 1 1 (103)
I1028 02:08:55.653882 29701 net.cpp:103] Top shape: 103 1 1 1 (103)
I1028 02:08:55.653895 29701 net.cpp:67] Creating Layer conv1
I1028 02:08:55.653900 29701 net.cpp:394] conv1 <- data
I1028 02:08:55.653910 29701 net.cpp:356] conv1 -> conv1
I1028 02:08:55.653923 29701 net.cpp:96] Setting up conv1
I1028 02:08:55.655652 29701 net.cpp:103] Top shape: 103 96 55 55 (29911200)
I1028 02:08:55.655681 29701 net.cpp:67] Creating Layer relu1
I1028 02:08:55.655689 29701 net.cpp:394] relu1 <- conv1
I1028 02:08:55.655695 29701 net.cpp:345] relu1 -> conv1 (in-place)
I1028 02:08:55.655704 29701 net.cpp:96] Setting up relu1
I1028 02:08:55.655709 29701 net.cpp:103] Top shape: 103 96 55 55 (29911200)
I1028 02:08:55.655719 29701 net.cpp:67] Creating Layer pool1
I1028 02:08:55.655724 29701 net.cpp:394] pool1 <- conv1
I1028 02:08:55.655731 29701 net.cpp:356] pool1 -> pool1
I1028 02:08:55.655740 29701 net.cpp:96] Setting up pool1
I1028 02:08:55.655748 29701 net.cpp:103] Top shape: 103 96 27 27 (7208352)
I1028 02:08:55.655756 29701 net.cpp:67] Creating Layer norm1
I1028 02:08:55.655761 29701 net.cpp:394] norm1 <- pool1
I1028 02:08:55.655769 29701 net.cpp:356] norm1 -> norm1
I1028 02:08:55.655777 29701 net.cpp:96] Setting up norm1
I1028 02:08:55.655783 29701 net.cpp:103] Top shape: 103 96 27 27 (7208352)
I1028 02:08:55.655793 29701 net.cpp:67] Creating Layer conv2
I1028 02:08:55.655798 29701 net.cpp:394] conv2 <- norm1
I1028 02:08:55.655807 29701 net.cpp:356] conv2 -> conv2
I1028 02:08:55.655815 29701 net.cpp:96] Setting up conv2
I1028 02:08:55.670573 29701 net.cpp:103] Top shape: 103 256 27 27 (19222272)
I1028 02:08:55.670608 29701 net.cpp:67] Creating Layer relu2
I1028 02:08:55.670614 29701 net.cpp:394] relu2 <- conv2
I1028 02:08:55.670622 29701 net.cpp:345] relu2 -> conv2 (in-place)
I1028 02:08:55.670631 29701 net.cpp:96] Setting up relu2
I1028 02:08:55.670637 29701 net.cpp:103] Top shape: 103 256 27 27 (19222272)
I1028 02:08:55.670646 29701 net.cpp:67] Creating Layer pool2
I1028 02:08:55.670651 29701 net.cpp:394] pool2 <- conv2
I1028 02:08:55.670662 29701 net.cpp:356] pool2 -> pool2
I1028 02:08:55.670672 29701 net.cpp:96] Setting up pool2
I1028 02:08:55.670681 29701 net.cpp:103] Top shape: 103 256 13 13 (4456192)
I1028 02:08:55.670691 29701 net.cpp:67] Creating Layer norm2
I1028 02:08:55.670697 29701 net.cpp:394] norm2 <- pool2
I1028 02:08:55.670704 29701 net.cpp:356] norm2 -> norm2
I1028 02:08:55.670713 29701 net.cpp:96] Setting up norm2
I1028 02:08:55.670719 29701 net.cpp:103] Top shape: 103 256 13 13 (4456192)
I1028 02:08:55.670728 29701 net.cpp:67] Creating Layer conv3
I1028 02:08:55.670733 29701 net.cpp:394] conv3 <- norm2
I1028 02:08:55.670744 29701 net.cpp:356] conv3 -> conv3
I1028 02:08:55.670766 29701 net.cpp:96] Setting up conv3
I1028 02:08:55.713404 29701 net.cpp:103] Top shape: 103 384 13 13 (6684288)
I1028 02:08:55.713459 29701 net.cpp:67] Creating Layer relu3
I1028 02:08:55.713466 29701 net.cpp:394] relu3 <- conv3
I1028 02:08:55.713476 29701 net.cpp:345] relu3 -> conv3 (in-place)
I1028 02:08:55.713486 29701 net.cpp:96] Setting up relu3
I1028 02:08:55.713492 29701 net.cpp:103] Top shape: 103 384 13 13 (6684288)
I1028 02:08:55.713506 29701 net.cpp:67] Creating Layer conv4
I1028 02:08:55.713511 29701 net.cpp:394] conv4 <- conv3
I1028 02:08:55.713521 29701 net.cpp:356] conv4 -> conv4
I1028 02:08:55.713529 29701 net.cpp:96] Setting up conv4
I1028 02:08:55.745869 29701 net.cpp:103] Top shape: 103 384 13 13 (6684288)
I1028 02:08:55.745914 29701 net.cpp:67] Creating Layer relu4
I1028 02:08:55.745923 29701 net.cpp:394] relu4 <- conv4
I1028 02:08:55.745932 29701 net.cpp:345] relu4 -> conv4 (in-place)
I1028 02:08:55.745942 29701 net.cpp:96] Setting up relu4
I1028 02:08:55.745949 29701 net.cpp:103] Top shape: 103 384 13 13 (6684288)
I1028 02:08:55.745959 29701 net.cpp:67] Creating Layer conv5
I1028 02:08:55.745965 29701 net.cpp:394] conv5 <- conv4
I1028 02:08:55.745981 29701 net.cpp:356] conv5 -> conv5
I1028 02:08:55.745992 29701 net.cpp:96] Setting up conv5
I1028 02:08:55.767511 29701 net.cpp:103] Top shape: 103 256 13 13 (4456192)
I1028 02:08:55.767556 29701 net.cpp:67] Creating Layer relu5
I1028 02:08:55.767565 29701 net.cpp:394] relu5 <- conv5
I1028 02:08:55.767575 29701 net.cpp:345] relu5 -> conv5 (in-place)
I1028 02:08:55.767583 29701 net.cpp:96] Setting up relu5
I1028 02:08:55.767590 29701 net.cpp:103] Top shape: 103 256 13 13 (4456192)
I1028 02:08:55.767601 29701 net.cpp:67] Creating Layer pool5
I1028 02:08:55.767607 29701 net.cpp:394] pool5 <- conv5
I1028 02:08:55.767616 29701 net.cpp:356] pool5 -> pool5
I1028 02:08:55.767624 29701 net.cpp:96] Setting up pool5
I1028 02:08:55.767632 29701 net.cpp:103] Top shape: 103 256 6 6 (949248)
I1028 02:08:55.767642 29701 net.cpp:67] Creating Layer fc6
I1028 02:08:55.767647 29701 net.cpp:394] fc6 <- pool5
I1028 02:08:55.767657 29701 net.cpp:356] fc6 -> fc6
I1028 02:08:55.767668 29701 net.cpp:96] Setting up fc6
I1028 02:08:57.568682 29701 net.cpp:103] Top shape: 103 4096 1 1 (421888)
I1028 02:08:57.568734 29701 net.cpp:67] Creating Layer relu6
I1028 02:08:57.568744 29701 net.cpp:394] relu6 <- fc6
I1028 02:08:57.568754 29701 net.cpp:345] relu6 -> fc6 (in-place)
I1028 02:08:57.568765 29701 net.cpp:96] Setting up relu6
I1028 02:08:57.568771 29701 net.cpp:103] Top shape: 103 4096 1 1 (421888)
I1028 02:08:57.568781 29701 net.cpp:67] Creating Layer drop6
I1028 02:08:57.568786 29701 net.cpp:394] drop6 <- fc6
I1028 02:08:57.568794 29701 net.cpp:345] drop6 -> fc6 (in-place)
I1028 02:08:57.568802 29701 net.cpp:96] Setting up drop6
I1028 02:08:57.568809 29701 net.cpp:103] Top shape: 103 4096 1 1 (421888)
I1028 02:08:57.568820 29701 net.cpp:67] Creating Layer fc7
I1028 02:08:57.568825 29701 net.cpp:394] fc7 <- fc6
I1028 02:08:57.568835 29701 net.cpp:356] fc7 -> fc7
I1028 02:08:57.568845 29701 net.cpp:96] Setting up fc7
I1028 02:08:58.367975 29701 net.cpp:103] Top shape: 103 4096 1 1 (421888)
I1028 02:08:58.368027 29701 net.cpp:67] Creating Layer relu7
I1028 02:08:58.368036 29701 net.cpp:394] relu7 <- fc7
I1028 02:08:58.368046 29701 net.cpp:345] relu7 -> fc7 (in-place)
I1028 02:08:58.368055 29701 net.cpp:96] Setting up relu7
I1028 02:08:58.368062 29701 net.cpp:103] Top shape: 103 4096 1 1 (421888)
I1028 02:08:58.368072 29701 net.cpp:67] Creating Layer drop7
I1028 02:08:58.368078 29701 net.cpp:394] drop7 <- fc7
I1028 02:08:58.368085 29701 net.cpp:345] drop7 -> fc7 (in-place)
I1028 02:08:58.368093 29701 net.cpp:96] Setting up drop7
I1028 02:08:58.368100 29701 net.cpp:103] Top shape: 103 4096 1 1 (421888)
I1028 02:08:58.368109 29701 net.cpp:67] Creating Layer fc8_unsuit
I1028 02:08:58.368115 29701 net.cpp:394] fc8_unsuit <- fc7
I1028 02:08:58.368125 29701 net.cpp:356] fc8_unsuit -> fc8_unsuit
I1028 02:08:58.368139 29701 net.cpp:96] Setting up fc8_unsuit
I1028 02:08:58.368589 29701 net.cpp:103] Top shape: 103 2 1 1 (206)
I1028 02:08:58.368612 29701 net.cpp:67] Creating Layer fc8_unsuit_fc8_unsuit_0_split
I1028 02:08:58.368619 29701 net.cpp:394] fc8_unsuit_fc8_unsuit_0_split <- fc8_unsuit
I1028 02:08:58.368628 29701 net.cpp:356] fc8_unsuit_fc8_unsuit_0_split -> fc8_unsuit_fc8_unsuit_0_split_0
I1028 02:08:58.368638 29701 net.cpp:356] fc8_unsuit_fc8_unsuit_0_split -> fc8_unsuit_fc8_unsuit_0_split_1
I1028 02:08:58.368646 29701 net.cpp:96] Setting up fc8_unsuit_fc8_unsuit_0_split
I1028 02:08:58.368654 29701 net.cpp:103] Top shape: 103 2 1 1 (206)
I1028 02:08:58.368659 29701 net.cpp:103] Top shape: 103 2 1 1 (206)
I1028 02:08:58.368669 29701 net.cpp:67] Creating Layer loss
I1028 02:08:58.368674 29701 net.cpp:394] loss <- fc8_unsuit_fc8_unsuit_0_split_0
I1028 02:08:58.368680 29701 net.cpp:394] loss <- label_data_1_split_0
I1028 02:08:58.368688 29701 net.cpp:356] loss -> (automatic)
I1028 02:08:58.368695 29701 net.cpp:96] Setting up loss
I1028 02:08:58.368705 29701 net.cpp:103] Top shape: 1 1 1 1 (1)
I1028 02:08:58.368710 29701 net.cpp:109]     with loss weight 1
I1028 02:08:58.368737 29701 net.cpp:67] Creating Layer accuracy
I1028 02:08:58.368743 29701 net.cpp:394] accuracy <- fc8_unsuit_fc8_unsuit_0_split_1
I1028 02:08:58.368749 29701 net.cpp:394] accuracy <- label_data_1_split_1
I1028 02:08:58.368759 29701 net.cpp:356] accuracy -> accuracy
I1028 02:08:58.368768 29701 net.cpp:96] Setting up accuracy
I1028 02:08:58.368783 29701 net.cpp:103] Top shape: 1 1 1 4 (4)
I1028 02:08:58.368789 29701 net.cpp:172] accuracy does not need backward computation.
I1028 02:08:58.368794 29701 net.cpp:170] loss needs backward computation.
I1028 02:08:58.368800 29701 net.cpp:170] fc8_unsuit_fc8_unsuit_0_split needs backward computation.
I1028 02:08:58.368805 29701 net.cpp:170] fc8_unsuit needs backward computation.
I1028 02:08:58.368810 29701 net.cpp:170] drop7 needs backward computation.
…
