…
I1110 02:32:06.600245 27490 net.cpp:275] The NetState phase (0) differed from the phase (1) specified by a rule in layer data
I1110 02:32:06.600291 27490 net.cpp:275] The NetState phase (0) differed from the phase (1) specified by a rule in layer accuracy
I1110 02:32:06.600574 27490 net.cpp:39] Initializing net from parameters: 
name: "ClampCaffeNet"
layers {
  top: "data"
  top: "label"
  name: "data"
  type: IMAGE_DATA
  image_data_param {
    source: "data/scrape_o/train.txt"
    batch_size: 128
    new_height: 256
    new_width: 256
  }
  include {
    phase: TRAIN
  }
  transform_param {
    mirror: true
    crop_size: 227
    mean_file: "/homes/ad6813/data/controlpoint_mean_256-227.binaryproto"
  }
}
layers {
  bottom: "data"
  top: "conv1"
  name: "conv1"
  type: CONVOLUTION
  blobs_lr: 1
  blobs_lr: 2
  weight_decay: 1
  weight_decay: 0
  convolution_param {
    num_output: 96
    kernel_size: 11
    stride: 4
    weight_filler {
      type: "gaussian"
      std: 0.01
    }
    bias_filler {
      type: "constant"
      value: 0
    }
  }
}
layers {
  bottom: "conv1"
  top: "conv1"
  name: "relu1"
  type: RELU
}
layers {
  bottom: "conv1"
  top: "pool1"
  name: "pool1"
  type: POOLING
  pooling_param {
    pool: MAX
    kernel_size: 3
    stride: 2
  }
}
layers {
  bottom: "pool1"
  top: "norm1"
  name: "norm1"
  type: LRN
  lrn_param {
    local_size: 5
    alpha: 0.0001
    beta: 0.75
  }
}
layers {
  bottom: "norm1"
  top: "conv2"
  name: "conv2"
  type: CONVOLUTION
  blobs_lr: 1
  blobs_lr: 2
  weight_decay: 1
  weight_decay: 0
  convolution_param {
    num_output: 256
    pad: 2
    kernel_size: 5
    group: 2
    weight_filler {
      type: "gaussian"
      std: 0.01
    }
    bias_filler {
      type: "constant"
      value: 1
    }
  }
}
layers {
  bottom: "conv2"
  top: "conv2"
  name: "relu2"
  type: RELU
}
layers {
  bottom: "conv2"
  top: "pool2"
  name: "pool2"
  type: POOLING
  pooling_param {
    pool: MAX
    kernel_size: 3
    stride: 2
  }
}
layers {
  bottom: "pool2"
  top: "norm2"
  name: "norm2"
  type: LRN
  lrn_param {
    local_size: 5
    alpha: 0.0001
    beta: 0.75
  }
}
layers {
  bottom: "norm2"
  top: "conv3"
  name: "conv3"
  type: CONVOLUTION
  blobs_lr: 1
  blobs_lr: 2
  weight_decay: 1
  weight_decay: 0
  convolution_param {
    num_output: 384
    pad: 1
    kernel_size: 3
    weight_filler {
      type: "gaussian"
      std: 0.01
    }
    bias_filler {
      type: "constant"
      value: 0
    }
  }
}
layers {
  bottom: "conv3"
  top: "conv3"
  name: "relu3"
  type: RELU
}
layers {
  bottom: "conv3"
  top: "conv4"
  name: "conv4"
  type: CONVOLUTION
  blobs_lr: 1
  blobs_lr: 2
  weight_decay: 1
  weight_decay: 0
  convolution_param {
    num_output: 384
    pad: 1
    kernel_size: 3
    group: 2
    weight_filler {
      type: "gaussian"
      std: 0.01
    }
    bias_filler {
      type: "constant"
      value: 1
    }
  }
}
layers {
  bottom: "conv4"
  top: "conv4"
  name: "relu4"
  type: RELU
}
layers {
  bottom: "conv4"
  top: "conv5"
  name: "conv5"
  type: CONVOLUTION
  blobs_lr: 1
  blobs_lr: 2
  weight_decay: 1
  weight_decay: 0
  convolution_param {
    num_output: 256
    pad: 1
    kernel_size: 3
    group: 2
    weight_filler {
      type: "gaussian"
      std: 0.01
    }
    bias_filler {
      type: "constant"
      value: 1
    }
  }
}
layers {
  bottom: "conv5"
  top: "conv5"
  name: "relu5"
  type: RELU
}
layers {
  bottom: "conv5"
  top: "pool5"
  name: "pool5"
  type: POOLING
  pooling_param {
    pool: MAX
    kernel_size: 3
    stride: 2
  }
}
layers {
  bottom: "pool5"
  top: "fc6"
  name: "fc6"
  type: INNER_PRODUCT
  blobs_lr: 1
  blobs_lr: 2
  weight_decay: 1
  weight_decay: 0
  inner_product_param {
    num_output: 4096
    weight_filler {
      type: "gaussian"
      std: 0.005
    }
    bias_filler {
      type: "constant"
      value: 1
    }
  }
}
layers {
  bottom: "fc6"
  top: "fc6"
  name: "relu6"
  type: RELU
}
layers {
  bottom: "fc6"
  top: "fc6"
  name: "drop6"
  type: DROPOUT
  dropout_param {
    dropout_ratio: 0.5
  }
}
layers {
  bottom: "fc6"
  top: "fc7"
  name: "fc7"
  type: INNER_PRODUCT
  blobs_lr: 1
  blobs_lr: 2
  weight_decay: 1
  weight_decay: 0
  inner_product_param {
    num_output: 4096
    weight_filler {
      type: "gaussian"
      std: 0.005
    }
    bias_filler {
      type: "constant"
      value: 1
    }
  }
}
layers {
  bottom: "fc7"
  top: "fc7"
  name: "relu7"
  type: RELU
}
layers {
  bottom: "fc7"
  top: "fc7"
  name: "drop7"
  type: DROPOUT
  dropout_param {
    dropout_ratio: 0.5
  }
}
layers {
  bottom: "fc7"
  top: "fc8_clamp"
  name: "fc8_clamp"
  type: INNER_PRODUCT
  blobs_lr: 1
  blobs_lr: 2
  weight_decay: 1
  weight_decay: 0
  inner_product_param {
    num_output: 2
    weight_filler {
      type: "gaussian"
      std: 0.01
    }
    bias_filler {
      type: "constant"
      value: 0
    }
  }
}
layers {
  bottom: "fc8_clamp"
  bottom: "label"
  name: "loss"
  type: SOFTMAX_LOSS
}
state {
  phase: TRAIN
}
I1110 02:32:06.600731 27490 net.cpp:67] Creating Layer data
I1110 02:32:06.600749 27490 net.cpp:356] data -> data
I1110 02:32:06.600771 27490 net.cpp:356] data -> label
I1110 02:32:06.600791 27490 net.cpp:96] Setting up data
I1110 02:32:06.600803 27490 image_data_layer.cpp:30] Opening file data/scrape_o/train.txt
I1110 02:32:06.757943 27490 image_data_layer.cpp:45] A total of 230287 images.
I1110 02:32:06.780041 27490 image_data_layer.cpp:73] output data size: 128,3,227,227
I1110 02:32:06.780102 27490 base_data_layer.cpp:36] Loading mean file from/homes/ad6813/data/controlpoint_mean_256-227.binaryproto
I1110 02:32:06.808851 27490 net.cpp:103] Top shape: 128 3 227 227 (19787136)
I1110 02:32:06.808889 27490 net.cpp:103] Top shape: 128 1 1 1 (128)
I1110 02:32:06.808915 27490 net.cpp:67] Creating Layer conv1
I1110 02:32:06.808923 27490 net.cpp:394] conv1 <- data
I1110 02:32:06.808941 27490 net.cpp:356] conv1 -> conv1
I1110 02:32:06.808960 27490 net.cpp:96] Setting up conv1
I1110 02:32:06.810751 27490 net.cpp:103] Top shape: 128 96 55 55 (37171200)
I1110 02:32:06.810786 27490 net.cpp:67] Creating Layer relu1
I1110 02:32:06.810794 27490 net.cpp:394] relu1 <- conv1
I1110 02:32:06.810803 27490 net.cpp:345] relu1 -> conv1 (in-place)
I1110 02:32:06.810812 27490 net.cpp:96] Setting up relu1
I1110 02:32:06.810819 27490 net.cpp:103] Top shape: 128 96 55 55 (37171200)
I1110 02:32:06.810830 27490 net.cpp:67] Creating Layer pool1
I1110 02:32:06.810835 27490 net.cpp:394] pool1 <- conv1
I1110 02:32:06.810843 27490 net.cpp:356] pool1 -> pool1
I1110 02:32:06.810853 27490 net.cpp:96] Setting up pool1
I1110 02:32:06.810868 27490 net.cpp:103] Top shape: 128 96 27 27 (8957952)
I1110 02:32:06.810879 27490 net.cpp:67] Creating Layer norm1
I1110 02:32:06.810885 27490 net.cpp:394] norm1 <- pool1
I1110 02:32:06.810894 27490 net.cpp:356] norm1 -> norm1
I1110 02:32:06.810902 27490 net.cpp:96] Setting up norm1
I1110 02:32:06.810914 27490 net.cpp:103] Top shape: 128 96 27 27 (8957952)
I1110 02:32:06.810925 27490 net.cpp:67] Creating Layer conv2
I1110 02:32:06.810930 27490 net.cpp:394] conv2 <- norm1
I1110 02:32:06.810940 27490 net.cpp:356] conv2 -> conv2
I1110 02:32:06.810950 27490 net.cpp:96] Setting up conv2
I1110 02:32:06.825630 27490 net.cpp:103] Top shape: 128 256 27 27 (23887872)
I1110 02:32:06.825672 27490 net.cpp:67] Creating Layer relu2
I1110 02:32:06.825680 27490 net.cpp:394] relu2 <- conv2
I1110 02:32:06.825690 27490 net.cpp:345] relu2 -> conv2 (in-place)
I1110 02:32:06.825698 27490 net.cpp:96] Setting up relu2
I1110 02:32:06.825705 27490 net.cpp:103] Top shape: 128 256 27 27 (23887872)
I1110 02:32:06.825713 27490 net.cpp:67] Creating Layer pool2
I1110 02:32:06.825736 27490 net.cpp:394] pool2 <- conv2
I1110 02:32:06.825744 27490 net.cpp:356] pool2 -> pool2
I1110 02:32:06.825753 27490 net.cpp:96] Setting up pool2
I1110 02:32:06.825762 27490 net.cpp:103] Top shape: 128 256 13 13 (5537792)
I1110 02:32:06.825773 27490 net.cpp:67] Creating Layer norm2
I1110 02:32:06.825778 27490 net.cpp:394] norm2 <- pool2
I1110 02:32:06.825786 27490 net.cpp:356] norm2 -> norm2
I1110 02:32:06.825795 27490 net.cpp:96] Setting up norm2
I1110 02:32:06.825801 27490 net.cpp:103] Top shape: 128 256 13 13 (5537792)
I1110 02:32:06.825813 27490 net.cpp:67] Creating Layer conv3
I1110 02:32:06.825819 27490 net.cpp:394] conv3 <- norm2
I1110 02:32:06.825827 27490 net.cpp:356] conv3 -> conv3
I1110 02:32:06.825837 27490 net.cpp:96] Setting up conv3
I1110 02:32:06.868463 27490 net.cpp:103] Top shape: 128 384 13 13 (8306688)
I1110 02:32:06.868513 27490 net.cpp:67] Creating Layer relu3
I1110 02:32:06.868521 27490 net.cpp:394] relu3 <- conv3
I1110 02:32:06.868531 27490 net.cpp:345] relu3 -> conv3 (in-place)
I1110 02:32:06.868541 27490 net.cpp:96] Setting up relu3
I1110 02:32:06.868548 27490 net.cpp:103] Top shape: 128 384 13 13 (8306688)
I1110 02:32:06.868559 27490 net.cpp:67] Creating Layer conv4
I1110 02:32:06.868566 27490 net.cpp:394] conv4 <- conv3
I1110 02:32:06.868582 27490 net.cpp:356] conv4 -> conv4
I1110 02:32:06.868593 27490 net.cpp:96] Setting up conv4
I1110 02:32:06.900923 27490 net.cpp:103] Top shape: 128 384 13 13 (8306688)
I1110 02:32:06.900966 27490 net.cpp:67] Creating Layer relu4
I1110 02:32:06.900974 27490 net.cpp:394] relu4 <- conv4
I1110 02:32:06.900985 27490 net.cpp:345] relu4 -> conv4 (in-place)
I1110 02:32:06.900995 27490 net.cpp:96] Setting up relu4
I1110 02:32:06.901000 27490 net.cpp:103] Top shape: 128 384 13 13 (8306688)
I1110 02:32:06.901011 27490 net.cpp:67] Creating Layer conv5
I1110 02:32:06.901017 27490 net.cpp:394] conv5 <- conv4
I1110 02:32:06.901026 27490 net.cpp:356] conv5 -> conv5
I1110 02:32:06.901034 27490 net.cpp:96] Setting up conv5
I1110 02:32:06.922595 27490 net.cpp:103] Top shape: 128 256 13 13 (5537792)
I1110 02:32:06.922633 27490 net.cpp:67] Creating Layer relu5
I1110 02:32:06.922641 27490 net.cpp:394] relu5 <- conv5
I1110 02:32:06.922649 27490 net.cpp:345] relu5 -> conv5 (in-place)
I1110 02:32:06.922659 27490 net.cpp:96] Setting up relu5
I1110 02:32:06.922664 27490 net.cpp:103] Top shape: 128 256 13 13 (5537792)
I1110 02:32:06.922673 27490 net.cpp:67] Creating Layer pool5
I1110 02:32:06.922678 27490 net.cpp:394] pool5 <- conv5
I1110 02:32:06.922687 27490 net.cpp:356] pool5 -> pool5
I1110 02:32:06.922695 27490 net.cpp:96] Setting up pool5
I1110 02:32:06.922703 27490 net.cpp:103] Top shape: 128 256 6 6 (1179648)
I1110 02:32:06.922718 27490 net.cpp:67] Creating Layer fc6
I1110 02:32:06.922729 27490 net.cpp:394] fc6 <- pool5
I1110 02:32:06.922737 27490 net.cpp:356] fc6 -> fc6
I1110 02:32:06.922747 27490 net.cpp:96] Setting up fc6
I1110 02:32:08.728484 27490 net.cpp:103] Top shape: 128 4096 1 1 (524288)
I1110 02:32:08.728538 27490 net.cpp:67] Creating Layer relu6
I1110 02:32:08.728546 27490 net.cpp:394] relu6 <- fc6
I1110 02:32:08.728557 27490 net.cpp:345] relu6 -> fc6 (in-place)
I1110 02:32:08.728567 27490 net.cpp:96] Setting up relu6
I1110 02:32:08.728574 27490 net.cpp:103] Top shape: 128 4096 1 1 (524288)
I1110 02:32:08.728582 27490 net.cpp:67] Creating Layer drop6
I1110 02:32:08.728587 27490 net.cpp:394] drop6 <- fc6
I1110 02:32:08.728595 27490 net.cpp:345] drop6 -> fc6 (in-place)
I1110 02:32:08.728602 27490 net.cpp:96] Setting up drop6
I1110 02:32:08.728611 27490 net.cpp:103] Top shape: 128 4096 1 1 (524288)
I1110 02:32:08.728621 27490 net.cpp:67] Creating Layer fc7
I1110 02:32:08.728627 27490 net.cpp:394] fc7 <- fc6
I1110 02:32:08.728636 27490 net.cpp:356] fc7 -> fc7
I1110 02:32:08.728646 27490 net.cpp:96] Setting up fc7
I1110 02:32:09.529278 27490 net.cpp:103] Top shape: 128 4096 1 1 (524288)
I1110 02:32:09.529326 27490 net.cpp:67] Creating Layer relu7
I1110 02:32:09.529335 27490 net.cpp:394] relu7 <- fc7
I1110 02:32:09.529346 27490 net.cpp:345] relu7 -> fc7 (in-place)
I1110 02:32:09.529369 27490 net.cpp:96] Setting up relu7
I1110 02:32:09.529376 27490 net.cpp:103] Top shape: 128 4096 1 1 (524288)
I1110 02:32:09.529386 27490 net.cpp:67] Creating Layer drop7
I1110 02:32:09.529392 27490 net.cpp:394] drop7 <- fc7
I1110 02:32:09.529398 27490 net.cpp:345] drop7 -> fc7 (in-place)
I1110 02:32:09.529407 27490 net.cpp:96] Setting up drop7
I1110 02:32:09.529412 27490 net.cpp:103] Top shape: 128 4096 1 1 (524288)
I1110 02:32:09.529422 27490 net.cpp:67] Creating Layer fc8_clamp
I1110 02:32:09.529428 27490 net.cpp:394] fc8_clamp <- fc7
I1110 02:32:09.529436 27490 net.cpp:356] fc8_clamp -> fc8_clamp
I1110 02:32:09.529446 27490 net.cpp:96] Setting up fc8_clamp
I1110 02:32:09.529861 27490 net.cpp:103] Top shape: 128 2 1 1 (256)
I1110 02:32:09.529881 27490 net.cpp:67] Creating Layer loss
I1110 02:32:09.529888 27490 net.cpp:394] loss <- fc8_clamp
I1110 02:32:09.529896 27490 net.cpp:394] loss <- label
I1110 02:32:09.529903 27490 net.cpp:356] loss -> (automatic)
I1110 02:32:09.529911 27490 net.cpp:96] Setting up loss
I1110 02:32:09.529927 27490 net.cpp:103] Top shape: 1 1 1 1 (1)
I1110 02:32:09.529933 27490 net.cpp:109]     with loss weight 1
I1110 02:32:09.529974 27490 net.cpp:170] loss needs backward computation.
I1110 02:32:09.529981 27490 net.cpp:170] fc8_clamp needs backward computation.
I1110 02:32:09.529986 27490 net.cpp:170] drop7 needs backward computation.
I1110 02:32:09.529991 27490 net.cpp:170] relu7 needs backward computation.
I1110 02:32:09.529995 27490 net.cpp:170] fc7 needs backward computation.
…
I1110 02:32:09.531365 27490 solver.cpp:151] Creating test net (#0) specified by net file: task/scrape_o/train_val.prototxt
I1110 02:32:09.531427 27490 net.cpp:275] The NetState phase (1) differed from the phase (0) specified by a rule in layer data
I1110 02:32:09.531731 27490 net.cpp:39] Initializing net from parameters: 
name: "ClampCaffeNet"
layers {
  top: "data"
  top: "label"
  name: "data"
  type: IMAGE_DATA
  image_data_param {
    source: "data/scrape_o/val.txt"
    batch_size: 100
    new_height: 256
    new_width: 256
  }
  include {
    phase: TEST
  }
  transform_param {
    mirror: true
    crop_size: 227
    mean_file: "/homes/ad6813/data/controlpoint_mean_256-227.binaryproto"
  }
}
layers {
  bottom: "data"
  top: "conv1"
  name: "conv1"
  type: CONVOLUTION
  blobs_lr: 1
  blobs_lr: 2
  weight_decay: 1
  weight_decay: 0
  convolution_param {
    num_output: 96
    kernel_size: 11
    stride: 4
    weight_filler {
      type: "gaussian"
      std: 0.01
    }
    bias_filler {
      type: "constant"
      value: 0
    }
  }
}
layers {
  bottom: "conv1"
  top: "conv1"
  name: "relu1"
  type: RELU
}
layers {
  bottom: "conv1"
  top: "pool1"
  name: "pool1"
  type: POOLING
  pooling_param {
    pool: MAX
    kernel_size: 3
    stride: 2
  }
}
layers {
  bottom: "pool1"
  top: "norm1"
  name: "norm1"
  type: LRN
  lrn_param {
    local_size: 5
    alpha: 0.0001
    beta: 0.75
  }
}
layers {
  bottom: "norm1"
  top: "conv2"
  name: "conv2"
  type: CONVOLUTION
  blobs_lr: 1
  blobs_lr: 2
  weight_decay: 1
  weight_decay: 0
  convolution_param {
    num_output: 256
    pad: 2
    kernel_size: 5
    group: 2
    weight_filler {
      type: "gaussian"
      std: 0.01
    }
    bias_filler {
      type: "constant"
      value: 1
    }
  }
}
layers {
  bottom: "conv2"
  top: "conv2"
  name: "relu2"
  type: RELU
}
layers {
  bottom: "conv2"
  top: "pool2"
  name: "pool2"
  type: POOLING
  pooling_param {
    pool: MAX
    kernel_size: 3
    stride: 2
  }
}
layers {
  bottom: "pool2"
  top: "norm2"
  name: "norm2"
  type: LRN
  lrn_param {
    local_size: 5
    alpha: 0.0001
    beta: 0.75
  }
}
layers {
  bottom: "norm2"
  top: "conv3"
  name: "conv3"
  type: CONVOLUTION
  blobs_lr: 1
  blobs_lr: 2
  weight_decay: 1
  weight_decay: 0
  convolution_param {
    num_output: 384
    pad: 1
    kernel_size: 3
    weight_filler {
      type: "gaussian"
      std: 0.01
    }
    bias_filler {
      type: "constant"
      value: 0
    }
  }
}
layers {
  bottom: "conv3"
  top: "conv3"
  name: "relu3"
  type: RELU
}
layers {
  bottom: "conv3"
  top: "conv4"
  name: "conv4"
  type: CONVOLUTION
  blobs_lr: 1
  blobs_lr: 2
  weight_decay: 1
  weight_decay: 0
  convolution_param {
    num_output: 384
    pad: 1
    kernel_size: 3
    group: 2
    weight_filler {
      type: "gaussian"
      std: 0.01
    }
    bias_filler {
      type: "constant"
      value: 1
    }
  }
}
layers {
  bottom: "conv4"
  top: "conv4"
  name: "relu4"
  type: RELU
}
layers {
  bottom: "conv4"
  top: "conv5"
  name: "conv5"
  type: CONVOLUTION
  blobs_lr: 1
  blobs_lr: 2
  weight_decay: 1
  weight_decay: 0
  convolution_param {
    num_output: 256
    pad: 1
    kernel_size: 3
    group: 2
    weight_filler {
      type: "gaussian"
      std: 0.01
    }
    bias_filler {
      type: "constant"
      value: 1
    }
  }
}
layers {
  bottom: "conv5"
  top: "conv5"
  name: "relu5"
  type: RELU
}
layers {
  bottom: "conv5"
  top: "pool5"
  name: "pool5"
  type: POOLING
  pooling_param {
    pool: MAX
    kernel_size: 3
    stride: 2
  }
}
layers {
  bottom: "pool5"
  top: "fc6"
  name: "fc6"
  type: INNER_PRODUCT
  blobs_lr: 1
  blobs_lr: 2
  weight_decay: 1
  weight_decay: 0
  inner_product_param {
    num_output: 4096
    weight_filler {
      type: "gaussian"
      std: 0.005
    }
    bias_filler {
      type: "constant"
      value: 1
    }
  }
}
layers {
  bottom: "fc6"
  top: "fc6"
  name: "relu6"
  type: RELU
}
layers {
  bottom: "fc6"
  top: "fc6"
  name: "drop6"
  type: DROPOUT
  dropout_param {
    dropout_ratio: 0.5
  }
}
layers {
  bottom: "fc6"
  top: "fc7"
  name: "fc7"
  type: INNER_PRODUCT
  blobs_lr: 1
  blobs_lr: 2
  weight_decay: 1
  weight_decay: 0
  inner_product_param {
    num_output: 4096
    weight_filler {
      type: "gaussian"
      std: 0.005
    }
    bias_filler {
      type: "constant"
      value: 1
    }
  }
}
layers {
  bottom: "fc7"
  top: "fc7"
  name: "relu7"
  type: RELU
}
layers {
  bottom: "fc7"
  top: "fc7"
  name: "drop7"
  type: DROPOUT
  dropout_param {
    dropout_ratio: 0.5
  }
}
layers {
  bottom: "fc7"
  top: "fc8_clamp"
  name: "fc8_clamp"
  type: INNER_PRODUCT
  blobs_lr: 1
  blobs_lr: 2
  weight_decay: 1
  weight_decay: 0
  inner_product_param {
    num_output: 2
    weight_filler {
      type: "gaussian"
      std: 0.01
    }
    bias_filler {
      type: "constant"
      value: 0
    }
  }
}
layers {
  bottom: "fc8_clamp"
  bottom: "label"
  name: "loss"
  type: SOFTMAX_LOSS
}
layers {
  bottom: "fc8_clamp"
  bottom: "label"
  top: "accuracy"
  name: "accuracy"
  type: PER_CLASS_ACCURACY
  include {
    phase: TEST
  }
}
state {
  phase: TEST
}
I1110 02:32:09.531916 27490 net.cpp:67] Creating Layer data
I1110 02:32:09.531929 27490 net.cpp:356] data -> data
I1110 02:32:09.531941 27490 net.cpp:356] data -> label
I1110 02:32:09.531952 27490 net.cpp:96] Setting up data
I1110 02:32:09.531958 27490 image_data_layer.cpp:30] Opening file data/scrape_o/val.txt
I1110 02:32:09.532624 27490 image_data_layer.cpp:45] A total of 800 images.
I1110 02:32:09.548530 27490 image_data_layer.cpp:73] output data size: 100,3,227,227
I1110 02:32:09.548560 27490 base_data_layer.cpp:36] Loading mean file from/homes/ad6813/data/controlpoint_mean_256-227.binaryproto
I1110 02:32:09.567363 27490 net.cpp:103] Top shape: 100 3 227 227 (15458700)
I1110 02:32:09.567400 27490 net.cpp:103] Top shape: 100 1 1 1 (100)
I1110 02:32:09.567420 27490 net.cpp:67] Creating Layer label_data_1_split
I1110 02:32:09.567427 27490 net.cpp:394] label_data_1_split <- label
I1110 02:32:09.567438 27490 net.cpp:356] label_data_1_split -> label_data_1_split_0
I1110 02:32:09.567453 27490 net.cpp:356] label_data_1_split -> label_data_1_split_1
I1110 02:32:09.567462 27490 net.cpp:96] Setting up label_data_1_split
I1110 02:32:09.567476 27490 net.cpp:103] Top shape: 100 1 1 1 (100)
I1110 02:32:09.567482 27490 net.cpp:103] Top shape: 100 1 1 1 (100)
I1110 02:32:09.567495 27490 net.cpp:67] Creating Layer conv1
I1110 02:32:09.567502 27490 net.cpp:394] conv1 <- data
I1110 02:32:09.567510 27490 net.cpp:356] conv1 -> conv1
I1110 02:32:09.567523 27490 net.cpp:96] Setting up conv1
I1110 02:32:09.569252 27490 net.cpp:103] Top shape: 100 96 55 55 (29040000)
I1110 02:32:09.569282 27490 net.cpp:67] Creating Layer relu1
I1110 02:32:09.569288 27490 net.cpp:394] relu1 <- conv1
I1110 02:32:09.569295 27490 net.cpp:345] relu1 -> conv1 (in-place)
I1110 02:32:09.569303 27490 net.cpp:96] Setting up relu1
I1110 02:32:09.569309 27490 net.cpp:103] Top shape: 100 96 55 55 (29040000)
I1110 02:32:09.569319 27490 net.cpp:67] Creating Layer pool1
I1110 02:32:09.569324 27490 net.cpp:394] pool1 <- conv1
I1110 02:32:09.569332 27490 net.cpp:356] pool1 -> pool1
I1110 02:32:09.569341 27490 net.cpp:96] Setting up pool1
I1110 02:32:09.569350 27490 net.cpp:103] Top shape: 100 96 27 27 (6998400)
I1110 02:32:09.569357 27490 net.cpp:67] Creating Layer norm1
I1110 02:32:09.569363 27490 net.cpp:394] norm1 <- pool1
I1110 02:32:09.569370 27490 net.cpp:356] norm1 -> norm1
I1110 02:32:09.569378 27490 net.cpp:96] Setting up norm1
I1110 02:32:09.569386 27490 net.cpp:103] Top shape: 100 96 27 27 (6998400)
I1110 02:32:09.569396 27490 net.cpp:67] Creating Layer conv2
I1110 02:32:09.569401 27490 net.cpp:394] conv2 <- norm1
I1110 02:32:09.569409 27490 net.cpp:356] conv2 -> conv2
I1110 02:32:09.569418 27490 net.cpp:96] Setting up conv2
I1110 02:32:09.584115 27490 net.cpp:103] Top shape: 100 256 27 27 (18662400)
I1110 02:32:09.584158 27490 net.cpp:67] Creating Layer relu2
I1110 02:32:09.584166 27490 net.cpp:394] relu2 <- conv2
I1110 02:32:09.584175 27490 net.cpp:345] relu2 -> conv2 (in-place)
I1110 02:32:09.584185 27490 net.cpp:96] Setting up relu2
I1110 02:32:09.584192 27490 net.cpp:103] Top shape: 100 256 27 27 (18662400)
I1110 02:32:09.584203 27490 net.cpp:67] Creating Layer pool2
I1110 02:32:09.584209 27490 net.cpp:394] pool2 <- conv2
I1110 02:32:09.584216 27490 net.cpp:356] pool2 -> pool2
I1110 02:32:09.584228 27490 net.cpp:96] Setting up pool2
I1110 02:32:09.584235 27490 net.cpp:103] Top shape: 100 256 13 13 (4326400)
I1110 02:32:09.584244 27490 net.cpp:67] Creating Layer norm2
I1110 02:32:09.584250 27490 net.cpp:394] norm2 <- pool2
I1110 02:32:09.584257 27490 net.cpp:356] norm2 -> norm2
I1110 02:32:09.584265 27490 net.cpp:96] Setting up norm2
I1110 02:32:09.584272 27490 net.cpp:103] Top shape: 100 256 13 13 (4326400)
I1110 02:32:09.584282 27490 net.cpp:67] Creating Layer conv3
I1110 02:32:09.584288 27490 net.cpp:394] conv3 <- norm2
I1110 02:32:09.584296 27490 net.cpp:356] conv3 -> conv3
I1110 02:32:09.584318 27490 net.cpp:96] Setting up conv3
I1110 02:32:09.626875 27490 net.cpp:103] Top shape: 100 384 13 13 (6489600)
I1110 02:32:09.626927 27490 net.cpp:67] Creating Layer relu3
I1110 02:32:09.626935 27490 net.cpp:394] relu3 <- conv3
I1110 02:32:09.626945 27490 net.cpp:345] relu3 -> conv3 (in-place)
I1110 02:32:09.626955 27490 net.cpp:96] Setting up relu3
I1110 02:32:09.626960 27490 net.cpp:103] Top shape: 100 384 13 13 (6489600)
I1110 02:32:09.626974 27490 net.cpp:67] Creating Layer conv4
I1110 02:32:09.626981 27490 net.cpp:394] conv4 <- conv3
I1110 02:32:09.626989 27490 net.cpp:356] conv4 -> conv4
I1110 02:32:09.626999 27490 net.cpp:96] Setting up conv4
I1110 02:32:09.659314 27490 net.cpp:103] Top shape: 100 384 13 13 (6489600)
I1110 02:32:09.659356 27490 net.cpp:67] Creating Layer relu4
I1110 02:32:09.659364 27490 net.cpp:394] relu4 <- conv4
I1110 02:32:09.659373 27490 net.cpp:345] relu4 -> conv4 (in-place)
I1110 02:32:09.659382 27490 net.cpp:96] Setting up relu4
I1110 02:32:09.659389 27490 net.cpp:103] Top shape: 100 384 13 13 (6489600)
I1110 02:32:09.659401 27490 net.cpp:67] Creating Layer conv5
I1110 02:32:09.659407 27490 net.cpp:394] conv5 <- conv4
I1110 02:32:09.659416 27490 net.cpp:356] conv5 -> conv5
I1110 02:32:09.659425 27490 net.cpp:96] Setting up conv5
I1110 02:32:09.681004 27490 net.cpp:103] Top shape: 100 256 13 13 (4326400)
I1110 02:32:09.681057 27490 net.cpp:67] Creating Layer relu5
I1110 02:32:09.681066 27490 net.cpp:394] relu5 <- conv5
I1110 02:32:09.681077 27490 net.cpp:345] relu5 -> conv5 (in-place)
I1110 02:32:09.681085 27490 net.cpp:96] Setting up relu5
I1110 02:32:09.681092 27490 net.cpp:103] Top shape: 100 256 13 13 (4326400)
I1110 02:32:09.681105 27490 net.cpp:67] Creating Layer pool5
I1110 02:32:09.681112 27490 net.cpp:394] pool5 <- conv5
I1110 02:32:09.681120 27490 net.cpp:356] pool5 -> pool5
I1110 02:32:09.681129 27490 net.cpp:96] Setting up pool5
I1110 02:32:09.681138 27490 net.cpp:103] Top shape: 100 256 6 6 (921600)
I1110 02:32:09.681146 27490 net.cpp:67] Creating Layer fc6
I1110 02:32:09.681154 27490 net.cpp:394] fc6 <- pool5
I1110 02:32:09.681164 27490 net.cpp:356] fc6 -> fc6
I1110 02:32:09.681172 27490 net.cpp:96] Setting up fc6
I1110 02:32:11.486923 27490 net.cpp:103] Top shape: 100 4096 1 1 (409600)
I1110 02:32:11.486976 27490 net.cpp:67] Creating Layer relu6
I1110 02:32:11.486986 27490 net.cpp:394] relu6 <- fc6
I1110 02:32:11.486996 27490 net.cpp:345] relu6 -> fc6 (in-place)
I1110 02:32:11.487007 27490 net.cpp:96] Setting up relu6
I1110 02:32:11.487013 27490 net.cpp:103] Top shape: 100 4096 1 1 (409600)
I1110 02:32:11.487021 27490 net.cpp:67] Creating Layer drop6
I1110 02:32:11.487028 27490 net.cpp:394] drop6 <- fc6
I1110 02:32:11.487038 27490 net.cpp:345] drop6 -> fc6 (in-place)
I1110 02:32:11.487046 27490 net.cpp:96] Setting up drop6
I1110 02:32:11.487053 27490 net.cpp:103] Top shape: 100 4096 1 1 (409600)
I1110 02:32:11.487063 27490 net.cpp:67] Creating Layer fc7
I1110 02:32:11.487068 27490 net.cpp:394] fc7 <- fc6
I1110 02:32:11.487077 27490 net.cpp:356] fc7 -> fc7
I1110 02:32:11.487087 27490 net.cpp:96] Setting up fc7
I1110 02:32:12.287049 27490 net.cpp:103] Top shape: 100 4096 1 1 (409600)
I1110 02:32:12.287096 27490 net.cpp:67] Creating Layer relu7
I1110 02:32:12.287106 27490 net.cpp:394] relu7 <- fc7
I1110 02:32:12.287117 27490 net.cpp:345] relu7 -> fc7 (in-place)
I1110 02:32:12.287128 27490 net.cpp:96] Setting up relu7
I1110 02:32:12.287134 27490 net.cpp:103] Top shape: 100 4096 1 1 (409600)
I1110 02:32:12.287143 27490 net.cpp:67] Creating Layer drop7
I1110 02:32:12.287148 27490 net.cpp:394] drop7 <- fc7
I1110 02:32:12.287155 27490 net.cpp:345] drop7 -> fc7 (in-place)
I1110 02:32:12.287163 27490 net.cpp:96] Setting up drop7
I1110 02:32:12.287169 27490 net.cpp:103] Top shape: 100 4096 1 1 (409600)
I1110 02:32:12.287179 27490 net.cpp:67] Creating Layer fc8_clamp
I1110 02:32:12.287185 27490 net.cpp:394] fc8_clamp <- fc7
I1110 02:32:12.287196 27490 net.cpp:356] fc8_clamp -> fc8_clamp
I1110 02:32:12.287217 27490 net.cpp:96] Setting up fc8_clamp
I1110 02:32:12.287652 27490 net.cpp:103] Top shape: 100 2 1 1 (200)
I1110 02:32:12.287670 27490 net.cpp:67] Creating Layer fc8_clamp_fc8_clamp_0_split
I1110 02:32:12.287677 27490 net.cpp:394] fc8_clamp_fc8_clamp_0_split <- fc8_clamp
I1110 02:32:12.287684 27490 net.cpp:356] fc8_clamp_fc8_clamp_0_split -> fc8_clamp_fc8_clamp_0_split_0
I1110 02:32:12.287694 27490 net.cpp:356] fc8_clamp_fc8_clamp_0_split -> fc8_clamp_fc8_clamp_0_split_1
I1110 02:32:12.287703 27490 net.cpp:96] Setting up fc8_clamp_fc8_clamp_0_split
I1110 02:32:12.287710 27490 net.cpp:103] Top shape: 100 2 1 1 (200)
I1110 02:32:12.287716 27490 net.cpp:103] Top shape: 100 2 1 1 (200)
I1110 02:32:12.287727 27490 net.cpp:67] Creating Layer loss
I1110 02:32:12.287734 27490 net.cpp:394] loss <- fc8_clamp_fc8_clamp_0_split_0
I1110 02:32:12.287740 27490 net.cpp:394] loss <- label_data_1_split_0
I1110 02:32:12.287751 27490 net.cpp:356] loss -> (automatic)
I1110 02:32:12.287758 27490 net.cpp:96] Setting up loss
I1110 02:32:12.287768 27490 net.cpp:103] Top shape: 1 1 1 1 (1)
I1110 02:32:12.287773 27490 net.cpp:109]     with loss weight 1
I1110 02:32:12.287825 27490 net.cpp:67] Creating Layer accuracy
I1110 02:32:12.287838 27490 net.cpp:394] accuracy <- fc8_clamp_fc8_clamp_0_split_1
I1110 02:32:12.287855 27490 net.cpp:394] accuracy <- label_data_1_split_1
I1110 02:32:12.287871 27490 net.cpp:356] accuracy -> accuracy
I1110 02:32:12.287886 27490 net.cpp:96] Setting up accuracy
I1110 02:32:12.287900 27490 net.cpp:103] Top shape: 1 1 1 4 (4)
I1110 02:32:12.287909 27490 net.cpp:172] accuracy does not need backward computation.
I1110 02:32:12.287914 27490 net.cpp:170] loss needs backward computation.
I1110 02:32:12.287920 27490 net.cpp:170] fc8_clamp_fc8_clamp_0_split needs backward computation.
I1110 02:32:12.287925 27490 net.cpp:170] fc8_clamp needs backward computation.
I1110 02:32:12.287931 27490 net.cpp:170] drop7 needs backward computation.
…
