…
I1028 04:28:16.480919 14863 net.cpp:275] The NetState phase (0) differed from the phase (1) specified by a rule in layer data
I1028 04:28:16.480944 14863 net.cpp:275] The NetState phase (0) differed from the phase (1) specified by a rule in layer accuracy
I1028 04:28:16.481134 14863 net.cpp:39] Initializing net from parameters: 
name: "ClampCaffeNet"
layers {
  top: "data"
  top: "label"
  name: "data"
  type: IMAGE_DATA
  image_data_param {
    source: "data/water/train.txt"
    batch_size: 128
    new_height: 256
    new_width: 256
  }
  include {
    phase: TRAIN
  }
  transform_param {
    mirror: true
    crop_size: 227
    mean_file: "/homes/ad6813/data/controlpoint_mean_256-227.binaryproto"
  }
}
layers {
  bottom: "data"
  top: "conv1"
  name: "conv1"
  type: CONVOLUTION
  blobs_lr: 1
  blobs_lr: 2
  weight_decay: 1
  weight_decay: 0
  convolution_param {
    num_output: 96
    kernel_size: 11
    stride: 4
    weight_filler {
      type: "gaussian"
      std: 0.01
    }
    bias_filler {
      type: "constant"
      value: 0
    }
  }
}
layers {
  bottom: "conv1"
  top: "conv1"
  name: "relu1"
  type: RELU
}
layers {
  bottom: "conv1"
  top: "pool1"
  name: "pool1"
  type: POOLING
  pooling_param {
    pool: MAX
    kernel_size: 3
    stride: 2
  }
}
layers {
  bottom: "pool1"
  top: "norm1"
  name: "norm1"
  type: LRN
  lrn_param {
    local_size: 5
    alpha: 0.0001
    beta: 0.75
  }
}
layers {
  bottom: "norm1"
  top: "conv2"
  name: "conv2"
  type: CONVOLUTION
  blobs_lr: 1
  blobs_lr: 2
  weight_decay: 1
  weight_decay: 0
  convolution_param {
    num_output: 256
    pad: 2
    kernel_size: 5
    group: 2
    weight_filler {
      type: "gaussian"
      std: 0.01
    }
    bias_filler {
      type: "constant"
      value: 1
    }
  }
}
layers {
  bottom: "conv2"
  top: "conv2"
  name: "relu2"
  type: RELU
}
layers {
  bottom: "conv2"
  top: "pool2"
  name: "pool2"
  type: POOLING
  pooling_param {
    pool: MAX
    kernel_size: 3
    stride: 2
  }
}
layers {
  bottom: "pool2"
  top: "norm2"
  name: "norm2"
  type: LRN
  lrn_param {
    local_size: 5
    alpha: 0.0001
    beta: 0.75
  }
}
layers {
  bottom: "norm2"
  top: "conv3"
  name: "conv3"
  type: CONVOLUTION
  blobs_lr: 1
  blobs_lr: 2
  weight_decay: 1
  weight_decay: 0
  convolution_param {
    num_output: 384
    pad: 1
    kernel_size: 3
    weight_filler {
      type: "gaussian"
      std: 0.01
    }
    bias_filler {
      type: "constant"
      value: 0
    }
  }
}
layers {
  bottom: "conv3"
  top: "conv3"
  name: "relu3"
  type: RELU
}
layers {
  bottom: "conv3"
  top: "conv4"
  name: "conv4"
  type: CONVOLUTION
  blobs_lr: 1
  blobs_lr: 2
  weight_decay: 1
  weight_decay: 0
  convolution_param {
    num_output: 384
    pad: 1
    kernel_size: 3
    group: 2
    weight_filler {
      type: "gaussian"
      std: 0.01
    }
    bias_filler {
      type: "constant"
      value: 1
    }
  }
}
layers {
  bottom: "conv4"
  top: "conv4"
  name: "relu4"
  type: RELU
}
layers {
  bottom: "conv4"
  top: "conv5"
  name: "conv5"
  type: CONVOLUTION
  blobs_lr: 1
  blobs_lr: 2
  weight_decay: 1
  weight_decay: 0
  convolution_param {
    num_output: 256
    pad: 1
    kernel_size: 3
    group: 2
    weight_filler {
      type: "gaussian"
      std: 0.01
    }
    bias_filler {
      type: "constant"
      value: 1
    }
  }
}
layers {
  bottom: "conv5"
  top: "conv5"
  name: "relu5"
  type: RELU
}
layers {
  bottom: "conv5"
  top: "pool5"
  name: "pool5"
  type: POOLING
  pooling_param {
    pool: MAX
    kernel_size: 3
    stride: 2
  }
}
layers {
  bottom: "pool5"
  top: "fc6"
  name: "fc6"
  type: INNER_PRODUCT
  blobs_lr: 1
  blobs_lr: 2
  weight_decay: 1
  weight_decay: 0
  inner_product_param {
    num_output: 4096
    weight_filler {
      type: "gaussian"
      std: 0.005
    }
    bias_filler {
      type: "constant"
      value: 1
    }
  }
}
layers {
  bottom: "fc6"
  top: "fc6"
  name: "relu6"
  type: RELU
}
layers {
  bottom: "fc6"
  top: "fc6"
  name: "drop6"
  type: DROPOUT
  dropout_param {
    dropout_ratio: 0.5
  }
}
layers {
  bottom: "fc6"
  top: "fc7"
  name: "fc7"
  type: INNER_PRODUCT
  blobs_lr: 1
  blobs_lr: 2
  weight_decay: 1
  weight_decay: 0
  inner_product_param {
    num_output: 4096
    weight_filler {
      type: "gaussian"
      std: 0.005
    }
    bias_filler {
      type: "constant"
      value: 1
    }
  }
}
layers {
  bottom: "fc7"
  top: "fc7"
  name: "relu7"
  type: RELU
}
layers {
  bottom: "fc7"
  top: "fc7"
  name: "drop7"
  type: DROPOUT
  dropout_param {
    dropout_ratio: 0.5
  }
}
layers {
  bottom: "fc7"
  top: "fc8_water"
  name: "fc8_water"
  type: INNER_PRODUCT
  blobs_lr: 1
  blobs_lr: 2
  weight_decay: 1
  weight_decay: 0
  inner_product_param {
    num_output: 2
    weight_filler {
      type: "gaussian"
      std: 0.01
    }
    bias_filler {
      type: "constant"
      value: 0
    }
  }
}
layers {
  bottom: "fc8_water"
  bottom: "label"
  name: "loss"
  type: SOFTMAX_LOSS
}
state {
  phase: TRAIN
}
I1028 04:28:16.481240 14863 net.cpp:67] Creating Layer data
I1028 04:28:16.481250 14863 net.cpp:356] data -> data
I1028 04:28:16.481264 14863 net.cpp:356] data -> label
I1028 04:28:16.481281 14863 net.cpp:96] Setting up data
I1028 04:28:16.481287 14863 image_data_layer.cpp:30] Opening file data/water/train.txt
I1028 04:28:16.481348 14863 image_data_layer.cpp:45] A total of 8 images.
I1028 04:28:16.487486 14863 image_data_layer.cpp:73] output data size: 128,3,227,227
I1028 04:28:16.487514 14863 base_data_layer.cpp:36] Loading mean file from/homes/ad6813/data/controlpoint_mean_256-227.binaryproto
I1028 04:28:16.498886 14863 net.cpp:103] Top shape: 128 3 227 227 (19787136)
I1028 04:28:16.498914 14863 net.cpp:103] Top shape: 128 1 1 1 (128)
I1028 04:28:16.498950 14863 net.cpp:67] Creating Layer conv1
I1028 04:28:16.498956 14863 net.cpp:394] conv1 <- data
I1028 04:28:16.498970 14863 net.cpp:356] conv1 -> conv1
I1028 04:28:16.498981 14863 net.cpp:96] Setting up conv1
I1028 04:28:16.499941 14863 net.cpp:103] Top shape: 128 96 55 55 (37171200)
I1028 04:28:16.499963 14863 net.cpp:67] Creating Layer relu1
I1028 04:28:16.499968 14863 net.cpp:394] relu1 <- conv1
I1028 04:28:16.499972 14863 net.cpp:345] relu1 -> conv1 (in-place)
I1028 04:28:16.499977 14863 net.cpp:96] Setting up relu1
I1028 04:28:16.499981 14863 net.cpp:103] Top shape: 128 96 55 55 (37171200)
I1028 04:28:16.499989 14863 net.cpp:67] Creating Layer pool1
I1028 04:28:16.499991 14863 net.cpp:394] pool1 <- conv1
I1028 04:28:16.499996 14863 net.cpp:356] pool1 -> pool1
I1028 04:28:16.500001 14863 net.cpp:96] Setting up pool1
I1028 04:28:16.500011 14863 net.cpp:103] Top shape: 128 96 27 27 (8957952)
I1028 04:28:16.500018 14863 net.cpp:67] Creating Layer norm1
I1028 04:28:16.500027 14863 net.cpp:394] norm1 <- pool1
I1028 04:28:16.500046 14863 net.cpp:356] norm1 -> norm1
I1028 04:28:16.500053 14863 net.cpp:96] Setting up norm1
I1028 04:28:16.500061 14863 net.cpp:103] Top shape: 128 96 27 27 (8957952)
I1028 04:28:16.500066 14863 net.cpp:67] Creating Layer conv2
I1028 04:28:16.500077 14863 net.cpp:394] conv2 <- norm1
I1028 04:28:16.500083 14863 net.cpp:356] conv2 -> conv2
I1028 04:28:16.500088 14863 net.cpp:96] Setting up conv2
I1028 04:28:16.508049 14863 net.cpp:103] Top shape: 128 256 27 27 (23887872)
I1028 04:28:16.508064 14863 net.cpp:67] Creating Layer relu2
I1028 04:28:16.508066 14863 net.cpp:394] relu2 <- conv2
I1028 04:28:16.508071 14863 net.cpp:345] relu2 -> conv2 (in-place)
I1028 04:28:16.508077 14863 net.cpp:96] Setting up relu2
I1028 04:28:16.508080 14863 net.cpp:103] Top shape: 128 256 27 27 (23887872)
I1028 04:28:16.508097 14863 net.cpp:67] Creating Layer pool2
I1028 04:28:16.508110 14863 net.cpp:394] pool2 <- conv2
I1028 04:28:16.508113 14863 net.cpp:356] pool2 -> pool2
I1028 04:28:16.508118 14863 net.cpp:96] Setting up pool2
I1028 04:28:16.508122 14863 net.cpp:103] Top shape: 128 256 13 13 (5537792)
I1028 04:28:16.508128 14863 net.cpp:67] Creating Layer norm2
I1028 04:28:16.508131 14863 net.cpp:394] norm2 <- pool2
I1028 04:28:16.508136 14863 net.cpp:356] norm2 -> norm2
I1028 04:28:16.508139 14863 net.cpp:96] Setting up norm2
I1028 04:28:16.508143 14863 net.cpp:103] Top shape: 128 256 13 13 (5537792)
I1028 04:28:16.508148 14863 net.cpp:67] Creating Layer conv3
I1028 04:28:16.508152 14863 net.cpp:394] conv3 <- norm2
I1028 04:28:16.508155 14863 net.cpp:356] conv3 -> conv3
I1028 04:28:16.508160 14863 net.cpp:96] Setting up conv3
I1028 04:28:16.529932 14863 net.cpp:103] Top shape: 128 384 13 13 (8306688)
I1028 04:28:16.529964 14863 net.cpp:67] Creating Layer relu3
I1028 04:28:16.529969 14863 net.cpp:394] relu3 <- conv3
I1028 04:28:16.529976 14863 net.cpp:345] relu3 -> conv3 (in-place)
I1028 04:28:16.529983 14863 net.cpp:96] Setting up relu3
I1028 04:28:16.529988 14863 net.cpp:103] Top shape: 128 384 13 13 (8306688)
I1028 04:28:16.529994 14863 net.cpp:67] Creating Layer conv4
I1028 04:28:16.529996 14863 net.cpp:394] conv4 <- conv3
I1028 04:28:16.530001 14863 net.cpp:356] conv4 -> conv4
I1028 04:28:16.530006 14863 net.cpp:96] Setting up conv4
I1028 04:28:16.546501 14863 net.cpp:103] Top shape: 128 384 13 13 (8306688)
I1028 04:28:16.546530 14863 net.cpp:67] Creating Layer relu4
I1028 04:28:16.546533 14863 net.cpp:394] relu4 <- conv4
I1028 04:28:16.546540 14863 net.cpp:345] relu4 -> conv4 (in-place)
I1028 04:28:16.546545 14863 net.cpp:96] Setting up relu4
I1028 04:28:16.546550 14863 net.cpp:103] Top shape: 128 384 13 13 (8306688)
I1028 04:28:16.546555 14863 net.cpp:67] Creating Layer conv5
I1028 04:28:16.546557 14863 net.cpp:394] conv5 <- conv4
I1028 04:28:16.546562 14863 net.cpp:356] conv5 -> conv5
I1028 04:28:16.546567 14863 net.cpp:96] Setting up conv5
I1028 04:28:16.557435 14863 net.cpp:103] Top shape: 128 256 13 13 (5537792)
I1028 04:28:16.557451 14863 net.cpp:67] Creating Layer relu5
I1028 04:28:16.557456 14863 net.cpp:394] relu5 <- conv5
I1028 04:28:16.557461 14863 net.cpp:345] relu5 -> conv5 (in-place)
I1028 04:28:16.557466 14863 net.cpp:96] Setting up relu5
I1028 04:28:16.557468 14863 net.cpp:103] Top shape: 128 256 13 13 (5537792)
I1028 04:28:16.557474 14863 net.cpp:67] Creating Layer pool5
I1028 04:28:16.557477 14863 net.cpp:394] pool5 <- conv5
I1028 04:28:16.557482 14863 net.cpp:356] pool5 -> pool5
I1028 04:28:16.557487 14863 net.cpp:96] Setting up pool5
I1028 04:28:16.557492 14863 net.cpp:103] Top shape: 128 256 6 6 (1179648)
I1028 04:28:16.557500 14863 net.cpp:67] Creating Layer fc6
I1028 04:28:16.557503 14863 net.cpp:394] fc6 <- pool5
I1028 04:28:16.557507 14863 net.cpp:356] fc6 -> fc6
I1028 04:28:16.557513 14863 net.cpp:96] Setting up fc6
I1028 04:28:17.470468 14863 net.cpp:103] Top shape: 128 4096 1 1 (524288)
I1028 04:28:17.470512 14863 net.cpp:67] Creating Layer relu6
I1028 04:28:17.470517 14863 net.cpp:394] relu6 <- fc6
I1028 04:28:17.470525 14863 net.cpp:345] relu6 -> fc6 (in-place)
I1028 04:28:17.470532 14863 net.cpp:96] Setting up relu6
I1028 04:28:17.470536 14863 net.cpp:103] Top shape: 128 4096 1 1 (524288)
I1028 04:28:17.470541 14863 net.cpp:67] Creating Layer drop6
I1028 04:28:17.470545 14863 net.cpp:394] drop6 <- fc6
I1028 04:28:17.470548 14863 net.cpp:345] drop6 -> fc6 (in-place)
I1028 04:28:17.470552 14863 net.cpp:96] Setting up drop6
I1028 04:28:17.470559 14863 net.cpp:103] Top shape: 128 4096 1 1 (524288)
I1028 04:28:17.470566 14863 net.cpp:67] Creating Layer fc7
I1028 04:28:17.470568 14863 net.cpp:394] fc7 <- fc6
I1028 04:28:17.470574 14863 net.cpp:356] fc7 -> fc7
I1028 04:28:17.470581 14863 net.cpp:96] Setting up fc7
I1028 04:28:17.859177 14863 net.cpp:103] Top shape: 128 4096 1 1 (524288)
I1028 04:28:17.859222 14863 net.cpp:67] Creating Layer relu7
I1028 04:28:17.859228 14863 net.cpp:394] relu7 <- fc7
I1028 04:28:17.859236 14863 net.cpp:345] relu7 -> fc7 (in-place)
I1028 04:28:17.859251 14863 net.cpp:96] Setting up relu7
I1028 04:28:17.859254 14863 net.cpp:103] Top shape: 128 4096 1 1 (524288)
I1028 04:28:17.859259 14863 net.cpp:67] Creating Layer drop7
I1028 04:28:17.859262 14863 net.cpp:394] drop7 <- fc7
I1028 04:28:17.859268 14863 net.cpp:345] drop7 -> fc7 (in-place)
I1028 04:28:17.859272 14863 net.cpp:96] Setting up drop7
I1028 04:28:17.859277 14863 net.cpp:103] Top shape: 128 4096 1 1 (524288)
I1028 04:28:17.859282 14863 net.cpp:67] Creating Layer fc8_water
I1028 04:28:17.859285 14863 net.cpp:394] fc8_water <- fc7
I1028 04:28:17.859290 14863 net.cpp:356] fc8_water -> fc8_water
I1028 04:28:17.859295 14863 net.cpp:96] Setting up fc8_water
I1028 04:28:17.859515 14863 net.cpp:103] Top shape: 128 2 1 1 (256)
I1028 04:28:17.859526 14863 net.cpp:67] Creating Layer loss
I1028 04:28:17.859534 14863 net.cpp:394] loss <- fc8_water
I1028 04:28:17.859539 14863 net.cpp:394] loss <- label
I1028 04:28:17.859544 14863 net.cpp:356] loss -> (automatic)
I1028 04:28:17.859547 14863 net.cpp:96] Setting up loss
I1028 04:28:17.859560 14863 net.cpp:103] Top shape: 1 1 1 1 (1)
I1028 04:28:17.859565 14863 net.cpp:109]     with loss weight 1
I1028 04:28:17.859601 14863 net.cpp:170] loss needs backward computation.
I1028 04:28:17.859604 14863 net.cpp:170] fc8_water needs backward computation.
I1028 04:28:17.859607 14863 net.cpp:170] drop7 needs backward computation.
I1028 04:28:17.859609 14863 net.cpp:170] relu7 needs backward computation.
I1028 04:28:17.859612 14863 net.cpp:170] fc7 needs backward computation.
…
I1028 04:28:17.860357 14863 solver.cpp:151] Creating test net (#0) specified by net file: task/water/train_val.prototxt
I1028 04:28:17.860395 14863 net.cpp:275] The NetState phase (1) differed from the phase (0) specified by a rule in layer data
I1028 04:28:17.860579 14863 net.cpp:39] Initializing net from parameters: 
name: "ClampCaffeNet"
layers {
  top: "data"
  top: "label"
  name: "data"
  type: IMAGE_DATA
  image_data_param {
    source: "data/water/val.txt"
    batch_size: 50
    new_height: 256
    new_width: 256
  }
  include {
    phase: TEST
  }
  transform_param {
    mirror: false
    crop_size: 227
    mean_file: "/homes/ad6813/data/controlpoint_mean_256-227.binaryproto"
  }
}
layers {
  bottom: "data"
  top: "conv1"
  name: "conv1"
  type: CONVOLUTION
  blobs_lr: 1
  blobs_lr: 2
  weight_decay: 1
  weight_decay: 0
  convolution_param {
    num_output: 96
    kernel_size: 11
    stride: 4
    weight_filler {
      type: "gaussian"
      std: 0.01
    }
    bias_filler {
      type: "constant"
      value: 0
    }
  }
}
layers {
  bottom: "conv1"
  top: "conv1"
  name: "relu1"
  type: RELU
}
layers {
  bottom: "conv1"
  top: "pool1"
  name: "pool1"
  type: POOLING
  pooling_param {
    pool: MAX
    kernel_size: 3
    stride: 2
  }
}
layers {
  bottom: "pool1"
  top: "norm1"
  name: "norm1"
  type: LRN
  lrn_param {
    local_size: 5
    alpha: 0.0001
    beta: 0.75
  }
}
layers {
  bottom: "norm1"
  top: "conv2"
  name: "conv2"
  type: CONVOLUTION
  blobs_lr: 1
  blobs_lr: 2
  weight_decay: 1
  weight_decay: 0
  convolution_param {
    num_output: 256
    pad: 2
    kernel_size: 5
    group: 2
    weight_filler {
      type: "gaussian"
      std: 0.01
    }
    bias_filler {
      type: "constant"
      value: 1
    }
  }
}
layers {
  bottom: "conv2"
  top: "conv2"
  name: "relu2"
  type: RELU
}
layers {
  bottom: "conv2"
  top: "pool2"
  name: "pool2"
  type: POOLING
  pooling_param {
    pool: MAX
    kernel_size: 3
    stride: 2
  }
}
layers {
  bottom: "pool2"
  top: "norm2"
  name: "norm2"
  type: LRN
  lrn_param {
    local_size: 5
    alpha: 0.0001
    beta: 0.75
  }
}
layers {
  bottom: "norm2"
  top: "conv3"
  name: "conv3"
  type: CONVOLUTION
  blobs_lr: 1
  blobs_lr: 2
  weight_decay: 1
  weight_decay: 0
  convolution_param {
    num_output: 384
    pad: 1
    kernel_size: 3
    weight_filler {
      type: "gaussian"
      std: 0.01
    }
    bias_filler {
      type: "constant"
      value: 0
    }
  }
}
layers {
  bottom: "conv3"
  top: "conv3"
  name: "relu3"
  type: RELU
}
layers {
  bottom: "conv3"
  top: "conv4"
  name: "conv4"
  type: CONVOLUTION
  blobs_lr: 1
  blobs_lr: 2
  weight_decay: 1
  weight_decay: 0
  convolution_param {
    num_output: 384
    pad: 1
    kernel_size: 3
    group: 2
    weight_filler {
      type: "gaussian"
      std: 0.01
    }
    bias_filler {
      type: "constant"
      value: 1
    }
  }
}
layers {
  bottom: "conv4"
  top: "conv4"
  name: "relu4"
  type: RELU
}
layers {
  bottom: "conv4"
  top: "conv5"
  name: "conv5"
  type: CONVOLUTION
  blobs_lr: 1
  blobs_lr: 2
  weight_decay: 1
  weight_decay: 0
  convolution_param {
    num_output: 256
    pad: 1
    kernel_size: 3
    group: 2
    weight_filler {
      type: "gaussian"
      std: 0.01
    }
    bias_filler {
      type: "constant"
      value: 1
    }
  }
}
layers {
  bottom: "conv5"
  top: "conv5"
  name: "relu5"
  type: RELU
}
layers {
  bottom: "conv5"
  top: "pool5"
  name: "pool5"
  type: POOLING
  pooling_param {
    pool: MAX
    kernel_size: 3
    stride: 2
  }
}
layers {
  bottom: "pool5"
  top: "fc6"
  name: "fc6"
  type: INNER_PRODUCT
  blobs_lr: 1
  blobs_lr: 2
  weight_decay: 1
  weight_decay: 0
  inner_product_param {
    num_output: 4096
    weight_filler {
      type: "gaussian"
      std: 0.005
    }
    bias_filler {
      type: "constant"
      value: 1
    }
  }
}
layers {
  bottom: "fc6"
  top: "fc6"
  name: "relu6"
  type: RELU
}
layers {
  bottom: "fc6"
  top: "fc6"
  name: "drop6"
  type: DROPOUT
  dropout_param {
    dropout_ratio: 0.5
  }
}
layers {
  bottom: "fc6"
  top: "fc7"
  name: "fc7"
  type: INNER_PRODUCT
  blobs_lr: 1
  blobs_lr: 2
  weight_decay: 1
  weight_decay: 0
  inner_product_param {
    num_output: 4096
    weight_filler {
      type: "gaussian"
      std: 0.005
    }
    bias_filler {
      type: "constant"
      value: 1
    }
  }
}
layers {
  bottom: "fc7"
  top: "fc7"
  name: "relu7"
  type: RELU
}
layers {
  bottom: "fc7"
  top: "fc7"
  name: "drop7"
  type: DROPOUT
  dropout_param {
    dropout_ratio: 0.5
  }
}
layers {
  bottom: "fc7"
  top: "fc8_water"
  name: "fc8_water"
  type: INNER_PRODUCT
  blobs_lr: 1
  blobs_lr: 2
  weight_decay: 1
  weight_decay: 0
  inner_product_param {
    num_output: 2
    weight_filler {
      type: "gaussian"
      std: 0.01
    }
    bias_filler {
      type: "constant"
      value: 0
    }
  }
}
layers {
  bottom: "fc8_water"
  bottom: "label"
  name: "loss"
  type: SOFTMAX_LOSS
}
layers {
  bottom: "fc8_water"
  bottom: "label"
  top: "accuracy"
  name: "accuracy"
  type: ACCURACY
  include {
    phase: TEST
  }
}
state {
  phase: TEST
}
I1028 04:28:17.860700 14863 net.cpp:67] Creating Layer data
I1028 04:28:17.860707 14863 net.cpp:356] data -> data
I1028 04:28:17.860714 14863 net.cpp:356] data -> label
I1028 04:28:17.860725 14863 net.cpp:96] Setting up data
I1028 04:28:17.860728 14863 image_data_layer.cpp:30] Opening file data/water/val.txt
I1028 04:28:17.860829 14863 image_data_layer.cpp:45] A total of 197 images.
I1028 04:28:17.862506 14863 image_data_layer.cpp:73] output data size: 50,3,227,227
I1028 04:28:17.862519 14863 base_data_layer.cpp:36] Loading mean file from/homes/ad6813/data/controlpoint_mean_256-227.binaryproto
I1028 04:28:17.867635 14863 net.cpp:103] Top shape: 50 3 227 227 (7729350)
I1028 04:28:17.867662 14863 net.cpp:103] Top shape: 50 1 1 1 (50)
I1028 04:28:17.867673 14863 net.cpp:67] Creating Layer label_data_1_split
I1028 04:28:17.867678 14863 net.cpp:394] label_data_1_split <- label
I1028 04:28:17.867684 14863 net.cpp:356] label_data_1_split -> label_data_1_split_0
I1028 04:28:17.867696 14863 net.cpp:356] label_data_1_split -> label_data_1_split_1
I1028 04:28:17.867699 14863 net.cpp:96] Setting up label_data_1_split
I1028 04:28:17.867707 14863 net.cpp:103] Top shape: 50 1 1 1 (50)
I1028 04:28:17.867710 14863 net.cpp:103] Top shape: 50 1 1 1 (50)
I1028 04:28:17.867718 14863 net.cpp:67] Creating Layer conv1
I1028 04:28:17.867723 14863 net.cpp:394] conv1 <- data
I1028 04:28:17.867729 14863 net.cpp:356] conv1 -> conv1
I1028 04:28:17.867735 14863 net.cpp:96] Setting up conv1
I1028 04:28:17.868654 14863 net.cpp:103] Top shape: 50 96 55 55 (14520000)
I1028 04:28:17.868669 14863 net.cpp:67] Creating Layer relu1
I1028 04:28:17.868672 14863 net.cpp:394] relu1 <- conv1
I1028 04:28:17.868676 14863 net.cpp:345] relu1 -> conv1 (in-place)
I1028 04:28:17.868681 14863 net.cpp:96] Setting up relu1
I1028 04:28:17.868685 14863 net.cpp:103] Top shape: 50 96 55 55 (14520000)
I1028 04:28:17.868690 14863 net.cpp:67] Creating Layer pool1
I1028 04:28:17.868693 14863 net.cpp:394] pool1 <- conv1
I1028 04:28:17.868697 14863 net.cpp:356] pool1 -> pool1
I1028 04:28:17.868702 14863 net.cpp:96] Setting up pool1
I1028 04:28:17.868707 14863 net.cpp:103] Top shape: 50 96 27 27 (3499200)
I1028 04:28:17.868712 14863 net.cpp:67] Creating Layer norm1
I1028 04:28:17.868716 14863 net.cpp:394] norm1 <- pool1
I1028 04:28:17.868720 14863 net.cpp:356] norm1 -> norm1
I1028 04:28:17.868723 14863 net.cpp:96] Setting up norm1
I1028 04:28:17.868728 14863 net.cpp:103] Top shape: 50 96 27 27 (3499200)
I1028 04:28:17.868732 14863 net.cpp:67] Creating Layer conv2
I1028 04:28:17.868736 14863 net.cpp:394] conv2 <- norm1
I1028 04:28:17.868741 14863 net.cpp:356] conv2 -> conv2
I1028 04:28:17.868746 14863 net.cpp:96] Setting up conv2
I1028 04:28:17.876305 14863 net.cpp:103] Top shape: 50 256 27 27 (9331200)
I1028 04:28:17.876320 14863 net.cpp:67] Creating Layer relu2
I1028 04:28:17.876323 14863 net.cpp:394] relu2 <- conv2
I1028 04:28:17.876328 14863 net.cpp:345] relu2 -> conv2 (in-place)
I1028 04:28:17.876332 14863 net.cpp:96] Setting up relu2
I1028 04:28:17.876335 14863 net.cpp:103] Top shape: 50 256 27 27 (9331200)
I1028 04:28:17.876340 14863 net.cpp:67] Creating Layer pool2
I1028 04:28:17.876343 14863 net.cpp:394] pool2 <- conv2
I1028 04:28:17.876349 14863 net.cpp:356] pool2 -> pool2
I1028 04:28:17.876354 14863 net.cpp:96] Setting up pool2
I1028 04:28:17.876359 14863 net.cpp:103] Top shape: 50 256 13 13 (2163200)
I1028 04:28:17.876363 14863 net.cpp:67] Creating Layer norm2
I1028 04:28:17.876368 14863 net.cpp:394] norm2 <- pool2
I1028 04:28:17.876373 14863 net.cpp:356] norm2 -> norm2
I1028 04:28:17.876377 14863 net.cpp:96] Setting up norm2
I1028 04:28:17.876380 14863 net.cpp:103] Top shape: 50 256 13 13 (2163200)
I1028 04:28:17.876385 14863 net.cpp:67] Creating Layer conv3
I1028 04:28:17.876389 14863 net.cpp:394] conv3 <- norm2
I1028 04:28:17.876394 14863 net.cpp:356] conv3 -> conv3
I1028 04:28:17.876399 14863 net.cpp:96] Setting up conv3
I1028 04:28:17.898159 14863 net.cpp:103] Top shape: 50 384 13 13 (3244800)
I1028 04:28:17.898192 14863 net.cpp:67] Creating Layer relu3
I1028 04:28:17.898197 14863 net.cpp:394] relu3 <- conv3
I1028 04:28:17.898205 14863 net.cpp:345] relu3 -> conv3 (in-place)
I1028 04:28:17.898212 14863 net.cpp:96] Setting up relu3
I1028 04:28:17.898216 14863 net.cpp:103] Top shape: 50 384 13 13 (3244800)
I1028 04:28:17.898221 14863 net.cpp:67] Creating Layer conv4
I1028 04:28:17.898226 14863 net.cpp:394] conv4 <- conv3
I1028 04:28:17.898231 14863 net.cpp:356] conv4 -> conv4
I1028 04:28:17.898236 14863 net.cpp:96] Setting up conv4
I1028 04:28:17.914763 14863 net.cpp:103] Top shape: 50 384 13 13 (3244800)
I1028 04:28:17.914793 14863 net.cpp:67] Creating Layer relu4
I1028 04:28:17.914798 14863 net.cpp:394] relu4 <- conv4
I1028 04:28:17.914804 14863 net.cpp:345] relu4 -> conv4 (in-place)
I1028 04:28:17.914811 14863 net.cpp:96] Setting up relu4
I1028 04:28:17.914814 14863 net.cpp:103] Top shape: 50 384 13 13 (3244800)
I1028 04:28:17.914820 14863 net.cpp:67] Creating Layer conv5
I1028 04:28:17.914824 14863 net.cpp:394] conv5 <- conv4
I1028 04:28:17.914832 14863 net.cpp:356] conv5 -> conv5
I1028 04:28:17.914839 14863 net.cpp:96] Setting up conv5
I1028 04:28:17.925855 14863 net.cpp:103] Top shape: 50 256 13 13 (2163200)
I1028 04:28:17.925874 14863 net.cpp:67] Creating Layer relu5
I1028 04:28:17.925878 14863 net.cpp:394] relu5 <- conv5
I1028 04:28:17.925884 14863 net.cpp:345] relu5 -> conv5 (in-place)
I1028 04:28:17.925889 14863 net.cpp:96] Setting up relu5
I1028 04:28:17.925892 14863 net.cpp:103] Top shape: 50 256 13 13 (2163200)
I1028 04:28:17.925899 14863 net.cpp:67] Creating Layer pool5
I1028 04:28:17.925902 14863 net.cpp:394] pool5 <- conv5
I1028 04:28:17.925907 14863 net.cpp:356] pool5 -> pool5
I1028 04:28:17.925912 14863 net.cpp:96] Setting up pool5
I1028 04:28:17.925917 14863 net.cpp:103] Top shape: 50 256 6 6 (460800)
I1028 04:28:17.925923 14863 net.cpp:67] Creating Layer fc6
I1028 04:28:17.925926 14863 net.cpp:394] fc6 <- pool5
I1028 04:28:17.925930 14863 net.cpp:356] fc6 -> fc6
I1028 04:28:17.925936 14863 net.cpp:96] Setting up fc6
I1028 04:28:18.844007 14863 net.cpp:103] Top shape: 50 4096 1 1 (204800)
I1028 04:28:18.844041 14863 net.cpp:67] Creating Layer relu6
I1028 04:28:18.844048 14863 net.cpp:394] relu6 <- fc6
I1028 04:28:18.844058 14863 net.cpp:345] relu6 -> fc6 (in-place)
I1028 04:28:18.844065 14863 net.cpp:96] Setting up relu6
I1028 04:28:18.844069 14863 net.cpp:103] Top shape: 50 4096 1 1 (204800)
I1028 04:28:18.844074 14863 net.cpp:67] Creating Layer drop6
I1028 04:28:18.844077 14863 net.cpp:394] drop6 <- fc6
I1028 04:28:18.844081 14863 net.cpp:345] drop6 -> fc6 (in-place)
I1028 04:28:18.844086 14863 net.cpp:96] Setting up drop6
I1028 04:28:18.844089 14863 net.cpp:103] Top shape: 50 4096 1 1 (204800)
I1028 04:28:18.844095 14863 net.cpp:67] Creating Layer fc7
I1028 04:28:18.844099 14863 net.cpp:394] fc7 <- fc6
I1028 04:28:18.844105 14863 net.cpp:356] fc7 -> fc7
I1028 04:28:18.844110 14863 net.cpp:96] Setting up fc7
I1028 04:28:19.238234 14863 net.cpp:103] Top shape: 50 4096 1 1 (204800)
I1028 04:28:19.238279 14863 net.cpp:67] Creating Layer relu7
I1028 04:28:19.238286 14863 net.cpp:394] relu7 <- fc7
I1028 04:28:19.238292 14863 net.cpp:345] relu7 -> fc7 (in-place)
I1028 04:28:19.238301 14863 net.cpp:96] Setting up relu7
I1028 04:28:19.238303 14863 net.cpp:103] Top shape: 50 4096 1 1 (204800)
I1028 04:28:19.238308 14863 net.cpp:67] Creating Layer drop7
I1028 04:28:19.238312 14863 net.cpp:394] drop7 <- fc7
I1028 04:28:19.238315 14863 net.cpp:345] drop7 -> fc7 (in-place)
I1028 04:28:19.238319 14863 net.cpp:96] Setting up drop7
I1028 04:28:19.238323 14863 net.cpp:103] Top shape: 50 4096 1 1 (204800)
I1028 04:28:19.238330 14863 net.cpp:67] Creating Layer fc8_water
I1028 04:28:19.238333 14863 net.cpp:394] fc8_water <- fc7
I1028 04:28:19.238338 14863 net.cpp:356] fc8_water -> fc8_water
I1028 04:28:19.238348 14863 net.cpp:96] Setting up fc8_water
I1028 04:28:19.238572 14863 net.cpp:103] Top shape: 50 2 1 1 (100)
I1028 04:28:19.238590 14863 net.cpp:67] Creating Layer fc8_water_fc8_water_0_split
I1028 04:28:19.238595 14863 net.cpp:394] fc8_water_fc8_water_0_split <- fc8_water
I1028 04:28:19.238598 14863 net.cpp:356] fc8_water_fc8_water_0_split -> fc8_water_fc8_water_0_split_0
I1028 04:28:19.238605 14863 net.cpp:356] fc8_water_fc8_water_0_split -> fc8_water_fc8_water_0_split_1
I1028 04:28:19.238615 14863 net.cpp:96] Setting up fc8_water_fc8_water_0_split
I1028 04:28:19.238618 14863 net.cpp:103] Top shape: 50 2 1 1 (100)
I1028 04:28:19.238621 14863 net.cpp:103] Top shape: 50 2 1 1 (100)
I1028 04:28:19.238627 14863 net.cpp:67] Creating Layer loss
I1028 04:28:19.238631 14863 net.cpp:394] loss <- fc8_water_fc8_water_0_split_0
I1028 04:28:19.238634 14863 net.cpp:394] loss <- label_data_1_split_0
I1028 04:28:19.238639 14863 net.cpp:356] loss -> (automatic)
I1028 04:28:19.238643 14863 net.cpp:96] Setting up loss
I1028 04:28:19.238654 14863 net.cpp:103] Top shape: 1 1 1 1 (1)
I1028 04:28:19.238659 14863 net.cpp:109]     with loss weight 1
I1028 04:28:19.238674 14863 net.cpp:67] Creating Layer accuracy
I1028 04:28:19.238677 14863 net.cpp:394] accuracy <- fc8_water_fc8_water_0_split_1
I1028 04:28:19.238682 14863 net.cpp:394] accuracy <- label_data_1_split_1
I1028 04:28:19.238688 14863 net.cpp:356] accuracy -> accuracy
I1028 04:28:19.238693 14863 net.cpp:96] Setting up accuracy
I1028 04:28:19.238708 14863 net.cpp:103] Top shape: 1 1 1 4 (4)
I1028 04:28:19.238713 14863 net.cpp:172] accuracy does not need backward computation.
I1028 04:28:19.238716 14863 net.cpp:170] loss needs backward computation.
I1028 04:28:19.238719 14863 net.cpp:170] fc8_water_fc8_water_0_split needs backward computation.
I1028 04:28:19.238721 14863 net.cpp:170] fc8_water needs backward computation.
I1028 04:28:19.238724 14863 net.cpp:170] drop7 needs backward computation.
…
