…
I1023 02:00:47.964248 27105 net.cpp:275] The NetState phase (0) differed from the phase (1) specified by a rule in layer data
I1023 02:00:47.964289 27105 net.cpp:275] The NetState phase (0) differed from the phase (1) specified by a rule in layer accuracy
I1023 02:00:47.964584 27105 net.cpp:39] Initializing net from parameters: 
name: "ScrapeCaffeNet"
layers {
  top: "data"
  top: "label"
  name: "data"
  type: IMAGE_DATA
  image_data_param {
    source: "data/scrape/train.txt"
    batch_size: 128
    new_height: 256
    new_width: 256
  }
  include {
    phase: TRAIN
  }
  transform_param {
    mirror: true
    crop_size: 227
    mean_file: "/homes/ad6813/data/controlpoint_mean_256-227.binaryproto"
  }
}
layers {
  bottom: "data"
  top: "conv1"
  name: "conv1"
  type: CONVOLUTION
  blobs_lr: 0
  blobs_lr: 0
  weight_decay: 0
  weight_decay: 0
  convolution_param {
    num_output: 96
    kernel_size: 11
    stride: 4
    weight_filler {
      type: "gaussian"
      std: 0.01
    }
    bias_filler {
      type: "constant"
      value: 0
    }
  }
}
layers {
  bottom: "conv1"
  top: "conv1"
  name: "relu1"
  type: RELU
}
layers {
  bottom: "conv1"
  top: "pool1"
  name: "pool1"
  type: POOLING
  pooling_param {
    pool: MAX
    kernel_size: 3
    stride: 2
  }
}
layers {
  bottom: "pool1"
  top: "norm1"
  name: "norm1"
  type: LRN
  lrn_param {
    local_size: 5
    alpha: 0.0001
    beta: 0.75
  }
}
layers {
  bottom: "norm1"
  top: "conv2"
  name: "conv2"
  type: CONVOLUTION
  blobs_lr: 0
  blobs_lr: 0
  weight_decay: 0
  weight_decay: 0
  convolution_param {
    num_output: 256
    pad: 2
    kernel_size: 5
    group: 2
    weight_filler {
      type: "gaussian"
      std: 0.01
    }
    bias_filler {
      type: "constant"
      value: 1
    }
  }
}
layers {
  bottom: "conv2"
  top: "conv2"
  name: "relu2"
  type: RELU
}
layers {
  bottom: "conv2"
  top: "pool2"
  name: "pool2"
  type: POOLING
  pooling_param {
    pool: MAX
    kernel_size: 3
    stride: 2
  }
}
layers {
  bottom: "pool2"
  top: "norm2"
  name: "norm2"
  type: LRN
  lrn_param {
    local_size: 5
    alpha: 0.0001
    beta: 0.75
  }
}
layers {
  bottom: "norm2"
  top: "conv3"
  name: "conv3"
  type: CONVOLUTION
  blobs_lr: 0
  blobs_lr: 0
  weight_decay: 0
  weight_decay: 0
  convolution_param {
    num_output: 384
    pad: 1
    kernel_size: 3
    weight_filler {
      type: "gaussian"
      std: 0.01
    }
    bias_filler {
      type: "constant"
      value: 0
    }
  }
}
layers {
  bottom: "conv3"
  top: "conv3"
  name: "relu3"
  type: RELU
}
layers {
  bottom: "conv3"
  top: "conv4"
  name: "conv4"
  type: CONVOLUTION
  blobs_lr: 0
  blobs_lr: 0
  weight_decay: 0
  weight_decay: 0
  convolution_param {
    num_output: 384
    pad: 1
    kernel_size: 3
    group: 2
    weight_filler {
      type: "gaussian"
      std: 0.01
    }
    bias_filler {
      type: "constant"
      value: 1
    }
  }
}
layers {
  bottom: "conv4"
  top: "conv4"
  name: "relu4"
  type: RELU
}
layers {
  bottom: "conv4"
  top: "conv5"
  name: "conv5"
  type: CONVOLUTION
  blobs_lr: 0
  blobs_lr: 0
  weight_decay: 0
  weight_decay: 0
  convolution_param {
    num_output: 256
    pad: 1
    kernel_size: 3
    group: 2
    weight_filler {
      type: "gaussian"
      std: 0.01
    }
    bias_filler {
      type: "constant"
      value: 1
    }
  }
}
layers {
  bottom: "conv5"
  top: "conv5"
  name: "relu5"
  type: RELU
}
layers {
  bottom: "conv5"
  top: "pool5"
  name: "pool5"
  type: POOLING
  pooling_param {
    pool: MAX
    kernel_size: 3
    stride: 2
  }
}
layers {
  bottom: "pool5"
  top: "fc6"
  name: "fc6"
  type: INNER_PRODUCT
  blobs_lr: 0
  blobs_lr: 0
  weight_decay: 0
  weight_decay: 0
  inner_product_param {
    num_output: 4096
    weight_filler {
      type: "gaussian"
      std: 0.005
    }
    bias_filler {
      type: "constant"
      value: 1
    }
  }
}
layers {
  bottom: "fc6"
  top: "fc6"
  name: "relu6"
  type: RELU
}
layers {
  bottom: "fc6"
  top: "fc6"
  name: "drop6"
  type: DROPOUT
  dropout_param {
    dropout_ratio: 0.5
  }
}
layers {
  bottom: "fc6"
  top: "fc7"
  name: "fc7"
  type: INNER_PRODUCT
  blobs_lr: 0
  blobs_lr: 0
  weight_decay: 0
  weight_decay: 0
  inner_product_param {
    num_output: 4096
    weight_filler {
      type: "gaussian"
      std: 0.005
    }
    bias_filler {
      type: "constant"
      value: 1
    }
  }
}
layers {
  bottom: "fc7"
  top: "fc7"
  name: "relu7"
  type: RELU
}
layers {
  bottom: "fc7"
  top: "fc7"
  name: "drop7"
  type: DROPOUT
  dropout_param {
    dropout_ratio: 0.5
  }
}
layers {
  bottom: "fc7"
  top: "fc8_scrape"
  name: "fc8_scrape"
  type: INNER_PRODUCT
  blobs_lr: 1
  blobs_lr: 2
  weight_decay: 1
  weight_decay: 0
  inner_product_param {
    num_output: 2
    weight_filler {
      type: "gaussian"
      std: 0.01
    }
    bias_filler {
      type: "constant"
      value: 0
    }
  }
}
layers {
  bottom: "fc8_scrape"
  bottom: "label"
  name: "loss"
  type: SOFTMAX_LOSS
}
state {
  phase: TRAIN
}
I1023 02:00:47.964747 27105 net.cpp:67] Creating Layer data
I1023 02:00:47.964763 27105 net.cpp:356] data -> data
I1023 02:00:47.964788 27105 net.cpp:356] data -> label
I1023 02:00:47.964809 27105 net.cpp:96] Setting up data
I1023 02:00:47.964819 27105 image_data_layer.cpp:30] Opening file data/scrape/train.txt
I1023 02:00:47.975934 27105 image_data_layer.cpp:45] A total of 15875 images.
I1023 02:00:48.004868 27105 image_data_layer.cpp:73] output data size: 128,3,227,227
I1023 02:00:48.004927 27105 base_data_layer.cpp:36] Loading mean file from/homes/ad6813/data/controlpoint_mean_256-227.binaryproto
I1023 02:00:48.031743 27105 net.cpp:103] Top shape: 128 3 227 227 (19787136)
I1023 02:00:48.031780 27105 net.cpp:103] Top shape: 128 1 1 1 (128)
I1023 02:00:48.031805 27105 net.cpp:67] Creating Layer conv1
I1023 02:00:48.031811 27105 net.cpp:394] conv1 <- data
I1023 02:00:48.031833 27105 net.cpp:356] conv1 -> conv1
I1023 02:00:48.031852 27105 net.cpp:96] Setting up conv1
I1023 02:00:48.033653 27105 net.cpp:103] Top shape: 128 96 55 55 (37171200)
I1023 02:00:48.033690 27105 net.cpp:67] Creating Layer relu1
I1023 02:00:48.033699 27105 net.cpp:394] relu1 <- conv1
I1023 02:00:48.033707 27105 net.cpp:345] relu1 -> conv1 (in-place)
I1023 02:00:48.033716 27105 net.cpp:96] Setting up relu1
I1023 02:00:48.033725 27105 net.cpp:103] Top shape: 128 96 55 55 (37171200)
I1023 02:00:48.033735 27105 net.cpp:67] Creating Layer pool1
I1023 02:00:48.033740 27105 net.cpp:394] pool1 <- conv1
I1023 02:00:48.033748 27105 net.cpp:356] pool1 -> pool1
I1023 02:00:48.033757 27105 net.cpp:96] Setting up pool1
I1023 02:00:48.033774 27105 net.cpp:103] Top shape: 128 96 27 27 (8957952)
I1023 02:00:48.033784 27105 net.cpp:67] Creating Layer norm1
I1023 02:00:48.033790 27105 net.cpp:394] norm1 <- pool1
I1023 02:00:48.033798 27105 net.cpp:356] norm1 -> norm1
I1023 02:00:48.033807 27105 net.cpp:96] Setting up norm1
I1023 02:00:48.033818 27105 net.cpp:103] Top shape: 128 96 27 27 (8957952)
I1023 02:00:48.033828 27105 net.cpp:67] Creating Layer conv2
I1023 02:00:48.033833 27105 net.cpp:394] conv2 <- norm1
I1023 02:00:48.033843 27105 net.cpp:356] conv2 -> conv2
I1023 02:00:48.033853 27105 net.cpp:96] Setting up conv2
I1023 02:00:48.048566 27105 net.cpp:103] Top shape: 128 256 27 27 (23887872)
I1023 02:00:48.048602 27105 net.cpp:67] Creating Layer relu2
I1023 02:00:48.048610 27105 net.cpp:394] relu2 <- conv2
I1023 02:00:48.048619 27105 net.cpp:345] relu2 -> conv2 (in-place)
I1023 02:00:48.048629 27105 net.cpp:96] Setting up relu2
I1023 02:00:48.048635 27105 net.cpp:103] Top shape: 128 256 27 27 (23887872)
I1023 02:00:48.048642 27105 net.cpp:67] Creating Layer pool2
I1023 02:00:48.048662 27105 net.cpp:394] pool2 <- conv2
I1023 02:00:48.048671 27105 net.cpp:356] pool2 -> pool2
I1023 02:00:48.048681 27105 net.cpp:96] Setting up pool2
I1023 02:00:48.048688 27105 net.cpp:103] Top shape: 128 256 13 13 (5537792)
I1023 02:00:48.048698 27105 net.cpp:67] Creating Layer norm2
I1023 02:00:48.048703 27105 net.cpp:394] norm2 <- pool2
I1023 02:00:48.048712 27105 net.cpp:356] norm2 -> norm2
I1023 02:00:48.048719 27105 net.cpp:96] Setting up norm2
I1023 02:00:48.048725 27105 net.cpp:103] Top shape: 128 256 13 13 (5537792)
I1023 02:00:48.048735 27105 net.cpp:67] Creating Layer conv3
I1023 02:00:48.048741 27105 net.cpp:394] conv3 <- norm2
I1023 02:00:48.048749 27105 net.cpp:356] conv3 -> conv3
I1023 02:00:48.048759 27105 net.cpp:96] Setting up conv3
I1023 02:00:48.091413 27105 net.cpp:103] Top shape: 128 384 13 13 (8306688)
I1023 02:00:48.091465 27105 net.cpp:67] Creating Layer relu3
I1023 02:00:48.091473 27105 net.cpp:394] relu3 <- conv3
I1023 02:00:48.091483 27105 net.cpp:345] relu3 -> conv3 (in-place)
I1023 02:00:48.091495 27105 net.cpp:96] Setting up relu3
I1023 02:00:48.091500 27105 net.cpp:103] Top shape: 128 384 13 13 (8306688)
I1023 02:00:48.091511 27105 net.cpp:67] Creating Layer conv4
I1023 02:00:48.091516 27105 net.cpp:394] conv4 <- conv3
I1023 02:00:48.091524 27105 net.cpp:356] conv4 -> conv4
I1023 02:00:48.091534 27105 net.cpp:96] Setting up conv4
I1023 02:00:48.123920 27105 net.cpp:103] Top shape: 128 384 13 13 (8306688)
I1023 02:00:48.123966 27105 net.cpp:67] Creating Layer relu4
I1023 02:00:48.123975 27105 net.cpp:394] relu4 <- conv4
I1023 02:00:48.123986 27105 net.cpp:345] relu4 -> conv4 (in-place)
I1023 02:00:48.123996 27105 net.cpp:96] Setting up relu4
I1023 02:00:48.124001 27105 net.cpp:103] Top shape: 128 384 13 13 (8306688)
I1023 02:00:48.124012 27105 net.cpp:67] Creating Layer conv5
I1023 02:00:48.124017 27105 net.cpp:394] conv5 <- conv4
I1023 02:00:48.124027 27105 net.cpp:356] conv5 -> conv5
I1023 02:00:48.124037 27105 net.cpp:96] Setting up conv5
I1023 02:00:48.145210 27105 net.cpp:103] Top shape: 128 256 13 13 (5537792)
I1023 02:00:48.145261 27105 net.cpp:67] Creating Layer relu5
I1023 02:00:48.145268 27105 net.cpp:394] relu5 <- conv5
I1023 02:00:48.145279 27105 net.cpp:345] relu5 -> conv5 (in-place)
I1023 02:00:48.145290 27105 net.cpp:96] Setting up relu5
I1023 02:00:48.145297 27105 net.cpp:103] Top shape: 128 256 13 13 (5537792)
I1023 02:00:48.145304 27105 net.cpp:67] Creating Layer pool5
I1023 02:00:48.145309 27105 net.cpp:394] pool5 <- conv5
I1023 02:00:48.145319 27105 net.cpp:356] pool5 -> pool5
I1023 02:00:48.145329 27105 net.cpp:96] Setting up pool5
I1023 02:00:48.145337 27105 net.cpp:103] Top shape: 128 256 6 6 (1179648)
I1023 02:00:48.145350 27105 net.cpp:67] Creating Layer fc6
I1023 02:00:48.145355 27105 net.cpp:394] fc6 <- pool5
I1023 02:00:48.145366 27105 net.cpp:356] fc6 -> fc6
I1023 02:00:48.145376 27105 net.cpp:96] Setting up fc6
I1023 02:00:49.955890 27105 net.cpp:103] Top shape: 128 4096 1 1 (524288)
I1023 02:00:49.955940 27105 net.cpp:67] Creating Layer relu6
I1023 02:00:49.955947 27105 net.cpp:394] relu6 <- fc6
I1023 02:00:49.955958 27105 net.cpp:345] relu6 -> fc6 (in-place)
I1023 02:00:49.955968 27105 net.cpp:96] Setting up relu6
I1023 02:00:49.955974 27105 net.cpp:103] Top shape: 128 4096 1 1 (524288)
I1023 02:00:49.955983 27105 net.cpp:67] Creating Layer drop6
I1023 02:00:49.955988 27105 net.cpp:394] drop6 <- fc6
I1023 02:00:49.955996 27105 net.cpp:345] drop6 -> fc6 (in-place)
I1023 02:00:49.956003 27105 net.cpp:96] Setting up drop6
I1023 02:00:49.956014 27105 net.cpp:103] Top shape: 128 4096 1 1 (524288)
I1023 02:00:49.956027 27105 net.cpp:67] Creating Layer fc7
I1023 02:00:49.956032 27105 net.cpp:394] fc7 <- fc6
I1023 02:00:49.956040 27105 net.cpp:356] fc7 -> fc7
I1023 02:00:49.956051 27105 net.cpp:96] Setting up fc7
I1023 02:00:50.758467 27105 net.cpp:103] Top shape: 128 4096 1 1 (524288)
I1023 02:00:50.758515 27105 net.cpp:67] Creating Layer relu7
I1023 02:00:50.758523 27105 net.cpp:394] relu7 <- fc7
I1023 02:00:50.758533 27105 net.cpp:345] relu7 -> fc7 (in-place)
I1023 02:00:50.758555 27105 net.cpp:96] Setting up relu7
I1023 02:00:50.758563 27105 net.cpp:103] Top shape: 128 4096 1 1 (524288)
I1023 02:00:50.758571 27105 net.cpp:67] Creating Layer drop7
I1023 02:00:50.758576 27105 net.cpp:394] drop7 <- fc7
I1023 02:00:50.758584 27105 net.cpp:345] drop7 -> fc7 (in-place)
I1023 02:00:50.758591 27105 net.cpp:96] Setting up drop7
I1023 02:00:50.758599 27105 net.cpp:103] Top shape: 128 4096 1 1 (524288)
I1023 02:00:50.758607 27105 net.cpp:67] Creating Layer fc8_scrape
I1023 02:00:50.758613 27105 net.cpp:394] fc8_scrape <- fc7
I1023 02:00:50.758625 27105 net.cpp:356] fc8_scrape -> fc8_scrape
I1023 02:00:50.758635 27105 net.cpp:96] Setting up fc8_scrape
I1023 02:00:50.759052 27105 net.cpp:103] Top shape: 128 2 1 1 (256)
I1023 02:00:50.759074 27105 net.cpp:67] Creating Layer loss
I1023 02:00:50.759081 27105 net.cpp:394] loss <- fc8_scrape
I1023 02:00:50.759088 27105 net.cpp:394] loss <- label
I1023 02:00:50.759099 27105 net.cpp:356] loss -> (automatic)
I1023 02:00:50.759106 27105 net.cpp:96] Setting up loss
I1023 02:00:50.759124 27105 net.cpp:103] Top shape: 1 1 1 1 (1)
I1023 02:00:50.759130 27105 net.cpp:109]     with loss weight 1
I1023 02:00:50.759171 27105 net.cpp:170] loss needs backward computation.
I1023 02:00:50.759178 27105 net.cpp:170] fc8_scrape needs backward computation.
I1023 02:00:50.759183 27105 net.cpp:172] drop7 does not need backward computation.
I1023 02:00:50.759188 27105 net.cpp:172] relu7 does not need backward computation.
I1023 02:00:50.759193 27105 net.cpp:172] fc7 does not need backward computation.
…
I1023 02:00:50.760548 27105 solver.cpp:151] Creating test net (#0) specified by net file: task/scrape/train_val.prototxt
I1023 02:00:50.760612 27105 net.cpp:275] The NetState phase (1) differed from the phase (0) specified by a rule in layer data
I1023 02:00:50.760926 27105 net.cpp:39] Initializing net from parameters: 
name: "ScrapeCaffeNet"
layers {
  top: "data"
  top: "label"
  name: "data"
  type: IMAGE_DATA
  image_data_param {
    source: "data/scrape/val.txt"
    batch_size: 120
    new_height: 256
    new_width: 256
  }
  include {
    phase: TEST
  }
  transform_param {
    mirror: false
    crop_size: 227
    mean_file: "/homes/ad6813/data/controlpoint_mean_256-227.binaryproto"
  }
}
layers {
  bottom: "data"
  top: "conv1"
  name: "conv1"
  type: CONVOLUTION
  blobs_lr: 0
  blobs_lr: 0
  weight_decay: 0
  weight_decay: 0
  convolution_param {
    num_output: 96
    kernel_size: 11
    stride: 4
    weight_filler {
      type: "gaussian"
      std: 0.01
    }
    bias_filler {
      type: "constant"
      value: 0
    }
  }
}
layers {
  bottom: "conv1"
  top: "conv1"
  name: "relu1"
  type: RELU
}
layers {
  bottom: "conv1"
  top: "pool1"
  name: "pool1"
  type: POOLING
  pooling_param {
    pool: MAX
    kernel_size: 3
    stride: 2
  }
}
layers {
  bottom: "pool1"
  top: "norm1"
  name: "norm1"
  type: LRN
  lrn_param {
    local_size: 5
    alpha: 0.0001
    beta: 0.75
  }
}
layers {
  bottom: "norm1"
  top: "conv2"
  name: "conv2"
  type: CONVOLUTION
  blobs_lr: 0
  blobs_lr: 0
  weight_decay: 0
  weight_decay: 0
  convolution_param {
    num_output: 256
    pad: 2
    kernel_size: 5
    group: 2
    weight_filler {
      type: "gaussian"
      std: 0.01
    }
    bias_filler {
      type: "constant"
      value: 1
    }
  }
}
layers {
  bottom: "conv2"
  top: "conv2"
  name: "relu2"
  type: RELU
}
layers {
  bottom: "conv2"
  top: "pool2"
  name: "pool2"
  type: POOLING
  pooling_param {
    pool: MAX
    kernel_size: 3
    stride: 2
  }
}
layers {
  bottom: "pool2"
  top: "norm2"
  name: "norm2"
  type: LRN
  lrn_param {
    local_size: 5
    alpha: 0.0001
    beta: 0.75
  }
}
layers {
  bottom: "norm2"
  top: "conv3"
  name: "conv3"
  type: CONVOLUTION
  blobs_lr: 0
  blobs_lr: 0
  weight_decay: 0
  weight_decay: 0
  convolution_param {
    num_output: 384
    pad: 1
    kernel_size: 3
    weight_filler {
      type: "gaussian"
      std: 0.01
    }
    bias_filler {
      type: "constant"
      value: 0
    }
  }
}
layers {
  bottom: "conv3"
  top: "conv3"
  name: "relu3"
  type: RELU
}
layers {
  bottom: "conv3"
  top: "conv4"
  name: "conv4"
  type: CONVOLUTION
  blobs_lr: 0
  blobs_lr: 0
  weight_decay: 0
  weight_decay: 0
  convolution_param {
    num_output: 384
    pad: 1
    kernel_size: 3
    group: 2
    weight_filler {
      type: "gaussian"
      std: 0.01
    }
    bias_filler {
      type: "constant"
      value: 1
    }
  }
}
layers {
  bottom: "conv4"
  top: "conv4"
  name: "relu4"
  type: RELU
}
layers {
  bottom: "conv4"
  top: "conv5"
  name: "conv5"
  type: CONVOLUTION
  blobs_lr: 0
  blobs_lr: 0
  weight_decay: 0
  weight_decay: 0
  convolution_param {
    num_output: 256
    pad: 1
    kernel_size: 3
    group: 2
    weight_filler {
      type: "gaussian"
      std: 0.01
    }
    bias_filler {
      type: "constant"
      value: 1
    }
  }
}
layers {
  bottom: "conv5"
  top: "conv5"
  name: "relu5"
  type: RELU
}
layers {
  bottom: "conv5"
  top: "pool5"
  name: "pool5"
  type: POOLING
  pooling_param {
    pool: MAX
    kernel_size: 3
    stride: 2
  }
}
layers {
  bottom: "pool5"
  top: "fc6"
  name: "fc6"
  type: INNER_PRODUCT
  blobs_lr: 0
  blobs_lr: 0
  weight_decay: 0
  weight_decay: 0
  inner_product_param {
    num_output: 4096
    weight_filler {
      type: "gaussian"
      std: 0.005
    }
    bias_filler {
      type: "constant"
      value: 1
    }
  }
}
layers {
  bottom: "fc6"
  top: "fc6"
  name: "relu6"
  type: RELU
}
layers {
  bottom: "fc6"
  top: "fc6"
  name: "drop6"
  type: DROPOUT
  dropout_param {
    dropout_ratio: 0.5
  }
}
layers {
  bottom: "fc6"
  top: "fc7"
  name: "fc7"
  type: INNER_PRODUCT
  blobs_lr: 0
  blobs_lr: 0
  weight_decay: 0
  weight_decay: 0
  inner_product_param {
    num_output: 4096
    weight_filler {
      type: "gaussian"
      std: 0.005
    }
    bias_filler {
      type: "constant"
      value: 1
    }
  }
}
layers {
  bottom: "fc7"
  top: "fc7"
  name: "relu7"
  type: RELU
}
layers {
  bottom: "fc7"
  top: "fc7"
  name: "drop7"
  type: DROPOUT
  dropout_param {
    dropout_ratio: 0.5
  }
}
layers {
  bottom: "fc7"
  top: "fc8_scrape"
  name: "fc8_scrape"
  type: INNER_PRODUCT
  blobs_lr: 1
  blobs_lr: 2
  weight_decay: 1
  weight_decay: 0
  inner_product_param {
    num_output: 2
    weight_filler {
      type: "gaussian"
      std: 0.01
    }
    bias_filler {
      type: "constant"
      value: 0
    }
  }
}
layers {
  bottom: "fc8_scrape"
  bottom: "label"
  name: "loss"
  type: SOFTMAX_LOSS
}
layers {
  bottom: "fc8_scrape"
  bottom: "label"
  top: "accuracy"
  name: "accuracy"
  type: ACCURACY
  include {
    phase: TEST
  }
}
state {
  phase: TEST
}
I1023 02:00:50.761109 27105 net.cpp:67] Creating Layer data
I1023 02:00:50.761121 27105 net.cpp:356] data -> data
I1023 02:00:50.761136 27105 net.cpp:356] data -> label
I1023 02:00:50.761162 27105 net.cpp:96] Setting up data
I1023 02:00:50.761170 27105 image_data_layer.cpp:30] Opening file data/scrape/val.txt
I1023 02:00:50.762352 27105 image_data_layer.cpp:45] A total of 1433 images.
I1023 02:00:50.765700 27105 image_data_layer.cpp:73] output data size: 120,3,227,227
I1023 02:00:50.765729 27105 base_data_layer.cpp:36] Loading mean file from/homes/ad6813/data/controlpoint_mean_256-227.binaryproto
I1023 02:00:50.789741 27105 net.cpp:103] Top shape: 120 3 227 227 (18550440)
I1023 02:00:50.789774 27105 net.cpp:103] Top shape: 120 1 1 1 (120)
I1023 02:00:50.789793 27105 net.cpp:67] Creating Layer label_data_1_split
I1023 02:00:50.789799 27105 net.cpp:394] label_data_1_split <- label
I1023 02:00:50.789810 27105 net.cpp:356] label_data_1_split -> label_data_1_split_0
I1023 02:00:50.789827 27105 net.cpp:356] label_data_1_split -> label_data_1_split_1
I1023 02:00:50.789837 27105 net.cpp:96] Setting up label_data_1_split
I1023 02:00:50.789849 27105 net.cpp:103] Top shape: 120 1 1 1 (120)
I1023 02:00:50.789855 27105 net.cpp:103] Top shape: 120 1 1 1 (120)
I1023 02:00:50.789870 27105 net.cpp:67] Creating Layer conv1
I1023 02:00:50.789875 27105 net.cpp:394] conv1 <- data
I1023 02:00:50.789885 27105 net.cpp:356] conv1 -> conv1
I1023 02:00:50.789897 27105 net.cpp:96] Setting up conv1
I1023 02:00:50.791621 27105 net.cpp:103] Top shape: 120 96 55 55 (34848000)
I1023 02:00:50.791651 27105 net.cpp:67] Creating Layer relu1
I1023 02:00:50.791657 27105 net.cpp:394] relu1 <- conv1
I1023 02:00:50.791666 27105 net.cpp:345] relu1 -> conv1 (in-place)
I1023 02:00:50.791674 27105 net.cpp:96] Setting up relu1
I1023 02:00:50.791681 27105 net.cpp:103] Top shape: 120 96 55 55 (34848000)
I1023 02:00:50.791689 27105 net.cpp:67] Creating Layer pool1
I1023 02:00:50.791694 27105 net.cpp:394] pool1 <- conv1
I1023 02:00:50.791702 27105 net.cpp:356] pool1 -> pool1
I1023 02:00:50.791712 27105 net.cpp:96] Setting up pool1
I1023 02:00:50.791719 27105 net.cpp:103] Top shape: 120 96 27 27 (8398080)
I1023 02:00:50.791728 27105 net.cpp:67] Creating Layer norm1
I1023 02:00:50.791733 27105 net.cpp:394] norm1 <- pool1
I1023 02:00:50.791741 27105 net.cpp:356] norm1 -> norm1
I1023 02:00:50.791749 27105 net.cpp:96] Setting up norm1
I1023 02:00:50.791756 27105 net.cpp:103] Top shape: 120 96 27 27 (8398080)
I1023 02:00:50.791765 27105 net.cpp:67] Creating Layer conv2
I1023 02:00:50.791771 27105 net.cpp:394] conv2 <- norm1
I1023 02:00:50.791779 27105 net.cpp:356] conv2 -> conv2
I1023 02:00:50.791789 27105 net.cpp:96] Setting up conv2
I1023 02:00:50.806598 27105 net.cpp:103] Top shape: 120 256 27 27 (22394880)
I1023 02:00:50.806643 27105 net.cpp:67] Creating Layer relu2
I1023 02:00:50.806650 27105 net.cpp:394] relu2 <- conv2
I1023 02:00:50.806663 27105 net.cpp:345] relu2 -> conv2 (in-place)
I1023 02:00:50.806674 27105 net.cpp:96] Setting up relu2
I1023 02:00:50.806680 27105 net.cpp:103] Top shape: 120 256 27 27 (22394880)
I1023 02:00:50.806691 27105 net.cpp:67] Creating Layer pool2
I1023 02:00:50.806696 27105 net.cpp:394] pool2 <- conv2
I1023 02:00:50.806704 27105 net.cpp:356] pool2 -> pool2
I1023 02:00:50.806717 27105 net.cpp:96] Setting up pool2
I1023 02:00:50.806726 27105 net.cpp:103] Top shape: 120 256 13 13 (5191680)
I1023 02:00:50.806735 27105 net.cpp:67] Creating Layer norm2
I1023 02:00:50.806740 27105 net.cpp:394] norm2 <- pool2
I1023 02:00:50.806748 27105 net.cpp:356] norm2 -> norm2
I1023 02:00:50.806756 27105 net.cpp:96] Setting up norm2
I1023 02:00:50.806763 27105 net.cpp:103] Top shape: 120 256 13 13 (5191680)
I1023 02:00:50.806788 27105 net.cpp:67] Creating Layer conv3
I1023 02:00:50.806794 27105 net.cpp:394] conv3 <- norm2
I1023 02:00:50.806807 27105 net.cpp:356] conv3 -> conv3
I1023 02:00:50.806818 27105 net.cpp:96] Setting up conv3
I1023 02:00:50.849448 27105 net.cpp:103] Top shape: 120 384 13 13 (7787520)
I1023 02:00:50.849498 27105 net.cpp:67] Creating Layer relu3
I1023 02:00:50.849506 27105 net.cpp:394] relu3 <- conv3
I1023 02:00:50.849519 27105 net.cpp:345] relu3 -> conv3 (in-place)
I1023 02:00:50.849530 27105 net.cpp:96] Setting up relu3
I1023 02:00:50.849536 27105 net.cpp:103] Top shape: 120 384 13 13 (7787520)
I1023 02:00:50.849547 27105 net.cpp:67] Creating Layer conv4
I1023 02:00:50.849552 27105 net.cpp:394] conv4 <- conv3
I1023 02:00:50.849565 27105 net.cpp:356] conv4 -> conv4
I1023 02:00:50.849576 27105 net.cpp:96] Setting up conv4
I1023 02:00:50.881929 27105 net.cpp:103] Top shape: 120 384 13 13 (7787520)
I1023 02:00:50.881973 27105 net.cpp:67] Creating Layer relu4
I1023 02:00:50.881980 27105 net.cpp:394] relu4 <- conv4
I1023 02:00:50.881994 27105 net.cpp:345] relu4 -> conv4 (in-place)
I1023 02:00:50.882004 27105 net.cpp:96] Setting up relu4
I1023 02:00:50.882010 27105 net.cpp:103] Top shape: 120 384 13 13 (7787520)
I1023 02:00:50.882020 27105 net.cpp:67] Creating Layer conv5
I1023 02:00:50.882026 27105 net.cpp:394] conv5 <- conv4
I1023 02:00:50.882037 27105 net.cpp:356] conv5 -> conv5
I1023 02:00:50.882047 27105 net.cpp:96] Setting up conv5
I1023 02:00:50.903594 27105 net.cpp:103] Top shape: 120 256 13 13 (5191680)
I1023 02:00:50.903641 27105 net.cpp:67] Creating Layer relu5
I1023 02:00:50.903650 27105 net.cpp:394] relu5 <- conv5
I1023 02:00:50.903662 27105 net.cpp:345] relu5 -> conv5 (in-place)
I1023 02:00:50.903674 27105 net.cpp:96] Setting up relu5
I1023 02:00:50.903681 27105 net.cpp:103] Top shape: 120 256 13 13 (5191680)
I1023 02:00:50.903692 27105 net.cpp:67] Creating Layer pool5
I1023 02:00:50.903697 27105 net.cpp:394] pool5 <- conv5
I1023 02:00:50.903704 27105 net.cpp:356] pool5 -> pool5
I1023 02:00:50.903714 27105 net.cpp:96] Setting up pool5
I1023 02:00:50.903723 27105 net.cpp:103] Top shape: 120 256 6 6 (1105920)
I1023 02:00:50.903734 27105 net.cpp:67] Creating Layer fc6
I1023 02:00:50.903740 27105 net.cpp:394] fc6 <- pool5
I1023 02:00:50.903748 27105 net.cpp:356] fc6 -> fc6
I1023 02:00:50.903759 27105 net.cpp:96] Setting up fc6
I1023 02:00:52.713728 27105 net.cpp:103] Top shape: 120 4096 1 1 (491520)
I1023 02:00:52.713773 27105 net.cpp:67] Creating Layer relu6
I1023 02:00:52.713783 27105 net.cpp:394] relu6 <- fc6
I1023 02:00:52.713793 27105 net.cpp:345] relu6 -> fc6 (in-place)
I1023 02:00:52.713804 27105 net.cpp:96] Setting up relu6
I1023 02:00:52.713809 27105 net.cpp:103] Top shape: 120 4096 1 1 (491520)
I1023 02:00:52.713820 27105 net.cpp:67] Creating Layer drop6
I1023 02:00:52.713826 27105 net.cpp:394] drop6 <- fc6
I1023 02:00:52.713835 27105 net.cpp:345] drop6 -> fc6 (in-place)
I1023 02:00:52.713842 27105 net.cpp:96] Setting up drop6
I1023 02:00:52.713850 27105 net.cpp:103] Top shape: 120 4096 1 1 (491520)
I1023 02:00:52.713860 27105 net.cpp:67] Creating Layer fc7
I1023 02:00:52.713865 27105 net.cpp:394] fc7 <- fc6
I1023 02:00:52.713872 27105 net.cpp:356] fc7 -> fc7
I1023 02:00:52.713882 27105 net.cpp:96] Setting up fc7
I1023 02:00:53.517118 27105 net.cpp:103] Top shape: 120 4096 1 1 (491520)
I1023 02:00:53.517163 27105 net.cpp:67] Creating Layer relu7
I1023 02:00:53.517173 27105 net.cpp:394] relu7 <- fc7
I1023 02:00:53.517185 27105 net.cpp:345] relu7 -> fc7 (in-place)
I1023 02:00:53.517196 27105 net.cpp:96] Setting up relu7
I1023 02:00:53.517202 27105 net.cpp:103] Top shape: 120 4096 1 1 (491520)
I1023 02:00:53.517211 27105 net.cpp:67] Creating Layer drop7
I1023 02:00:53.517216 27105 net.cpp:394] drop7 <- fc7
I1023 02:00:53.517228 27105 net.cpp:345] drop7 -> fc7 (in-place)
I1023 02:00:53.517237 27105 net.cpp:96] Setting up drop7
I1023 02:00:53.517243 27105 net.cpp:103] Top shape: 120 4096 1 1 (491520)
I1023 02:00:53.517253 27105 net.cpp:67] Creating Layer fc8_scrape
I1023 02:00:53.517271 27105 net.cpp:394] fc8_scrape <- fc7
I1023 02:00:53.517287 27105 net.cpp:356] fc8_scrape -> fc8_scrape
I1023 02:00:53.517302 27105 net.cpp:96] Setting up fc8_scrape
I1023 02:00:53.517724 27105 net.cpp:103] Top shape: 120 2 1 1 (240)
I1023 02:00:53.517742 27105 net.cpp:67] Creating Layer fc8_scrape_fc8_scrape_0_split
I1023 02:00:53.517748 27105 net.cpp:394] fc8_scrape_fc8_scrape_0_split <- fc8_scrape
I1023 02:00:53.517760 27105 net.cpp:356] fc8_scrape_fc8_scrape_0_split -> fc8_scrape_fc8_scrape_0_split_0
I1023 02:00:53.517770 27105 net.cpp:356] fc8_scrape_fc8_scrape_0_split -> fc8_scrape_fc8_scrape_0_split_1
I1023 02:00:53.517779 27105 net.cpp:96] Setting up fc8_scrape_fc8_scrape_0_split
I1023 02:00:53.517786 27105 net.cpp:103] Top shape: 120 2 1 1 (240)
I1023 02:00:53.517791 27105 net.cpp:103] Top shape: 120 2 1 1 (240)
I1023 02:00:53.517802 27105 net.cpp:67] Creating Layer loss
I1023 02:00:53.517807 27105 net.cpp:394] loss <- fc8_scrape_fc8_scrape_0_split_0
I1023 02:00:53.517814 27105 net.cpp:394] loss <- label_data_1_split_0
I1023 02:00:53.517822 27105 net.cpp:356] loss -> (automatic)
I1023 02:00:53.517829 27105 net.cpp:96] Setting up loss
I1023 02:00:53.517839 27105 net.cpp:103] Top shape: 1 1 1 1 (1)
I1023 02:00:53.517844 27105 net.cpp:109]     with loss weight 1
I1023 02:00:53.517868 27105 net.cpp:67] Creating Layer accuracy
I1023 02:00:53.517874 27105 net.cpp:394] accuracy <- fc8_scrape_fc8_scrape_0_split_1
I1023 02:00:53.517880 27105 net.cpp:394] accuracy <- label_data_1_split_1
I1023 02:00:53.517889 27105 net.cpp:356] accuracy -> accuracy
I1023 02:00:53.517897 27105 net.cpp:96] Setting up accuracy
I1023 02:00:53.517911 27105 net.cpp:103] Top shape: 1 1 1 4 (4)
I1023 02:00:53.517917 27105 net.cpp:172] accuracy does not need backward computation.
I1023 02:00:53.517922 27105 net.cpp:170] loss needs backward computation.
I1023 02:00:53.517928 27105 net.cpp:170] fc8_scrape_fc8_scrape_0_split needs backward computation.
I1023 02:00:53.517933 27105 net.cpp:170] fc8_scrape needs backward computation.
I1023 02:00:53.517938 27105 net.cpp:172] drop7 does not need backward computation.
…
