…
I1111 14:12:09.218024 13915 net.cpp:275] The NetState phase (0) differed from the phase (1) specified by a rule in layer accuracy
I1111 14:12:09.218189 13915 net.cpp:39] Initializing net from parameters: 
name: "ClampCaffeNet"
layers {
  top: "data"
  top: "label"
  name: "data"
  type: IMAGE_DATA
  image_data_param {
    source: "data/water_high_blue/train.txt"
    batch_size: 128
    new_height: 256
    new_width: 256
  }
  include {
    phase: TRAIN
  }
  transform_param {
    mirror: true
    crop_size: 227
    mean_file: "/homes/ad6813/data/controlpoint_mean_256-227.binaryproto"
  }
}
layers {
  bottom: "data"
  top: "conv1"
  name: "conv1"
  type: CONVOLUTION
  blobs_lr: 1
  blobs_lr: 2
  weight_decay: 1
  weight_decay: 0
  convolution_param {
    num_output: 96
    kernel_size: 11
    stride: 4
    weight_filler {
      type: "gaussian"
      std: 0.01
    }
    bias_filler {
      type: "constant"
      value: 0
    }
  }
}
layers {
  bottom: "conv1"
  top: "conv1"
  name: "relu1"
  type: RELU
}
layers {
  bottom: "conv1"
  top: "pool1"
  name: "pool1"
  type: POOLING
  pooling_param {
    pool: MAX
    kernel_size: 3
    stride: 2
  }
}
layers {
  bottom: "pool1"
  top: "norm1"
  name: "norm1"
  type: LRN
  lrn_param {
    local_size: 5
    alpha: 0.0001
    beta: 0.75
  }
}
layers {
  bottom: "norm1"
  top: "conv2"
  name: "conv2"
  type: CONVOLUTION
  blobs_lr: 1
  blobs_lr: 2
  weight_decay: 1
  weight_decay: 0
  convolution_param {
    num_output: 256
    pad: 2
    kernel_size: 5
    group: 2
    weight_filler {
      type: "gaussian"
      std: 0.01
    }
    bias_filler {
      type: "constant"
      value: 1
    }
  }
}
layers {
  bottom: "conv2"
  top: "conv2"
  name: "relu2"
  type: RELU
}
layers {
  bottom: "conv2"
  top: "pool2"
  name: "pool2"
  type: POOLING
  pooling_param {
    pool: MAX
    kernel_size: 3
    stride: 2
  }
}
layers {
  bottom: "pool2"
  top: "norm2"
  name: "norm2"
  type: LRN
  lrn_param {
    local_size: 5
    alpha: 0.0001
    beta: 0.75
  }
}
layers {
  bottom: "norm2"
  top: "conv3"
  name: "conv3"
  type: CONVOLUTION
  blobs_lr: 1
  blobs_lr: 2
  weight_decay: 1
  weight_decay: 0
  convolution_param {
    num_output: 384
    pad: 1
    kernel_size: 3
    weight_filler {
      type: "gaussian"
      std: 0.01
    }
    bias_filler {
      type: "constant"
      value: 0
    }
  }
}
layers {
  bottom: "conv3"
  top: "conv3"
  name: "relu3"
  type: RELU
}
layers {
  bottom: "conv3"
  top: "conv4"
  name: "conv4"
  type: CONVOLUTION
  blobs_lr: 1
  blobs_lr: 2
  weight_decay: 1
  weight_decay: 0
  convolution_param {
    num_output: 384
    pad: 1
    kernel_size: 3
    group: 2
    weight_filler {
      type: "gaussian"
      std: 0.01
    }
    bias_filler {
      type: "constant"
      value: 1
    }
  }
}
layers {
  bottom: "conv4"
  top: "conv4"
  name: "relu4"
  type: RELU
}
layers {
  bottom: "conv4"
  top: "conv5"
  name: "conv5"
  type: CONVOLUTION
  blobs_lr: 1
  blobs_lr: 2
  weight_decay: 1
  weight_decay: 0
  convolution_param {
    num_output: 256
    pad: 1
    kernel_size: 3
    group: 2
    weight_filler {
      type: "gaussian"
      std: 0.01
    }
    bias_filler {
      type: "constant"
      value: 1
    }
  }
}
layers {
  bottom: "conv5"
  top: "conv5"
  name: "relu5"
  type: RELU
}
layers {
  bottom: "conv5"
  top: "pool5"
  name: "pool5"
  type: POOLING
  pooling_param {
    pool: MAX
    kernel_size: 3
    stride: 2
  }
}
layers {
  bottom: "pool5"
  top: "fc6"
  name: "fc6"
  type: INNER_PRODUCT
  blobs_lr: 1
  blobs_lr: 2
  weight_decay: 1
  weight_decay: 0
  inner_product_param {
    num_output: 4096
    weight_filler {
      type: "gaussian"
      std: 0.005
    }
    bias_filler {
      type: "constant"
      value: 1
    }
  }
}
layers {
  bottom: "fc6"
  top: "fc6"
  name: "relu6"
  type: RELU
}
layers {
  bottom: "fc6"
  top: "fc6"
  name: "drop6"
  type: DROPOUT
  dropout_param {
    dropout_ratio: 0.5
  }
}
layers {
  bottom: "fc6"
  top: "fc7"
  name: "fc7"
  type: INNER_PRODUCT
  blobs_lr: 1
  blobs_lr: 2
  weight_decay: 1
  weight_decay: 0
  inner_product_param {
    num_output: 4096
    weight_filler {
      type: "gaussian"
      std: 0.005
    }
    bias_filler {
      type: "constant"
      value: 1
    }
  }
}
layers {
  bottom: "fc7"
  top: "fc7"
  name: "relu7"
  type: RELU
}
layers {
  bottom: "fc7"
  top: "fc7"
  name: "drop7"
  type: DROPOUT
  dropout_param {
    dropout_ratio: 0.5
  }
}
layers {
  bottom: "fc7"
  top: "fc8_clamp"
  name: "fc8_clamp"
  type: INNER_PRODUCT
  blobs_lr: 1
  blobs_lr: 2
  weight_decay: 1
  weight_decay: 0
  inner_product_param {
    num_output: 2
    weight_filler {
      type: "gaussian"
      std: 0.01
    }
    bias_filler {
      type: "constant"
      value: 0
    }
  }
}
layers {
  bottom: "fc8_clamp"
  bottom: "label"
  name: "loss"
  type: SOFTMAX_LOSS
}
state {
  phase: TRAIN
}
I1111 14:12:09.218323 13915 net.cpp:67] Creating Layer data
I1111 14:12:09.218340 13915 net.cpp:356] data -> data
I1111 14:12:09.218356 13915 net.cpp:356] data -> label
I1111 14:12:09.218369 13915 net.cpp:96] Setting up data
I1111 14:12:09.218375 13915 image_data_layer.cpp:30] Opening file data/water_high_blue/train.txt
I1111 14:12:09.225782 13915 image_data_layer.cpp:45] A total of 21261 images.
I1111 14:12:09.236878 13915 image_data_layer.cpp:73] output data size: 128,3,227,227
I1111 14:12:09.236912 13915 base_data_layer.cpp:36] Loading mean file from/homes/ad6813/data/controlpoint_mean_256-227.binaryproto
I1111 14:12:09.250497 13915 net.cpp:103] Top shape: 128 3 227 227 (19787136)
I1111 14:12:09.250527 13915 net.cpp:103] Top shape: 128 1 1 1 (128)
I1111 14:12:09.250565 13915 net.cpp:67] Creating Layer conv1
I1111 14:12:09.250571 13915 net.cpp:394] conv1 <- data
I1111 14:12:09.250584 13915 net.cpp:356] conv1 -> conv1
I1111 14:12:09.250602 13915 net.cpp:96] Setting up conv1
I1111 14:12:09.251782 13915 net.cpp:103] Top shape: 128 96 55 55 (37171200)
I1111 14:12:09.251806 13915 net.cpp:67] Creating Layer relu1
I1111 14:12:09.251811 13915 net.cpp:394] relu1 <- conv1
I1111 14:12:09.251817 13915 net.cpp:345] relu1 -> conv1 (in-place)
I1111 14:12:09.251823 13915 net.cpp:96] Setting up relu1
I1111 14:12:09.251829 13915 net.cpp:103] Top shape: 128 96 55 55 (37171200)
I1111 14:12:09.251837 13915 net.cpp:67] Creating Layer pool1
I1111 14:12:09.251842 13915 net.cpp:394] pool1 <- conv1
I1111 14:12:09.251847 13915 net.cpp:356] pool1 -> pool1
I1111 14:12:09.251853 13915 net.cpp:96] Setting up pool1
I1111 14:12:09.251865 13915 net.cpp:103] Top shape: 128 96 27 27 (8957952)
I1111 14:12:09.251873 13915 net.cpp:67] Creating Layer norm1
I1111 14:12:09.251876 13915 net.cpp:394] norm1 <- pool1
I1111 14:12:09.251881 13915 net.cpp:356] norm1 -> norm1
I1111 14:12:09.251890 13915 net.cpp:96] Setting up norm1
I1111 14:12:09.251901 13915 net.cpp:103] Top shape: 128 96 27 27 (8957952)
I1111 14:12:09.251916 13915 net.cpp:67] Creating Layer conv2
I1111 14:12:09.251922 13915 net.cpp:394] conv2 <- norm1
I1111 14:12:09.251927 13915 net.cpp:356] conv2 -> conv2
I1111 14:12:09.251936 13915 net.cpp:96] Setting up conv2
I1111 14:12:09.261189 13915 net.cpp:103] Top shape: 128 256 27 27 (23887872)
I1111 14:12:09.261209 13915 net.cpp:67] Creating Layer relu2
I1111 14:12:09.261214 13915 net.cpp:394] relu2 <- conv2
I1111 14:12:09.261219 13915 net.cpp:345] relu2 -> conv2 (in-place)
I1111 14:12:09.261224 13915 net.cpp:96] Setting up relu2
I1111 14:12:09.261226 13915 net.cpp:103] Top shape: 128 256 27 27 (23887872)
I1111 14:12:09.261231 13915 net.cpp:67] Creating Layer pool2
I1111 14:12:09.261242 13915 net.cpp:394] pool2 <- conv2
I1111 14:12:09.261247 13915 net.cpp:356] pool2 -> pool2
I1111 14:12:09.261252 13915 net.cpp:96] Setting up pool2
I1111 14:12:09.261256 13915 net.cpp:103] Top shape: 128 256 13 13 (5537792)
I1111 14:12:09.261265 13915 net.cpp:67] Creating Layer norm2
I1111 14:12:09.261268 13915 net.cpp:394] norm2 <- pool2
I1111 14:12:09.261272 13915 net.cpp:356] norm2 -> norm2
I1111 14:12:09.261277 13915 net.cpp:96] Setting up norm2
I1111 14:12:09.261281 13915 net.cpp:103] Top shape: 128 256 13 13 (5537792)
I1111 14:12:09.261286 13915 net.cpp:67] Creating Layer conv3
I1111 14:12:09.261289 13915 net.cpp:394] conv3 <- norm2
I1111 14:12:09.261294 13915 net.cpp:356] conv3 -> conv3
I1111 14:12:09.261299 13915 net.cpp:96] Setting up conv3
I1111 14:12:09.284092 13915 net.cpp:103] Top shape: 128 384 13 13 (8306688)
I1111 14:12:09.284122 13915 net.cpp:67] Creating Layer relu3
I1111 14:12:09.284127 13915 net.cpp:394] relu3 <- conv3
I1111 14:12:09.284133 13915 net.cpp:345] relu3 -> conv3 (in-place)
I1111 14:12:09.284139 13915 net.cpp:96] Setting up relu3
I1111 14:12:09.284142 13915 net.cpp:103] Top shape: 128 384 13 13 (8306688)
I1111 14:12:09.284149 13915 net.cpp:67] Creating Layer conv4
I1111 14:12:09.284152 13915 net.cpp:394] conv4 <- conv3
I1111 14:12:09.284162 13915 net.cpp:356] conv4 -> conv4
I1111 14:12:09.284171 13915 net.cpp:96] Setting up conv4
I1111 14:12:09.301069 13915 net.cpp:103] Top shape: 128 384 13 13 (8306688)
I1111 14:12:09.301092 13915 net.cpp:67] Creating Layer relu4
I1111 14:12:09.301097 13915 net.cpp:394] relu4 <- conv4
I1111 14:12:09.301102 13915 net.cpp:345] relu4 -> conv4 (in-place)
I1111 14:12:09.301107 13915 net.cpp:96] Setting up relu4
I1111 14:12:09.301111 13915 net.cpp:103] Top shape: 128 384 13 13 (8306688)
I1111 14:12:09.301117 13915 net.cpp:67] Creating Layer conv5
I1111 14:12:09.301120 13915 net.cpp:394] conv5 <- conv4
I1111 14:12:09.301125 13915 net.cpp:356] conv5 -> conv5
I1111 14:12:09.301131 13915 net.cpp:96] Setting up conv5
I1111 14:12:09.312559 13915 net.cpp:103] Top shape: 128 256 13 13 (5537792)
I1111 14:12:09.312579 13915 net.cpp:67] Creating Layer relu5
I1111 14:12:09.312583 13915 net.cpp:394] relu5 <- conv5
I1111 14:12:09.312588 13915 net.cpp:345] relu5 -> conv5 (in-place)
I1111 14:12:09.312593 13915 net.cpp:96] Setting up relu5
I1111 14:12:09.312597 13915 net.cpp:103] Top shape: 128 256 13 13 (5537792)
I1111 14:12:09.312602 13915 net.cpp:67] Creating Layer pool5
I1111 14:12:09.312604 13915 net.cpp:394] pool5 <- conv5
I1111 14:12:09.312608 13915 net.cpp:356] pool5 -> pool5
I1111 14:12:09.312613 13915 net.cpp:96] Setting up pool5
I1111 14:12:09.312620 13915 net.cpp:103] Top shape: 128 256 6 6 (1179648)
I1111 14:12:09.312628 13915 net.cpp:67] Creating Layer fc6
I1111 14:12:09.312633 13915 net.cpp:394] fc6 <- pool5
I1111 14:12:09.312636 13915 net.cpp:356] fc6 -> fc6
I1111 14:12:09.312641 13915 net.cpp:96] Setting up fc6
I1111 14:12:10.259549 13915 net.cpp:103] Top shape: 128 4096 1 1 (524288)
I1111 14:12:10.259596 13915 net.cpp:67] Creating Layer relu6
I1111 14:12:10.259603 13915 net.cpp:394] relu6 <- fc6
I1111 14:12:10.259609 13915 net.cpp:345] relu6 -> fc6 (in-place)
I1111 14:12:10.259616 13915 net.cpp:96] Setting up relu6
I1111 14:12:10.259619 13915 net.cpp:103] Top shape: 128 4096 1 1 (524288)
I1111 14:12:10.259624 13915 net.cpp:67] Creating Layer drop6
I1111 14:12:10.259627 13915 net.cpp:394] drop6 <- fc6
I1111 14:12:10.259631 13915 net.cpp:345] drop6 -> fc6 (in-place)
I1111 14:12:10.259640 13915 net.cpp:96] Setting up drop6
I1111 14:12:10.259646 13915 net.cpp:103] Top shape: 128 4096 1 1 (524288)
I1111 14:12:10.259652 13915 net.cpp:67] Creating Layer fc7
I1111 14:12:10.259655 13915 net.cpp:394] fc7 <- fc6
I1111 14:12:10.259660 13915 net.cpp:356] fc7 -> fc7
I1111 14:12:10.259666 13915 net.cpp:96] Setting up fc7
I1111 14:12:10.677117 13915 net.cpp:103] Top shape: 128 4096 1 1 (524288)
I1111 14:12:10.677153 13915 net.cpp:67] Creating Layer relu7
I1111 14:12:10.677160 13915 net.cpp:394] relu7 <- fc7
I1111 14:12:10.677176 13915 net.cpp:345] relu7 -> fc7 (in-place)
I1111 14:12:10.677183 13915 net.cpp:96] Setting up relu7
I1111 14:12:10.677187 13915 net.cpp:103] Top shape: 128 4096 1 1 (524288)
I1111 14:12:10.677192 13915 net.cpp:67] Creating Layer drop7
I1111 14:12:10.677196 13915 net.cpp:394] drop7 <- fc7
I1111 14:12:10.677199 13915 net.cpp:345] drop7 -> fc7 (in-place)
I1111 14:12:10.677203 13915 net.cpp:96] Setting up drop7
I1111 14:12:10.677206 13915 net.cpp:103] Top shape: 128 4096 1 1 (524288)
I1111 14:12:10.677212 13915 net.cpp:67] Creating Layer fc8_clamp
I1111 14:12:10.677216 13915 net.cpp:394] fc8_clamp <- fc7
I1111 14:12:10.677220 13915 net.cpp:356] fc8_clamp -> fc8_clamp
I1111 14:12:10.677227 13915 net.cpp:96] Setting up fc8_clamp
I1111 14:12:10.677464 13915 net.cpp:103] Top shape: 128 2 1 1 (256)
I1111 14:12:10.677474 13915 net.cpp:67] Creating Layer loss
I1111 14:12:10.677476 13915 net.cpp:394] loss <- fc8_clamp
I1111 14:12:10.677480 13915 net.cpp:394] loss <- label
I1111 14:12:10.677486 13915 net.cpp:356] loss -> (automatic)
I1111 14:12:10.677490 13915 net.cpp:96] Setting up loss
I1111 14:12:10.677500 13915 net.cpp:103] Top shape: 1 1 1 1 (1)
I1111 14:12:10.677505 13915 net.cpp:109]     with loss weight 1
I1111 14:12:10.677541 13915 net.cpp:170] loss needs backward computation.
I1111 14:12:10.677544 13915 net.cpp:170] fc8_clamp needs backward computation.
I1111 14:12:10.677547 13915 net.cpp:170] drop7 needs backward computation.
I1111 14:12:10.677549 13915 net.cpp:170] relu7 needs backward computation.
I1111 14:12:10.677552 13915 net.cpp:170] fc7 needs backward computation.
…
I1111 14:12:10.678270 13915 solver.cpp:151] Creating test net (#0) specified by net file: task/water_high_blue/train_val.prototxt
I1111 14:12:10.678308 13915 net.cpp:275] The NetState phase (1) differed from the phase (0) specified by a rule in layer data
I1111 14:12:10.678473 13915 net.cpp:39] Initializing net from parameters: 
name: "ClampCaffeNet"
layers {
  top: "data"
  top: "label"
  name: "data"
  type: IMAGE_DATA
  image_data_param {
    source: "data/water_high_blue/val.txt"
    batch_size: 161
    new_height: 256
    new_width: 256
  }
  include {
    phase: TEST
  }
  transform_param {
    mirror: true
    crop_size: 227
    mean_file: "/homes/ad6813/data/controlpoint_mean_256-227.binaryproto"
  }
}
layers {
  bottom: "data"
  top: "conv1"
  name: "conv1"
  type: CONVOLUTION
  blobs_lr: 1
  blobs_lr: 2
  weight_decay: 1
  weight_decay: 0
  convolution_param {
    num_output: 96
    kernel_size: 11
    stride: 4
    weight_filler {
      type: "gaussian"
      std: 0.01
    }
    bias_filler {
      type: "constant"
      value: 0
    }
  }
}
layers {
  bottom: "conv1"
  top: "conv1"
  name: "relu1"
  type: RELU
}
layers {
  bottom: "conv1"
  top: "pool1"
  name: "pool1"
  type: POOLING
  pooling_param {
    pool: MAX
    kernel_size: 3
    stride: 2
  }
}
layers {
  bottom: "pool1"
  top: "norm1"
  name: "norm1"
  type: LRN
  lrn_param {
    local_size: 5
    alpha: 0.0001
    beta: 0.75
  }
}
layers {
  bottom: "norm1"
  top: "conv2"
  name: "conv2"
  type: CONVOLUTION
  blobs_lr: 1
  blobs_lr: 2
  weight_decay: 1
  weight_decay: 0
  convolution_param {
    num_output: 256
    pad: 2
    kernel_size: 5
    group: 2
    weight_filler {
      type: "gaussian"
      std: 0.01
    }
    bias_filler {
      type: "constant"
      value: 1
    }
  }
}
layers {
  bottom: "conv2"
  top: "conv2"
  name: "relu2"
  type: RELU
}
layers {
  bottom: "conv2"
  top: "pool2"
  name: "pool2"
  type: POOLING
  pooling_param {
    pool: MAX
    kernel_size: 3
    stride: 2
  }
}
layers {
  bottom: "pool2"
  top: "norm2"
  name: "norm2"
  type: LRN
  lrn_param {
    local_size: 5
    alpha: 0.0001
    beta: 0.75
  }
}
layers {
  bottom: "norm2"
  top: "conv3"
  name: "conv3"
  type: CONVOLUTION
  blobs_lr: 1
  blobs_lr: 2
  weight_decay: 1
  weight_decay: 0
  convolution_param {
    num_output: 384
    pad: 1
    kernel_size: 3
    weight_filler {
      type: "gaussian"
      std: 0.01
    }
    bias_filler {
      type: "constant"
      value: 0
    }
  }
}
layers {
  bottom: "conv3"
  top: "conv3"
  name: "relu3"
  type: RELU
}
layers {
  bottom: "conv3"
  top: "conv4"
  name: "conv4"
  type: CONVOLUTION
  blobs_lr: 1
  blobs_lr: 2
  weight_decay: 1
  weight_decay: 0
  convolution_param {
    num_output: 384
    pad: 1
    kernel_size: 3
    group: 2
    weight_filler {
      type: "gaussian"
      std: 0.01
    }
    bias_filler {
      type: "constant"
      value: 1
    }
  }
}
layers {
  bottom: "conv4"
  top: "conv4"
  name: "relu4"
  type: RELU
}
layers {
  bottom: "conv4"
  top: "conv5"
  name: "conv5"
  type: CONVOLUTION
  blobs_lr: 1
  blobs_lr: 2
  weight_decay: 1
  weight_decay: 0
  convolution_param {
    num_output: 256
    pad: 1
    kernel_size: 3
    group: 2
    weight_filler {
      type: "gaussian"
      std: 0.01
    }
    bias_filler {
      type: "constant"
      value: 1
    }
  }
}
layers {
  bottom: "conv5"
  top: "conv5"
  name: "relu5"
  type: RELU
}
layers {
  bottom: "conv5"
  top: "pool5"
  name: "pool5"
  type: POOLING
  pooling_param {
    pool: MAX
    kernel_size: 3
    stride: 2
  }
}
layers {
  bottom: "pool5"
  top: "fc6"
  name: "fc6"
  type: INNER_PRODUCT
  blobs_lr: 1
  blobs_lr: 2
  weight_decay: 1
  weight_decay: 0
  inner_product_param {
    num_output: 4096
    weight_filler {
      type: "gaussian"
      std: 0.005
    }
    bias_filler {
      type: "constant"
      value: 1
    }
  }
}
layers {
  bottom: "fc6"
  top: "fc6"
  name: "relu6"
  type: RELU
}
layers {
  bottom: "fc6"
  top: "fc6"
  name: "drop6"
  type: DROPOUT
  dropout_param {
    dropout_ratio: 0.5
  }
}
layers {
  bottom: "fc6"
  top: "fc7"
  name: "fc7"
  type: INNER_PRODUCT
  blobs_lr: 1
  blobs_lr: 2
  weight_decay: 1
  weight_decay: 0
  inner_product_param {
    num_output: 4096
    weight_filler {
      type: "gaussian"
      std: 0.005
    }
    bias_filler {
      type: "constant"
      value: 1
    }
  }
}
layers {
  bottom: "fc7"
  top: "fc7"
  name: "relu7"
  type: RELU
}
layers {
  bottom: "fc7"
  top: "fc7"
  name: "drop7"
  type: DROPOUT
  dropout_param {
    dropout_ratio: 0.5
  }
}
layers {
  bottom: "fc7"
  top: "fc8_clamp"
  name: "fc8_clamp"
  type: INNER_PRODUCT
  blobs_lr: 1
  blobs_lr: 2
  weight_decay: 1
  weight_decay: 0
  inner_product_param {
    num_output: 2
    weight_filler {
      type: "gaussian"
      std: 0.01
    }
    bias_filler {
      type: "constant"
      value: 0
    }
  }
}
layers {
  bottom: "fc8_clamp"
  bottom: "label"
  name: "loss"
  type: SOFTMAX_LOSS
}
layers {
  bottom: "fc8_clamp"
  bottom: "label"
  top: "accuracy"
  name: "accuracy"
  type: PER_CLASS_ACCURACY
  include {
    phase: TEST
  }
}
state {
  phase: TEST
}
I1111 14:12:10.678583 13915 net.cpp:67] Creating Layer data
I1111 14:12:10.678589 13915 net.cpp:356] data -> data
I1111 14:12:10.678597 13915 net.cpp:356] data -> label
I1111 14:12:10.678607 13915 net.cpp:96] Setting up data
I1111 14:12:10.678611 13915 image_data_layer.cpp:30] Opening file data/water_high_blue/val.txt
I1111 14:12:10.679365 13915 image_data_layer.cpp:45] A total of 1936 images.
I1111 14:12:10.685909 13915 image_data_layer.cpp:73] output data size: 161,3,227,227
I1111 14:12:10.685924 13915 base_data_layer.cpp:36] Loading mean file from/homes/ad6813/data/controlpoint_mean_256-227.binaryproto
I1111 14:12:10.699101 13915 net.cpp:103] Top shape: 161 3 227 227 (24888507)
I1111 14:12:10.699127 13915 net.cpp:103] Top shape: 161 1 1 1 (161)
I1111 14:12:10.699138 13915 net.cpp:67] Creating Layer label_data_1_split
I1111 14:12:10.699142 13915 net.cpp:394] label_data_1_split <- label
I1111 14:12:10.699149 13915 net.cpp:356] label_data_1_split -> label_data_1_split_0
I1111 14:12:10.699159 13915 net.cpp:356] label_data_1_split -> label_data_1_split_1
I1111 14:12:10.699164 13915 net.cpp:96] Setting up label_data_1_split
I1111 14:12:10.699187 13915 net.cpp:103] Top shape: 161 1 1 1 (161)
I1111 14:12:10.699190 13915 net.cpp:103] Top shape: 161 1 1 1 (161)
I1111 14:12:10.699203 13915 net.cpp:67] Creating Layer conv1
I1111 14:12:10.699206 13915 net.cpp:394] conv1 <- data
I1111 14:12:10.699213 13915 net.cpp:356] conv1 -> conv1
I1111 14:12:10.699219 13915 net.cpp:96] Setting up conv1
I1111 14:12:10.700147 13915 net.cpp:103] Top shape: 161 96 55 55 (46754400)
I1111 14:12:10.700165 13915 net.cpp:67] Creating Layer relu1
I1111 14:12:10.700167 13915 net.cpp:394] relu1 <- conv1
I1111 14:12:10.700172 13915 net.cpp:345] relu1 -> conv1 (in-place)
I1111 14:12:10.700176 13915 net.cpp:96] Setting up relu1
I1111 14:12:10.700180 13915 net.cpp:103] Top shape: 161 96 55 55 (46754400)
I1111 14:12:10.700186 13915 net.cpp:67] Creating Layer pool1
I1111 14:12:10.700187 13915 net.cpp:394] pool1 <- conv1
I1111 14:12:10.700191 13915 net.cpp:356] pool1 -> pool1
I1111 14:12:10.700196 13915 net.cpp:96] Setting up pool1
I1111 14:12:10.700201 13915 net.cpp:103] Top shape: 161 96 27 27 (11267424)
I1111 14:12:10.700206 13915 net.cpp:67] Creating Layer norm1
I1111 14:12:10.700209 13915 net.cpp:394] norm1 <- pool1
I1111 14:12:10.700213 13915 net.cpp:356] norm1 -> norm1
I1111 14:12:10.700217 13915 net.cpp:96] Setting up norm1
I1111 14:12:10.700222 13915 net.cpp:103] Top shape: 161 96 27 27 (11267424)
I1111 14:12:10.700227 13915 net.cpp:67] Creating Layer conv2
I1111 14:12:10.700229 13915 net.cpp:394] conv2 <- norm1
I1111 14:12:10.700254 13915 net.cpp:356] conv2 -> conv2
I1111 14:12:10.700259 13915 net.cpp:96] Setting up conv2
I1111 14:12:10.708060 13915 net.cpp:103] Top shape: 161 256 27 27 (30046464)
I1111 14:12:10.708075 13915 net.cpp:67] Creating Layer relu2
I1111 14:12:10.708078 13915 net.cpp:394] relu2 <- conv2
I1111 14:12:10.708082 13915 net.cpp:345] relu2 -> conv2 (in-place)
I1111 14:12:10.708087 13915 net.cpp:96] Setting up relu2
I1111 14:12:10.708091 13915 net.cpp:103] Top shape: 161 256 27 27 (30046464)
I1111 14:12:10.708096 13915 net.cpp:67] Creating Layer pool2
I1111 14:12:10.708098 13915 net.cpp:394] pool2 <- conv2
I1111 14:12:10.708102 13915 net.cpp:356] pool2 -> pool2
I1111 14:12:10.708107 13915 net.cpp:96] Setting up pool2
I1111 14:12:10.708112 13915 net.cpp:103] Top shape: 161 256 13 13 (6965504)
I1111 14:12:10.708117 13915 net.cpp:67] Creating Layer norm2
I1111 14:12:10.708119 13915 net.cpp:394] norm2 <- pool2
I1111 14:12:10.708123 13915 net.cpp:356] norm2 -> norm2
I1111 14:12:10.708127 13915 net.cpp:96] Setting up norm2
I1111 14:12:10.708132 13915 net.cpp:103] Top shape: 161 256 13 13 (6965504)
I1111 14:12:10.708137 13915 net.cpp:67] Creating Layer conv3
I1111 14:12:10.708139 13915 net.cpp:394] conv3 <- norm2
I1111 14:12:10.708153 13915 net.cpp:356] conv3 -> conv3
I1111 14:12:10.708158 13915 net.cpp:96] Setting up conv3
I1111 14:12:10.730831 13915 net.cpp:103] Top shape: 161 384 13 13 (10448256)
I1111 14:12:10.730865 13915 net.cpp:67] Creating Layer relu3
I1111 14:12:10.730869 13915 net.cpp:394] relu3 <- conv3
I1111 14:12:10.730875 13915 net.cpp:345] relu3 -> conv3 (in-place)
I1111 14:12:10.730881 13915 net.cpp:96] Setting up relu3
I1111 14:12:10.730885 13915 net.cpp:103] Top shape: 161 384 13 13 (10448256)
I1111 14:12:10.730891 13915 net.cpp:67] Creating Layer conv4
I1111 14:12:10.730895 13915 net.cpp:394] conv4 <- conv3
I1111 14:12:10.730900 13915 net.cpp:356] conv4 -> conv4
I1111 14:12:10.730904 13915 net.cpp:96] Setting up conv4
I1111 14:12:10.747783 13915 net.cpp:103] Top shape: 161 384 13 13 (10448256)
I1111 14:12:10.747812 13915 net.cpp:67] Creating Layer relu4
I1111 14:12:10.747817 13915 net.cpp:394] relu4 <- conv4
I1111 14:12:10.747823 13915 net.cpp:345] relu4 -> conv4 (in-place)
I1111 14:12:10.747829 13915 net.cpp:96] Setting up relu4
I1111 14:12:10.747833 13915 net.cpp:103] Top shape: 161 384 13 13 (10448256)
I1111 14:12:10.747839 13915 net.cpp:67] Creating Layer conv5
I1111 14:12:10.747843 13915 net.cpp:394] conv5 <- conv4
I1111 14:12:10.747848 13915 net.cpp:356] conv5 -> conv5
I1111 14:12:10.747853 13915 net.cpp:96] Setting up conv5
I1111 14:12:10.759264 13915 net.cpp:103] Top shape: 161 256 13 13 (6965504)
I1111 14:12:10.759292 13915 net.cpp:67] Creating Layer relu5
I1111 14:12:10.759296 13915 net.cpp:394] relu5 <- conv5
I1111 14:12:10.759302 13915 net.cpp:345] relu5 -> conv5 (in-place)
I1111 14:12:10.759309 13915 net.cpp:96] Setting up relu5
I1111 14:12:10.759312 13915 net.cpp:103] Top shape: 161 256 13 13 (6965504)
I1111 14:12:10.759318 13915 net.cpp:67] Creating Layer pool5
I1111 14:12:10.759321 13915 net.cpp:394] pool5 <- conv5
I1111 14:12:10.759326 13915 net.cpp:356] pool5 -> pool5
I1111 14:12:10.759330 13915 net.cpp:96] Setting up pool5
I1111 14:12:10.759335 13915 net.cpp:103] Top shape: 161 256 6 6 (1483776)
I1111 14:12:10.759342 13915 net.cpp:67] Creating Layer fc6
I1111 14:12:10.759346 13915 net.cpp:394] fc6 <- pool5
I1111 14:12:10.759351 13915 net.cpp:356] fc6 -> fc6
I1111 14:12:10.759356 13915 net.cpp:96] Setting up fc6
I1111 14:12:11.712303 13915 net.cpp:103] Top shape: 161 4096 1 1 (659456)
I1111 14:12:11.712335 13915 net.cpp:67] Creating Layer relu6
I1111 14:12:11.712340 13915 net.cpp:394] relu6 <- fc6
I1111 14:12:11.712347 13915 net.cpp:345] relu6 -> fc6 (in-place)
I1111 14:12:11.712353 13915 net.cpp:96] Setting up relu6
I1111 14:12:11.712357 13915 net.cpp:103] Top shape: 161 4096 1 1 (659456)
I1111 14:12:11.712363 13915 net.cpp:67] Creating Layer drop6
I1111 14:12:11.712366 13915 net.cpp:394] drop6 <- fc6
I1111 14:12:11.712371 13915 net.cpp:345] drop6 -> fc6 (in-place)
I1111 14:12:11.712375 13915 net.cpp:96] Setting up drop6
I1111 14:12:11.712379 13915 net.cpp:103] Top shape: 161 4096 1 1 (659456)
I1111 14:12:11.712385 13915 net.cpp:67] Creating Layer fc7
I1111 14:12:11.712388 13915 net.cpp:394] fc7 <- fc6
I1111 14:12:11.712393 13915 net.cpp:356] fc7 -> fc7
I1111 14:12:11.712399 13915 net.cpp:96] Setting up fc7
I1111 14:12:12.125469 13915 net.cpp:103] Top shape: 161 4096 1 1 (659456)
I1111 14:12:12.125515 13915 net.cpp:67] Creating Layer relu7
I1111 14:12:12.125520 13915 net.cpp:394] relu7 <- fc7
I1111 14:12:12.125527 13915 net.cpp:345] relu7 -> fc7 (in-place)
I1111 14:12:12.125535 13915 net.cpp:96] Setting up relu7
I1111 14:12:12.125537 13915 net.cpp:103] Top shape: 161 4096 1 1 (659456)
I1111 14:12:12.125543 13915 net.cpp:67] Creating Layer drop7
I1111 14:12:12.125546 13915 net.cpp:394] drop7 <- fc7
I1111 14:12:12.125551 13915 net.cpp:345] drop7 -> fc7 (in-place)
I1111 14:12:12.125555 13915 net.cpp:96] Setting up drop7
I1111 14:12:12.125560 13915 net.cpp:103] Top shape: 161 4096 1 1 (659456)
I1111 14:12:12.125566 13915 net.cpp:67] Creating Layer fc8_clamp
I1111 14:12:12.125568 13915 net.cpp:394] fc8_clamp <- fc7
I1111 14:12:12.125573 13915 net.cpp:356] fc8_clamp -> fc8_clamp
I1111 14:12:12.125591 13915 net.cpp:96] Setting up fc8_clamp
I1111 14:12:12.125818 13915 net.cpp:103] Top shape: 161 2 1 1 (322)
I1111 14:12:12.125830 13915 net.cpp:67] Creating Layer fc8_clamp_fc8_clamp_0_split
I1111 14:12:12.125833 13915 net.cpp:394] fc8_clamp_fc8_clamp_0_split <- fc8_clamp
I1111 14:12:12.125838 13915 net.cpp:356] fc8_clamp_fc8_clamp_0_split -> fc8_clamp_fc8_clamp_0_split_0
I1111 14:12:12.125844 13915 net.cpp:356] fc8_clamp_fc8_clamp_0_split -> fc8_clamp_fc8_clamp_0_split_1
I1111 14:12:12.125849 13915 net.cpp:96] Setting up fc8_clamp_fc8_clamp_0_split
I1111 14:12:12.125856 13915 net.cpp:103] Top shape: 161 2 1 1 (322)
I1111 14:12:12.125859 13915 net.cpp:103] Top shape: 161 2 1 1 (322)
I1111 14:12:12.125869 13915 net.cpp:67] Creating Layer loss
I1111 14:12:12.125874 13915 net.cpp:394] loss <- fc8_clamp_fc8_clamp_0_split_0
I1111 14:12:12.125877 13915 net.cpp:394] loss <- label_data_1_split_0
I1111 14:12:12.125882 13915 net.cpp:356] loss -> (automatic)
I1111 14:12:12.125892 13915 net.cpp:96] Setting up loss
I1111 14:12:12.125900 13915 net.cpp:103] Top shape: 1 1 1 1 (1)
I1111 14:12:12.125902 13915 net.cpp:109]     with loss weight 1
I1111 14:12:12.125921 13915 net.cpp:67] Creating Layer accuracy
I1111 14:12:12.125923 13915 net.cpp:394] accuracy <- fc8_clamp_fc8_clamp_0_split_1
I1111 14:12:12.125926 13915 net.cpp:394] accuracy <- label_data_1_split_1
I1111 14:12:12.125931 13915 net.cpp:356] accuracy -> accuracy
I1111 14:12:12.125941 13915 net.cpp:96] Setting up accuracy
I1111 14:12:12.125949 13915 net.cpp:103] Top shape: 1 1 1 4 (4)
I1111 14:12:12.125954 13915 net.cpp:172] accuracy does not need backward computation.
I1111 14:12:12.125957 13915 net.cpp:170] loss needs backward computation.
I1111 14:12:12.125960 13915 net.cpp:170] fc8_clamp_fc8_clamp_0_split needs backward computation.
I1111 14:12:12.125963 13915 net.cpp:170] fc8_clamp needs backward computation.
I1111 14:12:12.125967 13915 net.cpp:170] drop7 needs backward computation.
…
