…
I1111 04:48:05.920696 29664 net.cpp:275] The NetState phase (0) differed from the phase (1) specified by a rule in layer accuracy
I1111 04:48:05.920841 29664 net.cpp:39] Initializing net from parameters: 
name: "ClampCaffeNet"
layers {
  top: "data"
  top: "label"
  name: "data"
  type: IMAGE_DATA
  image_data_param {
    source: "data/water_high_blue/train.txt"
    batch_size: 128
    new_height: 256
    new_width: 256
  }
  include {
    phase: TRAIN
  }
  transform_param {
    mirror: true
    crop_size: 227
    mean_file: "/homes/ad6813/data/controlpoint_mean_256-227.binaryproto"
  }
}
layers {
  bottom: "data"
  top: "conv1"
  name: "conv1"
  type: CONVOLUTION
  blobs_lr: 1
  blobs_lr: 2
  weight_decay: 1
  weight_decay: 0
  convolution_param {
    num_output: 96
    kernel_size: 11
    stride: 4
    weight_filler {
      type: "gaussian"
      std: 0.01
    }
    bias_filler {
      type: "constant"
      value: 0
    }
  }
}
layers {
  bottom: "conv1"
  top: "conv1"
  name: "relu1"
  type: RELU
}
layers {
  bottom: "conv1"
  top: "pool1"
  name: "pool1"
  type: POOLING
  pooling_param {
    pool: MAX
    kernel_size: 3
    stride: 2
  }
}
layers {
  bottom: "pool1"
  top: "norm1"
  name: "norm1"
  type: LRN
  lrn_param {
    local_size: 5
    alpha: 0.0001
    beta: 0.75
  }
}
layers {
  bottom: "norm1"
  top: "conv2"
  name: "conv2"
  type: CONVOLUTION
  blobs_lr: 1
  blobs_lr: 2
  weight_decay: 1
  weight_decay: 0
  convolution_param {
    num_output: 256
    pad: 2
    kernel_size: 5
    group: 2
    weight_filler {
      type: "gaussian"
      std: 0.01
    }
    bias_filler {
      type: "constant"
      value: 1
    }
  }
}
layers {
  bottom: "conv2"
  top: "conv2"
  name: "relu2"
  type: RELU
}
layers {
  bottom: "conv2"
  top: "pool2"
  name: "pool2"
  type: POOLING
  pooling_param {
    pool: MAX
    kernel_size: 3
    stride: 2
  }
}
layers {
  bottom: "pool2"
  top: "norm2"
  name: "norm2"
  type: LRN
  lrn_param {
    local_size: 5
    alpha: 0.0001
    beta: 0.75
  }
}
layers {
  bottom: "norm2"
  top: "conv3"
  name: "conv3"
  type: CONVOLUTION
  blobs_lr: 1
  blobs_lr: 2
  weight_decay: 1
  weight_decay: 0
  convolution_param {
    num_output: 384
    pad: 1
    kernel_size: 3
    weight_filler {
      type: "gaussian"
      std: 0.01
    }
    bias_filler {
      type: "constant"
      value: 0
    }
  }
}
layers {
  bottom: "conv3"
  top: "conv3"
  name: "relu3"
  type: RELU
}
layers {
  bottom: "conv3"
  top: "conv4"
  name: "conv4"
  type: CONVOLUTION
  blobs_lr: 1
  blobs_lr: 2
  weight_decay: 1
  weight_decay: 0
  convolution_param {
    num_output: 384
    pad: 1
    kernel_size: 3
    group: 2
    weight_filler {
      type: "gaussian"
      std: 0.01
    }
    bias_filler {
      type: "constant"
      value: 1
    }
  }
}
layers {
  bottom: "conv4"
  top: "conv4"
  name: "relu4"
  type: RELU
}
layers {
  bottom: "conv4"
  top: "conv5"
  name: "conv5"
  type: CONVOLUTION
  blobs_lr: 1
  blobs_lr: 2
  weight_decay: 1
  weight_decay: 0
  convolution_param {
    num_output: 256
    pad: 1
    kernel_size: 3
    group: 2
    weight_filler {
      type: "gaussian"
      std: 0.01
    }
    bias_filler {
      type: "constant"
      value: 1
    }
  }
}
layers {
  bottom: "conv5"
  top: "conv5"
  name: "relu5"
  type: RELU
}
layers {
  bottom: "conv5"
  top: "pool5"
  name: "pool5"
  type: POOLING
  pooling_param {
    pool: MAX
    kernel_size: 3
    stride: 2
  }
}
layers {
  bottom: "pool5"
  top: "fc6"
  name: "fc6"
  type: INNER_PRODUCT
  blobs_lr: 1
  blobs_lr: 2
  weight_decay: 1
  weight_decay: 0
  inner_product_param {
    num_output: 4096
    weight_filler {
      type: "gaussian"
      std: 0.005
    }
    bias_filler {
      type: "constant"
      value: 1
    }
  }
}
layers {
  bottom: "fc6"
  top: "fc6"
  name: "relu6"
  type: RELU
}
layers {
  bottom: "fc6"
  top: "fc6"
  name: "drop6"
  type: DROPOUT
  dropout_param {
    dropout_ratio: 0.5
  }
}
layers {
  bottom: "fc6"
  top: "fc7"
  name: "fc7"
  type: INNER_PRODUCT
  blobs_lr: 1
  blobs_lr: 2
  weight_decay: 1
  weight_decay: 0
  inner_product_param {
    num_output: 4096
    weight_filler {
      type: "gaussian"
      std: 0.005
    }
    bias_filler {
      type: "constant"
      value: 1
    }
  }
}
layers {
  bottom: "fc7"
  top: "fc7"
  name: "relu7"
  type: RELU
}
layers {
  bottom: "fc7"
  top: "fc7"
  name: "drop7"
  type: DROPOUT
  dropout_param {
    dropout_ratio: 0.5
  }
}
layers {
  bottom: "fc7"
  top: "fc8_clamp"
  name: "fc8_clamp"
  type: INNER_PRODUCT
  blobs_lr: 1
  blobs_lr: 2
  weight_decay: 1
  weight_decay: 0
  inner_product_param {
    num_output: 2
    weight_filler {
      type: "gaussian"
      std: 0.01
    }
    bias_filler {
      type: "constant"
      value: 0
    }
  }
}
layers {
  bottom: "fc8_clamp"
  bottom: "label"
  name: "loss"
  type: SOFTMAX_LOSS
}
state {
  phase: TRAIN
}
I1111 04:48:05.920936 29664 net.cpp:67] Creating Layer data
I1111 04:48:05.920948 29664 net.cpp:356] data -> data
I1111 04:48:05.920964 29664 net.cpp:356] data -> label
I1111 04:48:05.920976 29664 net.cpp:96] Setting up data
I1111 04:48:05.920985 29664 image_data_layer.cpp:30] Opening file data/water_high_blue/train.txt
I1111 04:48:05.928370 29664 image_data_layer.cpp:45] A total of 21261 images.
I1111 04:48:05.958585 29664 image_data_layer.cpp:73] output data size: 128,3,227,227
I1111 04:48:05.958668 29664 base_data_layer.cpp:36] Loading mean file from/homes/ad6813/data/controlpoint_mean_256-227.binaryproto
I1111 04:48:05.978230 29664 net.cpp:103] Top shape: 128 3 227 227 (19787136)
I1111 04:48:05.978260 29664 net.cpp:103] Top shape: 128 1 1 1 (128)
I1111 04:48:05.978297 29664 net.cpp:67] Creating Layer conv1
I1111 04:48:05.978302 29664 net.cpp:394] conv1 <- data
I1111 04:48:05.978315 29664 net.cpp:356] conv1 -> conv1
I1111 04:48:05.978327 29664 net.cpp:96] Setting up conv1
I1111 04:48:05.979300 29664 net.cpp:103] Top shape: 128 96 55 55 (37171200)
I1111 04:48:05.979322 29664 net.cpp:67] Creating Layer relu1
I1111 04:48:05.979327 29664 net.cpp:394] relu1 <- conv1
I1111 04:48:05.979332 29664 net.cpp:345] relu1 -> conv1 (in-place)
I1111 04:48:05.979337 29664 net.cpp:96] Setting up relu1
I1111 04:48:05.979341 29664 net.cpp:103] Top shape: 128 96 55 55 (37171200)
I1111 04:48:05.979348 29664 net.cpp:67] Creating Layer pool1
I1111 04:48:05.979351 29664 net.cpp:394] pool1 <- conv1
I1111 04:48:05.979356 29664 net.cpp:356] pool1 -> pool1
I1111 04:48:05.979362 29664 net.cpp:96] Setting up pool1
I1111 04:48:05.979372 29664 net.cpp:103] Top shape: 128 96 27 27 (8957952)
I1111 04:48:05.979383 29664 net.cpp:67] Creating Layer norm1
I1111 04:48:05.979392 29664 net.cpp:394] norm1 <- pool1
I1111 04:48:05.979395 29664 net.cpp:356] norm1 -> norm1
I1111 04:48:05.979403 29664 net.cpp:96] Setting up norm1
I1111 04:48:05.979408 29664 net.cpp:103] Top shape: 128 96 27 27 (8957952)
I1111 04:48:05.979418 29664 net.cpp:67] Creating Layer conv2
I1111 04:48:05.979420 29664 net.cpp:394] conv2 <- norm1
I1111 04:48:05.979425 29664 net.cpp:356] conv2 -> conv2
I1111 04:48:05.979437 29664 net.cpp:96] Setting up conv2
I1111 04:48:05.987190 29664 net.cpp:103] Top shape: 128 256 27 27 (23887872)
I1111 04:48:05.987210 29664 net.cpp:67] Creating Layer relu2
I1111 04:48:05.987213 29664 net.cpp:394] relu2 <- conv2
I1111 04:48:05.987217 29664 net.cpp:345] relu2 -> conv2 (in-place)
I1111 04:48:05.987223 29664 net.cpp:96] Setting up relu2
I1111 04:48:05.987226 29664 net.cpp:103] Top shape: 128 256 27 27 (23887872)
I1111 04:48:05.987231 29664 net.cpp:67] Creating Layer pool2
I1111 04:48:05.987243 29664 net.cpp:394] pool2 <- conv2
I1111 04:48:05.987248 29664 net.cpp:356] pool2 -> pool2
I1111 04:48:05.987253 29664 net.cpp:96] Setting up pool2
I1111 04:48:05.987258 29664 net.cpp:103] Top shape: 128 256 13 13 (5537792)
I1111 04:48:05.987264 29664 net.cpp:67] Creating Layer norm2
I1111 04:48:05.987267 29664 net.cpp:394] norm2 <- pool2
I1111 04:48:05.987272 29664 net.cpp:356] norm2 -> norm2
I1111 04:48:05.987277 29664 net.cpp:96] Setting up norm2
I1111 04:48:05.987279 29664 net.cpp:103] Top shape: 128 256 13 13 (5537792)
I1111 04:48:05.987285 29664 net.cpp:67] Creating Layer conv3
I1111 04:48:05.987288 29664 net.cpp:394] conv3 <- norm2
I1111 04:48:05.987293 29664 net.cpp:356] conv3 -> conv3
I1111 04:48:05.987299 29664 net.cpp:96] Setting up conv3
I1111 04:48:06.009080 29664 net.cpp:103] Top shape: 128 384 13 13 (8306688)
I1111 04:48:06.009111 29664 net.cpp:67] Creating Layer relu3
I1111 04:48:06.009116 29664 net.cpp:394] relu3 <- conv3
I1111 04:48:06.009121 29664 net.cpp:345] relu3 -> conv3 (in-place)
I1111 04:48:06.009129 29664 net.cpp:96] Setting up relu3
I1111 04:48:06.009131 29664 net.cpp:103] Top shape: 128 384 13 13 (8306688)
I1111 04:48:06.009138 29664 net.cpp:67] Creating Layer conv4
I1111 04:48:06.009141 29664 net.cpp:394] conv4 <- conv3
I1111 04:48:06.009151 29664 net.cpp:356] conv4 -> conv4
I1111 04:48:06.009157 29664 net.cpp:96] Setting up conv4
I1111 04:48:06.025679 29664 net.cpp:103] Top shape: 128 384 13 13 (8306688)
I1111 04:48:06.025707 29664 net.cpp:67] Creating Layer relu4
I1111 04:48:06.025712 29664 net.cpp:394] relu4 <- conv4
I1111 04:48:06.025717 29664 net.cpp:345] relu4 -> conv4 (in-place)
I1111 04:48:06.025723 29664 net.cpp:96] Setting up relu4
I1111 04:48:06.025727 29664 net.cpp:103] Top shape: 128 384 13 13 (8306688)
I1111 04:48:06.025733 29664 net.cpp:67] Creating Layer conv5
I1111 04:48:06.025737 29664 net.cpp:394] conv5 <- conv4
I1111 04:48:06.025742 29664 net.cpp:356] conv5 -> conv5
I1111 04:48:06.025746 29664 net.cpp:96] Setting up conv5
I1111 04:48:06.036785 29664 net.cpp:103] Top shape: 128 256 13 13 (5537792)
I1111 04:48:06.036808 29664 net.cpp:67] Creating Layer relu5
I1111 04:48:06.036813 29664 net.cpp:394] relu5 <- conv5
I1111 04:48:06.036818 29664 net.cpp:345] relu5 -> conv5 (in-place)
I1111 04:48:06.036823 29664 net.cpp:96] Setting up relu5
I1111 04:48:06.036826 29664 net.cpp:103] Top shape: 128 256 13 13 (5537792)
I1111 04:48:06.036831 29664 net.cpp:67] Creating Layer pool5
I1111 04:48:06.036834 29664 net.cpp:394] pool5 <- conv5
I1111 04:48:06.036839 29664 net.cpp:356] pool5 -> pool5
I1111 04:48:06.036844 29664 net.cpp:96] Setting up pool5
I1111 04:48:06.036849 29664 net.cpp:103] Top shape: 128 256 6 6 (1179648)
I1111 04:48:06.036856 29664 net.cpp:67] Creating Layer fc6
I1111 04:48:06.036859 29664 net.cpp:394] fc6 <- pool5
I1111 04:48:06.036864 29664 net.cpp:356] fc6 -> fc6
I1111 04:48:06.036870 29664 net.cpp:96] Setting up fc6
I1111 04:48:06.954136 29664 net.cpp:103] Top shape: 128 4096 1 1 (524288)
I1111 04:48:06.954169 29664 net.cpp:67] Creating Layer relu6
I1111 04:48:06.954174 29664 net.cpp:394] relu6 <- fc6
I1111 04:48:06.954181 29664 net.cpp:345] relu6 -> fc6 (in-place)
I1111 04:48:06.954187 29664 net.cpp:96] Setting up relu6
I1111 04:48:06.954191 29664 net.cpp:103] Top shape: 128 4096 1 1 (524288)
I1111 04:48:06.954196 29664 net.cpp:67] Creating Layer drop6
I1111 04:48:06.954200 29664 net.cpp:394] drop6 <- fc6
I1111 04:48:06.954203 29664 net.cpp:345] drop6 -> fc6 (in-place)
I1111 04:48:06.954207 29664 net.cpp:96] Setting up drop6
I1111 04:48:06.954212 29664 net.cpp:103] Top shape: 128 4096 1 1 (524288)
I1111 04:48:06.954219 29664 net.cpp:67] Creating Layer fc7
I1111 04:48:06.954222 29664 net.cpp:394] fc7 <- fc6
I1111 04:48:06.954227 29664 net.cpp:356] fc7 -> fc7
I1111 04:48:06.954234 29664 net.cpp:96] Setting up fc7
I1111 04:48:07.362591 29664 net.cpp:103] Top shape: 128 4096 1 1 (524288)
I1111 04:48:07.362622 29664 net.cpp:67] Creating Layer relu7
I1111 04:48:07.362625 29664 net.cpp:394] relu7 <- fc7
I1111 04:48:07.362642 29664 net.cpp:345] relu7 -> fc7 (in-place)
I1111 04:48:07.362648 29664 net.cpp:96] Setting up relu7
I1111 04:48:07.362651 29664 net.cpp:103] Top shape: 128 4096 1 1 (524288)
I1111 04:48:07.362656 29664 net.cpp:67] Creating Layer drop7
I1111 04:48:07.362659 29664 net.cpp:394] drop7 <- fc7
I1111 04:48:07.362663 29664 net.cpp:345] drop7 -> fc7 (in-place)
I1111 04:48:07.362668 29664 net.cpp:96] Setting up drop7
I1111 04:48:07.362671 29664 net.cpp:103] Top shape: 128 4096 1 1 (524288)
I1111 04:48:07.362678 29664 net.cpp:67] Creating Layer fc8_clamp
I1111 04:48:07.362680 29664 net.cpp:394] fc8_clamp <- fc7
I1111 04:48:07.362685 29664 net.cpp:356] fc8_clamp -> fc8_clamp
I1111 04:48:07.362691 29664 net.cpp:96] Setting up fc8_clamp
I1111 04:48:07.362913 29664 net.cpp:103] Top shape: 128 2 1 1 (256)
I1111 04:48:07.362925 29664 net.cpp:67] Creating Layer loss
I1111 04:48:07.362927 29664 net.cpp:394] loss <- fc8_clamp
I1111 04:48:07.362931 29664 net.cpp:394] loss <- label
I1111 04:48:07.362937 29664 net.cpp:356] loss -> (automatic)
I1111 04:48:07.362941 29664 net.cpp:96] Setting up loss
I1111 04:48:07.362952 29664 net.cpp:103] Top shape: 1 1 1 1 (1)
I1111 04:48:07.362956 29664 net.cpp:109]     with loss weight 1
I1111 04:48:07.362987 29664 net.cpp:170] loss needs backward computation.
I1111 04:48:07.362990 29664 net.cpp:170] fc8_clamp needs backward computation.
I1111 04:48:07.362993 29664 net.cpp:170] drop7 needs backward computation.
I1111 04:48:07.362997 29664 net.cpp:170] relu7 needs backward computation.
I1111 04:48:07.362999 29664 net.cpp:170] fc7 needs backward computation.
…
I1111 04:48:07.363746 29664 solver.cpp:151] Creating test net (#0) specified by net file: task/water_high_blue/train_val.prototxt
I1111 04:48:07.363793 29664 net.cpp:275] The NetState phase (1) differed from the phase (0) specified by a rule in layer data
I1111 04:48:07.363965 29664 net.cpp:39] Initializing net from parameters: 
name: "ClampCaffeNet"
layers {
  top: "data"
  top: "label"
  name: "data"
  type: IMAGE_DATA
  image_data_param {
    source: "data/water_high_blue/val.txt"
    batch_size: 105
    new_height: 256
    new_width: 256
  }
  include {
    phase: TEST
  }
  transform_param {
    mirror: true
    crop_size: 227
    mean_file: "/homes/ad6813/data/controlpoint_mean_256-227.binaryproto"
  }
}
layers {
  bottom: "data"
  top: "conv1"
  name: "conv1"
  type: CONVOLUTION
  blobs_lr: 1
  blobs_lr: 2
  weight_decay: 1
  weight_decay: 0
  convolution_param {
    num_output: 96
    kernel_size: 11
    stride: 4
    weight_filler {
      type: "gaussian"
      std: 0.01
    }
    bias_filler {
      type: "constant"
      value: 0
    }
  }
}
layers {
  bottom: "conv1"
  top: "conv1"
  name: "relu1"
  type: RELU
}
layers {
  bottom: "conv1"
  top: "pool1"
  name: "pool1"
  type: POOLING
  pooling_param {
    pool: MAX
    kernel_size: 3
    stride: 2
  }
}
layers {
  bottom: "pool1"
  top: "norm1"
  name: "norm1"
  type: LRN
  lrn_param {
    local_size: 5
    alpha: 0.0001
    beta: 0.75
  }
}
layers {
  bottom: "norm1"
  top: "conv2"
  name: "conv2"
  type: CONVOLUTION
  blobs_lr: 1
  blobs_lr: 2
  weight_decay: 1
  weight_decay: 0
  convolution_param {
    num_output: 256
    pad: 2
    kernel_size: 5
    group: 2
    weight_filler {
      type: "gaussian"
      std: 0.01
    }
    bias_filler {
      type: "constant"
      value: 1
    }
  }
}
layers {
  bottom: "conv2"
  top: "conv2"
  name: "relu2"
  type: RELU
}
layers {
  bottom: "conv2"
  top: "pool2"
  name: "pool2"
  type: POOLING
  pooling_param {
    pool: MAX
    kernel_size: 3
    stride: 2
  }
}
layers {
  bottom: "pool2"
  top: "norm2"
  name: "norm2"
  type: LRN
  lrn_param {
    local_size: 5
    alpha: 0.0001
    beta: 0.75
  }
}
layers {
  bottom: "norm2"
  top: "conv3"
  name: "conv3"
  type: CONVOLUTION
  blobs_lr: 1
  blobs_lr: 2
  weight_decay: 1
  weight_decay: 0
  convolution_param {
    num_output: 384
    pad: 1
    kernel_size: 3
    weight_filler {
      type: "gaussian"
      std: 0.01
    }
    bias_filler {
      type: "constant"
      value: 0
    }
  }
}
layers {
  bottom: "conv3"
  top: "conv3"
  name: "relu3"
  type: RELU
}
layers {
  bottom: "conv3"
  top: "conv4"
  name: "conv4"
  type: CONVOLUTION
  blobs_lr: 1
  blobs_lr: 2
  weight_decay: 1
  weight_decay: 0
  convolution_param {
    num_output: 384
    pad: 1
    kernel_size: 3
    group: 2
    weight_filler {
      type: "gaussian"
      std: 0.01
    }
    bias_filler {
      type: "constant"
      value: 1
    }
  }
}
layers {
  bottom: "conv4"
  top: "conv4"
  name: "relu4"
  type: RELU
}
layers {
  bottom: "conv4"
  top: "conv5"
  name: "conv5"
  type: CONVOLUTION
  blobs_lr: 1
  blobs_lr: 2
  weight_decay: 1
  weight_decay: 0
  convolution_param {
    num_output: 256
    pad: 1
    kernel_size: 3
    group: 2
    weight_filler {
      type: "gaussian"
      std: 0.01
    }
    bias_filler {
      type: "constant"
      value: 1
    }
  }
}
layers {
  bottom: "conv5"
  top: "conv5"
  name: "relu5"
  type: RELU
}
layers {
  bottom: "conv5"
  top: "pool5"
  name: "pool5"
  type: POOLING
  pooling_param {
    pool: MAX
    kernel_size: 3
    stride: 2
  }
}
layers {
  bottom: "pool5"
  top: "fc6"
  name: "fc6"
  type: INNER_PRODUCT
  blobs_lr: 1
  blobs_lr: 2
  weight_decay: 1
  weight_decay: 0
  inner_product_param {
    num_output: 4096
    weight_filler {
      type: "gaussian"
      std: 0.005
    }
    bias_filler {
      type: "constant"
      value: 1
    }
  }
}
layers {
  bottom: "fc6"
  top: "fc6"
  name: "relu6"
  type: RELU
}
layers {
  bottom: "fc6"
  top: "fc6"
  name: "drop6"
  type: DROPOUT
  dropout_param {
    dropout_ratio: 0.5
  }
}
layers {
  bottom: "fc6"
  top: "fc7"
  name: "fc7"
  type: INNER_PRODUCT
  blobs_lr: 1
  blobs_lr: 2
  weight_decay: 1
  weight_decay: 0
  inner_product_param {
    num_output: 4096
    weight_filler {
      type: "gaussian"
      std: 0.005
    }
    bias_filler {
      type: "constant"
      value: 1
    }
  }
}
layers {
  bottom: "fc7"
  top: "fc7"
  name: "relu7"
  type: RELU
}
layers {
  bottom: "fc7"
  top: "fc7"
  name: "drop7"
  type: DROPOUT
  dropout_param {
    dropout_ratio: 0.5
  }
}
layers {
  bottom: "fc7"
  top: "fc8_clamp"
  name: "fc8_clamp"
  type: INNER_PRODUCT
  blobs_lr: 1
  blobs_lr: 2
  weight_decay: 1
  weight_decay: 0
  inner_product_param {
    num_output: 2
    weight_filler {
      type: "gaussian"
      std: 0.01
    }
    bias_filler {
      type: "constant"
      value: 0
    }
  }
}
layers {
  bottom: "fc8_clamp"
  bottom: "label"
  name: "loss"
  type: SOFTMAX_LOSS
}
layers {
  bottom: "fc8_clamp"
  bottom: "label"
  top: "accuracy"
  name: "accuracy"
  type: PER_CLASS_ACCURACY
  include {
    phase: TEST
  }
}
state {
  phase: TEST
}
I1111 04:48:07.364081 29664 net.cpp:67] Creating Layer data
I1111 04:48:07.364087 29664 net.cpp:356] data -> data
I1111 04:48:07.364095 29664 net.cpp:356] data -> label
I1111 04:48:07.364106 29664 net.cpp:96] Setting up data
I1111 04:48:07.364109 29664 image_data_layer.cpp:30] Opening file data/water_high_blue/val.txt
I1111 04:48:07.364882 29664 image_data_layer.cpp:45] A total of 1936 images.
I1111 04:48:07.371603 29664 image_data_layer.cpp:73] output data size: 105,3,227,227
I1111 04:48:07.371618 29664 base_data_layer.cpp:36] Loading mean file from/homes/ad6813/data/controlpoint_mean_256-227.binaryproto
I1111 04:48:07.380870 29664 net.cpp:103] Top shape: 105 3 227 227 (16231635)
I1111 04:48:07.380898 29664 net.cpp:103] Top shape: 105 1 1 1 (105)
I1111 04:48:07.380910 29664 net.cpp:67] Creating Layer label_data_1_split
I1111 04:48:07.380914 29664 net.cpp:394] label_data_1_split <- label
I1111 04:48:07.380921 29664 net.cpp:356] label_data_1_split -> label_data_1_split_0
I1111 04:48:07.380933 29664 net.cpp:356] label_data_1_split -> label_data_1_split_1
I1111 04:48:07.380938 29664 net.cpp:96] Setting up label_data_1_split
I1111 04:48:07.380956 29664 net.cpp:103] Top shape: 105 1 1 1 (105)
I1111 04:48:07.380960 29664 net.cpp:103] Top shape: 105 1 1 1 (105)
I1111 04:48:07.380969 29664 net.cpp:67] Creating Layer conv1
I1111 04:48:07.380972 29664 net.cpp:394] conv1 <- data
I1111 04:48:07.380977 29664 net.cpp:356] conv1 -> conv1
I1111 04:48:07.380985 29664 net.cpp:96] Setting up conv1
I1111 04:48:07.381882 29664 net.cpp:103] Top shape: 105 96 55 55 (30492000)
I1111 04:48:07.381898 29664 net.cpp:67] Creating Layer relu1
I1111 04:48:07.381901 29664 net.cpp:394] relu1 <- conv1
I1111 04:48:07.381906 29664 net.cpp:345] relu1 -> conv1 (in-place)
I1111 04:48:07.381911 29664 net.cpp:96] Setting up relu1
I1111 04:48:07.381913 29664 net.cpp:103] Top shape: 105 96 55 55 (30492000)
I1111 04:48:07.381919 29664 net.cpp:67] Creating Layer pool1
I1111 04:48:07.381922 29664 net.cpp:394] pool1 <- conv1
I1111 04:48:07.381927 29664 net.cpp:356] pool1 -> pool1
I1111 04:48:07.381932 29664 net.cpp:96] Setting up pool1
I1111 04:48:07.381937 29664 net.cpp:103] Top shape: 105 96 27 27 (7348320)
I1111 04:48:07.381942 29664 net.cpp:67] Creating Layer norm1
I1111 04:48:07.381944 29664 net.cpp:394] norm1 <- pool1
I1111 04:48:07.381948 29664 net.cpp:356] norm1 -> norm1
I1111 04:48:07.381953 29664 net.cpp:96] Setting up norm1
I1111 04:48:07.381958 29664 net.cpp:103] Top shape: 105 96 27 27 (7348320)
I1111 04:48:07.381963 29664 net.cpp:67] Creating Layer conv2
I1111 04:48:07.381966 29664 net.cpp:394] conv2 <- norm1
I1111 04:48:07.381970 29664 net.cpp:356] conv2 -> conv2
I1111 04:48:07.381975 29664 net.cpp:96] Setting up conv2
I1111 04:48:07.389475 29664 net.cpp:103] Top shape: 105 256 27 27 (19595520)
I1111 04:48:07.389492 29664 net.cpp:67] Creating Layer relu2
I1111 04:48:07.389497 29664 net.cpp:394] relu2 <- conv2
I1111 04:48:07.389502 29664 net.cpp:345] relu2 -> conv2 (in-place)
I1111 04:48:07.389506 29664 net.cpp:96] Setting up relu2
I1111 04:48:07.389509 29664 net.cpp:103] Top shape: 105 256 27 27 (19595520)
I1111 04:48:07.389514 29664 net.cpp:67] Creating Layer pool2
I1111 04:48:07.389518 29664 net.cpp:394] pool2 <- conv2
I1111 04:48:07.389521 29664 net.cpp:356] pool2 -> pool2
I1111 04:48:07.389528 29664 net.cpp:96] Setting up pool2
I1111 04:48:07.389531 29664 net.cpp:103] Top shape: 105 256 13 13 (4542720)
I1111 04:48:07.389536 29664 net.cpp:67] Creating Layer norm2
I1111 04:48:07.389539 29664 net.cpp:394] norm2 <- pool2
I1111 04:48:07.389544 29664 net.cpp:356] norm2 -> norm2
I1111 04:48:07.389547 29664 net.cpp:96] Setting up norm2
I1111 04:48:07.389551 29664 net.cpp:103] Top shape: 105 256 13 13 (4542720)
I1111 04:48:07.389556 29664 net.cpp:67] Creating Layer conv3
I1111 04:48:07.389559 29664 net.cpp:394] conv3 <- norm2
I1111 04:48:07.389574 29664 net.cpp:356] conv3 -> conv3
I1111 04:48:07.389578 29664 net.cpp:96] Setting up conv3
I1111 04:48:07.410928 29664 net.cpp:103] Top shape: 105 384 13 13 (6814080)
I1111 04:48:07.410953 29664 net.cpp:67] Creating Layer relu3
I1111 04:48:07.410959 29664 net.cpp:394] relu3 <- conv3
I1111 04:48:07.410965 29664 net.cpp:345] relu3 -> conv3 (in-place)
I1111 04:48:07.410971 29664 net.cpp:96] Setting up relu3
I1111 04:48:07.410974 29664 net.cpp:103] Top shape: 105 384 13 13 (6814080)
I1111 04:48:07.410981 29664 net.cpp:67] Creating Layer conv4
I1111 04:48:07.410984 29664 net.cpp:394] conv4 <- conv3
I1111 04:48:07.410989 29664 net.cpp:356] conv4 -> conv4
I1111 04:48:07.410995 29664 net.cpp:96] Setting up conv4
I1111 04:48:07.427269 29664 net.cpp:103] Top shape: 105 384 13 13 (6814080)
I1111 04:48:07.427306 29664 net.cpp:67] Creating Layer relu4
I1111 04:48:07.427311 29664 net.cpp:394] relu4 <- conv4
I1111 04:48:07.427319 29664 net.cpp:345] relu4 -> conv4 (in-place)
I1111 04:48:07.427325 29664 net.cpp:96] Setting up relu4
I1111 04:48:07.427328 29664 net.cpp:103] Top shape: 105 384 13 13 (6814080)
I1111 04:48:07.427335 29664 net.cpp:67] Creating Layer conv5
I1111 04:48:07.427337 29664 net.cpp:394] conv5 <- conv4
I1111 04:48:07.427345 29664 net.cpp:356] conv5 -> conv5
I1111 04:48:07.427350 29664 net.cpp:96] Setting up conv5
I1111 04:48:07.438102 29664 net.cpp:103] Top shape: 105 256 13 13 (4542720)
I1111 04:48:07.438119 29664 net.cpp:67] Creating Layer relu5
I1111 04:48:07.438123 29664 net.cpp:394] relu5 <- conv5
I1111 04:48:07.438129 29664 net.cpp:345] relu5 -> conv5 (in-place)
I1111 04:48:07.438134 29664 net.cpp:96] Setting up relu5
I1111 04:48:07.438138 29664 net.cpp:103] Top shape: 105 256 13 13 (4542720)
I1111 04:48:07.438143 29664 net.cpp:67] Creating Layer pool5
I1111 04:48:07.438146 29664 net.cpp:394] pool5 <- conv5
I1111 04:48:07.438150 29664 net.cpp:356] pool5 -> pool5
I1111 04:48:07.438155 29664 net.cpp:96] Setting up pool5
I1111 04:48:07.438161 29664 net.cpp:103] Top shape: 105 256 6 6 (967680)
I1111 04:48:07.438169 29664 net.cpp:67] Creating Layer fc6
I1111 04:48:07.438171 29664 net.cpp:394] fc6 <- pool5
I1111 04:48:07.438175 29664 net.cpp:356] fc6 -> fc6
I1111 04:48:07.438181 29664 net.cpp:96] Setting up fc6
I1111 04:48:08.343250 29664 net.cpp:103] Top shape: 105 4096 1 1 (430080)
I1111 04:48:08.343291 29664 net.cpp:67] Creating Layer relu6
I1111 04:48:08.343296 29664 net.cpp:394] relu6 <- fc6
I1111 04:48:08.343302 29664 net.cpp:345] relu6 -> fc6 (in-place)
I1111 04:48:08.343308 29664 net.cpp:96] Setting up relu6
I1111 04:48:08.343312 29664 net.cpp:103] Top shape: 105 4096 1 1 (430080)
I1111 04:48:08.343318 29664 net.cpp:67] Creating Layer drop6
I1111 04:48:08.343322 29664 net.cpp:394] drop6 <- fc6
I1111 04:48:08.343325 29664 net.cpp:345] drop6 -> fc6 (in-place)
I1111 04:48:08.343330 29664 net.cpp:96] Setting up drop6
I1111 04:48:08.343333 29664 net.cpp:103] Top shape: 105 4096 1 1 (430080)
I1111 04:48:08.343339 29664 net.cpp:67] Creating Layer fc7
I1111 04:48:08.343343 29664 net.cpp:394] fc7 <- fc6
I1111 04:48:08.343348 29664 net.cpp:356] fc7 -> fc7
I1111 04:48:08.343353 29664 net.cpp:96] Setting up fc7
I1111 04:48:08.739950 29664 net.cpp:103] Top shape: 105 4096 1 1 (430080)
I1111 04:48:08.739995 29664 net.cpp:67] Creating Layer relu7
I1111 04:48:08.740000 29664 net.cpp:394] relu7 <- fc7
I1111 04:48:08.740008 29664 net.cpp:345] relu7 -> fc7 (in-place)
I1111 04:48:08.740015 29664 net.cpp:96] Setting up relu7
I1111 04:48:08.740020 29664 net.cpp:103] Top shape: 105 4096 1 1 (430080)
I1111 04:48:08.740025 29664 net.cpp:67] Creating Layer drop7
I1111 04:48:08.740027 29664 net.cpp:394] drop7 <- fc7
I1111 04:48:08.740036 29664 net.cpp:345] drop7 -> fc7 (in-place)
I1111 04:48:08.740041 29664 net.cpp:96] Setting up drop7
I1111 04:48:08.740044 29664 net.cpp:103] Top shape: 105 4096 1 1 (430080)
I1111 04:48:08.740051 29664 net.cpp:67] Creating Layer fc8_clamp
I1111 04:48:08.740054 29664 net.cpp:394] fc8_clamp <- fc7
I1111 04:48:08.740058 29664 net.cpp:356] fc8_clamp -> fc8_clamp
I1111 04:48:08.740077 29664 net.cpp:96] Setting up fc8_clamp
I1111 04:48:08.740298 29664 net.cpp:103] Top shape: 105 2 1 1 (210)
I1111 04:48:08.740309 29664 net.cpp:67] Creating Layer fc8_clamp_fc8_clamp_0_split
I1111 04:48:08.740313 29664 net.cpp:394] fc8_clamp_fc8_clamp_0_split <- fc8_clamp
I1111 04:48:08.740317 29664 net.cpp:356] fc8_clamp_fc8_clamp_0_split -> fc8_clamp_fc8_clamp_0_split_0
I1111 04:48:08.740324 29664 net.cpp:356] fc8_clamp_fc8_clamp_0_split -> fc8_clamp_fc8_clamp_0_split_1
I1111 04:48:08.740332 29664 net.cpp:96] Setting up fc8_clamp_fc8_clamp_0_split
I1111 04:48:08.740336 29664 net.cpp:103] Top shape: 105 2 1 1 (210)
I1111 04:48:08.740339 29664 net.cpp:103] Top shape: 105 2 1 1 (210)
I1111 04:48:08.740345 29664 net.cpp:67] Creating Layer loss
I1111 04:48:08.740349 29664 net.cpp:394] loss <- fc8_clamp_fc8_clamp_0_split_0
I1111 04:48:08.740351 29664 net.cpp:394] loss <- label_data_1_split_0
I1111 04:48:08.740358 29664 net.cpp:356] loss -> (automatic)
I1111 04:48:08.740367 29664 net.cpp:96] Setting up loss
I1111 04:48:08.740375 29664 net.cpp:103] Top shape: 1 1 1 1 (1)
I1111 04:48:08.740378 29664 net.cpp:109]     with loss weight 1
I1111 04:48:08.740396 29664 net.cpp:67] Creating Layer accuracy
I1111 04:48:08.740398 29664 net.cpp:394] accuracy <- fc8_clamp_fc8_clamp_0_split_1
I1111 04:48:08.740402 29664 net.cpp:394] accuracy <- label_data_1_split_1
I1111 04:48:08.740407 29664 net.cpp:356] accuracy -> accuracy
I1111 04:48:08.740417 29664 net.cpp:96] Setting up accuracy
I1111 04:48:08.740427 29664 net.cpp:103] Top shape: 1 1 1 4 (4)
I1111 04:48:08.740432 29664 net.cpp:172] accuracy does not need backward computation.
I1111 04:48:08.740435 29664 net.cpp:170] loss needs backward computation.
I1111 04:48:08.740438 29664 net.cpp:170] fc8_clamp_fc8_clamp_0_split needs backward computation.
I1111 04:48:08.740442 29664 net.cpp:170] fc8_clamp needs backward computation.
I1111 04:48:08.740444 29664 net.cpp:170] drop7 needs backward computation.
…
