…
I1028 04:09:05.995033  7803 net.cpp:275] The NetState phase (0) differed from the phase (1) specified by a rule in layer data
I1028 04:09:05.995069  7803 net.cpp:275] The NetState phase (0) differed from the phase (1) specified by a rule in layer accuracy
I1028 04:09:05.995331  7803 net.cpp:39] Initializing net from parameters: 
name: "ClampCaffeNet"
layers {
  top: "data"
  top: "label"
  name: "data"
  type: IMAGE_DATA
  image_data_param {
    source: "data/inadcl/train.txt"
    batch_size: 128
    new_height: 256
    new_width: 256
  }
  include {
    phase: TRAIN
  }
  transform_param {
    mirror: true
    crop_size: 227
    mean_file: "/homes/ad6813/data/controlpoint_mean_256-227.binaryproto"
  }
}
layers {
  bottom: "data"
  top: "conv1"
  name: "conv1"
  type: CONVOLUTION
  blobs_lr: 1
  blobs_lr: 2
  weight_decay: 1
  weight_decay: 0
  convolution_param {
    num_output: 96
    kernel_size: 11
    stride: 4
    weight_filler {
      type: "gaussian"
      std: 0.01
    }
    bias_filler {
      type: "constant"
      value: 0
    }
  }
}
layers {
  bottom: "conv1"
  top: "conv1"
  name: "relu1"
  type: RELU
}
layers {
  bottom: "conv1"
  top: "pool1"
  name: "pool1"
  type: POOLING
  pooling_param {
    pool: MAX
    kernel_size: 3
    stride: 2
  }
}
layers {
  bottom: "pool1"
  top: "norm1"
  name: "norm1"
  type: LRN
  lrn_param {
    local_size: 5
    alpha: 0.0001
    beta: 0.75
  }
}
layers {
  bottom: "norm1"
  top: "conv2"
  name: "conv2"
  type: CONVOLUTION
  blobs_lr: 1
  blobs_lr: 2
  weight_decay: 1
  weight_decay: 0
  convolution_param {
    num_output: 256
    pad: 2
    kernel_size: 5
    group: 2
    weight_filler {
      type: "gaussian"
      std: 0.01
    }
    bias_filler {
      type: "constant"
      value: 1
    }
  }
}
layers {
  bottom: "conv2"
  top: "conv2"
  name: "relu2"
  type: RELU
}
layers {
  bottom: "conv2"
  top: "pool2"
  name: "pool2"
  type: POOLING
  pooling_param {
    pool: MAX
    kernel_size: 3
    stride: 2
  }
}
layers {
  bottom: "pool2"
  top: "norm2"
  name: "norm2"
  type: LRN
  lrn_param {
    local_size: 5
    alpha: 0.0001
    beta: 0.75
  }
}
layers {
  bottom: "norm2"
  top: "conv3"
  name: "conv3"
  type: CONVOLUTION
  blobs_lr: 1
  blobs_lr: 2
  weight_decay: 1
  weight_decay: 0
  convolution_param {
    num_output: 384
    pad: 1
    kernel_size: 3
    weight_filler {
      type: "gaussian"
      std: 0.01
    }
    bias_filler {
      type: "constant"
      value: 0
    }
  }
}
layers {
  bottom: "conv3"
  top: "conv3"
  name: "relu3"
  type: RELU
}
layers {
  bottom: "conv3"
  top: "conv4"
  name: "conv4"
  type: CONVOLUTION
  blobs_lr: 1
  blobs_lr: 2
  weight_decay: 1
  weight_decay: 0
  convolution_param {
    num_output: 384
    pad: 1
    kernel_size: 3
    group: 2
    weight_filler {
      type: "gaussian"
      std: 0.01
    }
    bias_filler {
      type: "constant"
      value: 1
    }
  }
}
layers {
  bottom: "conv4"
  top: "conv4"
  name: "relu4"
  type: RELU
}
layers {
  bottom: "conv4"
  top: "conv5"
  name: "conv5"
  type: CONVOLUTION
  blobs_lr: 1
  blobs_lr: 2
  weight_decay: 1
  weight_decay: 0
  convolution_param {
    num_output: 256
    pad: 1
    kernel_size: 3
    group: 2
    weight_filler {
      type: "gaussian"
      std: 0.01
    }
    bias_filler {
      type: "constant"
      value: 1
    }
  }
}
layers {
  bottom: "conv5"
  top: "conv5"
  name: "relu5"
  type: RELU
}
layers {
  bottom: "conv5"
  top: "pool5"
  name: "pool5"
  type: POOLING
  pooling_param {
    pool: MAX
    kernel_size: 3
    stride: 2
  }
}
layers {
  bottom: "pool5"
  top: "fc6"
  name: "fc6"
  type: INNER_PRODUCT
  blobs_lr: 1
  blobs_lr: 2
  weight_decay: 1
  weight_decay: 0
  inner_product_param {
    num_output: 4096
    weight_filler {
      type: "gaussian"
      std: 0.005
    }
    bias_filler {
      type: "constant"
      value: 1
    }
  }
}
layers {
  bottom: "fc6"
  top: "fc6"
  name: "relu6"
  type: RELU
}
layers {
  bottom: "fc6"
  top: "fc6"
  name: "drop6"
  type: DROPOUT
  dropout_param {
    dropout_ratio: 0.5
  }
}
layers {
  bottom: "fc6"
  top: "fc7"
  name: "fc7"
  type: INNER_PRODUCT
  blobs_lr: 1
  blobs_lr: 2
  weight_decay: 1
  weight_decay: 0
  inner_product_param {
    num_output: 4096
    weight_filler {
      type: "gaussian"
      std: 0.005
    }
    bias_filler {
      type: "constant"
      value: 1
    }
  }
}
layers {
  bottom: "fc7"
  top: "fc7"
  name: "relu7"
  type: RELU
}
layers {
  bottom: "fc7"
  top: "fc7"
  name: "drop7"
  type: DROPOUT
  dropout_param {
    dropout_ratio: 0.5
  }
}
layers {
  bottom: "fc7"
  top: "fc8_inadcl"
  name: "fc8_inadcl"
  type: INNER_PRODUCT
  blobs_lr: 1
  blobs_lr: 2
  weight_decay: 1
  weight_decay: 0
  inner_product_param {
    num_output: 2
    weight_filler {
      type: "gaussian"
      std: 0.01
    }
    bias_filler {
      type: "constant"
      value: 0
    }
  }
}
layers {
  bottom: "fc8_inadcl"
  bottom: "label"
  name: "loss"
  type: SOFTMAX_LOSS
}
state {
  phase: TRAIN
}
I1028 04:09:05.995478  7803 net.cpp:67] Creating Layer data
I1028 04:09:05.995491  7803 net.cpp:356] data -> data
I1028 04:09:05.995533  7803 net.cpp:356] data -> label
I1028 04:09:05.995554  7803 net.cpp:96] Setting up data
I1028 04:09:05.995570  7803 image_data_layer.cpp:30] Opening file data/inadcl/train.txt
I1028 04:09:05.995682  7803 image_data_layer.cpp:45] A total of 18 images.
I1028 04:09:06.002485  7803 image_data_layer.cpp:73] output data size: 128,3,227,227
I1028 04:09:06.002526  7803 base_data_layer.cpp:36] Loading mean file from/homes/ad6813/data/controlpoint_mean_256-227.binaryproto
I1028 04:09:06.019793  7803 net.cpp:103] Top shape: 128 3 227 227 (19787136)
I1028 04:09:06.019826  7803 net.cpp:103] Top shape: 128 1 1 1 (128)
I1028 04:09:06.019862  7803 net.cpp:67] Creating Layer conv1
I1028 04:09:06.019870  7803 net.cpp:394] conv1 <- data
I1028 04:09:06.019891  7803 net.cpp:356] conv1 -> conv1
I1028 04:09:06.019904  7803 net.cpp:96] Setting up conv1
I1028 04:09:06.021369  7803 net.cpp:103] Top shape: 128 96 55 55 (37171200)
I1028 04:09:06.021400  7803 net.cpp:67] Creating Layer relu1
I1028 04:09:06.021407  7803 net.cpp:394] relu1 <- conv1
I1028 04:09:06.021414  7803 net.cpp:345] relu1 -> conv1 (in-place)
I1028 04:09:06.021422  7803 net.cpp:96] Setting up relu1
I1028 04:09:06.021430  7803 net.cpp:103] Top shape: 128 96 55 55 (37171200)
I1028 04:09:06.021438  7803 net.cpp:67] Creating Layer pool1
I1028 04:09:06.021443  7803 net.cpp:394] pool1 <- conv1
I1028 04:09:06.021450  7803 net.cpp:356] pool1 -> pool1
I1028 04:09:06.021458  7803 net.cpp:96] Setting up pool1
I1028 04:09:06.021471  7803 net.cpp:103] Top shape: 128 96 27 27 (8957952)
I1028 04:09:06.021481  7803 net.cpp:67] Creating Layer norm1
I1028 04:09:06.021486  7803 net.cpp:394] norm1 <- pool1
I1028 04:09:06.021493  7803 net.cpp:356] norm1 -> norm1
I1028 04:09:06.021502  7803 net.cpp:96] Setting up norm1
I1028 04:09:06.021518  7803 net.cpp:103] Top shape: 128 96 27 27 (8957952)
I1028 04:09:06.021528  7803 net.cpp:67] Creating Layer conv2
I1028 04:09:06.021533  7803 net.cpp:394] conv2 <- norm1
I1028 04:09:06.021540  7803 net.cpp:356] conv2 -> conv2
I1028 04:09:06.021548  7803 net.cpp:96] Setting up conv2
I1028 04:09:06.033586  7803 net.cpp:103] Top shape: 128 256 27 27 (23887872)
I1028 04:09:06.033608  7803 net.cpp:67] Creating Layer relu2
I1028 04:09:06.033614  7803 net.cpp:394] relu2 <- conv2
I1028 04:09:06.033622  7803 net.cpp:345] relu2 -> conv2 (in-place)
I1028 04:09:06.033629  7803 net.cpp:96] Setting up relu2
I1028 04:09:06.033634  7803 net.cpp:103] Top shape: 128 256 27 27 (23887872)
I1028 04:09:06.033642  7803 net.cpp:67] Creating Layer pool2
I1028 04:09:06.033658  7803 net.cpp:394] pool2 <- conv2
I1028 04:09:06.033665  7803 net.cpp:356] pool2 -> pool2
I1028 04:09:06.033673  7803 net.cpp:96] Setting up pool2
I1028 04:09:06.033679  7803 net.cpp:103] Top shape: 128 256 13 13 (5537792)
I1028 04:09:06.033687  7803 net.cpp:67] Creating Layer norm2
I1028 04:09:06.033692  7803 net.cpp:394] norm2 <- pool2
I1028 04:09:06.033699  7803 net.cpp:356] norm2 -> norm2
I1028 04:09:06.033706  7803 net.cpp:96] Setting up norm2
I1028 04:09:06.033711  7803 net.cpp:103] Top shape: 128 256 13 13 (5537792)
I1028 04:09:06.033720  7803 net.cpp:67] Creating Layer conv3
I1028 04:09:06.033731  7803 net.cpp:394] conv3 <- norm2
I1028 04:09:06.033740  7803 net.cpp:356] conv3 -> conv3
I1028 04:09:06.033748  7803 net.cpp:96] Setting up conv3
I1028 04:09:06.068766  7803 net.cpp:103] Top shape: 128 384 13 13 (8306688)
I1028 04:09:06.068809  7803 net.cpp:67] Creating Layer relu3
I1028 04:09:06.068815  7803 net.cpp:394] relu3 <- conv3
I1028 04:09:06.068824  7803 net.cpp:345] relu3 -> conv3 (in-place)
I1028 04:09:06.068832  7803 net.cpp:96] Setting up relu3
I1028 04:09:06.068837  7803 net.cpp:103] Top shape: 128 384 13 13 (8306688)
I1028 04:09:06.068846  7803 net.cpp:67] Creating Layer conv4
I1028 04:09:06.068851  7803 net.cpp:394] conv4 <- conv3
I1028 04:09:06.068860  7803 net.cpp:356] conv4 -> conv4
I1028 04:09:06.068867  7803 net.cpp:96] Setting up conv4
I1028 04:09:06.095386  7803 net.cpp:103] Top shape: 128 384 13 13 (8306688)
I1028 04:09:06.095420  7803 net.cpp:67] Creating Layer relu4
I1028 04:09:06.095427  7803 net.cpp:394] relu4 <- conv4
I1028 04:09:06.095438  7803 net.cpp:345] relu4 -> conv4 (in-place)
I1028 04:09:06.095446  7803 net.cpp:96] Setting up relu4
I1028 04:09:06.095451  7803 net.cpp:103] Top shape: 128 384 13 13 (8306688)
I1028 04:09:06.095460  7803 net.cpp:67] Creating Layer conv5
I1028 04:09:06.095464  7803 net.cpp:394] conv5 <- conv4
I1028 04:09:06.095473  7803 net.cpp:356] conv5 -> conv5
I1028 04:09:06.095480  7803 net.cpp:96] Setting up conv5
I1028 04:09:06.113044  7803 net.cpp:103] Top shape: 128 256 13 13 (5537792)
I1028 04:09:06.113073  7803 net.cpp:67] Creating Layer relu5
I1028 04:09:06.113080  7803 net.cpp:394] relu5 <- conv5
I1028 04:09:06.113087  7803 net.cpp:345] relu5 -> conv5 (in-place)
I1028 04:09:06.113095  7803 net.cpp:96] Setting up relu5
I1028 04:09:06.113101  7803 net.cpp:103] Top shape: 128 256 13 13 (5537792)
I1028 04:09:06.113107  7803 net.cpp:67] Creating Layer pool5
I1028 04:09:06.113112  7803 net.cpp:394] pool5 <- conv5
I1028 04:09:06.113118  7803 net.cpp:356] pool5 -> pool5
I1028 04:09:06.113126  7803 net.cpp:96] Setting up pool5
I1028 04:09:06.113133  7803 net.cpp:103] Top shape: 128 256 6 6 (1179648)
I1028 04:09:06.113145  7803 net.cpp:67] Creating Layer fc6
I1028 04:09:06.113152  7803 net.cpp:394] fc6 <- pool5
I1028 04:09:06.113160  7803 net.cpp:356] fc6 -> fc6
I1028 04:09:06.113168  7803 net.cpp:96] Setting up fc6
I1028 04:09:07.589768  7803 net.cpp:103] Top shape: 128 4096 1 1 (524288)
I1028 04:09:07.589813  7803 net.cpp:67] Creating Layer relu6
I1028 04:09:07.589820  7803 net.cpp:394] relu6 <- fc6
I1028 04:09:07.589833  7803 net.cpp:345] relu6 -> fc6 (in-place)
I1028 04:09:07.589843  7803 net.cpp:96] Setting up relu6
I1028 04:09:07.589848  7803 net.cpp:103] Top shape: 128 4096 1 1 (524288)
I1028 04:09:07.589856  7803 net.cpp:67] Creating Layer drop6
I1028 04:09:07.589861  7803 net.cpp:394] drop6 <- fc6
I1028 04:09:07.589869  7803 net.cpp:345] drop6 -> fc6 (in-place)
I1028 04:09:07.589876  7803 net.cpp:96] Setting up drop6
I1028 04:09:07.589885  7803 net.cpp:103] Top shape: 128 4096 1 1 (524288)
I1028 04:09:07.589895  7803 net.cpp:67] Creating Layer fc7
I1028 04:09:07.589898  7803 net.cpp:394] fc7 <- fc6
I1028 04:09:07.589905  7803 net.cpp:356] fc7 -> fc7
I1028 04:09:07.589915  7803 net.cpp:96] Setting up fc7
I1028 04:09:08.246922  7803 net.cpp:103] Top shape: 128 4096 1 1 (524288)
I1028 04:09:08.246965  7803 net.cpp:67] Creating Layer relu7
I1028 04:09:08.246973  7803 net.cpp:394] relu7 <- fc7
I1028 04:09:08.246981  7803 net.cpp:345] relu7 -> fc7 (in-place)
I1028 04:09:08.247007  7803 net.cpp:96] Setting up relu7
I1028 04:09:08.247014  7803 net.cpp:103] Top shape: 128 4096 1 1 (524288)
I1028 04:09:08.247020  7803 net.cpp:67] Creating Layer drop7
I1028 04:09:08.247025  7803 net.cpp:394] drop7 <- fc7
I1028 04:09:08.247031  7803 net.cpp:345] drop7 -> fc7 (in-place)
I1028 04:09:08.247037  7803 net.cpp:96] Setting up drop7
I1028 04:09:08.247043  7803 net.cpp:103] Top shape: 128 4096 1 1 (524288)
I1028 04:09:08.247051  7803 net.cpp:67] Creating Layer fc8_inadcl
I1028 04:09:08.247056  7803 net.cpp:394] fc8_inadcl <- fc7
I1028 04:09:08.247066  7803 net.cpp:356] fc8_inadcl -> fc8_inadcl
I1028 04:09:08.247076  7803 net.cpp:96] Setting up fc8_inadcl
I1028 04:09:08.247429  7803 net.cpp:103] Top shape: 128 2 1 1 (256)
I1028 04:09:08.247448  7803 net.cpp:67] Creating Layer loss
I1028 04:09:08.247454  7803 net.cpp:394] loss <- fc8_inadcl
I1028 04:09:08.247460  7803 net.cpp:394] loss <- label
I1028 04:09:08.247467  7803 net.cpp:356] loss -> (automatic)
I1028 04:09:08.247473  7803 net.cpp:96] Setting up loss
I1028 04:09:08.247490  7803 net.cpp:103] Top shape: 1 1 1 1 (1)
I1028 04:09:08.247495  7803 net.cpp:109]     with loss weight 1
I1028 04:09:08.247542  7803 net.cpp:170] loss needs backward computation.
I1028 04:09:08.247553  7803 net.cpp:170] fc8_inadcl needs backward computation.
I1028 04:09:08.247558  7803 net.cpp:170] drop7 needs backward computation.
I1028 04:09:08.247563  7803 net.cpp:170] relu7 needs backward computation.
I1028 04:09:08.247566  7803 net.cpp:170] fc7 needs backward computation.
…
I1028 04:09:08.248627  7803 solver.cpp:151] Creating test net (#0) specified by net file: task/inadcl/train_val.prototxt
I1028 04:09:08.248687  7803 net.cpp:275] The NetState phase (1) differed from the phase (0) specified by a rule in layer data
I1028 04:09:08.249001  7803 net.cpp:39] Initializing net from parameters: 
name: "ClampCaffeNet"
layers {
  top: "data"
  top: "label"
  name: "data"
  type: IMAGE_DATA
  image_data_param {
    source: "data/inadcl/val.txt"
    batch_size: 82
    new_height: 256
    new_width: 256
  }
  include {
    phase: TEST
  }
  transform_param {
    mirror: false
    crop_size: 227
    mean_file: "/homes/ad6813/data/controlpoint_mean_256-227.binaryproto"
  }
}
layers {
  bottom: "data"
  top: "conv1"
  name: "conv1"
  type: CONVOLUTION
  blobs_lr: 1
  blobs_lr: 2
  weight_decay: 1
  weight_decay: 0
  convolution_param {
    num_output: 96
    kernel_size: 11
    stride: 4
    weight_filler {
      type: "gaussian"
      std: 0.01
    }
    bias_filler {
      type: "constant"
      value: 0
    }
  }
}
layers {
  bottom: "conv1"
  top: "conv1"
  name: "relu1"
  type: RELU
}
layers {
  bottom: "conv1"
  top: "pool1"
  name: "pool1"
  type: POOLING
  pooling_param {
    pool: MAX
    kernel_size: 3
    stride: 2
  }
}
layers {
  bottom: "pool1"
  top: "norm1"
  name: "norm1"
  type: LRN
  lrn_param {
    local_size: 5
    alpha: 0.0001
    beta: 0.75
  }
}
layers {
  bottom: "norm1"
  top: "conv2"
  name: "conv2"
  type: CONVOLUTION
  blobs_lr: 1
  blobs_lr: 2
  weight_decay: 1
  weight_decay: 0
  convolution_param {
    num_output: 256
    pad: 2
    kernel_size: 5
    group: 2
    weight_filler {
      type: "gaussian"
      std: 0.01
    }
    bias_filler {
      type: "constant"
      value: 1
    }
  }
}
layers {
  bottom: "conv2"
  top: "conv2"
  name: "relu2"
  type: RELU
}
layers {
  bottom: "conv2"
  top: "pool2"
  name: "pool2"
  type: POOLING
  pooling_param {
    pool: MAX
    kernel_size: 3
    stride: 2
  }
}
layers {
  bottom: "pool2"
  top: "norm2"
  name: "norm2"
  type: LRN
  lrn_param {
    local_size: 5
    alpha: 0.0001
    beta: 0.75
  }
}
layers {
  bottom: "norm2"
  top: "conv3"
  name: "conv3"
  type: CONVOLUTION
  blobs_lr: 1
  blobs_lr: 2
  weight_decay: 1
  weight_decay: 0
  convolution_param {
    num_output: 384
    pad: 1
    kernel_size: 3
    weight_filler {
      type: "gaussian"
      std: 0.01
    }
    bias_filler {
      type: "constant"
      value: 0
    }
  }
}
layers {
  bottom: "conv3"
  top: "conv3"
  name: "relu3"
  type: RELU
}
layers {
  bottom: "conv3"
  top: "conv4"
  name: "conv4"
  type: CONVOLUTION
  blobs_lr: 1
  blobs_lr: 2
  weight_decay: 1
  weight_decay: 0
  convolution_param {
    num_output: 384
    pad: 1
    kernel_size: 3
    group: 2
    weight_filler {
      type: "gaussian"
      std: 0.01
    }
    bias_filler {
      type: "constant"
      value: 1
    }
  }
}
layers {
  bottom: "conv4"
  top: "conv4"
  name: "relu4"
  type: RELU
}
layers {
  bottom: "conv4"
  top: "conv5"
  name: "conv5"
  type: CONVOLUTION
  blobs_lr: 1
  blobs_lr: 2
  weight_decay: 1
  weight_decay: 0
  convolution_param {
    num_output: 256
    pad: 1
    kernel_size: 3
    group: 2
    weight_filler {
      type: "gaussian"
      std: 0.01
    }
    bias_filler {
      type: "constant"
      value: 1
    }
  }
}
layers {
  bottom: "conv5"
  top: "conv5"
  name: "relu5"
  type: RELU
}
layers {
  bottom: "conv5"
  top: "pool5"
  name: "pool5"
  type: POOLING
  pooling_param {
    pool: MAX
    kernel_size: 3
    stride: 2
  }
}
layers {
  bottom: "pool5"
  top: "fc6"
  name: "fc6"
  type: INNER_PRODUCT
  blobs_lr: 1
  blobs_lr: 2
  weight_decay: 1
  weight_decay: 0
  inner_product_param {
    num_output: 4096
    weight_filler {
      type: "gaussian"
      std: 0.005
    }
    bias_filler {
      type: "constant"
      value: 1
    }
  }
}
layers {
  bottom: "fc6"
  top: "fc6"
  name: "relu6"
  type: RELU
}
layers {
  bottom: "fc6"
  top: "fc6"
  name: "drop6"
  type: DROPOUT
  dropout_param {
    dropout_ratio: 0.5
  }
}
layers {
  bottom: "fc6"
  top: "fc7"
  name: "fc7"
  type: INNER_PRODUCT
  blobs_lr: 1
  blobs_lr: 2
  weight_decay: 1
  weight_decay: 0
  inner_product_param {
    num_output: 4096
    weight_filler {
      type: "gaussian"
      std: 0.005
    }
    bias_filler {
      type: "constant"
      value: 1
    }
  }
}
layers {
  bottom: "fc7"
  top: "fc7"
  name: "relu7"
  type: RELU
}
layers {
  bottom: "fc7"
  top: "fc7"
  name: "drop7"
  type: DROPOUT
  dropout_param {
    dropout_ratio: 0.5
  }
}
layers {
  bottom: "fc7"
  top: "fc8_inadcl"
  name: "fc8_inadcl"
  type: INNER_PRODUCT
  blobs_lr: 1
  blobs_lr: 2
  weight_decay: 1
  weight_decay: 0
  inner_product_param {
    num_output: 2
    weight_filler {
      type: "gaussian"
      std: 0.01
    }
    bias_filler {
      type: "constant"
      value: 0
    }
  }
}
layers {
  bottom: "fc8_inadcl"
  bottom: "label"
  name: "loss"
  type: SOFTMAX_LOSS
}
layers {
  bottom: "fc8_inadcl"
  bottom: "label"
  top: "accuracy"
  name: "accuracy"
  type: ACCURACY
  include {
    phase: TEST
  }
}
state {
  phase: TEST
}
I1028 04:09:08.249186  7803 net.cpp:67] Creating Layer data
I1028 04:09:08.249197  7803 net.cpp:356] data -> data
I1028 04:09:08.249207  7803 net.cpp:356] data -> label
I1028 04:09:08.249217  7803 net.cpp:96] Setting up data
I1028 04:09:08.249222  7803 image_data_layer.cpp:30] Opening file data/inadcl/val.txt
I1028 04:09:08.249306  7803 image_data_layer.cpp:45] A total of 82 images.
I1028 04:09:08.251883  7803 image_data_layer.cpp:73] output data size: 82,3,227,227
I1028 04:09:08.251905  7803 base_data_layer.cpp:36] Loading mean file from/homes/ad6813/data/controlpoint_mean_256-227.binaryproto
I1028 04:09:08.263409  7803 net.cpp:103] Top shape: 82 3 227 227 (12676134)
I1028 04:09:08.263442  7803 net.cpp:103] Top shape: 82 1 1 1 (82)
I1028 04:09:08.263455  7803 net.cpp:67] Creating Layer label_data_1_split
I1028 04:09:08.263463  7803 net.cpp:394] label_data_1_split <- label
I1028 04:09:08.263471  7803 net.cpp:356] label_data_1_split -> label_data_1_split_0
I1028 04:09:08.263485  7803 net.cpp:356] label_data_1_split -> label_data_1_split_1
I1028 04:09:08.263494  7803 net.cpp:96] Setting up label_data_1_split
I1028 04:09:08.263505  7803 net.cpp:103] Top shape: 82 1 1 1 (82)
I1028 04:09:08.263510  7803 net.cpp:103] Top shape: 82 1 1 1 (82)
I1028 04:09:08.263523  7803 net.cpp:67] Creating Layer conv1
I1028 04:09:08.263536  7803 net.cpp:394] conv1 <- data
I1028 04:09:08.263545  7803 net.cpp:356] conv1 -> conv1
I1028 04:09:08.263556  7803 net.cpp:96] Setting up conv1
I1028 04:09:08.264976  7803 net.cpp:103] Top shape: 82 96 55 55 (23812800)
I1028 04:09:08.264999  7803 net.cpp:67] Creating Layer relu1
I1028 04:09:08.265005  7803 net.cpp:394] relu1 <- conv1
I1028 04:09:08.265012  7803 net.cpp:345] relu1 -> conv1 (in-place)
I1028 04:09:08.265019  7803 net.cpp:96] Setting up relu1
I1028 04:09:08.265025  7803 net.cpp:103] Top shape: 82 96 55 55 (23812800)
I1028 04:09:08.265033  7803 net.cpp:67] Creating Layer pool1
I1028 04:09:08.265038  7803 net.cpp:394] pool1 <- conv1
I1028 04:09:08.265044  7803 net.cpp:356] pool1 -> pool1
I1028 04:09:08.265053  7803 net.cpp:96] Setting up pool1
I1028 04:09:08.265058  7803 net.cpp:103] Top shape: 82 96 27 27 (5738688)
I1028 04:09:08.265066  7803 net.cpp:67] Creating Layer norm1
I1028 04:09:08.265070  7803 net.cpp:394] norm1 <- pool1
I1028 04:09:08.265077  7803 net.cpp:356] norm1 -> norm1
I1028 04:09:08.265084  7803 net.cpp:96] Setting up norm1
I1028 04:09:08.265090  7803 net.cpp:103] Top shape: 82 96 27 27 (5738688)
I1028 04:09:08.265099  7803 net.cpp:67] Creating Layer conv2
I1028 04:09:08.265103  7803 net.cpp:394] conv2 <- norm1
I1028 04:09:08.265110  7803 net.cpp:356] conv2 -> conv2
I1028 04:09:08.265117  7803 net.cpp:96] Setting up conv2
I1028 04:09:08.277286  7803 net.cpp:103] Top shape: 82 256 27 27 (15303168)
I1028 04:09:08.277312  7803 net.cpp:67] Creating Layer relu2
I1028 04:09:08.277319  7803 net.cpp:394] relu2 <- conv2
I1028 04:09:08.277326  7803 net.cpp:345] relu2 -> conv2 (in-place)
I1028 04:09:08.277333  7803 net.cpp:96] Setting up relu2
I1028 04:09:08.277338  7803 net.cpp:103] Top shape: 82 256 27 27 (15303168)
I1028 04:09:08.277348  7803 net.cpp:67] Creating Layer pool2
I1028 04:09:08.277354  7803 net.cpp:394] pool2 <- conv2
I1028 04:09:08.277360  7803 net.cpp:356] pool2 -> pool2
I1028 04:09:08.277369  7803 net.cpp:96] Setting up pool2
I1028 04:09:08.277375  7803 net.cpp:103] Top shape: 82 256 13 13 (3547648)
I1028 04:09:08.277382  7803 net.cpp:67] Creating Layer norm2
I1028 04:09:08.277386  7803 net.cpp:394] norm2 <- pool2
I1028 04:09:08.277395  7803 net.cpp:356] norm2 -> norm2
I1028 04:09:08.277403  7803 net.cpp:96] Setting up norm2
I1028 04:09:08.277408  7803 net.cpp:103] Top shape: 82 256 13 13 (3547648)
I1028 04:09:08.277418  7803 net.cpp:67] Creating Layer conv3
I1028 04:09:08.277422  7803 net.cpp:394] conv3 <- norm2
I1028 04:09:08.277429  7803 net.cpp:356] conv3 -> conv3
I1028 04:09:08.277448  7803 net.cpp:96] Setting up conv3
I1028 04:09:08.312548  7803 net.cpp:103] Top shape: 82 384 13 13 (5321472)
I1028 04:09:08.312592  7803 net.cpp:67] Creating Layer relu3
I1028 04:09:08.312600  7803 net.cpp:394] relu3 <- conv3
I1028 04:09:08.312608  7803 net.cpp:345] relu3 -> conv3 (in-place)
I1028 04:09:08.312618  7803 net.cpp:96] Setting up relu3
I1028 04:09:08.312623  7803 net.cpp:103] Top shape: 82 384 13 13 (5321472)
I1028 04:09:08.312631  7803 net.cpp:67] Creating Layer conv4
I1028 04:09:08.312636  7803 net.cpp:394] conv4 <- conv3
I1028 04:09:08.312645  7803 net.cpp:356] conv4 -> conv4
I1028 04:09:08.312654  7803 net.cpp:96] Setting up conv4
I1028 04:09:08.339206  7803 net.cpp:103] Top shape: 82 384 13 13 (5321472)
I1028 04:09:08.339246  7803 net.cpp:67] Creating Layer relu4
I1028 04:09:08.339254  7803 net.cpp:394] relu4 <- conv4
I1028 04:09:08.339265  7803 net.cpp:345] relu4 -> conv4 (in-place)
I1028 04:09:08.339274  7803 net.cpp:96] Setting up relu4
I1028 04:09:08.339279  7803 net.cpp:103] Top shape: 82 384 13 13 (5321472)
I1028 04:09:08.339290  7803 net.cpp:67] Creating Layer conv5
I1028 04:09:08.339295  7803 net.cpp:394] conv5 <- conv4
I1028 04:09:08.339303  7803 net.cpp:356] conv5 -> conv5
I1028 04:09:08.339311  7803 net.cpp:96] Setting up conv5
I1028 04:09:08.357019  7803 net.cpp:103] Top shape: 82 256 13 13 (3547648)
I1028 04:09:08.357051  7803 net.cpp:67] Creating Layer relu5
I1028 04:09:08.357059  7803 net.cpp:394] relu5 <- conv5
I1028 04:09:08.357066  7803 net.cpp:345] relu5 -> conv5 (in-place)
I1028 04:09:08.357074  7803 net.cpp:96] Setting up relu5
I1028 04:09:08.357079  7803 net.cpp:103] Top shape: 82 256 13 13 (3547648)
I1028 04:09:08.357089  7803 net.cpp:67] Creating Layer pool5
I1028 04:09:08.357094  7803 net.cpp:394] pool5 <- conv5
I1028 04:09:08.357103  7803 net.cpp:356] pool5 -> pool5
I1028 04:09:08.357112  7803 net.cpp:96] Setting up pool5
I1028 04:09:08.357120  7803 net.cpp:103] Top shape: 82 256 6 6 (755712)
I1028 04:09:08.357128  7803 net.cpp:67] Creating Layer fc6
I1028 04:09:08.357133  7803 net.cpp:394] fc6 <- pool5
I1028 04:09:08.357142  7803 net.cpp:356] fc6 -> fc6
I1028 04:09:08.357151  7803 net.cpp:96] Setting up fc6
I1028 04:09:09.834710  7803 net.cpp:103] Top shape: 82 4096 1 1 (335872)
I1028 04:09:09.834755  7803 net.cpp:67] Creating Layer relu6
I1028 04:09:09.834764  7803 net.cpp:394] relu6 <- fc6
I1028 04:09:09.834774  7803 net.cpp:345] relu6 -> fc6 (in-place)
I1028 04:09:09.834784  7803 net.cpp:96] Setting up relu6
I1028 04:09:09.834790  7803 net.cpp:103] Top shape: 82 4096 1 1 (335872)
I1028 04:09:09.834797  7803 net.cpp:67] Creating Layer drop6
I1028 04:09:09.834802  7803 net.cpp:394] drop6 <- fc6
I1028 04:09:09.834808  7803 net.cpp:345] drop6 -> fc6 (in-place)
I1028 04:09:09.834815  7803 net.cpp:96] Setting up drop6
I1028 04:09:09.834820  7803 net.cpp:103] Top shape: 82 4096 1 1 (335872)
I1028 04:09:09.834830  7803 net.cpp:67] Creating Layer fc7
I1028 04:09:09.834836  7803 net.cpp:394] fc7 <- fc6
I1028 04:09:09.834842  7803 net.cpp:356] fc7 -> fc7
I1028 04:09:09.834851  7803 net.cpp:96] Setting up fc7
I1028 04:09:10.490998  7803 net.cpp:103] Top shape: 82 4096 1 1 (335872)
I1028 04:09:10.491044  7803 net.cpp:67] Creating Layer relu7
I1028 04:09:10.491051  7803 net.cpp:394] relu7 <- fc7
I1028 04:09:10.491060  7803 net.cpp:345] relu7 -> fc7 (in-place)
I1028 04:09:10.491070  7803 net.cpp:96] Setting up relu7
I1028 04:09:10.491075  7803 net.cpp:103] Top shape: 82 4096 1 1 (335872)
I1028 04:09:10.491085  7803 net.cpp:67] Creating Layer drop7
I1028 04:09:10.491089  7803 net.cpp:394] drop7 <- fc7
I1028 04:09:10.491096  7803 net.cpp:345] drop7 -> fc7 (in-place)
I1028 04:09:10.491102  7803 net.cpp:96] Setting up drop7
I1028 04:09:10.491108  7803 net.cpp:103] Top shape: 82 4096 1 1 (335872)
I1028 04:09:10.491117  7803 net.cpp:67] Creating Layer fc8_inadcl
I1028 04:09:10.491122  7803 net.cpp:394] fc8_inadcl <- fc7
I1028 04:09:10.491128  7803 net.cpp:356] fc8_inadcl -> fc8_inadcl
I1028 04:09:10.491142  7803 net.cpp:96] Setting up fc8_inadcl
I1028 04:09:10.491498  7803 net.cpp:103] Top shape: 82 2 1 1 (164)
I1028 04:09:10.491528  7803 net.cpp:67] Creating Layer fc8_inadcl_fc8_inadcl_0_split
I1028 04:09:10.491533  7803 net.cpp:394] fc8_inadcl_fc8_inadcl_0_split <- fc8_inadcl
I1028 04:09:10.491540  7803 net.cpp:356] fc8_inadcl_fc8_inadcl_0_split -> fc8_inadcl_fc8_inadcl_0_split_0
I1028 04:09:10.491549  7803 net.cpp:356] fc8_inadcl_fc8_inadcl_0_split -> fc8_inadcl_fc8_inadcl_0_split_1
I1028 04:09:10.491557  7803 net.cpp:96] Setting up fc8_inadcl_fc8_inadcl_0_split
I1028 04:09:10.491562  7803 net.cpp:103] Top shape: 82 2 1 1 (164)
I1028 04:09:10.491567  7803 net.cpp:103] Top shape: 82 2 1 1 (164)
I1028 04:09:10.491576  7803 net.cpp:67] Creating Layer loss
I1028 04:09:10.491581  7803 net.cpp:394] loss <- fc8_inadcl_fc8_inadcl_0_split_0
I1028 04:09:10.491588  7803 net.cpp:394] loss <- label_data_1_split_0
I1028 04:09:10.491595  7803 net.cpp:356] loss -> (automatic)
I1028 04:09:10.491601  7803 net.cpp:96] Setting up loss
I1028 04:09:10.491610  7803 net.cpp:103] Top shape: 1 1 1 1 (1)
I1028 04:09:10.491614  7803 net.cpp:109]     with loss weight 1
I1028 04:09:10.491634  7803 net.cpp:67] Creating Layer accuracy
I1028 04:09:10.491659  7803 net.cpp:394] accuracy <- fc8_inadcl_fc8_inadcl_0_split_1
I1028 04:09:10.491678  7803 net.cpp:394] accuracy <- label_data_1_split_1
I1028 04:09:10.491688  7803 net.cpp:356] accuracy -> accuracy
I1028 04:09:10.491696  7803 net.cpp:96] Setting up accuracy
I1028 04:09:10.491709  7803 net.cpp:103] Top shape: 1 1 1 4 (4)
I1028 04:09:10.491716  7803 net.cpp:172] accuracy does not need backward computation.
I1028 04:09:10.491731  7803 net.cpp:170] loss needs backward computation.
I1028 04:09:10.491736  7803 net.cpp:170] fc8_inadcl_fc8_inadcl_0_split needs backward computation.
I1028 04:09:10.491741  7803 net.cpp:170] fc8_inadcl needs backward computation.
I1028 04:09:10.491746  7803 net.cpp:170] drop7 needs backward computation.
…
