…
I1107 04:20:51.667259  6336 net.cpp:275] The NetState phase (0) differed from the phase (1) specified by a rule in layer accuracy
I1107 04:20:51.667551  6336 net.cpp:39] Initializing net from parameters: 
name: "ScrapeCaffeNet"
layers {
  top: "data"
  top: "label"
  name: "data"
  type: IMAGE_DATA
  image_data_param {
    source: "data/scrape_devC/train.txt"
    batch_size: 32
    new_height: 256
    new_width: 256
  }
  include {
    phase: TRAIN
  }
  transform_param {
    mirror: true
    crop_size: 227
    mean_file: "/homes/ad6813/data/controlpoint_mean_256-227.binaryproto"
  }
}
layers {
  bottom: "data"
  top: "conv1"
  name: "conv1"
  type: CONVOLUTION
  blobs_lr: 1
  blobs_lr: 2
  weight_decay: 1
  weight_decay: 0
  convolution_param {
    num_output: 96
    kernel_size: 11
    stride: 4
    weight_filler {
      type: "gaussian"
      std: 0.01
    }
    bias_filler {
      type: "constant"
      value: 0
    }
  }
}
layers {
  bottom: "conv1"
  top: "conv1"
  name: "relu1"
  type: RELU
}
layers {
  bottom: "conv1"
  top: "pool1"
  name: "pool1"
  type: POOLING
  pooling_param {
    pool: MAX
    kernel_size: 3
    stride: 2
  }
}
layers {
  bottom: "pool1"
  top: "norm1"
  name: "norm1"
  type: LRN
  lrn_param {
    local_size: 5
    alpha: 0.0001
    beta: 0.75
  }
}
layers {
  bottom: "norm1"
  top: "conv2"
  name: "conv2"
  type: CONVOLUTION
  blobs_lr: 1
  blobs_lr: 2
  weight_decay: 1
  weight_decay: 0
  convolution_param {
    num_output: 256
    pad: 2
    kernel_size: 5
    group: 2
    weight_filler {
      type: "gaussian"
      std: 0.01
    }
    bias_filler {
      type: "constant"
      value: 1
    }
  }
}
layers {
  bottom: "conv2"
  top: "conv2"
  name: "relu2"
  type: RELU
}
layers {
  bottom: "conv2"
  top: "pool2"
  name: "pool2"
  type: POOLING
  pooling_param {
    pool: MAX
    kernel_size: 3
    stride: 2
  }
}
layers {
  bottom: "pool2"
  top: "norm2"
  name: "norm2"
  type: LRN
  lrn_param {
    local_size: 5
    alpha: 0.0001
    beta: 0.75
  }
}
layers {
  bottom: "norm2"
  top: "conv3"
  name: "conv3"
  type: CONVOLUTION
  blobs_lr: 1
  blobs_lr: 2
  weight_decay: 1
  weight_decay: 0
  convolution_param {
    num_output: 384
    pad: 1
    kernel_size: 3
    weight_filler {
      type: "gaussian"
      std: 0.01
    }
    bias_filler {
      type: "constant"
      value: 0
    }
  }
}
layers {
  bottom: "conv3"
  top: "conv3"
  name: "relu3"
  type: RELU
}
layers {
  bottom: "conv3"
  top: "conv4"
  name: "conv4"
  type: CONVOLUTION
  blobs_lr: 1
  blobs_lr: 2
  weight_decay: 1
  weight_decay: 0
  convolution_param {
    num_output: 384
    pad: 1
    kernel_size: 3
    group: 2
    weight_filler {
      type: "gaussian"
      std: 0.01
    }
    bias_filler {
      type: "constant"
      value: 1
    }
  }
}
layers {
  bottom: "conv4"
  top: "conv4"
  name: "relu4"
  type: RELU
}
layers {
  bottom: "conv4"
  top: "conv5"
  name: "conv5"
  type: CONVOLUTION
  blobs_lr: 1
  blobs_lr: 2
  weight_decay: 1
  weight_decay: 0
  convolution_param {
    num_output: 256
    pad: 1
    kernel_size: 3
    group: 2
    weight_filler {
      type: "gaussian"
      std: 0.01
    }
    bias_filler {
      type: "constant"
      value: 1
    }
  }
}
layers {
  bottom: "conv5"
  top: "conv5"
  name: "relu5"
  type: RELU
}
layers {
  bottom: "conv5"
  top: "pool5"
  name: "pool5"
  type: POOLING
  pooling_param {
    pool: MAX
    kernel_size: 3
    stride: 2
  }
}
layers {
  bottom: "pool5"
  top: "fc6"
  name: "fc6"
  type: INNER_PRODUCT
  blobs_lr: 1
  blobs_lr: 2
  weight_decay: 1
  weight_decay: 0
  inner_product_param {
    num_output: 4096
    weight_filler {
      type: "gaussian"
      std: 0.005
    }
    bias_filler {
      type: "constant"
      value: 1
    }
  }
}
layers {
  bottom: "fc6"
  top: "fc6"
  name: "relu6"
  type: RELU
}
layers {
  bottom: "fc6"
  top: "fc6"
  name: "drop6"
  type: DROPOUT
  dropout_param {
    dropout_ratio: 0.5
  }
}
layers {
  bottom: "fc6"
  top: "fc7"
  name: "fc7"
  type: INNER_PRODUCT
  blobs_lr: 1
  blobs_lr: 2
  weight_decay: 1
  weight_decay: 0
  inner_product_param {
    num_output: 4096
    weight_filler {
      type: "gaussian"
      std: 0.005
    }
    bias_filler {
      type: "constant"
      value: 1
    }
  }
}
layers {
  bottom: "fc7"
  top: "fc7"
  name: "relu7"
  type: RELU
}
layers {
  bottom: "fc7"
  top: "fc7"
  name: "drop7"
  type: DROPOUT
  dropout_param {
    dropout_ratio: 0.5
  }
}
layers {
  bottom: "fc7"
  top: "fc8_scrape"
  name: "fc8_scrape"
  type: INNER_PRODUCT
  blobs_lr: 1
  blobs_lr: 2
  weight_decay: 1
  weight_decay: 0
  inner_product_param {
    num_output: 2
    weight_filler {
      type: "gaussian"
      std: 0.01
    }
    bias_filler {
      type: "constant"
      value: 0
    }
  }
}
layers {
  bottom: "fc8_scrape"
  bottom: "label"
  name: "loss"
  type: SOFTMAX_LOSS
}
state {
  phase: TRAIN
}
I1107 04:20:51.667723  6336 net.cpp:67] Creating Layer data
I1107 04:20:51.667739  6336 net.cpp:356] data -> data
I1107 04:20:51.667767  6336 net.cpp:356] data -> label
I1107 04:20:51.667793  6336 net.cpp:96] Setting up data
I1107 04:20:51.667806  6336 image_data_layer.cpp:30] Opening file data/scrape_devC/train.txt
I1107 04:20:51.740349  6336 image_data_layer.cpp:45] A total of 104401 images.
I1107 04:20:51.752301  6336 image_data_layer.cpp:73] output data size: 32,3,227,227
I1107 04:20:51.752354  6336 base_data_layer.cpp:36] Loading mean file from/homes/ad6813/data/controlpoint_mean_256-227.binaryproto
I1107 04:20:51.766909  6336 net.cpp:103] Top shape: 32 3 227 227 (4946784)
I1107 04:20:51.766957  6336 net.cpp:103] Top shape: 32 1 1 1 (32)
I1107 04:20:51.767026  6336 net.cpp:67] Creating Layer conv1
I1107 04:20:51.767042  6336 net.cpp:394] conv1 <- data
I1107 04:20:51.767077  6336 net.cpp:356] conv1 -> conv1
I1107 04:20:51.767107  6336 net.cpp:96] Setting up conv1
I1107 04:20:51.799444  6336 net.cpp:103] Top shape: 32 96 55 55 (9292800)
I1107 04:20:51.799502  6336 net.cpp:67] Creating Layer relu1
I1107 04:20:51.799512  6336 net.cpp:394] relu1 <- conv1
I1107 04:20:51.799522  6336 net.cpp:345] relu1 -> conv1 (in-place)
I1107 04:20:51.799537  6336 net.cpp:96] Setting up relu1
I1107 04:20:51.799552  6336 net.cpp:103] Top shape: 32 96 55 55 (9292800)
I1107 04:20:51.799562  6336 net.cpp:67] Creating Layer pool1
I1107 04:20:51.799568  6336 net.cpp:394] pool1 <- conv1
I1107 04:20:51.799579  6336 net.cpp:356] pool1 -> pool1
I1107 04:20:51.799590  6336 net.cpp:96] Setting up pool1
I1107 04:20:51.799613  6336 net.cpp:103] Top shape: 32 96 27 27 (2239488)
I1107 04:20:51.799626  6336 net.cpp:67] Creating Layer norm1
I1107 04:20:51.799635  6336 net.cpp:394] norm1 <- pool1
I1107 04:20:51.799643  6336 net.cpp:356] norm1 -> norm1
I1107 04:20:51.799654  6336 net.cpp:96] Setting up norm1
I1107 04:20:51.799665  6336 net.cpp:103] Top shape: 32 96 27 27 (2239488)
I1107 04:20:51.799679  6336 net.cpp:67] Creating Layer conv2
I1107 04:20:51.799692  6336 net.cpp:394] conv2 <- norm1
I1107 04:20:51.799705  6336 net.cpp:356] conv2 -> conv2
I1107 04:20:51.799715  6336 net.cpp:96] Setting up conv2
I1107 04:20:51.814970  6336 net.cpp:103] Top shape: 32 256 27 27 (5971968)
I1107 04:20:51.815021  6336 net.cpp:67] Creating Layer relu2
I1107 04:20:51.815028  6336 net.cpp:394] relu2 <- conv2
I1107 04:20:51.815044  6336 net.cpp:345] relu2 -> conv2 (in-place)
I1107 04:20:51.815055  6336 net.cpp:96] Setting up relu2
I1107 04:20:51.815065  6336 net.cpp:103] Top shape: 32 256 27 27 (5971968)
I1107 04:20:51.815076  6336 net.cpp:67] Creating Layer pool2
I1107 04:20:51.815095  6336 net.cpp:394] pool2 <- conv2
I1107 04:20:51.815104  6336 net.cpp:356] pool2 -> pool2
I1107 04:20:51.815114  6336 net.cpp:96] Setting up pool2
I1107 04:20:51.815125  6336 net.cpp:103] Top shape: 32 256 13 13 (1384448)
I1107 04:20:51.815140  6336 net.cpp:67] Creating Layer norm2
I1107 04:20:51.815146  6336 net.cpp:394] norm2 <- pool2
I1107 04:20:51.815157  6336 net.cpp:356] norm2 -> norm2
I1107 04:20:51.815166  6336 net.cpp:96] Setting up norm2
I1107 04:20:51.815174  6336 net.cpp:103] Top shape: 32 256 13 13 (1384448)
I1107 04:20:51.815186  6336 net.cpp:67] Creating Layer conv3
I1107 04:20:51.815191  6336 net.cpp:394] conv3 <- norm2
I1107 04:20:51.815202  6336 net.cpp:356] conv3 -> conv3
I1107 04:20:51.815214  6336 net.cpp:96] Setting up conv3
I1107 04:20:51.858556  6336 net.cpp:103] Top shape: 32 384 13 13 (2076672)
I1107 04:20:51.858608  6336 net.cpp:67] Creating Layer relu3
I1107 04:20:51.858616  6336 net.cpp:394] relu3 <- conv3
I1107 04:20:51.858626  6336 net.cpp:345] relu3 -> conv3 (in-place)
I1107 04:20:51.858638  6336 net.cpp:96] Setting up relu3
I1107 04:20:51.858649  6336 net.cpp:103] Top shape: 32 384 13 13 (2076672)
I1107 04:20:51.858664  6336 net.cpp:67] Creating Layer conv4
I1107 04:20:51.858669  6336 net.cpp:394] conv4 <- conv3
I1107 04:20:51.858678  6336 net.cpp:356] conv4 -> conv4
I1107 04:20:51.858690  6336 net.cpp:96] Setting up conv4
I1107 04:20:51.891747  6336 net.cpp:103] Top shape: 32 384 13 13 (2076672)
I1107 04:20:51.891790  6336 net.cpp:67] Creating Layer relu4
I1107 04:20:51.891798  6336 net.cpp:394] relu4 <- conv4
I1107 04:20:51.891813  6336 net.cpp:345] relu4 -> conv4 (in-place)
I1107 04:20:51.891824  6336 net.cpp:96] Setting up relu4
I1107 04:20:51.891835  6336 net.cpp:103] Top shape: 32 384 13 13 (2076672)
I1107 04:20:51.891846  6336 net.cpp:67] Creating Layer conv5
I1107 04:20:51.891852  6336 net.cpp:394] conv5 <- conv4
I1107 04:20:51.891865  6336 net.cpp:356] conv5 -> conv5
I1107 04:20:51.891875  6336 net.cpp:96] Setting up conv5
I1107 04:20:51.913687  6336 net.cpp:103] Top shape: 32 256 13 13 (1384448)
I1107 04:20:51.913738  6336 net.cpp:67] Creating Layer relu5
I1107 04:20:51.913746  6336 net.cpp:394] relu5 <- conv5
I1107 04:20:51.913758  6336 net.cpp:345] relu5 -> conv5 (in-place)
I1107 04:20:51.913769  6336 net.cpp:96] Setting up relu5
I1107 04:20:51.913780  6336 net.cpp:103] Top shape: 32 256 13 13 (1384448)
I1107 04:20:51.913790  6336 net.cpp:67] Creating Layer pool5
I1107 04:20:51.913796  6336 net.cpp:394] pool5 <- conv5
I1107 04:20:51.913805  6336 net.cpp:356] pool5 -> pool5
I1107 04:20:51.913815  6336 net.cpp:96] Setting up pool5
I1107 04:20:51.913826  6336 net.cpp:103] Top shape: 32 256 6 6 (294912)
I1107 04:20:51.913846  6336 net.cpp:67] Creating Layer fc6
I1107 04:20:51.913851  6336 net.cpp:394] fc6 <- pool5
I1107 04:20:51.913863  6336 net.cpp:356] fc6 -> fc6
I1107 04:20:51.913873  6336 net.cpp:96] Setting up fc6
I1107 04:20:53.901921  6336 net.cpp:103] Top shape: 32 4096 1 1 (131072)
I1107 04:20:53.901971  6336 net.cpp:67] Creating Layer relu6
I1107 04:20:53.901979  6336 net.cpp:394] relu6 <- fc6
I1107 04:20:53.901990  6336 net.cpp:345] relu6 -> fc6 (in-place)
I1107 04:20:53.902001  6336 net.cpp:96] Setting up relu6
I1107 04:20:53.902022  6336 net.cpp:103] Top shape: 32 4096 1 1 (131072)
I1107 04:20:53.902035  6336 net.cpp:67] Creating Layer drop6
I1107 04:20:53.902041  6336 net.cpp:394] drop6 <- fc6
I1107 04:20:53.902050  6336 net.cpp:345] drop6 -> fc6 (in-place)
I1107 04:20:53.902060  6336 net.cpp:96] Setting up drop6
I1107 04:20:53.902070  6336 net.cpp:103] Top shape: 32 4096 1 1 (131072)
I1107 04:20:53.902081  6336 net.cpp:67] Creating Layer fc7
I1107 04:20:53.902086  6336 net.cpp:394] fc7 <- fc6
I1107 04:20:53.902096  6336 net.cpp:356] fc7 -> fc7
I1107 04:20:53.902106  6336 net.cpp:96] Setting up fc7
I1107 04:20:54.713460  6336 net.cpp:103] Top shape: 32 4096 1 1 (131072)
I1107 04:20:54.713512  6336 net.cpp:67] Creating Layer relu7
I1107 04:20:54.713521  6336 net.cpp:394] relu7 <- fc7
I1107 04:20:54.713532  6336 net.cpp:345] relu7 -> fc7 (in-place)
I1107 04:20:54.713558  6336 net.cpp:96] Setting up relu7
I1107 04:20:54.713579  6336 net.cpp:103] Top shape: 32 4096 1 1 (131072)
I1107 04:20:54.713589  6336 net.cpp:67] Creating Layer drop7
I1107 04:20:54.713594  6336 net.cpp:394] drop7 <- fc7
I1107 04:20:54.713605  6336 net.cpp:345] drop7 -> fc7 (in-place)
I1107 04:20:54.713614  6336 net.cpp:96] Setting up drop7
I1107 04:20:54.713621  6336 net.cpp:103] Top shape: 32 4096 1 1 (131072)
I1107 04:20:54.713631  6336 net.cpp:67] Creating Layer fc8_scrape
I1107 04:20:54.713637  6336 net.cpp:394] fc8_scrape <- fc7
I1107 04:20:54.713646  6336 net.cpp:356] fc8_scrape -> fc8_scrape
I1107 04:20:54.713656  6336 net.cpp:96] Setting up fc8_scrape
I1107 04:20:54.714087  6336 net.cpp:103] Top shape: 32 2 1 1 (64)
I1107 04:20:54.714110  6336 net.cpp:67] Creating Layer loss
I1107 04:20:54.714118  6336 net.cpp:394] loss <- fc8_scrape
I1107 04:20:54.714125  6336 net.cpp:394] loss <- label
I1107 04:20:54.714134  6336 net.cpp:356] loss -> (automatic)
I1107 04:20:54.714143  6336 net.cpp:96] Setting up loss
I1107 04:20:54.714159  6336 net.cpp:103] Top shape: 1 1 1 1 (1)
I1107 04:20:54.714165  6336 net.cpp:109]     with loss weight 1
I1107 04:20:54.714210  6336 net.cpp:170] loss needs backward computation.
I1107 04:20:54.714217  6336 net.cpp:170] fc8_scrape needs backward computation.
I1107 04:20:54.714223  6336 net.cpp:170] drop7 needs backward computation.
I1107 04:20:54.714228  6336 net.cpp:170] relu7 needs backward computation.
I1107 04:20:54.714233  6336 net.cpp:170] fc7 needs backward computation.
…
I1107 04:20:54.715554  6336 solver.cpp:151] Creating test net (#0) specified by net file: task/scrape_devC/train_val.prototxt
I1107 04:20:54.715627  6336 net.cpp:275] The NetState phase (1) differed from the phase (0) specified by a rule in layer data
I1107 04:20:54.715939  6336 net.cpp:39] Initializing net from parameters: 
name: "ScrapeCaffeNet"
layers {
  top: "data"
  top: "label"
  name: "data"
  type: IMAGE_DATA
  image_data_param {
    source: "data/scrape_devC/val.txt"
    batch_size: 8
    new_height: 256
    new_width: 256
  }
  include {
    phase: TEST
  }
  transform_param {
    mirror: true
    crop_size: 227
    mean_file: "/homes/ad6813/data/controlpoint_mean_256-227.binaryproto"
  }
}
layers {
  bottom: "data"
  top: "conv1"
  name: "conv1"
  type: CONVOLUTION
  blobs_lr: 1
  blobs_lr: 2
  weight_decay: 1
  weight_decay: 0
  convolution_param {
    num_output: 96
    kernel_size: 11
    stride: 4
    weight_filler {
      type: "gaussian"
      std: 0.01
    }
    bias_filler {
      type: "constant"
      value: 0
    }
  }
}
layers {
  bottom: "conv1"
  top: "conv1"
  name: "relu1"
  type: RELU
}
layers {
  bottom: "conv1"
  top: "pool1"
  name: "pool1"
  type: POOLING
  pooling_param {
    pool: MAX
    kernel_size: 3
    stride: 2
  }
}
layers {
  bottom: "pool1"
  top: "norm1"
  name: "norm1"
  type: LRN
  lrn_param {
    local_size: 5
    alpha: 0.0001
    beta: 0.75
  }
}
layers {
  bottom: "norm1"
  top: "conv2"
  name: "conv2"
  type: CONVOLUTION
  blobs_lr: 1
  blobs_lr: 2
  weight_decay: 1
  weight_decay: 0
  convolution_param {
    num_output: 256
    pad: 2
    kernel_size: 5
    group: 2
    weight_filler {
      type: "gaussian"
      std: 0.01
    }
    bias_filler {
      type: "constant"
      value: 1
    }
  }
}
layers {
  bottom: "conv2"
  top: "conv2"
  name: "relu2"
  type: RELU
}
layers {
  bottom: "conv2"
  top: "pool2"
  name: "pool2"
  type: POOLING
  pooling_param {
    pool: MAX
    kernel_size: 3
    stride: 2
  }
}
layers {
  bottom: "pool2"
  top: "norm2"
  name: "norm2"
  type: LRN
  lrn_param {
    local_size: 5
    alpha: 0.0001
    beta: 0.75
  }
}
layers {
  bottom: "norm2"
  top: "conv3"
  name: "conv3"
  type: CONVOLUTION
  blobs_lr: 1
  blobs_lr: 2
  weight_decay: 1
  weight_decay: 0
  convolution_param {
    num_output: 384
    pad: 1
    kernel_size: 3
    weight_filler {
      type: "gaussian"
      std: 0.01
    }
    bias_filler {
      type: "constant"
      value: 0
    }
  }
}
layers {
  bottom: "conv3"
  top: "conv3"
  name: "relu3"
  type: RELU
}
layers {
  bottom: "conv3"
  top: "conv4"
  name: "conv4"
  type: CONVOLUTION
  blobs_lr: 1
  blobs_lr: 2
  weight_decay: 1
  weight_decay: 0
  convolution_param {
    num_output: 384
    pad: 1
    kernel_size: 3
    group: 2
    weight_filler {
      type: "gaussian"
      std: 0.01
    }
    bias_filler {
      type: "constant"
      value: 1
    }
  }
}
layers {
  bottom: "conv4"
  top: "conv4"
  name: "relu4"
  type: RELU
}
layers {
  bottom: "conv4"
  top: "conv5"
  name: "conv5"
  type: CONVOLUTION
  blobs_lr: 1
  blobs_lr: 2
  weight_decay: 1
  weight_decay: 0
  convolution_param {
    num_output: 256
    pad: 1
    kernel_size: 3
    group: 2
    weight_filler {
      type: "gaussian"
      std: 0.01
    }
    bias_filler {
      type: "constant"
      value: 1
    }
  }
}
layers {
  bottom: "conv5"
  top: "conv5"
  name: "relu5"
  type: RELU
}
layers {
  bottom: "conv5"
  top: "pool5"
  name: "pool5"
  type: POOLING
  pooling_param {
    pool: MAX
    kernel_size: 3
    stride: 2
  }
}
layers {
  bottom: "pool5"
  top: "fc6"
  name: "fc6"
  type: INNER_PRODUCT
  blobs_lr: 1
  blobs_lr: 2
  weight_decay: 1
  weight_decay: 0
  inner_product_param {
    num_output: 4096
    weight_filler {
      type: "gaussian"
      std: 0.005
    }
    bias_filler {
      type: "constant"
      value: 1
    }
  }
}
layers {
  bottom: "fc6"
  top: "fc6"
  name: "relu6"
  type: RELU
}
layers {
  bottom: "fc6"
  top: "fc6"
  name: "drop6"
  type: DROPOUT
  dropout_param {
    dropout_ratio: 0.5
  }
}
layers {
  bottom: "fc6"
  top: "fc7"
  name: "fc7"
  type: INNER_PRODUCT
  blobs_lr: 1
  blobs_lr: 2
  weight_decay: 1
  weight_decay: 0
  inner_product_param {
    num_output: 4096
    weight_filler {
      type: "gaussian"
      std: 0.005
    }
    bias_filler {
      type: "constant"
      value: 1
    }
  }
}
layers {
  bottom: "fc7"
  top: "fc7"
  name: "relu7"
  type: RELU
}
layers {
  bottom: "fc7"
  top: "fc7"
  name: "drop7"
  type: DROPOUT
  dropout_param {
    dropout_ratio: 0.5
  }
}
layers {
  bottom: "fc7"
  top: "fc8_scrape"
  name: "fc8_scrape"
  type: INNER_PRODUCT
  blobs_lr: 1
  blobs_lr: 2
  weight_decay: 1
  weight_decay: 0
  inner_product_param {
    num_output: 2
    weight_filler {
      type: "gaussian"
      std: 0.01
    }
    bias_filler {
      type: "constant"
      value: 0
    }
  }
}
layers {
  bottom: "fc8_scrape"
  bottom: "label"
  name: "loss"
  type: SOFTMAX_LOSS
}
layers {
  bottom: "fc8_scrape"
  bottom: "label"
  top: "accuracy"
  name: "accuracy"
  type: PER_CLASS_ACCURACY
  include {
    phase: TEST
  }
}
state {
  phase: TEST
}
I1107 04:20:54.716125  6336 net.cpp:67] Creating Layer data
I1107 04:20:54.716137  6336 net.cpp:356] data -> data
I1107 04:20:54.716151  6336 net.cpp:356] data -> label
I1107 04:20:54.716162  6336 net.cpp:96] Setting up data
I1107 04:20:54.716169  6336 image_data_layer.cpp:30] Opening file data/scrape_devC/val.txt
I1107 04:20:54.717635  6336 image_data_layer.cpp:45] A total of 1976 images.
I1107 04:20:54.730054  6336 image_data_layer.cpp:73] output data size: 8,3,227,227
I1107 04:20:54.730083  6336 base_data_layer.cpp:36] Loading mean file from/homes/ad6813/data/controlpoint_mean_256-227.binaryproto
I1107 04:20:54.734956  6336 net.cpp:103] Top shape: 8 3 227 227 (1236696)
I1107 04:20:54.734982  6336 net.cpp:103] Top shape: 8 1 1 1 (8)
I1107 04:20:54.735000  6336 net.cpp:67] Creating Layer label_data_1_split
I1107 04:20:54.735008  6336 net.cpp:394] label_data_1_split <- label
I1107 04:20:54.735021  6336 net.cpp:356] label_data_1_split -> label_data_1_split_0
I1107 04:20:54.735036  6336 net.cpp:356] label_data_1_split -> label_data_1_split_1
I1107 04:20:54.735045  6336 net.cpp:96] Setting up label_data_1_split
I1107 04:20:54.735070  6336 net.cpp:103] Top shape: 8 1 1 1 (8)
I1107 04:20:54.735077  6336 net.cpp:103] Top shape: 8 1 1 1 (8)
I1107 04:20:54.735090  6336 net.cpp:67] Creating Layer conv1
I1107 04:20:54.735095  6336 net.cpp:394] conv1 <- data
I1107 04:20:54.735105  6336 net.cpp:356] conv1 -> conv1
I1107 04:20:54.735118  6336 net.cpp:96] Setting up conv1
I1107 04:20:54.736965  6336 net.cpp:103] Top shape: 8 96 55 55 (2323200)
I1107 04:20:54.736997  6336 net.cpp:67] Creating Layer relu1
I1107 04:20:54.737004  6336 net.cpp:394] relu1 <- conv1
I1107 04:20:54.737013  6336 net.cpp:345] relu1 -> conv1 (in-place)
I1107 04:20:54.737022  6336 net.cpp:96] Setting up relu1
I1107 04:20:54.737032  6336 net.cpp:103] Top shape: 8 96 55 55 (2323200)
I1107 04:20:54.737043  6336 net.cpp:67] Creating Layer pool1
I1107 04:20:54.737048  6336 net.cpp:394] pool1 <- conv1
I1107 04:20:54.737056  6336 net.cpp:356] pool1 -> pool1
I1107 04:20:54.737066  6336 net.cpp:96] Setting up pool1
I1107 04:20:54.737077  6336 net.cpp:103] Top shape: 8 96 27 27 (559872)
I1107 04:20:54.737088  6336 net.cpp:67] Creating Layer norm1
I1107 04:20:54.737093  6336 net.cpp:394] norm1 <- pool1
I1107 04:20:54.737102  6336 net.cpp:356] norm1 -> norm1
I1107 04:20:54.737112  6336 net.cpp:96] Setting up norm1
I1107 04:20:54.737118  6336 net.cpp:103] Top shape: 8 96 27 27 (559872)
I1107 04:20:54.737128  6336 net.cpp:67] Creating Layer conv2
I1107 04:20:54.737133  6336 net.cpp:394] conv2 <- norm1
I1107 04:20:54.737143  6336 net.cpp:356] conv2 -> conv2
I1107 04:20:54.737153  6336 net.cpp:96] Setting up conv2
I1107 04:20:54.752157  6336 net.cpp:103] Top shape: 8 256 27 27 (1492992)
I1107 04:20:54.752199  6336 net.cpp:67] Creating Layer relu2
I1107 04:20:54.752207  6336 net.cpp:394] relu2 <- conv2
I1107 04:20:54.752218  6336 net.cpp:345] relu2 -> conv2 (in-place)
I1107 04:20:54.752228  6336 net.cpp:96] Setting up relu2
I1107 04:20:54.752238  6336 net.cpp:103] Top shape: 8 256 27 27 (1492992)
I1107 04:20:54.752250  6336 net.cpp:67] Creating Layer pool2
I1107 04:20:54.752255  6336 net.cpp:394] pool2 <- conv2
I1107 04:20:54.752264  6336 net.cpp:356] pool2 -> pool2
I1107 04:20:54.752274  6336 net.cpp:96] Setting up pool2
I1107 04:20:54.752287  6336 net.cpp:103] Top shape: 8 256 13 13 (346112)
I1107 04:20:54.752297  6336 net.cpp:67] Creating Layer norm2
I1107 04:20:54.752303  6336 net.cpp:394] norm2 <- pool2
I1107 04:20:54.752311  6336 net.cpp:356] norm2 -> norm2
I1107 04:20:54.752321  6336 net.cpp:96] Setting up norm2
I1107 04:20:54.752327  6336 net.cpp:103] Top shape: 8 256 13 13 (346112)
I1107 04:20:54.752337  6336 net.cpp:67] Creating Layer conv3
I1107 04:20:54.752343  6336 net.cpp:394] conv3 <- norm2
I1107 04:20:54.752352  6336 net.cpp:356] conv3 -> conv3
I1107 04:20:54.752377  6336 net.cpp:96] Setting up conv3
I1107 04:20:54.795254  6336 net.cpp:103] Top shape: 8 384 13 13 (519168)
I1107 04:20:54.795312  6336 net.cpp:67] Creating Layer relu3
I1107 04:20:54.795321  6336 net.cpp:394] relu3 <- conv3
I1107 04:20:54.795331  6336 net.cpp:345] relu3 -> conv3 (in-place)
I1107 04:20:54.795342  6336 net.cpp:96] Setting up relu3
I1107 04:20:54.795353  6336 net.cpp:103] Top shape: 8 384 13 13 (519168)
I1107 04:20:54.795366  6336 net.cpp:67] Creating Layer conv4
I1107 04:20:54.795370  6336 net.cpp:394] conv4 <- conv3
I1107 04:20:54.795382  6336 net.cpp:356] conv4 -> conv4
I1107 04:20:54.795393  6336 net.cpp:96] Setting up conv4
I1107 04:20:54.827859  6336 net.cpp:103] Top shape: 8 384 13 13 (519168)
I1107 04:20:54.827926  6336 net.cpp:67] Creating Layer relu4
I1107 04:20:54.827935  6336 net.cpp:394] relu4 <- conv4
I1107 04:20:54.827947  6336 net.cpp:345] relu4 -> conv4 (in-place)
I1107 04:20:54.827961  6336 net.cpp:96] Setting up relu4
I1107 04:20:54.827973  6336 net.cpp:103] Top shape: 8 384 13 13 (519168)
I1107 04:20:54.827992  6336 net.cpp:67] Creating Layer conv5
I1107 04:20:54.827998  6336 net.cpp:394] conv5 <- conv4
I1107 04:20:54.828011  6336 net.cpp:356] conv5 -> conv5
I1107 04:20:54.828022  6336 net.cpp:96] Setting up conv5
I1107 04:20:54.935359  6336 net.cpp:103] Top shape: 8 256 13 13 (346112)
I1107 04:20:54.935420  6336 net.cpp:67] Creating Layer relu5
I1107 04:20:54.935431  6336 net.cpp:394] relu5 <- conv5
I1107 04:20:54.935441  6336 net.cpp:345] relu5 -> conv5 (in-place)
I1107 04:20:54.935452  6336 net.cpp:96] Setting up relu5
I1107 04:20:54.935464  6336 net.cpp:103] Top shape: 8 256 13 13 (346112)
I1107 04:20:54.935479  6336 net.cpp:67] Creating Layer pool5
I1107 04:20:54.935487  6336 net.cpp:394] pool5 <- conv5
I1107 04:20:54.935494  6336 net.cpp:356] pool5 -> pool5
I1107 04:20:54.935504  6336 net.cpp:96] Setting up pool5
I1107 04:20:54.935518  6336 net.cpp:103] Top shape: 8 256 6 6 (73728)
I1107 04:20:54.935531  6336 net.cpp:67] Creating Layer fc6
I1107 04:20:54.935539  6336 net.cpp:394] fc6 <- pool5
I1107 04:20:54.935547  6336 net.cpp:356] fc6 -> fc6
I1107 04:20:54.935557  6336 net.cpp:96] Setting up fc6
I1107 04:20:56.812335  6336 net.cpp:103] Top shape: 8 4096 1 1 (32768)
I1107 04:20:56.812386  6336 net.cpp:67] Creating Layer relu6
I1107 04:20:56.812394  6336 net.cpp:394] relu6 <- fc6
I1107 04:20:56.812407  6336 net.cpp:345] relu6 -> fc6 (in-place)
I1107 04:20:56.812417  6336 net.cpp:96] Setting up relu6
I1107 04:20:56.812439  6336 net.cpp:103] Top shape: 8 4096 1 1 (32768)
I1107 04:20:56.812448  6336 net.cpp:67] Creating Layer drop6
I1107 04:20:56.812454  6336 net.cpp:394] drop6 <- fc6
I1107 04:20:56.812465  6336 net.cpp:345] drop6 -> fc6 (in-place)
I1107 04:20:56.812475  6336 net.cpp:96] Setting up drop6
I1107 04:20:56.812482  6336 net.cpp:103] Top shape: 8 4096 1 1 (32768)
I1107 04:20:56.812492  6336 net.cpp:67] Creating Layer fc7
I1107 04:20:56.812499  6336 net.cpp:394] fc7 <- fc6
I1107 04:20:56.812507  6336 net.cpp:356] fc7 -> fc7
I1107 04:20:56.812520  6336 net.cpp:96] Setting up fc7
I1107 04:20:57.624501  6336 net.cpp:103] Top shape: 8 4096 1 1 (32768)
I1107 04:20:57.624552  6336 net.cpp:67] Creating Layer relu7
I1107 04:20:57.624560  6336 net.cpp:394] relu7 <- fc7
I1107 04:20:57.624572  6336 net.cpp:345] relu7 -> fc7 (in-place)
I1107 04:20:57.624583  6336 net.cpp:96] Setting up relu7
I1107 04:20:57.624603  6336 net.cpp:103] Top shape: 8 4096 1 1 (32768)
I1107 04:20:57.624618  6336 net.cpp:67] Creating Layer drop7
I1107 04:20:57.624624  6336 net.cpp:394] drop7 <- fc7
I1107 04:20:57.624631  6336 net.cpp:345] drop7 -> fc7 (in-place)
I1107 04:20:57.624640  6336 net.cpp:96] Setting up drop7
I1107 04:20:57.624646  6336 net.cpp:103] Top shape: 8 4096 1 1 (32768)
I1107 04:20:57.624660  6336 net.cpp:67] Creating Layer fc8_scrape
I1107 04:20:57.624666  6336 net.cpp:394] fc8_scrape <- fc7
I1107 04:20:57.624691  6336 net.cpp:356] fc8_scrape -> fc8_scrape
I1107 04:20:57.624708  6336 net.cpp:96] Setting up fc8_scrape
I1107 04:20:57.625136  6336 net.cpp:103] Top shape: 8 2 1 1 (16)
I1107 04:20:57.625177  6336 net.cpp:67] Creating Layer fc8_scrape_fc8_scrape_0_split
I1107 04:20:57.625185  6336 net.cpp:394] fc8_scrape_fc8_scrape_0_split <- fc8_scrape
I1107 04:20:57.625195  6336 net.cpp:356] fc8_scrape_fc8_scrape_0_split -> fc8_scrape_fc8_scrape_0_split_0
I1107 04:20:57.625205  6336 net.cpp:356] fc8_scrape_fc8_scrape_0_split -> fc8_scrape_fc8_scrape_0_split_1
I1107 04:20:57.625215  6336 net.cpp:96] Setting up fc8_scrape_fc8_scrape_0_split
I1107 04:20:57.625222  6336 net.cpp:103] Top shape: 8 2 1 1 (16)
I1107 04:20:57.625228  6336 net.cpp:103] Top shape: 8 2 1 1 (16)
I1107 04:20:57.625241  6336 net.cpp:67] Creating Layer loss
I1107 04:20:57.625247  6336 net.cpp:394] loss <- fc8_scrape_fc8_scrape_0_split_0
I1107 04:20:57.625253  6336 net.cpp:394] loss <- label_data_1_split_0
I1107 04:20:57.625262  6336 net.cpp:356] loss -> (automatic)
I1107 04:20:57.625269  6336 net.cpp:96] Setting up loss
I1107 04:20:57.625282  6336 net.cpp:103] Top shape: 1 1 1 1 (1)
I1107 04:20:57.625288  6336 net.cpp:109]     with loss weight 1
I1107 04:20:57.625311  6336 net.cpp:67] Creating Layer accuracy
I1107 04:20:57.625318  6336 net.cpp:394] accuracy <- fc8_scrape_fc8_scrape_0_split_1
I1107 04:20:57.625324  6336 net.cpp:394] accuracy <- label_data_1_split_1
I1107 04:20:57.625336  6336 net.cpp:356] accuracy -> accuracy
I1107 04:20:57.625383  6336 net.cpp:96] Setting up accuracy
I1107 04:20:57.625398  6336 net.cpp:103] Top shape: 1 1 1 4 (4)
I1107 04:20:57.625404  6336 net.cpp:172] accuracy does not need backward computation.
I1107 04:20:57.625411  6336 net.cpp:170] loss needs backward computation.
I1107 04:20:57.625416  6336 net.cpp:170] fc8_scrape_fc8_scrape_0_split needs backward computation.
I1107 04:20:57.625422  6336 net.cpp:170] fc8_scrape needs backward computation.
I1107 04:20:57.625427  6336 net.cpp:170] drop7 needs backward computation.
…
