…
I1110 06:46:17.372421 21019 net.cpp:275] The NetState phase (0) differed from the phase (1) specified by a rule in layer accuracy
I1110 06:46:17.372588 21019 net.cpp:39] Initializing net from parameters: 
name: "ClampCaffeNet"
layers {
  top: "data"
  top: "label"
  name: "data"
  type: IMAGE_DATA
  image_data_param {
    source: "data/scrape_blue/train.txt"
    batch_size: 128
    new_height: 256
    new_width: 256
  }
  include {
    phase: TRAIN
  }
  transform_param {
    mirror: true
    crop_size: 227
    mean_file: "/homes/ad6813/data/controlpoint_mean_256-227.binaryproto"
  }
}
layers {
  bottom: "data"
  top: "conv1"
  name: "conv1"
  type: CONVOLUTION
  blobs_lr: 1
  blobs_lr: 2
  weight_decay: 1
  weight_decay: 0
  convolution_param {
    num_output: 96
    kernel_size: 11
    stride: 4
    weight_filler {
      type: "gaussian"
      std: 0.01
    }
    bias_filler {
      type: "constant"
      value: 0
    }
  }
}
layers {
  bottom: "conv1"
  top: "conv1"
  name: "relu1"
  type: RELU
}
layers {
  bottom: "conv1"
  top: "pool1"
  name: "pool1"
  type: POOLING
  pooling_param {
    pool: MAX
    kernel_size: 3
    stride: 2
  }
}
layers {
  bottom: "pool1"
  top: "norm1"
  name: "norm1"
  type: LRN
  lrn_param {
    local_size: 5
    alpha: 0.0001
    beta: 0.75
  }
}
layers {
  bottom: "norm1"
  top: "conv2"
  name: "conv2"
  type: CONVOLUTION
  blobs_lr: 1
  blobs_lr: 2
  weight_decay: 1
  weight_decay: 0
  convolution_param {
    num_output: 256
    pad: 2
    kernel_size: 5
    group: 2
    weight_filler {
      type: "gaussian"
      std: 0.01
    }
    bias_filler {
      type: "constant"
      value: 1
    }
  }
}
layers {
  bottom: "conv2"
  top: "conv2"
  name: "relu2"
  type: RELU
}
layers {
  bottom: "conv2"
  top: "pool2"
  name: "pool2"
  type: POOLING
  pooling_param {
    pool: MAX
    kernel_size: 3
    stride: 2
  }
}
layers {
  bottom: "pool2"
  top: "norm2"
  name: "norm2"
  type: LRN
  lrn_param {
    local_size: 5
    alpha: 0.0001
    beta: 0.75
  }
}
layers {
  bottom: "norm2"
  top: "conv3"
  name: "conv3"
  type: CONVOLUTION
  blobs_lr: 1
  blobs_lr: 2
  weight_decay: 1
  weight_decay: 0
  convolution_param {
    num_output: 384
    pad: 1
    kernel_size: 3
    weight_filler {
      type: "gaussian"
      std: 0.01
    }
    bias_filler {
      type: "constant"
      value: 0
    }
  }
}
layers {
  bottom: "conv3"
  top: "conv3"
  name: "relu3"
  type: RELU
}
layers {
  bottom: "conv3"
  top: "conv4"
  name: "conv4"
  type: CONVOLUTION
  blobs_lr: 1
  blobs_lr: 2
  weight_decay: 1
  weight_decay: 0
  convolution_param {
    num_output: 384
    pad: 1
    kernel_size: 3
    group: 2
    weight_filler {
      type: "gaussian"
      std: 0.01
    }
    bias_filler {
      type: "constant"
      value: 1
    }
  }
}
layers {
  bottom: "conv4"
  top: "conv4"
  name: "relu4"
  type: RELU
}
layers {
  bottom: "conv4"
  top: "conv5"
  name: "conv5"
  type: CONVOLUTION
  blobs_lr: 1
  blobs_lr: 2
  weight_decay: 1
  weight_decay: 0
  convolution_param {
    num_output: 256
    pad: 1
    kernel_size: 3
    group: 2
    weight_filler {
      type: "gaussian"
      std: 0.01
    }
    bias_filler {
      type: "constant"
      value: 1
    }
  }
}
layers {
  bottom: "conv5"
  top: "conv5"
  name: "relu5"
  type: RELU
}
layers {
  bottom: "conv5"
  top: "pool5"
  name: "pool5"
  type: POOLING
  pooling_param {
    pool: MAX
    kernel_size: 3
    stride: 2
  }
}
layers {
  bottom: "pool5"
  top: "fc6"
  name: "fc6"
  type: INNER_PRODUCT
  blobs_lr: 1
  blobs_lr: 2
  weight_decay: 1
  weight_decay: 0
  inner_product_param {
    num_output: 4096
    weight_filler {
      type: "gaussian"
      std: 0.005
    }
    bias_filler {
      type: "constant"
      value: 1
    }
  }
}
layers {
  bottom: "fc6"
  top: "fc6"
  name: "relu6"
  type: RELU
}
layers {
  bottom: "fc6"
  top: "fc6"
  name: "drop6"
  type: DROPOUT
  dropout_param {
    dropout_ratio: 0.5
  }
}
layers {
  bottom: "fc6"
  top: "fc7"
  name: "fc7"
  type: INNER_PRODUCT
  blobs_lr: 1
  blobs_lr: 2
  weight_decay: 1
  weight_decay: 0
  inner_product_param {
    num_output: 4096
    weight_filler {
      type: "gaussian"
      std: 0.005
    }
    bias_filler {
      type: "constant"
      value: 1
    }
  }
}
layers {
  bottom: "fc7"
  top: "fc7"
  name: "relu7"
  type: RELU
}
layers {
  bottom: "fc7"
  top: "fc7"
  name: "drop7"
  type: DROPOUT
  dropout_param {
    dropout_ratio: 0.5
  }
}
layers {
  bottom: "fc7"
  top: "fc8_clamp"
  name: "fc8_clamp"
  type: INNER_PRODUCT
  blobs_lr: 1
  blobs_lr: 2
  weight_decay: 1
  weight_decay: 0
  inner_product_param {
    num_output: 2
    weight_filler {
      type: "gaussian"
      std: 0.01
    }
    bias_filler {
      type: "constant"
      value: 0
    }
  }
}
layers {
  bottom: "fc8_clamp"
  bottom: "label"
  name: "loss"
  type: SOFTMAX_LOSS
}
state {
  phase: TRAIN
}
I1110 06:46:17.372689 21019 net.cpp:67] Creating Layer data
I1110 06:46:17.372697 21019 net.cpp:356] data -> data
I1110 06:46:17.372711 21019 net.cpp:356] data -> label
I1110 06:46:17.372728 21019 net.cpp:96] Setting up data
I1110 06:46:17.372735 21019 image_data_layer.cpp:30] Opening file data/scrape_blue/train.txt
I1110 06:46:17.386667 21019 image_data_layer.cpp:45] A total of 40401 images.
I1110 06:46:17.397315 21019 image_data_layer.cpp:73] output data size: 128,3,227,227
I1110 06:46:17.397347 21019 base_data_layer.cpp:36] Loading mean file from/homes/ad6813/data/controlpoint_mean_256-227.binaryproto
I1110 06:46:17.409198 21019 net.cpp:103] Top shape: 128 3 227 227 (19787136)
I1110 06:46:17.409225 21019 net.cpp:103] Top shape: 128 1 1 1 (128)
I1110 06:46:17.409260 21019 net.cpp:67] Creating Layer conv1
I1110 06:46:17.409265 21019 net.cpp:394] conv1 <- data
I1110 06:46:17.409278 21019 net.cpp:356] conv1 -> conv1
I1110 06:46:17.409291 21019 net.cpp:96] Setting up conv1
I1110 06:46:17.410258 21019 net.cpp:103] Top shape: 128 96 55 55 (37171200)
I1110 06:46:17.410279 21019 net.cpp:67] Creating Layer relu1
I1110 06:46:17.410284 21019 net.cpp:394] relu1 <- conv1
I1110 06:46:17.410289 21019 net.cpp:345] relu1 -> conv1 (in-place)
I1110 06:46:17.410293 21019 net.cpp:96] Setting up relu1
I1110 06:46:17.410298 21019 net.cpp:103] Top shape: 128 96 55 55 (37171200)
I1110 06:46:17.410305 21019 net.cpp:67] Creating Layer pool1
I1110 06:46:17.410308 21019 net.cpp:394] pool1 <- conv1
I1110 06:46:17.410313 21019 net.cpp:356] pool1 -> pool1
I1110 06:46:17.410318 21019 net.cpp:96] Setting up pool1
I1110 06:46:17.410329 21019 net.cpp:103] Top shape: 128 96 27 27 (8957952)
I1110 06:46:17.410341 21019 net.cpp:67] Creating Layer norm1
I1110 06:46:17.410344 21019 net.cpp:394] norm1 <- pool1
I1110 06:46:17.410349 21019 net.cpp:356] norm1 -> norm1
I1110 06:46:17.410356 21019 net.cpp:96] Setting up norm1
I1110 06:46:17.410372 21019 net.cpp:103] Top shape: 128 96 27 27 (8957952)
I1110 06:46:17.410379 21019 net.cpp:67] Creating Layer conv2
I1110 06:46:17.410382 21019 net.cpp:394] conv2 <- norm1
I1110 06:46:17.410387 21019 net.cpp:356] conv2 -> conv2
I1110 06:46:17.410393 21019 net.cpp:96] Setting up conv2
I1110 06:46:17.418329 21019 net.cpp:103] Top shape: 128 256 27 27 (23887872)
I1110 06:46:17.418347 21019 net.cpp:67] Creating Layer relu2
I1110 06:46:17.418351 21019 net.cpp:394] relu2 <- conv2
I1110 06:46:17.418356 21019 net.cpp:345] relu2 -> conv2 (in-place)
I1110 06:46:17.418361 21019 net.cpp:96] Setting up relu2
I1110 06:46:17.418365 21019 net.cpp:103] Top shape: 128 256 27 27 (23887872)
I1110 06:46:17.418370 21019 net.cpp:67] Creating Layer pool2
I1110 06:46:17.418382 21019 net.cpp:394] pool2 <- conv2
I1110 06:46:17.418387 21019 net.cpp:356] pool2 -> pool2
I1110 06:46:17.418392 21019 net.cpp:96] Setting up pool2
I1110 06:46:17.418397 21019 net.cpp:103] Top shape: 128 256 13 13 (5537792)
I1110 06:46:17.418402 21019 net.cpp:67] Creating Layer norm2
I1110 06:46:17.418406 21019 net.cpp:394] norm2 <- pool2
I1110 06:46:17.418411 21019 net.cpp:356] norm2 -> norm2
I1110 06:46:17.418416 21019 net.cpp:96] Setting up norm2
I1110 06:46:17.418419 21019 net.cpp:103] Top shape: 128 256 13 13 (5537792)
I1110 06:46:17.418426 21019 net.cpp:67] Creating Layer conv3
I1110 06:46:17.418428 21019 net.cpp:394] conv3 <- norm2
I1110 06:46:17.418433 21019 net.cpp:356] conv3 -> conv3
I1110 06:46:17.418439 21019 net.cpp:96] Setting up conv3
I1110 06:46:17.440274 21019 net.cpp:103] Top shape: 128 384 13 13 (8306688)
I1110 06:46:17.440307 21019 net.cpp:67] Creating Layer relu3
I1110 06:46:17.440312 21019 net.cpp:394] relu3 <- conv3
I1110 06:46:17.440320 21019 net.cpp:345] relu3 -> conv3 (in-place)
I1110 06:46:17.440325 21019 net.cpp:96] Setting up relu3
I1110 06:46:17.440330 21019 net.cpp:103] Top shape: 128 384 13 13 (8306688)
I1110 06:46:17.440336 21019 net.cpp:67] Creating Layer conv4
I1110 06:46:17.440340 21019 net.cpp:394] conv4 <- conv3
I1110 06:46:17.440346 21019 net.cpp:356] conv4 -> conv4
I1110 06:46:17.440351 21019 net.cpp:96] Setting up conv4
I1110 06:46:17.456737 21019 net.cpp:103] Top shape: 128 384 13 13 (8306688)
I1110 06:46:17.456759 21019 net.cpp:67] Creating Layer relu4
I1110 06:46:17.456764 21019 net.cpp:394] relu4 <- conv4
I1110 06:46:17.456770 21019 net.cpp:345] relu4 -> conv4 (in-place)
I1110 06:46:17.456775 21019 net.cpp:96] Setting up relu4
I1110 06:46:17.456779 21019 net.cpp:103] Top shape: 128 384 13 13 (8306688)
I1110 06:46:17.456784 21019 net.cpp:67] Creating Layer conv5
I1110 06:46:17.456787 21019 net.cpp:394] conv5 <- conv4
I1110 06:46:17.456792 21019 net.cpp:356] conv5 -> conv5
I1110 06:46:17.456797 21019 net.cpp:96] Setting up conv5
I1110 06:46:17.467814 21019 net.cpp:103] Top shape: 128 256 13 13 (5537792)
I1110 06:46:17.467841 21019 net.cpp:67] Creating Layer relu5
I1110 06:46:17.467846 21019 net.cpp:394] relu5 <- conv5
I1110 06:46:17.467852 21019 net.cpp:345] relu5 -> conv5 (in-place)
I1110 06:46:17.467859 21019 net.cpp:96] Setting up relu5
I1110 06:46:17.467862 21019 net.cpp:103] Top shape: 128 256 13 13 (5537792)
I1110 06:46:17.467867 21019 net.cpp:67] Creating Layer pool5
I1110 06:46:17.467870 21019 net.cpp:394] pool5 <- conv5
I1110 06:46:17.467875 21019 net.cpp:356] pool5 -> pool5
I1110 06:46:17.467880 21019 net.cpp:96] Setting up pool5
I1110 06:46:17.467885 21019 net.cpp:103] Top shape: 128 256 6 6 (1179648)
I1110 06:46:17.467893 21019 net.cpp:67] Creating Layer fc6
I1110 06:46:17.467896 21019 net.cpp:394] fc6 <- pool5
I1110 06:46:17.467900 21019 net.cpp:356] fc6 -> fc6
I1110 06:46:17.467906 21019 net.cpp:96] Setting up fc6
I1110 06:46:18.382577 21019 net.cpp:103] Top shape: 128 4096 1 1 (524288)
I1110 06:46:18.382622 21019 net.cpp:67] Creating Layer relu6
I1110 06:46:18.382627 21019 net.cpp:394] relu6 <- fc6
I1110 06:46:18.382635 21019 net.cpp:345] relu6 -> fc6 (in-place)
I1110 06:46:18.382642 21019 net.cpp:96] Setting up relu6
I1110 06:46:18.382645 21019 net.cpp:103] Top shape: 128 4096 1 1 (524288)
I1110 06:46:18.382650 21019 net.cpp:67] Creating Layer drop6
I1110 06:46:18.382653 21019 net.cpp:394] drop6 <- fc6
I1110 06:46:18.382658 21019 net.cpp:345] drop6 -> fc6 (in-place)
I1110 06:46:18.382661 21019 net.cpp:96] Setting up drop6
I1110 06:46:18.382668 21019 net.cpp:103] Top shape: 128 4096 1 1 (524288)
I1110 06:46:18.382673 21019 net.cpp:67] Creating Layer fc7
I1110 06:46:18.382676 21019 net.cpp:394] fc7 <- fc6
I1110 06:46:18.382681 21019 net.cpp:356] fc7 -> fc7
I1110 06:46:18.382688 21019 net.cpp:96] Setting up fc7
I1110 06:46:18.770367 21019 net.cpp:103] Top shape: 128 4096 1 1 (524288)
I1110 06:46:18.770414 21019 net.cpp:67] Creating Layer relu7
I1110 06:46:18.770419 21019 net.cpp:394] relu7 <- fc7
I1110 06:46:18.770426 21019 net.cpp:345] relu7 -> fc7 (in-place)
I1110 06:46:18.770445 21019 net.cpp:96] Setting up relu7
I1110 06:46:18.770449 21019 net.cpp:103] Top shape: 128 4096 1 1 (524288)
I1110 06:46:18.770454 21019 net.cpp:67] Creating Layer drop7
I1110 06:46:18.770457 21019 net.cpp:394] drop7 <- fc7
I1110 06:46:18.770462 21019 net.cpp:345] drop7 -> fc7 (in-place)
I1110 06:46:18.770467 21019 net.cpp:96] Setting up drop7
I1110 06:46:18.770469 21019 net.cpp:103] Top shape: 128 4096 1 1 (524288)
I1110 06:46:18.770475 21019 net.cpp:67] Creating Layer fc8_clamp
I1110 06:46:18.770478 21019 net.cpp:394] fc8_clamp <- fc7
I1110 06:46:18.770483 21019 net.cpp:356] fc8_clamp -> fc8_clamp
I1110 06:46:18.770488 21019 net.cpp:96] Setting up fc8_clamp
I1110 06:46:18.770709 21019 net.cpp:103] Top shape: 128 2 1 1 (256)
I1110 06:46:18.770720 21019 net.cpp:67] Creating Layer loss
I1110 06:46:18.770723 21019 net.cpp:394] loss <- fc8_clamp
I1110 06:46:18.770727 21019 net.cpp:394] loss <- label
I1110 06:46:18.770732 21019 net.cpp:356] loss -> (automatic)
I1110 06:46:18.770736 21019 net.cpp:96] Setting up loss
I1110 06:46:18.770747 21019 net.cpp:103] Top shape: 1 1 1 1 (1)
I1110 06:46:18.770752 21019 net.cpp:109]     with loss weight 1
I1110 06:46:18.770787 21019 net.cpp:170] loss needs backward computation.
I1110 06:46:18.770792 21019 net.cpp:170] fc8_clamp needs backward computation.
I1110 06:46:18.770794 21019 net.cpp:170] drop7 needs backward computation.
I1110 06:46:18.770797 21019 net.cpp:170] relu7 needs backward computation.
I1110 06:46:18.770799 21019 net.cpp:170] fc7 needs backward computation.
…
I1110 06:46:18.771551 21019 solver.cpp:151] Creating test net (#0) specified by net file: task/inadcl_blue/train_val.prototxt
I1110 06:46:18.771589 21019 net.cpp:275] The NetState phase (1) differed from the phase (0) specified by a rule in layer data
I1110 06:46:18.771765 21019 net.cpp:39] Initializing net from parameters: 
name: "ClampCaffeNet"
layers {
  top: "data"
  top: "label"
  name: "data"
  type: IMAGE_DATA
  image_data_param {
    source: "data/scrape_blue/val.txt"
    batch_size: 111
    new_height: 256
    new_width: 256
  }
  include {
    phase: TEST
  }
  transform_param {
    mirror: true
    crop_size: 227
    mean_file: "/homes/ad6813/data/controlpoint_mean_256-227.binaryproto"
  }
}
layers {
  bottom: "data"
  top: "conv1"
  name: "conv1"
  type: CONVOLUTION
  blobs_lr: 1
  blobs_lr: 2
  weight_decay: 1
  weight_decay: 0
  convolution_param {
    num_output: 96
    kernel_size: 11
    stride: 4
    weight_filler {
      type: "gaussian"
      std: 0.01
    }
    bias_filler {
      type: "constant"
      value: 0
    }
  }
}
layers {
  bottom: "conv1"
  top: "conv1"
  name: "relu1"
  type: RELU
}
layers {
  bottom: "conv1"
  top: "pool1"
  name: "pool1"
  type: POOLING
  pooling_param {
    pool: MAX
    kernel_size: 3
    stride: 2
  }
}
layers {
  bottom: "pool1"
  top: "norm1"
  name: "norm1"
  type: LRN
  lrn_param {
    local_size: 5
    alpha: 0.0001
    beta: 0.75
  }
}
layers {
  bottom: "norm1"
  top: "conv2"
  name: "conv2"
  type: CONVOLUTION
  blobs_lr: 1
  blobs_lr: 2
  weight_decay: 1
  weight_decay: 0
  convolution_param {
    num_output: 256
    pad: 2
    kernel_size: 5
    group: 2
    weight_filler {
      type: "gaussian"
      std: 0.01
    }
    bias_filler {
      type: "constant"
      value: 1
    }
  }
}
layers {
  bottom: "conv2"
  top: "conv2"
  name: "relu2"
  type: RELU
}
layers {
  bottom: "conv2"
  top: "pool2"
  name: "pool2"
  type: POOLING
  pooling_param {
    pool: MAX
    kernel_size: 3
    stride: 2
  }
}
layers {
  bottom: "pool2"
  top: "norm2"
  name: "norm2"
  type: LRN
  lrn_param {
    local_size: 5
    alpha: 0.0001
    beta: 0.75
  }
}
layers {
  bottom: "norm2"
  top: "conv3"
  name: "conv3"
  type: CONVOLUTION
  blobs_lr: 1
  blobs_lr: 2
  weight_decay: 1
  weight_decay: 0
  convolution_param {
    num_output: 384
    pad: 1
    kernel_size: 3
    weight_filler {
      type: "gaussian"
      std: 0.01
    }
    bias_filler {
      type: "constant"
      value: 0
    }
  }
}
layers {
  bottom: "conv3"
  top: "conv3"
  name: "relu3"
  type: RELU
}
layers {
  bottom: "conv3"
  top: "conv4"
  name: "conv4"
  type: CONVOLUTION
  blobs_lr: 1
  blobs_lr: 2
  weight_decay: 1
  weight_decay: 0
  convolution_param {
    num_output: 384
    pad: 1
    kernel_size: 3
    group: 2
    weight_filler {
      type: "gaussian"
      std: 0.01
    }
    bias_filler {
      type: "constant"
      value: 1
    }
  }
}
layers {
  bottom: "conv4"
  top: "conv4"
  name: "relu4"
  type: RELU
}
layers {
  bottom: "conv4"
  top: "conv5"
  name: "conv5"
  type: CONVOLUTION
  blobs_lr: 1
  blobs_lr: 2
  weight_decay: 1
  weight_decay: 0
  convolution_param {
    num_output: 256
    pad: 1
    kernel_size: 3
    group: 2
    weight_filler {
      type: "gaussian"
      std: 0.01
    }
    bias_filler {
      type: "constant"
      value: 1
    }
  }
}
layers {
  bottom: "conv5"
  top: "conv5"
  name: "relu5"
  type: RELU
}
layers {
  bottom: "conv5"
  top: "pool5"
  name: "pool5"
  type: POOLING
  pooling_param {
    pool: MAX
    kernel_size: 3
    stride: 2
  }
}
layers {
  bottom: "pool5"
  top: "fc6"
  name: "fc6"
  type: INNER_PRODUCT
  blobs_lr: 1
  blobs_lr: 2
  weight_decay: 1
  weight_decay: 0
  inner_product_param {
    num_output: 4096
    weight_filler {
      type: "gaussian"
      std: 0.005
    }
    bias_filler {
      type: "constant"
      value: 1
    }
  }
}
layers {
  bottom: "fc6"
  top: "fc6"
  name: "relu6"
  type: RELU
}
layers {
  bottom: "fc6"
  top: "fc6"
  name: "drop6"
  type: DROPOUT
  dropout_param {
    dropout_ratio: 0.5
  }
}
layers {
  bottom: "fc6"
  top: "fc7"
  name: "fc7"
  type: INNER_PRODUCT
  blobs_lr: 1
  blobs_lr: 2
  weight_decay: 1
  weight_decay: 0
  inner_product_param {
    num_output: 4096
    weight_filler {
      type: "gaussian"
      std: 0.005
    }
    bias_filler {
      type: "constant"
      value: 1
    }
  }
}
layers {
  bottom: "fc7"
  top: "fc7"
  name: "relu7"
  type: RELU
}
layers {
  bottom: "fc7"
  top: "fc7"
  name: "drop7"
  type: DROPOUT
  dropout_param {
    dropout_ratio: 0.5
  }
}
layers {
  bottom: "fc7"
  top: "fc8_clamp"
  name: "fc8_clamp"
  type: INNER_PRODUCT
  blobs_lr: 1
  blobs_lr: 2
  weight_decay: 1
  weight_decay: 0
  inner_product_param {
    num_output: 2
    weight_filler {
      type: "gaussian"
      std: 0.01
    }
    bias_filler {
      type: "constant"
      value: 0
    }
  }
}
layers {
  bottom: "fc8_clamp"
  bottom: "label"
  name: "loss"
  type: SOFTMAX_LOSS
}
layers {
  bottom: "fc8_clamp"
  bottom: "label"
  top: "accuracy"
  name: "accuracy"
  type: PER_CLASS_ACCURACY
  include {
    phase: TEST
  }
}
state {
  phase: TEST
}
I1110 06:46:18.771878 21019 net.cpp:67] Creating Layer data
I1110 06:46:18.771883 21019 net.cpp:356] data -> data
I1110 06:46:18.771891 21019 net.cpp:356] data -> label
I1110 06:46:18.771903 21019 net.cpp:96] Setting up data
I1110 06:46:18.771905 21019 image_data_layer.cpp:30] Opening file data/scrape_blue/val.txt
I1110 06:46:18.773325 21019 image_data_layer.cpp:45] A total of 3963 images.
I1110 06:46:18.780877 21019 image_data_layer.cpp:73] output data size: 111,3,227,227
I1110 06:46:18.780891 21019 base_data_layer.cpp:36] Loading mean file from/homes/ad6813/data/controlpoint_mean_256-227.binaryproto
I1110 06:46:18.789999 21019 net.cpp:103] Top shape: 111 3 227 227 (17159157)
I1110 06:46:18.790026 21019 net.cpp:103] Top shape: 111 1 1 1 (111)
I1110 06:46:18.790038 21019 net.cpp:67] Creating Layer label_data_1_split
I1110 06:46:18.790042 21019 net.cpp:394] label_data_1_split <- label
I1110 06:46:18.790050 21019 net.cpp:356] label_data_1_split -> label_data_1_split_0
I1110 06:46:18.790060 21019 net.cpp:356] label_data_1_split -> label_data_1_split_1
I1110 06:46:18.790066 21019 net.cpp:96] Setting up label_data_1_split
I1110 06:46:18.790073 21019 net.cpp:103] Top shape: 111 1 1 1 (111)
I1110 06:46:18.790076 21019 net.cpp:103] Top shape: 111 1 1 1 (111)
I1110 06:46:18.790084 21019 net.cpp:67] Creating Layer conv1
I1110 06:46:18.790091 21019 net.cpp:394] conv1 <- data
I1110 06:46:18.790096 21019 net.cpp:356] conv1 -> conv1
I1110 06:46:18.790102 21019 net.cpp:96] Setting up conv1
I1110 06:46:18.791008 21019 net.cpp:103] Top shape: 111 96 55 55 (32234400)
I1110 06:46:18.791024 21019 net.cpp:67] Creating Layer relu1
I1110 06:46:18.791028 21019 net.cpp:394] relu1 <- conv1
I1110 06:46:18.791031 21019 net.cpp:345] relu1 -> conv1 (in-place)
I1110 06:46:18.791036 21019 net.cpp:96] Setting up relu1
I1110 06:46:18.791039 21019 net.cpp:103] Top shape: 111 96 55 55 (32234400)
I1110 06:46:18.791045 21019 net.cpp:67] Creating Layer pool1
I1110 06:46:18.791049 21019 net.cpp:394] pool1 <- conv1
I1110 06:46:18.791052 21019 net.cpp:356] pool1 -> pool1
I1110 06:46:18.791057 21019 net.cpp:96] Setting up pool1
I1110 06:46:18.791062 21019 net.cpp:103] Top shape: 111 96 27 27 (7768224)
I1110 06:46:18.791067 21019 net.cpp:67] Creating Layer norm1
I1110 06:46:18.791070 21019 net.cpp:394] norm1 <- pool1
I1110 06:46:18.791075 21019 net.cpp:356] norm1 -> norm1
I1110 06:46:18.791079 21019 net.cpp:96] Setting up norm1
I1110 06:46:18.791084 21019 net.cpp:103] Top shape: 111 96 27 27 (7768224)
I1110 06:46:18.791090 21019 net.cpp:67] Creating Layer conv2
I1110 06:46:18.791092 21019 net.cpp:394] conv2 <- norm1
I1110 06:46:18.791096 21019 net.cpp:356] conv2 -> conv2
I1110 06:46:18.791101 21019 net.cpp:96] Setting up conv2
I1110 06:46:18.798611 21019 net.cpp:103] Top shape: 111 256 27 27 (20715264)
I1110 06:46:18.798635 21019 net.cpp:67] Creating Layer relu2
I1110 06:46:18.798638 21019 net.cpp:394] relu2 <- conv2
I1110 06:46:18.798643 21019 net.cpp:345] relu2 -> conv2 (in-place)
I1110 06:46:18.798648 21019 net.cpp:96] Setting up relu2
I1110 06:46:18.798651 21019 net.cpp:103] Top shape: 111 256 27 27 (20715264)
I1110 06:46:18.798657 21019 net.cpp:67] Creating Layer pool2
I1110 06:46:18.798660 21019 net.cpp:394] pool2 <- conv2
I1110 06:46:18.798665 21019 net.cpp:356] pool2 -> pool2
I1110 06:46:18.798671 21019 net.cpp:96] Setting up pool2
I1110 06:46:18.798674 21019 net.cpp:103] Top shape: 111 256 13 13 (4802304)
I1110 06:46:18.798679 21019 net.cpp:67] Creating Layer norm2
I1110 06:46:18.798682 21019 net.cpp:394] norm2 <- pool2
I1110 06:46:18.798686 21019 net.cpp:356] norm2 -> norm2
I1110 06:46:18.798691 21019 net.cpp:96] Setting up norm2
I1110 06:46:18.798694 21019 net.cpp:103] Top shape: 111 256 13 13 (4802304)
I1110 06:46:18.798701 21019 net.cpp:67] Creating Layer conv3
I1110 06:46:18.798703 21019 net.cpp:394] conv3 <- norm2
I1110 06:46:18.798707 21019 net.cpp:356] conv3 -> conv3
I1110 06:46:18.798722 21019 net.cpp:96] Setting up conv3
I1110 06:46:18.820449 21019 net.cpp:103] Top shape: 111 384 13 13 (7203456)
I1110 06:46:18.820478 21019 net.cpp:67] Creating Layer relu3
I1110 06:46:18.820482 21019 net.cpp:394] relu3 <- conv3
I1110 06:46:18.820489 21019 net.cpp:345] relu3 -> conv3 (in-place)
I1110 06:46:18.820497 21019 net.cpp:96] Setting up relu3
I1110 06:46:18.820499 21019 net.cpp:103] Top shape: 111 384 13 13 (7203456)
I1110 06:46:18.820507 21019 net.cpp:67] Creating Layer conv4
I1110 06:46:18.820509 21019 net.cpp:394] conv4 <- conv3
I1110 06:46:18.820514 21019 net.cpp:356] conv4 -> conv4
I1110 06:46:18.820520 21019 net.cpp:96] Setting up conv4
I1110 06:46:18.836802 21019 net.cpp:103] Top shape: 111 384 13 13 (7203456)
I1110 06:46:18.836828 21019 net.cpp:67] Creating Layer relu4
I1110 06:46:18.836833 21019 net.cpp:394] relu4 <- conv4
I1110 06:46:18.836838 21019 net.cpp:345] relu4 -> conv4 (in-place)
I1110 06:46:18.836844 21019 net.cpp:96] Setting up relu4
I1110 06:46:18.836848 21019 net.cpp:103] Top shape: 111 384 13 13 (7203456)
I1110 06:46:18.836853 21019 net.cpp:67] Creating Layer conv5
I1110 06:46:18.836856 21019 net.cpp:394] conv5 <- conv4
I1110 06:46:18.836861 21019 net.cpp:356] conv5 -> conv5
I1110 06:46:18.836866 21019 net.cpp:96] Setting up conv5
I1110 06:46:18.847848 21019 net.cpp:103] Top shape: 111 256 13 13 (4802304)
I1110 06:46:18.847867 21019 net.cpp:67] Creating Layer relu5
I1110 06:46:18.847872 21019 net.cpp:394] relu5 <- conv5
I1110 06:46:18.847875 21019 net.cpp:345] relu5 -> conv5 (in-place)
I1110 06:46:18.847882 21019 net.cpp:96] Setting up relu5
I1110 06:46:18.847884 21019 net.cpp:103] Top shape: 111 256 13 13 (4802304)
I1110 06:46:18.847892 21019 net.cpp:67] Creating Layer pool5
I1110 06:46:18.847894 21019 net.cpp:394] pool5 <- conv5
I1110 06:46:18.847899 21019 net.cpp:356] pool5 -> pool5
I1110 06:46:18.847904 21019 net.cpp:96] Setting up pool5
I1110 06:46:18.847909 21019 net.cpp:103] Top shape: 111 256 6 6 (1022976)
I1110 06:46:18.847916 21019 net.cpp:67] Creating Layer fc6
I1110 06:46:18.847919 21019 net.cpp:394] fc6 <- pool5
I1110 06:46:18.847923 21019 net.cpp:356] fc6 -> fc6
I1110 06:46:18.847929 21019 net.cpp:96] Setting up fc6
I1110 06:46:19.764747 21019 net.cpp:103] Top shape: 111 4096 1 1 (454656)
I1110 06:46:19.764778 21019 net.cpp:67] Creating Layer relu6
I1110 06:46:19.764783 21019 net.cpp:394] relu6 <- fc6
I1110 06:46:19.764791 21019 net.cpp:345] relu6 -> fc6 (in-place)
I1110 06:46:19.764796 21019 net.cpp:96] Setting up relu6
I1110 06:46:19.764801 21019 net.cpp:103] Top shape: 111 4096 1 1 (454656)
I1110 06:46:19.764807 21019 net.cpp:67] Creating Layer drop6
I1110 06:46:19.764811 21019 net.cpp:394] drop6 <- fc6
I1110 06:46:19.764814 21019 net.cpp:345] drop6 -> fc6 (in-place)
I1110 06:46:19.764819 21019 net.cpp:96] Setting up drop6
I1110 06:46:19.764822 21019 net.cpp:103] Top shape: 111 4096 1 1 (454656)
I1110 06:46:19.764828 21019 net.cpp:67] Creating Layer fc7
I1110 06:46:19.764832 21019 net.cpp:394] fc7 <- fc6
I1110 06:46:19.764838 21019 net.cpp:356] fc7 -> fc7
I1110 06:46:19.764844 21019 net.cpp:96] Setting up fc7
I1110 06:46:20.160794 21019 net.cpp:103] Top shape: 111 4096 1 1 (454656)
I1110 06:46:20.160843 21019 net.cpp:67] Creating Layer relu7
I1110 06:46:20.160850 21019 net.cpp:394] relu7 <- fc7
I1110 06:46:20.160856 21019 net.cpp:345] relu7 -> fc7 (in-place)
I1110 06:46:20.160863 21019 net.cpp:96] Setting up relu7
I1110 06:46:20.160866 21019 net.cpp:103] Top shape: 111 4096 1 1 (454656)
I1110 06:46:20.160871 21019 net.cpp:67] Creating Layer drop7
I1110 06:46:20.160874 21019 net.cpp:394] drop7 <- fc7
I1110 06:46:20.160878 21019 net.cpp:345] drop7 -> fc7 (in-place)
I1110 06:46:20.160883 21019 net.cpp:96] Setting up drop7
I1110 06:46:20.160887 21019 net.cpp:103] Top shape: 111 4096 1 1 (454656)
I1110 06:46:20.160893 21019 net.cpp:67] Creating Layer fc8_clamp
I1110 06:46:20.160897 21019 net.cpp:394] fc8_clamp <- fc7
I1110 06:46:20.160902 21019 net.cpp:356] fc8_clamp -> fc8_clamp
I1110 06:46:20.160910 21019 net.cpp:96] Setting up fc8_clamp
I1110 06:46:20.161139 21019 net.cpp:103] Top shape: 111 2 1 1 (222)
I1110 06:46:20.161149 21019 net.cpp:67] Creating Layer fc8_clamp_fc8_clamp_0_split
I1110 06:46:20.161154 21019 net.cpp:394] fc8_clamp_fc8_clamp_0_split <- fc8_clamp
I1110 06:46:20.161159 21019 net.cpp:356] fc8_clamp_fc8_clamp_0_split -> fc8_clamp_fc8_clamp_0_split_0
I1110 06:46:20.161164 21019 net.cpp:356] fc8_clamp_fc8_clamp_0_split -> fc8_clamp_fc8_clamp_0_split_1
I1110 06:46:20.161175 21019 net.cpp:96] Setting up fc8_clamp_fc8_clamp_0_split
I1110 06:46:20.161178 21019 net.cpp:103] Top shape: 111 2 1 1 (222)
I1110 06:46:20.161181 21019 net.cpp:103] Top shape: 111 2 1 1 (222)
I1110 06:46:20.161190 21019 net.cpp:67] Creating Layer loss
I1110 06:46:20.161195 21019 net.cpp:394] loss <- fc8_clamp_fc8_clamp_0_split_0
I1110 06:46:20.161198 21019 net.cpp:394] loss <- label_data_1_split_0
I1110 06:46:20.161203 21019 net.cpp:356] loss -> (automatic)
I1110 06:46:20.161207 21019 net.cpp:96] Setting up loss
I1110 06:46:20.161213 21019 net.cpp:103] Top shape: 1 1 1 1 (1)
I1110 06:46:20.161216 21019 net.cpp:109]     with loss weight 1
I1110 06:46:20.161232 21019 net.cpp:67] Creating Layer accuracy
I1110 06:46:20.161237 21019 net.cpp:394] accuracy <- fc8_clamp_fc8_clamp_0_split_1
I1110 06:46:20.161242 21019 net.cpp:394] accuracy <- label_data_1_split_1
I1110 06:46:20.161245 21019 net.cpp:356] accuracy -> accuracy
I1110 06:46:20.161252 21019 net.cpp:96] Setting up accuracy
I1110 06:46:20.161267 21019 net.cpp:103] Top shape: 1 1 1 4 (4)
I1110 06:46:20.161273 21019 net.cpp:172] accuracy does not need backward computation.
I1110 06:46:20.161275 21019 net.cpp:170] loss needs backward computation.
I1110 06:46:20.161278 21019 net.cpp:170] fc8_clamp_fc8_clamp_0_split needs backward computation.
I1110 06:46:20.161281 21019 net.cpp:170] fc8_clamp needs backward computation.
I1110 06:46:20.161284 21019 net.cpp:170] drop7 needs backward computation.
…
