…
I1104 16:17:38.820093  8801 net.cpp:275] The NetState phase (0) differed from the phase (1) specified by a rule in layer accuracy
I1104 16:17:38.820292  8801 net.cpp:39] Initializing net from parameters: 
name: "ClampCaffeNet"
layers {
  top: "data"
  top: "label"
  name: "data"
  type: IMAGE_DATA
  image_data_param {
    source: "/data/ad6813/caffe/data/clamp/clampTrain.txt"
    batch_size: 32
    new_height: 256
    new_width: 256
  }
  include {
    phase: TRAIN
  }
  transform_param {
    mirror: true
    crop_size: 227
    mean_file: "/homes/ad6813/data/controlpoint_mean_256-227.binaryproto"
  }
}
layers {
  bottom: "data"
  top: "conv1"
  name: "conv1"
  type: CONVOLUTION
  blobs_lr: 1
  blobs_lr: 2
  weight_decay: 1
  weight_decay: 0
  convolution_param {
    num_output: 96
    kernel_size: 11
    stride: 4
    weight_filler {
      type: "gaussian"
      std: 0.01
    }
    bias_filler {
      type: "constant"
      value: 0
    }
  }
}
layers {
  bottom: "conv1"
  top: "conv1"
  name: "relu1"
  type: RELU
}
layers {
  bottom: "conv1"
  top: "pool1"
  name: "pool1"
  type: POOLING
  pooling_param {
    pool: MAX
    kernel_size: 3
    stride: 2
  }
}
layers {
  bottom: "pool1"
  top: "norm1"
  name: "norm1"
  type: LRN
  lrn_param {
    local_size: 5
    alpha: 0.0001
    beta: 0.75
  }
}
layers {
  bottom: "norm1"
  top: "conv2"
  name: "conv2"
  type: CONVOLUTION
  blobs_lr: 1
  blobs_lr: 2
  weight_decay: 1
  weight_decay: 0
  convolution_param {
    num_output: 256
    pad: 2
    kernel_size: 5
    group: 2
    weight_filler {
      type: "gaussian"
      std: 0.01
    }
    bias_filler {
      type: "constant"
      value: 1
    }
  }
}
layers {
  bottom: "conv2"
  top: "conv2"
  name: "relu2"
  type: RELU
}
layers {
  bottom: "conv2"
  top: "pool2"
  name: "pool2"
  type: POOLING
  pooling_param {
    pool: MAX
    kernel_size: 3
    stride: 2
  }
}
layers {
  bottom: "pool2"
  top: "norm2"
  name: "norm2"
  type: LRN
  lrn_param {
    local_size: 5
    alpha: 0.0001
    beta: 0.75
  }
}
layers {
  bottom: "norm2"
  top: "conv3"
  name: "conv3"
  type: CONVOLUTION
  blobs_lr: 1
  blobs_lr: 2
  weight_decay: 1
  weight_decay: 0
  convolution_param {
    num_output: 384
    pad: 1
    kernel_size: 3
    weight_filler {
      type: "gaussian"
      std: 0.01
    }
    bias_filler {
      type: "constant"
      value: 0
    }
  }
}
layers {
  bottom: "conv3"
  top: "conv3"
  name: "relu3"
  type: RELU
}
layers {
  bottom: "conv3"
  top: "conv4"
  name: "conv4"
  type: CONVOLUTION
  blobs_lr: 1
  blobs_lr: 2
  weight_decay: 1
  weight_decay: 0
  convolution_param {
    num_output: 384
    pad: 1
    kernel_size: 3
    group: 2
    weight_filler {
      type: "gaussian"
      std: 0.01
    }
    bias_filler {
      type: "constant"
      value: 1
    }
  }
}
layers {
  bottom: "conv4"
  top: "conv4"
  name: "relu4"
  type: RELU
}
layers {
  bottom: "conv4"
  top: "conv5"
  name: "conv5"
  type: CONVOLUTION
  blobs_lr: 1
  blobs_lr: 2
  weight_decay: 1
  weight_decay: 0
  convolution_param {
    num_output: 256
    pad: 1
    kernel_size: 3
    group: 2
    weight_filler {
      type: "gaussian"
      std: 0.01
    }
    bias_filler {
      type: "constant"
      value: 1
    }
  }
}
layers {
  bottom: "conv5"
  top: "conv5"
  name: "relu5"
  type: RELU
}
layers {
  bottom: "conv5"
  top: "pool5"
  name: "pool5"
  type: POOLING
  pooling_param {
    pool: MAX
    kernel_size: 3
    stride: 2
  }
}
layers {
  bottom: "pool5"
  top: "fc6"
  name: "fc6"
  type: INNER_PRODUCT
  blobs_lr: 1
  blobs_lr: 2
  weight_decay: 1
  weight_decay: 0
  inner_product_param {
    num_output: 4096
    weight_filler {
      type: "gaussian"
      std: 0.005
    }
    bias_filler {
      type: "constant"
      value: 1
    }
  }
}
layers {
  bottom: "fc6"
  top: "fc6"
  name: "relu6"
  type: RELU
}
layers {
  bottom: "fc6"
  top: "fc6"
  name: "drop6"
  type: DROPOUT
  dropout_param {
    dropout_ratio: 0.5
  }
}
layers {
  bottom: "fc6"
  top: "fc7"
  name: "fc7"
  type: INNER_PRODUCT
  blobs_lr: 1
  blobs_lr: 2
  weight_decay: 1
  weight_decay: 0
  inner_product_param {
    num_output: 4096
    weight_filler {
      type: "gaussian"
      std: 0.005
    }
    bias_filler {
      type: "constant"
      value: 1
    }
  }
}
layers {
  bottom: "fc7"
  top: "fc7"
  name: "relu7"
  type: RELU
}
layers {
  bottom: "fc7"
  top: "fc7"
  name: "drop7"
  type: DROPOUT
  dropout_param {
    dropout_ratio: 0.5
  }
}
layers {
  bottom: "fc7"
  top: "fc8_clamp"
  name: "fc8_clamp"
  type: INNER_PRODUCT
  blobs_lr: 1
  blobs_lr: 2
  weight_decay: 1
  weight_decay: 0
  inner_product_param {
    num_output: 2
    weight_filler {
      type: "gaussian"
      std: 0.01
    }
    bias_filler {
      type: "constant"
      value: 0
    }
  }
}
layers {
  bottom: "fc8_clamp"
  bottom: "label"
  name: "loss"
  type: SOFTMAX_REBALANCED_LOSS
}
state {
  phase: TRAIN
}
I1104 16:17:38.820425  8801 net.cpp:67] Creating Layer data
I1104 16:17:38.820441  8801 net.cpp:356] data -> data
I1104 16:17:38.820459  8801 net.cpp:356] data -> label
I1104 16:17:38.820472  8801 net.cpp:96] Setting up data
I1104 16:17:38.820477  8801 image_data_layer.cpp:30] Opening file /data/ad6813/caffe/data/clamp/clampTrain.txt
I1104 16:17:38.829871  8801 image_data_layer.cpp:45] A total of 23494 images.
I1104 16:17:38.841336  8801 image_data_layer.cpp:73] output data size: 32,3,227,227
I1104 16:17:38.841370  8801 base_data_layer.cpp:36] Loading mean file from/homes/ad6813/data/controlpoint_mean_256-227.binaryproto
I1104 16:17:38.846460  8801 net.cpp:103] Top shape: 32 3 227 227 (4946784)
I1104 16:17:38.846487  8801 net.cpp:103] Top shape: 32 1 1 1 (32)
I1104 16:17:38.846518  8801 net.cpp:67] Creating Layer conv1
I1104 16:17:38.846523  8801 net.cpp:394] conv1 <- data
I1104 16:17:38.846534  8801 net.cpp:356] conv1 -> conv1
I1104 16:17:38.846545  8801 net.cpp:96] Setting up conv1
I1104 16:17:38.862010  8801 net.cpp:103] Top shape: 32 96 55 55 (9292800)
I1104 16:17:38.862052  8801 net.cpp:67] Creating Layer relu1
I1104 16:17:38.862058  8801 net.cpp:394] relu1 <- conv1
I1104 16:17:38.862064  8801 net.cpp:345] relu1 -> conv1 (in-place)
I1104 16:17:38.862074  8801 net.cpp:96] Setting up relu1
I1104 16:17:38.862082  8801 net.cpp:103] Top shape: 32 96 55 55 (9292800)
I1104 16:17:38.862088  8801 net.cpp:67] Creating Layer pool1
I1104 16:17:38.862092  8801 net.cpp:394] pool1 <- conv1
I1104 16:17:38.862095  8801 net.cpp:356] pool1 -> pool1
I1104 16:17:38.862102  8801 net.cpp:96] Setting up pool1
I1104 16:17:38.862118  8801 net.cpp:103] Top shape: 32 96 27 27 (2239488)
I1104 16:17:38.862124  8801 net.cpp:67] Creating Layer norm1
I1104 16:17:38.862131  8801 net.cpp:394] norm1 <- pool1
I1104 16:17:38.862136  8801 net.cpp:356] norm1 -> norm1
I1104 16:17:38.862141  8801 net.cpp:96] Setting up norm1
I1104 16:17:38.862148  8801 net.cpp:103] Top shape: 32 96 27 27 (2239488)
I1104 16:17:38.862160  8801 net.cpp:67] Creating Layer conv2
I1104 16:17:38.862165  8801 net.cpp:394] conv2 <- norm1
I1104 16:17:38.862170  8801 net.cpp:356] conv2 -> conv2
I1104 16:17:38.862176  8801 net.cpp:96] Setting up conv2
I1104 16:17:38.869974  8801 net.cpp:103] Top shape: 32 256 27 27 (5971968)
I1104 16:17:38.870000  8801 net.cpp:67] Creating Layer relu2
I1104 16:17:38.870005  8801 net.cpp:394] relu2 <- conv2
I1104 16:17:38.870010  8801 net.cpp:345] relu2 -> conv2 (in-place)
I1104 16:17:38.870017  8801 net.cpp:96] Setting up relu2
I1104 16:17:38.870023  8801 net.cpp:103] Top shape: 32 256 27 27 (5971968)
I1104 16:17:38.870036  8801 net.cpp:67] Creating Layer pool2
I1104 16:17:38.870039  8801 net.cpp:394] pool2 <- conv2
I1104 16:17:38.870043  8801 net.cpp:356] pool2 -> pool2
I1104 16:17:38.870048  8801 net.cpp:96] Setting up pool2
I1104 16:17:38.870054  8801 net.cpp:103] Top shape: 32 256 13 13 (1384448)
I1104 16:17:38.870062  8801 net.cpp:67] Creating Layer norm2
I1104 16:17:38.870065  8801 net.cpp:394] norm2 <- pool2
I1104 16:17:38.870074  8801 net.cpp:356] norm2 -> norm2
I1104 16:17:38.870079  8801 net.cpp:96] Setting up norm2
I1104 16:17:38.870082  8801 net.cpp:103] Top shape: 32 256 13 13 (1384448)
I1104 16:17:38.870087  8801 net.cpp:67] Creating Layer conv3
I1104 16:17:38.870090  8801 net.cpp:394] conv3 <- norm2
I1104 16:17:38.870096  8801 net.cpp:356] conv3 -> conv3
I1104 16:17:38.870102  8801 net.cpp:96] Setting up conv3
I1104 16:17:38.891988  8801 net.cpp:103] Top shape: 32 384 13 13 (2076672)
I1104 16:17:38.892016  8801 net.cpp:67] Creating Layer relu3
I1104 16:17:38.892020  8801 net.cpp:394] relu3 <- conv3
I1104 16:17:38.892025  8801 net.cpp:345] relu3 -> conv3 (in-place)
I1104 16:17:38.892032  8801 net.cpp:96] Setting up relu3
I1104 16:17:38.892038  8801 net.cpp:103] Top shape: 32 384 13 13 (2076672)
I1104 16:17:38.892045  8801 net.cpp:67] Creating Layer conv4
I1104 16:17:38.892050  8801 net.cpp:394] conv4 <- conv3
I1104 16:17:38.892053  8801 net.cpp:356] conv4 -> conv4
I1104 16:17:38.892060  8801 net.cpp:96] Setting up conv4
I1104 16:17:38.908797  8801 net.cpp:103] Top shape: 32 384 13 13 (2076672)
I1104 16:17:38.908821  8801 net.cpp:67] Creating Layer relu4
I1104 16:17:38.908826  8801 net.cpp:394] relu4 <- conv4
I1104 16:17:38.908831  8801 net.cpp:345] relu4 -> conv4 (in-place)
I1104 16:17:38.908838  8801 net.cpp:96] Setting up relu4
I1104 16:17:38.908843  8801 net.cpp:103] Top shape: 32 384 13 13 (2076672)
I1104 16:17:38.908849  8801 net.cpp:67] Creating Layer conv5
I1104 16:17:38.908853  8801 net.cpp:394] conv5 <- conv4
I1104 16:17:38.908859  8801 net.cpp:356] conv5 -> conv5
I1104 16:17:38.908864  8801 net.cpp:96] Setting up conv5
I1104 16:17:38.919976  8801 net.cpp:103] Top shape: 32 256 13 13 (1384448)
I1104 16:17:38.920001  8801 net.cpp:67] Creating Layer relu5
I1104 16:17:38.920006  8801 net.cpp:394] relu5 <- conv5
I1104 16:17:38.920011  8801 net.cpp:345] relu5 -> conv5 (in-place)
I1104 16:17:38.920017  8801 net.cpp:96] Setting up relu5
I1104 16:17:38.920022  8801 net.cpp:103] Top shape: 32 256 13 13 (1384448)
I1104 16:17:38.920027  8801 net.cpp:67] Creating Layer pool5
I1104 16:17:38.920030  8801 net.cpp:394] pool5 <- conv5
I1104 16:17:38.920034  8801 net.cpp:356] pool5 -> pool5
I1104 16:17:38.920039  8801 net.cpp:96] Setting up pool5
I1104 16:17:38.920047  8801 net.cpp:103] Top shape: 32 256 6 6 (294912)
I1104 16:17:38.920056  8801 net.cpp:67] Creating Layer fc6
I1104 16:17:38.920059  8801 net.cpp:394] fc6 <- pool5
I1104 16:17:38.920065  8801 net.cpp:356] fc6 -> fc6
I1104 16:17:38.920070  8801 net.cpp:96] Setting up fc6
I1104 16:17:39.845911  8801 net.cpp:103] Top shape: 32 4096 1 1 (131072)
I1104 16:17:39.845947  8801 net.cpp:67] Creating Layer relu6
I1104 16:17:39.845952  8801 net.cpp:394] relu6 <- fc6
I1104 16:17:39.845958  8801 net.cpp:345] relu6 -> fc6 (in-place)
I1104 16:17:39.845965  8801 net.cpp:96] Setting up relu6
I1104 16:17:39.845979  8801 net.cpp:103] Top shape: 32 4096 1 1 (131072)
I1104 16:17:39.845984  8801 net.cpp:67] Creating Layer drop6
I1104 16:17:39.845988  8801 net.cpp:394] drop6 <- fc6
I1104 16:17:39.845991  8801 net.cpp:345] drop6 -> fc6 (in-place)
I1104 16:17:39.845996  8801 net.cpp:96] Setting up drop6
I1104 16:17:39.846004  8801 net.cpp:103] Top shape: 32 4096 1 1 (131072)
I1104 16:17:39.846010  8801 net.cpp:67] Creating Layer fc7
I1104 16:17:39.846014  8801 net.cpp:394] fc7 <- fc6
I1104 16:17:39.846019  8801 net.cpp:356] fc7 -> fc7
I1104 16:17:39.846024  8801 net.cpp:96] Setting up fc7
I1104 16:17:40.237998  8801 net.cpp:103] Top shape: 32 4096 1 1 (131072)
I1104 16:17:40.238047  8801 net.cpp:67] Creating Layer relu7
I1104 16:17:40.238051  8801 net.cpp:394] relu7 <- fc7
I1104 16:17:40.238068  8801 net.cpp:345] relu7 -> fc7 (in-place)
I1104 16:17:40.238075  8801 net.cpp:96] Setting up relu7
I1104 16:17:40.238090  8801 net.cpp:103] Top shape: 32 4096 1 1 (131072)
I1104 16:17:40.238096  8801 net.cpp:67] Creating Layer drop7
I1104 16:17:40.238100  8801 net.cpp:394] drop7 <- fc7
I1104 16:17:40.238103  8801 net.cpp:345] drop7 -> fc7 (in-place)
I1104 16:17:40.238107  8801 net.cpp:96] Setting up drop7
I1104 16:17:40.238111  8801 net.cpp:103] Top shape: 32 4096 1 1 (131072)
I1104 16:17:40.238117  8801 net.cpp:67] Creating Layer fc8_clamp
I1104 16:17:40.238119  8801 net.cpp:394] fc8_clamp <- fc7
I1104 16:17:40.238126  8801 net.cpp:356] fc8_clamp -> fc8_clamp
I1104 16:17:40.238132  8801 net.cpp:96] Setting up fc8_clamp
I1104 16:17:40.238363  8801 net.cpp:103] Top shape: 32 2 1 1 (64)
I1104 16:17:40.238374  8801 net.cpp:67] Creating Layer loss
I1104 16:17:40.238380  8801 net.cpp:394] loss <- fc8_clamp
I1104 16:17:40.238384  8801 net.cpp:394] loss <- label
I1104 16:17:40.238389  8801 net.cpp:356] loss -> (automatic)
I1104 16:17:40.238394  8801 net.cpp:96] Setting up loss
I1104 16:17:40.238405  8801 net.cpp:103] Top shape: 1 1 1 1 (1)
I1104 16:17:40.238409  8801 net.cpp:109]     with loss weight 1
I1104 16:17:40.238445  8801 net.cpp:170] loss needs backward computation.
I1104 16:17:40.238450  8801 net.cpp:170] fc8_clamp needs backward computation.
I1104 16:17:40.238452  8801 net.cpp:170] drop7 needs backward computation.
I1104 16:17:40.238456  8801 net.cpp:170] relu7 needs backward computation.
I1104 16:17:40.238457  8801 net.cpp:170] fc7 needs backward computation.
…
I1104 16:17:40.239245  8801 net.cpp:275] The NetState phase (1) differed from the phase (0) specified by a rule in layer data
I1104 16:17:40.239425  8801 net.cpp:39] Initializing net from parameters: 
name: "ClampCaffeNet"
layers {
  top: "data"
  top: "label"
  name: "data"
  type: IMAGE_DATA
  image_data_param {
    source: "/data/ad6813/caffe/data/clamp/clampVal.txt"
    batch_size: 101
    new_height: 256
    new_width: 256
  }
  include {
    phase: TEST
  }
  transform_param {
    mirror: true
    crop_size: 227
    mean_file: "/homes/ad6813/data/controlpoint_mean_256-227.binaryproto"
  }
}
layers {
  bottom: "data"
  top: "conv1"
  name: "conv1"
  type: CONVOLUTION
  blobs_lr: 1
  blobs_lr: 2
  weight_decay: 1
  weight_decay: 0
  convolution_param {
    num_output: 96
    kernel_size: 11
    stride: 4
    weight_filler {
      type: "gaussian"
      std: 0.01
    }
    bias_filler {
      type: "constant"
      value: 0
    }
  }
}
layers {
  bottom: "conv1"
  top: "conv1"
  name: "relu1"
  type: RELU
}
layers {
  bottom: "conv1"
  top: "pool1"
  name: "pool1"
  type: POOLING
  pooling_param {
    pool: MAX
    kernel_size: 3
    stride: 2
  }
}
layers {
  bottom: "pool1"
  top: "norm1"
  name: "norm1"
  type: LRN
  lrn_param {
    local_size: 5
    alpha: 0.0001
    beta: 0.75
  }
}
layers {
  bottom: "norm1"
  top: "conv2"
  name: "conv2"
  type: CONVOLUTION
  blobs_lr: 1
  blobs_lr: 2
  weight_decay: 1
  weight_decay: 0
  convolution_param {
    num_output: 256
    pad: 2
    kernel_size: 5
    group: 2
    weight_filler {
      type: "gaussian"
      std: 0.01
    }
    bias_filler {
      type: "constant"
      value: 1
    }
  }
}
layers {
  bottom: "conv2"
  top: "conv2"
  name: "relu2"
  type: RELU
}
layers {
  bottom: "conv2"
  top: "pool2"
  name: "pool2"
  type: POOLING
  pooling_param {
    pool: MAX
    kernel_size: 3
    stride: 2
  }
}
layers {
  bottom: "pool2"
  top: "norm2"
  name: "norm2"
  type: LRN
  lrn_param {
    local_size: 5
    alpha: 0.0001
    beta: 0.75
  }
}
layers {
  bottom: "norm2"
  top: "conv3"
  name: "conv3"
  type: CONVOLUTION
  blobs_lr: 1
  blobs_lr: 2
  weight_decay: 1
  weight_decay: 0
  convolution_param {
    num_output: 384
    pad: 1
    kernel_size: 3
    weight_filler {
      type: "gaussian"
      std: 0.01
    }
    bias_filler {
      type: "constant"
      value: 0
    }
  }
}
layers {
  bottom: "conv3"
  top: "conv3"
  name: "relu3"
  type: RELU
}
layers {
  bottom: "conv3"
  top: "conv4"
  name: "conv4"
  type: CONVOLUTION
  blobs_lr: 1
  blobs_lr: 2
  weight_decay: 1
  weight_decay: 0
  convolution_param {
    num_output: 384
    pad: 1
    kernel_size: 3
    group: 2
    weight_filler {
      type: "gaussian"
      std: 0.01
    }
    bias_filler {
      type: "constant"
      value: 1
    }
  }
}
layers {
  bottom: "conv4"
  top: "conv4"
  name: "relu4"
  type: RELU
}
layers {
  bottom: "conv4"
  top: "conv5"
  name: "conv5"
  type: CONVOLUTION
  blobs_lr: 1
  blobs_lr: 2
  weight_decay: 1
  weight_decay: 0
  convolution_param {
    num_output: 256
    pad: 1
    kernel_size: 3
    group: 2
    weight_filler {
      type: "gaussian"
      std: 0.01
    }
    bias_filler {
      type: "constant"
      value: 1
    }
  }
}
layers {
  bottom: "conv5"
  top: "conv5"
  name: "relu5"
  type: RELU
}
layers {
  bottom: "conv5"
  top: "pool5"
  name: "pool5"
  type: POOLING
  pooling_param {
    pool: MAX
    kernel_size: 3
    stride: 2
  }
}
layers {
  bottom: "pool5"
  top: "fc6"
  name: "fc6"
  type: INNER_PRODUCT
  blobs_lr: 1
  blobs_lr: 2
  weight_decay: 1
  weight_decay: 0
  inner_product_param {
    num_output: 4096
    weight_filler {
      type: "gaussian"
      std: 0.005
    }
    bias_filler {
      type: "constant"
      value: 1
    }
  }
}
layers {
  bottom: "fc6"
  top: "fc6"
  name: "relu6"
  type: RELU
}
layers {
  bottom: "fc6"
  top: "fc6"
  name: "drop6"
  type: DROPOUT
  dropout_param {
    dropout_ratio: 0.5
  }
}
layers {
  bottom: "fc6"
  top: "fc7"
  name: "fc7"
  type: INNER_PRODUCT
  blobs_lr: 1
  blobs_lr: 2
  weight_decay: 1
  weight_decay: 0
  inner_product_param {
    num_output: 4096
    weight_filler {
      type: "gaussian"
      std: 0.005
    }
    bias_filler {
      type: "constant"
      value: 1
    }
  }
}
layers {
  bottom: "fc7"
  top: "fc7"
  name: "relu7"
  type: RELU
}
layers {
  bottom: "fc7"
  top: "fc7"
  name: "drop7"
  type: DROPOUT
  dropout_param {
    dropout_ratio: 0.5
  }
}
layers {
  bottom: "fc7"
  top: "fc8_clamp"
  name: "fc8_clamp"
  type: INNER_PRODUCT
  blobs_lr: 1
  blobs_lr: 2
  weight_decay: 1
  weight_decay: 0
  inner_product_param {
    num_output: 2
    weight_filler {
      type: "gaussian"
      std: 0.01
    }
    bias_filler {
      type: "constant"
      value: 0
    }
  }
}
layers {
  bottom: "fc8_clamp"
  bottom: "label"
  name: "loss"
  type: SOFTMAX_REBALANCED_LOSS
}
layers {
  bottom: "fc8_clamp"
  bottom: "label"
  top: "accuracy"
  name: "accuracy"
  type: PER_CLASS_ACCURACY
  include {
    phase: TEST
  }
}
state {
  phase: TEST
}
I1104 16:17:40.239537  8801 net.cpp:67] Creating Layer data
I1104 16:17:40.239542  8801 net.cpp:356] data -> data
I1104 16:17:40.239549  8801 net.cpp:356] data -> label
I1104 16:17:40.239560  8801 net.cpp:96] Setting up data
I1104 16:17:40.239564  8801 image_data_layer.cpp:30] Opening file /data/ad6813/caffe/data/clamp/clampVal.txt
I1104 16:17:40.240504  8801 image_data_layer.cpp:45] A total of 2005 images.
I1104 16:17:40.246744  8801 image_data_layer.cpp:73] output data size: 101,3,227,227
I1104 16:17:40.246770  8801 base_data_layer.cpp:36] Loading mean file from/homes/ad6813/data/controlpoint_mean_256-227.binaryproto
I1104 16:17:40.255465  8801 net.cpp:103] Top shape: 101 3 227 227 (15613287)
I1104 16:17:40.255491  8801 net.cpp:103] Top shape: 101 1 1 1 (101)
I1104 16:17:40.255502  8801 net.cpp:67] Creating Layer label_data_1_split
I1104 16:17:40.255507  8801 net.cpp:394] label_data_1_split <- label
I1104 16:17:40.255513  8801 net.cpp:356] label_data_1_split -> label_data_1_split_0
I1104 16:17:40.255523  8801 net.cpp:356] label_data_1_split -> label_data_1_split_1
I1104 16:17:40.255528  8801 net.cpp:96] Setting up label_data_1_split
I1104 16:17:40.255537  8801 net.cpp:103] Top shape: 101 1 1 1 (101)
I1104 16:17:40.255539  8801 net.cpp:103] Top shape: 101 1 1 1 (101)
I1104 16:17:40.255548  8801 net.cpp:67] Creating Layer conv1
I1104 16:17:40.255553  8801 net.cpp:394] conv1 <- data
I1104 16:17:40.255558  8801 net.cpp:356] conv1 -> conv1
I1104 16:17:40.255564  8801 net.cpp:96] Setting up conv1
I1104 16:17:40.256614  8801 net.cpp:103] Top shape: 101 96 55 55 (29330400)
I1104 16:17:40.256633  8801 net.cpp:67] Creating Layer relu1
I1104 16:17:40.256636  8801 net.cpp:394] relu1 <- conv1
I1104 16:17:40.256640  8801 net.cpp:345] relu1 -> conv1 (in-place)
I1104 16:17:40.256645  8801 net.cpp:96] Setting up relu1
I1104 16:17:40.256651  8801 net.cpp:103] Top shape: 101 96 55 55 (29330400)
I1104 16:17:40.256659  8801 net.cpp:67] Creating Layer pool1
I1104 16:17:40.256661  8801 net.cpp:394] pool1 <- conv1
I1104 16:17:40.256665  8801 net.cpp:356] pool1 -> pool1
I1104 16:17:40.256670  8801 net.cpp:96] Setting up pool1
I1104 16:17:40.256677  8801 net.cpp:103] Top shape: 101 96 27 27 (7068384)
I1104 16:17:40.256683  8801 net.cpp:67] Creating Layer norm1
I1104 16:17:40.256686  8801 net.cpp:394] norm1 <- pool1
I1104 16:17:40.256690  8801 net.cpp:356] norm1 -> norm1
I1104 16:17:40.256695  8801 net.cpp:96] Setting up norm1
I1104 16:17:40.256700  8801 net.cpp:103] Top shape: 101 96 27 27 (7068384)
I1104 16:17:40.256705  8801 net.cpp:67] Creating Layer conv2
I1104 16:17:40.256707  8801 net.cpp:394] conv2 <- norm1
I1104 16:17:40.256712  8801 net.cpp:356] conv2 -> conv2
I1104 16:17:40.256717  8801 net.cpp:96] Setting up conv2
I1104 16:17:40.264868  8801 net.cpp:103] Top shape: 101 256 27 27 (18849024)
I1104 16:17:40.264886  8801 net.cpp:67] Creating Layer relu2
I1104 16:17:40.264890  8801 net.cpp:394] relu2 <- conv2
I1104 16:17:40.264895  8801 net.cpp:345] relu2 -> conv2 (in-place)
I1104 16:17:40.264900  8801 net.cpp:96] Setting up relu2
I1104 16:17:40.264906  8801 net.cpp:103] Top shape: 101 256 27 27 (18849024)
I1104 16:17:40.264912  8801 net.cpp:67] Creating Layer pool2
I1104 16:17:40.264915  8801 net.cpp:394] pool2 <- conv2
I1104 16:17:40.264920  8801 net.cpp:356] pool2 -> pool2
I1104 16:17:40.264925  8801 net.cpp:96] Setting up pool2
I1104 16:17:40.264932  8801 net.cpp:103] Top shape: 101 256 13 13 (4369664)
I1104 16:17:40.264937  8801 net.cpp:67] Creating Layer norm2
I1104 16:17:40.264940  8801 net.cpp:394] norm2 <- pool2
I1104 16:17:40.264945  8801 net.cpp:356] norm2 -> norm2
I1104 16:17:40.264950  8801 net.cpp:96] Setting up norm2
I1104 16:17:40.264953  8801 net.cpp:103] Top shape: 101 256 13 13 (4369664)
I1104 16:17:40.264960  8801 net.cpp:67] Creating Layer conv3
I1104 16:17:40.264971  8801 net.cpp:394] conv3 <- norm2
I1104 16:17:40.264976  8801 net.cpp:356] conv3 -> conv3
I1104 16:17:40.264981  8801 net.cpp:96] Setting up conv3
I1104 16:17:40.287093  8801 net.cpp:103] Top shape: 101 384 13 13 (6554496)
I1104 16:17:40.287122  8801 net.cpp:67] Creating Layer relu3
I1104 16:17:40.287127  8801 net.cpp:394] relu3 <- conv3
I1104 16:17:40.287134  8801 net.cpp:345] relu3 -> conv3 (in-place)
I1104 16:17:40.287142  8801 net.cpp:96] Setting up relu3
I1104 16:17:40.287147  8801 net.cpp:103] Top shape: 101 384 13 13 (6554496)
I1104 16:17:40.287153  8801 net.cpp:67] Creating Layer conv4
I1104 16:17:40.287155  8801 net.cpp:394] conv4 <- conv3
I1104 16:17:40.287160  8801 net.cpp:356] conv4 -> conv4
I1104 16:17:40.287165  8801 net.cpp:96] Setting up conv4
I1104 16:17:40.303781  8801 net.cpp:103] Top shape: 101 384 13 13 (6554496)
I1104 16:17:40.303808  8801 net.cpp:67] Creating Layer relu4
I1104 16:17:40.303812  8801 net.cpp:394] relu4 <- conv4
I1104 16:17:40.303817  8801 net.cpp:345] relu4 -> conv4 (in-place)
I1104 16:17:40.303823  8801 net.cpp:96] Setting up relu4
I1104 16:17:40.303829  8801 net.cpp:103] Top shape: 101 384 13 13 (6554496)
I1104 16:17:40.303838  8801 net.cpp:67] Creating Layer conv5
I1104 16:17:40.303840  8801 net.cpp:394] conv5 <- conv4
I1104 16:17:40.303845  8801 net.cpp:356] conv5 -> conv5
I1104 16:17:40.303850  8801 net.cpp:96] Setting up conv5
I1104 16:17:40.315080  8801 net.cpp:103] Top shape: 101 256 13 13 (4369664)
I1104 16:17:40.315103  8801 net.cpp:67] Creating Layer relu5
I1104 16:17:40.315105  8801 net.cpp:394] relu5 <- conv5
I1104 16:17:40.315112  8801 net.cpp:345] relu5 -> conv5 (in-place)
I1104 16:17:40.315119  8801 net.cpp:96] Setting up relu5
I1104 16:17:40.315124  8801 net.cpp:103] Top shape: 101 256 13 13 (4369664)
I1104 16:17:40.315132  8801 net.cpp:67] Creating Layer pool5
I1104 16:17:40.315135  8801 net.cpp:394] pool5 <- conv5
I1104 16:17:40.315140  8801 net.cpp:356] pool5 -> pool5
I1104 16:17:40.315145  8801 net.cpp:96] Setting up pool5
I1104 16:17:40.315151  8801 net.cpp:103] Top shape: 101 256 6 6 (930816)
I1104 16:17:40.315157  8801 net.cpp:67] Creating Layer fc6
I1104 16:17:40.315160  8801 net.cpp:394] fc6 <- pool5
I1104 16:17:40.315166  8801 net.cpp:356] fc6 -> fc6
I1104 16:17:40.315172  8801 net.cpp:96] Setting up fc6
I1104 16:17:41.222715  8801 net.cpp:103] Top shape: 101 4096 1 1 (413696)
I1104 16:17:41.222764  8801 net.cpp:67] Creating Layer relu6
I1104 16:17:41.222769  8801 net.cpp:394] relu6 <- fc6
I1104 16:17:41.222775  8801 net.cpp:345] relu6 -> fc6 (in-place)
I1104 16:17:41.222782  8801 net.cpp:96] Setting up relu6
I1104 16:17:41.222797  8801 net.cpp:103] Top shape: 101 4096 1 1 (413696)
I1104 16:17:41.222802  8801 net.cpp:67] Creating Layer drop6
I1104 16:17:41.222805  8801 net.cpp:394] drop6 <- fc6
I1104 16:17:41.222810  8801 net.cpp:345] drop6 -> fc6 (in-place)
I1104 16:17:41.222813  8801 net.cpp:96] Setting up drop6
I1104 16:17:41.222817  8801 net.cpp:103] Top shape: 101 4096 1 1 (413696)
I1104 16:17:41.222825  8801 net.cpp:67] Creating Layer fc7
I1104 16:17:41.222827  8801 net.cpp:394] fc7 <- fc6
I1104 16:17:41.222832  8801 net.cpp:356] fc7 -> fc7
I1104 16:17:41.222838  8801 net.cpp:96] Setting up fc7
I1104 16:17:41.612013  8801 net.cpp:103] Top shape: 101 4096 1 1 (413696)
I1104 16:17:41.612061  8801 net.cpp:67] Creating Layer relu7
I1104 16:17:41.612066  8801 net.cpp:394] relu7 <- fc7
I1104 16:17:41.612071  8801 net.cpp:345] relu7 -> fc7 (in-place)
I1104 16:17:41.612078  8801 net.cpp:96] Setting up relu7
I1104 16:17:41.612092  8801 net.cpp:103] Top shape: 101 4096 1 1 (413696)
I1104 16:17:41.612098  8801 net.cpp:67] Creating Layer drop7
I1104 16:17:41.612102  8801 net.cpp:394] drop7 <- fc7
I1104 16:17:41.612105  8801 net.cpp:345] drop7 -> fc7 (in-place)
I1104 16:17:41.612110  8801 net.cpp:96] Setting up drop7
I1104 16:17:41.612114  8801 net.cpp:103] Top shape: 101 4096 1 1 (413696)
I1104 16:17:41.612120  8801 net.cpp:67] Creating Layer fc8_clamp
I1104 16:17:41.612123  8801 net.cpp:394] fc8_clamp <- fc7
I1104 16:17:41.612128  8801 net.cpp:356] fc8_clamp -> fc8_clamp
I1104 16:17:41.612146  8801 net.cpp:96] Setting up fc8_clamp
I1104 16:17:41.612370  8801 net.cpp:103] Top shape: 101 2 1 1 (202)
I1104 16:17:41.612380  8801 net.cpp:67] Creating Layer fc8_clamp_fc8_clamp_0_split
I1104 16:17:41.612383  8801 net.cpp:394] fc8_clamp_fc8_clamp_0_split <- fc8_clamp
I1104 16:17:41.612387  8801 net.cpp:356] fc8_clamp_fc8_clamp_0_split -> fc8_clamp_fc8_clamp_0_split_0
I1104 16:17:41.612395  8801 net.cpp:356] fc8_clamp_fc8_clamp_0_split -> fc8_clamp_fc8_clamp_0_split_1
I1104 16:17:41.612400  8801 net.cpp:96] Setting up fc8_clamp_fc8_clamp_0_split
I1104 16:17:41.612406  8801 net.cpp:103] Top shape: 101 2 1 1 (202)
I1104 16:17:41.612409  8801 net.cpp:103] Top shape: 101 2 1 1 (202)
I1104 16:17:41.612414  8801 net.cpp:67] Creating Layer loss
I1104 16:17:41.612417  8801 net.cpp:394] loss <- fc8_clamp_fc8_clamp_0_split_0
I1104 16:17:41.612421  8801 net.cpp:394] loss <- label_data_1_split_0
I1104 16:17:41.612426  8801 net.cpp:356] loss -> (automatic)
I1104 16:17:41.612431  8801 net.cpp:96] Setting up loss
I1104 16:17:41.612442  8801 net.cpp:103] Top shape: 1 1 1 1 (1)
I1104 16:17:41.612447  8801 net.cpp:109]     with loss weight 1
I1104 16:17:41.612462  8801 net.cpp:67] Creating Layer accuracy
I1104 16:17:41.612468  8801 net.cpp:394] accuracy <- fc8_clamp_fc8_clamp_0_split_1
I1104 16:17:41.612470  8801 net.cpp:394] accuracy <- label_data_1_split_1
I1104 16:17:41.612475  8801 net.cpp:356] accuracy -> accuracy
I1104 16:17:41.612479  8801 net.cpp:96] Setting up accuracy
I1104 16:17:41.612488  8801 net.cpp:103] Top shape: 1 1 1 4 (4)
I1104 16:17:41.612493  8801 net.cpp:172] accuracy does not need backward computation.
I1104 16:17:41.612496  8801 net.cpp:170] loss needs backward computation.
I1104 16:17:41.612499  8801 net.cpp:170] fc8_clamp_fc8_clamp_0_split needs backward computation.
I1104 16:17:41.612503  8801 net.cpp:170] fc8_clamp needs backward computation.
I1104 16:17:41.612505  8801 net.cpp:170] drop7 needs backward computation.
…
I1104 17:22:34.662399 13081 net.cpp:275] The NetState phase (0) differed from the phase (1) specified by a rule in layer accuracy
I1104 17:22:34.662551 13081 net.cpp:39] Initializing net from parameters: 
name: "ClampCaffeNet"
layers {
  top: "data"
  top: "label"
  name: "data"
  type: IMAGE_DATA
  image_data_param {
    source: "/data/ad6813/caffe/data/clamp/clampTrain.txt"
    batch_size: 128
    new_height: 256
    new_width: 256
  }
  include {
    phase: TRAIN
  }
  transform_param {
    mirror: true
    crop_size: 227
    mean_file: "/homes/ad6813/data/controlpoint_mean_256-227.binaryproto"
  }
}
layers {
  bottom: "data"
  top: "conv1"
  name: "conv1"
  type: CONVOLUTION
  blobs_lr: 1
  blobs_lr: 2
  weight_decay: 1
  weight_decay: 0
  convolution_param {
    num_output: 96
    kernel_size: 11
    stride: 4
    weight_filler {
      type: "gaussian"
      std: 0.01
    }
    bias_filler {
      type: "constant"
      value: 0
    }
  }
}
layers {
  bottom: "conv1"
  top: "conv1"
  name: "relu1"
  type: RELU
}
layers {
  bottom: "conv1"
  top: "pool1"
  name: "pool1"
  type: POOLING
  pooling_param {
    pool: MAX
    kernel_size: 3
    stride: 2
  }
}
layers {
  bottom: "pool1"
  top: "norm1"
  name: "norm1"
  type: LRN
  lrn_param {
    local_size: 5
    alpha: 0.0001
    beta: 0.75
  }
}
layers {
  bottom: "norm1"
  top: "conv2"
  name: "conv2"
  type: CONVOLUTION
  blobs_lr: 1
  blobs_lr: 2
  weight_decay: 1
  weight_decay: 0
  convolution_param {
    num_output: 256
    pad: 2
    kernel_size: 5
    group: 2
    weight_filler {
      type: "gaussian"
      std: 0.01
    }
    bias_filler {
      type: "constant"
      value: 1
    }
  }
}
layers {
  bottom: "conv2"
  top: "conv2"
  name: "relu2"
  type: RELU
}
layers {
  bottom: "conv2"
  top: "pool2"
  name: "pool2"
  type: POOLING
  pooling_param {
    pool: MAX
    kernel_size: 3
    stride: 2
  }
}
layers {
  bottom: "pool2"
  top: "norm2"
  name: "norm2"
  type: LRN
  lrn_param {
    local_size: 5
    alpha: 0.0001
    beta: 0.75
  }
}
layers {
  bottom: "norm2"
  top: "conv3"
  name: "conv3"
  type: CONVOLUTION
  blobs_lr: 1
  blobs_lr: 2
  weight_decay: 1
  weight_decay: 0
  convolution_param {
    num_output: 384
    pad: 1
    kernel_size: 3
    weight_filler {
      type: "gaussian"
      std: 0.01
    }
    bias_filler {
      type: "constant"
      value: 0
    }
  }
}
layers {
  bottom: "conv3"
  top: "conv3"
  name: "relu3"
  type: RELU
}
layers {
  bottom: "conv3"
  top: "conv4"
  name: "conv4"
  type: CONVOLUTION
  blobs_lr: 1
  blobs_lr: 2
  weight_decay: 1
  weight_decay: 0
  convolution_param {
    num_output: 384
    pad: 1
    kernel_size: 3
    group: 2
    weight_filler {
      type: "gaussian"
      std: 0.01
    }
    bias_filler {
      type: "constant"
      value: 1
    }
  }
}
layers {
  bottom: "conv4"
  top: "conv4"
  name: "relu4"
  type: RELU
}
layers {
  bottom: "conv4"
  top: "conv5"
  name: "conv5"
  type: CONVOLUTION
  blobs_lr: 1
  blobs_lr: 2
  weight_decay: 1
  weight_decay: 0
  convolution_param {
    num_output: 256
    pad: 1
    kernel_size: 3
    group: 2
    weight_filler {
      type: "gaussian"
      std: 0.01
    }
    bias_filler {
      type: "constant"
      value: 1
    }
  }
}
layers {
  bottom: "conv5"
  top: "conv5"
  name: "relu5"
  type: RELU
}
layers {
  bottom: "conv5"
  top: "pool5"
  name: "pool5"
  type: POOLING
  pooling_param {
    pool: MAX
    kernel_size: 3
    stride: 2
  }
}
layers {
  bottom: "pool5"
  top: "fc6"
  name: "fc6"
  type: INNER_PRODUCT
  blobs_lr: 1
  blobs_lr: 2
  weight_decay: 1
  weight_decay: 0
  inner_product_param {
    num_output: 4096
    weight_filler {
      type: "gaussian"
      std: 0.005
    }
    bias_filler {
      type: "constant"
      value: 1
    }
  }
}
layers {
  bottom: "fc6"
  top: "fc6"
  name: "relu6"
  type: RELU
}
layers {
  bottom: "fc6"
  top: "fc6"
  name: "drop6"
  type: DROPOUT
  dropout_param {
    dropout_ratio: 0.5
  }
}
layers {
  bottom: "fc6"
  top: "fc7"
  name: "fc7"
  type: INNER_PRODUCT
  blobs_lr: 1
  blobs_lr: 2
  weight_decay: 1
  weight_decay: 0
  inner_product_param {
    num_output: 4096
    weight_filler {
      type: "gaussian"
      std: 0.005
    }
    bias_filler {
      type: "constant"
      value: 1
    }
  }
}
layers {
  bottom: "fc7"
  top: "fc7"
  name: "relu7"
  type: RELU
}
layers {
  bottom: "fc7"
  top: "fc7"
  name: "drop7"
  type: DROPOUT
  dropout_param {
    dropout_ratio: 0.5
  }
}
layers {
  bottom: "fc7"
  top: "fc8_clamp"
  name: "fc8_clamp"
  type: INNER_PRODUCT
  blobs_lr: 1
  blobs_lr: 2
  weight_decay: 1
  weight_decay: 0
  inner_product_param {
    num_output: 2
    weight_filler {
      type: "gaussian"
      std: 0.01
    }
    bias_filler {
      type: "constant"
      value: 0
    }
  }
}
layers {
  bottom: "fc8_clamp"
  bottom: "label"
  name: "loss"
  type: SOFTMAX_REBALANCED_LOSS
}
state {
  phase: TRAIN
}
I1104 17:22:34.662655 13081 net.cpp:67] Creating Layer data
I1104 17:22:34.662664 13081 net.cpp:356] data -> data
I1104 17:22:34.662679 13081 net.cpp:356] data -> label
I1104 17:22:34.662696 13081 net.cpp:96] Setting up data
I1104 17:22:34.662703 13081 image_data_layer.cpp:30] Opening file /data/ad6813/caffe/data/clamp/clampTrain.txt
I1104 17:22:34.670845 13081 image_data_layer.cpp:45] A total of 23494 images.
I1104 17:22:34.682178 13081 image_data_layer.cpp:73] output data size: 128,3,227,227
I1104 17:22:34.682214 13081 base_data_layer.cpp:36] Loading mean file from/homes/ad6813/data/controlpoint_mean_256-227.binaryproto
I1104 17:22:34.692754 13081 net.cpp:103] Top shape: 128 3 227 227 (19787136)
I1104 17:22:34.692778 13081 net.cpp:103] Top shape: 128 1 1 1 (128)
I1104 17:22:34.692795 13081 net.cpp:67] Creating Layer conv1
I1104 17:22:34.692800 13081 net.cpp:394] conv1 <- data
I1104 17:22:34.692813 13081 net.cpp:356] conv1 -> conv1
I1104 17:22:34.692824 13081 net.cpp:96] Setting up conv1
I1104 17:22:34.708159 13081 net.cpp:103] Top shape: 128 96 55 55 (37171200)
I1104 17:22:34.708202 13081 net.cpp:67] Creating Layer relu1
I1104 17:22:34.708207 13081 net.cpp:394] relu1 <- conv1
I1104 17:22:34.708214 13081 net.cpp:345] relu1 -> conv1 (in-place)
I1104 17:22:34.708223 13081 net.cpp:96] Setting up relu1
I1104 17:22:34.708232 13081 net.cpp:103] Top shape: 128 96 55 55 (37171200)
I1104 17:22:34.708243 13081 net.cpp:67] Creating Layer pool1
I1104 17:22:34.708247 13081 net.cpp:394] pool1 <- conv1
I1104 17:22:34.708251 13081 net.cpp:356] pool1 -> pool1
I1104 17:22:34.708257 13081 net.cpp:96] Setting up pool1
I1104 17:22:34.708273 13081 net.cpp:103] Top shape: 128 96 27 27 (8957952)
I1104 17:22:34.708281 13081 net.cpp:67] Creating Layer norm1
I1104 17:22:34.708283 13081 net.cpp:394] norm1 <- pool1
I1104 17:22:34.708288 13081 net.cpp:356] norm1 -> norm1
I1104 17:22:34.708293 13081 net.cpp:96] Setting up norm1
I1104 17:22:34.708300 13081 net.cpp:103] Top shape: 128 96 27 27 (8957952)
I1104 17:22:34.708307 13081 net.cpp:67] Creating Layer conv2
I1104 17:22:34.708310 13081 net.cpp:394] conv2 <- norm1
I1104 17:22:34.708317 13081 net.cpp:356] conv2 -> conv2
I1104 17:22:34.708328 13081 net.cpp:96] Setting up conv2
I1104 17:22:34.716097 13081 net.cpp:103] Top shape: 128 256 27 27 (23887872)
I1104 17:22:34.716121 13081 net.cpp:67] Creating Layer relu2
I1104 17:22:34.716125 13081 net.cpp:394] relu2 <- conv2
I1104 17:22:34.716130 13081 net.cpp:345] relu2 -> conv2 (in-place)
I1104 17:22:34.716136 13081 net.cpp:96] Setting up relu2
I1104 17:22:34.716141 13081 net.cpp:103] Top shape: 128 256 27 27 (23887872)
I1104 17:22:34.716156 13081 net.cpp:67] Creating Layer pool2
I1104 17:22:34.716159 13081 net.cpp:394] pool2 <- conv2
I1104 17:22:34.716163 13081 net.cpp:356] pool2 -> pool2
I1104 17:22:34.716168 13081 net.cpp:96] Setting up pool2
I1104 17:22:34.716176 13081 net.cpp:103] Top shape: 128 256 13 13 (5537792)
I1104 17:22:34.716182 13081 net.cpp:67] Creating Layer norm2
I1104 17:22:34.716186 13081 net.cpp:394] norm2 <- pool2
I1104 17:22:34.716191 13081 net.cpp:356] norm2 -> norm2
I1104 17:22:34.716195 13081 net.cpp:96] Setting up norm2
I1104 17:22:34.716198 13081 net.cpp:103] Top shape: 128 256 13 13 (5537792)
I1104 17:22:34.716205 13081 net.cpp:67] Creating Layer conv3
I1104 17:22:34.716213 13081 net.cpp:394] conv3 <- norm2
I1104 17:22:34.716218 13081 net.cpp:356] conv3 -> conv3
I1104 17:22:34.716224 13081 net.cpp:96] Setting up conv3
I1104 17:22:34.738306 13081 net.cpp:103] Top shape: 128 384 13 13 (8306688)
I1104 17:22:34.738335 13081 net.cpp:67] Creating Layer relu3
I1104 17:22:34.738340 13081 net.cpp:394] relu3 <- conv3
I1104 17:22:34.738345 13081 net.cpp:345] relu3 -> conv3 (in-place)
I1104 17:22:34.738351 13081 net.cpp:96] Setting up relu3
I1104 17:22:34.738358 13081 net.cpp:103] Top shape: 128 384 13 13 (8306688)
I1104 17:22:34.738363 13081 net.cpp:67] Creating Layer conv4
I1104 17:22:34.738366 13081 net.cpp:394] conv4 <- conv3
I1104 17:22:34.738373 13081 net.cpp:356] conv4 -> conv4
I1104 17:22:34.738379 13081 net.cpp:96] Setting up conv4
I1104 17:22:34.754900 13081 net.cpp:103] Top shape: 128 384 13 13 (8306688)
I1104 17:22:34.754923 13081 net.cpp:67] Creating Layer relu4
I1104 17:22:34.754928 13081 net.cpp:394] relu4 <- conv4
I1104 17:22:34.754933 13081 net.cpp:345] relu4 -> conv4 (in-place)
I1104 17:22:34.754940 13081 net.cpp:96] Setting up relu4
I1104 17:22:34.754945 13081 net.cpp:103] Top shape: 128 384 13 13 (8306688)
I1104 17:22:34.754953 13081 net.cpp:67] Creating Layer conv5
I1104 17:22:34.754956 13081 net.cpp:394] conv5 <- conv4
I1104 17:22:34.754961 13081 net.cpp:356] conv5 -> conv5
I1104 17:22:34.754966 13081 net.cpp:96] Setting up conv5
I1104 17:22:34.766073 13081 net.cpp:103] Top shape: 128 256 13 13 (5537792)
I1104 17:22:34.766099 13081 net.cpp:67] Creating Layer relu5
I1104 17:22:34.766103 13081 net.cpp:394] relu5 <- conv5
I1104 17:22:34.766108 13081 net.cpp:345] relu5 -> conv5 (in-place)
I1104 17:22:34.766114 13081 net.cpp:96] Setting up relu5
I1104 17:22:34.766120 13081 net.cpp:103] Top shape: 128 256 13 13 (5537792)
I1104 17:22:34.766127 13081 net.cpp:67] Creating Layer pool5
I1104 17:22:34.766130 13081 net.cpp:394] pool5 <- conv5
I1104 17:22:34.766135 13081 net.cpp:356] pool5 -> pool5
I1104 17:22:34.766140 13081 net.cpp:96] Setting up pool5
I1104 17:22:34.766147 13081 net.cpp:103] Top shape: 128 256 6 6 (1179648)
I1104 17:22:34.766156 13081 net.cpp:67] Creating Layer fc6
I1104 17:22:34.766160 13081 net.cpp:394] fc6 <- pool5
I1104 17:22:34.766165 13081 net.cpp:356] fc6 -> fc6
I1104 17:22:34.766170 13081 net.cpp:96] Setting up fc6
I1104 17:22:35.680465 13081 net.cpp:103] Top shape: 128 4096 1 1 (524288)
I1104 17:22:35.680511 13081 net.cpp:67] Creating Layer relu6
I1104 17:22:35.680517 13081 net.cpp:394] relu6 <- fc6
I1104 17:22:35.680524 13081 net.cpp:345] relu6 -> fc6 (in-place)
I1104 17:22:35.680531 13081 net.cpp:96] Setting up relu6
I1104 17:22:35.680546 13081 net.cpp:103] Top shape: 128 4096 1 1 (524288)
I1104 17:22:35.680554 13081 net.cpp:67] Creating Layer drop6
I1104 17:22:35.680558 13081 net.cpp:394] drop6 <- fc6
I1104 17:22:35.680562 13081 net.cpp:345] drop6 -> fc6 (in-place)
I1104 17:22:35.680567 13081 net.cpp:96] Setting up drop6
I1104 17:22:35.680574 13081 net.cpp:103] Top shape: 128 4096 1 1 (524288)
I1104 17:22:35.680580 13081 net.cpp:67] Creating Layer fc7
I1104 17:22:35.680583 13081 net.cpp:394] fc7 <- fc6
I1104 17:22:35.680588 13081 net.cpp:356] fc7 -> fc7
I1104 17:22:35.680594 13081 net.cpp:96] Setting up fc7
I1104 17:22:36.068846 13081 net.cpp:103] Top shape: 128 4096 1 1 (524288)
I1104 17:22:36.068894 13081 net.cpp:67] Creating Layer relu7
I1104 17:22:36.068900 13081 net.cpp:394] relu7 <- fc7
I1104 17:22:36.068917 13081 net.cpp:345] relu7 -> fc7 (in-place)
I1104 17:22:36.068924 13081 net.cpp:96] Setting up relu7
I1104 17:22:36.068938 13081 net.cpp:103] Top shape: 128 4096 1 1 (524288)
I1104 17:22:36.068944 13081 net.cpp:67] Creating Layer drop7
I1104 17:22:36.068948 13081 net.cpp:394] drop7 <- fc7
I1104 17:22:36.068953 13081 net.cpp:345] drop7 -> fc7 (in-place)
I1104 17:22:36.068958 13081 net.cpp:96] Setting up drop7
I1104 17:22:36.068961 13081 net.cpp:103] Top shape: 128 4096 1 1 (524288)
I1104 17:22:36.068969 13081 net.cpp:67] Creating Layer fc8_clamp
I1104 17:22:36.068971 13081 net.cpp:394] fc8_clamp <- fc7
I1104 17:22:36.068976 13081 net.cpp:356] fc8_clamp -> fc8_clamp
I1104 17:22:36.068981 13081 net.cpp:96] Setting up fc8_clamp
I1104 17:22:36.069216 13081 net.cpp:103] Top shape: 128 2 1 1 (256)
I1104 17:22:36.069226 13081 net.cpp:67] Creating Layer loss
I1104 17:22:36.069232 13081 net.cpp:394] loss <- fc8_clamp
I1104 17:22:36.069236 13081 net.cpp:394] loss <- label
I1104 17:22:36.069242 13081 net.cpp:356] loss -> (automatic)
I1104 17:22:36.069246 13081 net.cpp:96] Setting up loss
I1104 17:22:36.069257 13081 net.cpp:103] Top shape: 1 1 1 1 (1)
I1104 17:22:36.069262 13081 net.cpp:109]     with loss weight 1
I1104 17:22:36.069298 13081 net.cpp:170] loss needs backward computation.
I1104 17:22:36.069303 13081 net.cpp:170] fc8_clamp needs backward computation.
I1104 17:22:36.069305 13081 net.cpp:170] drop7 needs backward computation.
I1104 17:22:36.069308 13081 net.cpp:170] relu7 needs backward computation.
I1104 17:22:36.069311 13081 net.cpp:170] fc7 needs backward computation.
…
