…
I1104 12:58:31.735996 15255 net.cpp:275] The NetState phase (0) differed from the phase (1) specified by a rule in layer accuracy
I1104 12:58:31.736186 15255 net.cpp:39] Initializing net from parameters: 
name: "ClampCaffeNet"
layers {
  top: "data"
  top: "label"
  name: "data"
  type: IMAGE_DATA
  image_data_param {
    source: "/data/ad6813/caffe/data/clamp/train.txt"
    batch_size: 10
    new_height: 256
    new_width: 256
  }
  include {
    phase: TRAIN
  }
  transform_param {
    mirror: true
    crop_size: 227
    mean_file: "/homes/ad6813/data/controlpoint_mean_256-227.binaryproto"
  }
}
layers {
  bottom: "data"
  top: "conv1"
  name: "conv1"
  type: CONVOLUTION
  blobs_lr: 1
  blobs_lr: 2
  weight_decay: 1
  weight_decay: 0
  convolution_param {
    num_output: 96
    kernel_size: 11
    stride: 4
    weight_filler {
      type: "gaussian"
      std: 0.01
    }
    bias_filler {
      type: "constant"
      value: 0
    }
  }
}
layers {
  bottom: "conv1"
  top: "conv1"
  name: "relu1"
  type: RELU
}
layers {
  bottom: "conv1"
  top: "pool1"
  name: "pool1"
  type: POOLING
  pooling_param {
    pool: MAX
    kernel_size: 3
    stride: 2
  }
}
layers {
  bottom: "pool1"
  top: "norm1"
  name: "norm1"
  type: LRN
  lrn_param {
    local_size: 5
    alpha: 0.0001
    beta: 0.75
  }
}
layers {
  bottom: "norm1"
  top: "conv2"
  name: "conv2"
  type: CONVOLUTION
  blobs_lr: 1
  blobs_lr: 2
  weight_decay: 1
  weight_decay: 0
  convolution_param {
    num_output: 256
    pad: 2
    kernel_size: 5
    group: 2
    weight_filler {
      type: "gaussian"
      std: 0.01
    }
    bias_filler {
      type: "constant"
      value: 1
    }
  }
}
layers {
  bottom: "conv2"
  top: "conv2"
  name: "relu2"
  type: RELU
}
layers {
  bottom: "conv2"
  top: "pool2"
  name: "pool2"
  type: POOLING
  pooling_param {
    pool: MAX
    kernel_size: 3
    stride: 2
  }
}
layers {
  bottom: "pool2"
  top: "norm2"
  name: "norm2"
  type: LRN
  lrn_param {
    local_size: 5
    alpha: 0.0001
    beta: 0.75
  }
}
layers {
  bottom: "norm2"
  top: "conv3"
  name: "conv3"
  type: CONVOLUTION
  blobs_lr: 1
  blobs_lr: 2
  weight_decay: 1
  weight_decay: 0
  convolution_param {
    num_output: 384
    pad: 1
    kernel_size: 3
    weight_filler {
      type: "gaussian"
      std: 0.01
    }
    bias_filler {
      type: "constant"
      value: 0
    }
  }
}
layers {
  bottom: "conv3"
  top: "conv3"
  name: "relu3"
  type: RELU
}
layers {
  bottom: "conv3"
  top: "conv4"
  name: "conv4"
  type: CONVOLUTION
  blobs_lr: 1
  blobs_lr: 2
  weight_decay: 1
  weight_decay: 0
  convolution_param {
    num_output: 384
    pad: 1
    kernel_size: 3
    group: 2
    weight_filler {
      type: "gaussian"
      std: 0.01
    }
    bias_filler {
      type: "constant"
      value: 1
    }
  }
}
layers {
  bottom: "conv4"
  top: "conv4"
  name: "relu4"
  type: RELU
}
layers {
  bottom: "conv4"
  top: "conv5"
  name: "conv5"
  type: CONVOLUTION
  blobs_lr: 1
  blobs_lr: 2
  weight_decay: 1
  weight_decay: 0
  convolution_param {
    num_output: 256
    pad: 1
    kernel_size: 3
    group: 2
    weight_filler {
      type: "gaussian"
      std: 0.01
    }
    bias_filler {
      type: "constant"
      value: 1
    }
  }
}
layers {
  bottom: "conv5"
  top: "conv5"
  name: "relu5"
  type: RELU
}
layers {
  bottom: "conv5"
  top: "pool5"
  name: "pool5"
  type: POOLING
  pooling_param {
    pool: MAX
    kernel_size: 3
    stride: 2
  }
}
layers {
  bottom: "pool5"
  top: "fc6"
  name: "fc6"
  type: INNER_PRODUCT
  blobs_lr: 1
  blobs_lr: 2
  weight_decay: 1
  weight_decay: 0
  inner_product_param {
    num_output: 4096
    weight_filler {
      type: "gaussian"
      std: 0.005
    }
    bias_filler {
      type: "constant"
      value: 1
    }
  }
}
layers {
  bottom: "fc6"
  top: "fc6"
  name: "relu6"
  type: RELU
}
layers {
  bottom: "fc6"
  top: "fc6"
  name: "drop6"
  type: DROPOUT
  dropout_param {
    dropout_ratio: 0.5
  }
}
layers {
  bottom: "fc6"
  top: "fc7"
  name: "fc7"
  type: INNER_PRODUCT
  blobs_lr: 1
  blobs_lr: 2
  weight_decay: 1
  weight_decay: 0
  inner_product_param {
    num_output: 4096
    weight_filler {
      type: "gaussian"
      std: 0.005
    }
    bias_filler {
      type: "constant"
      value: 1
    }
  }
}
layers {
  bottom: "fc7"
  top: "fc7"
  name: "relu7"
  type: RELU
}
layers {
  bottom: "fc7"
  top: "fc7"
  name: "drop7"
  type: DROPOUT
  dropout_param {
    dropout_ratio: 0.5
  }
}
layers {
  bottom: "fc7"
  top: "fc8_clamp"
  name: "fc8_clamp"
  type: INNER_PRODUCT
  blobs_lr: 1
  blobs_lr: 2
  weight_decay: 1
  weight_decay: 0
  inner_product_param {
    num_output: 2
    weight_filler {
      type: "gaussian"
      std: 0.01
    }
    bias_filler {
      type: "constant"
      value: 0
    }
  }
}
layers {
  bottom: "fc8_clamp"
  bottom: "label"
  name: "loss"
  type: SOFTMAX_REBALANCED_LOSS
}
state {
  phase: TRAIN
}
I1104 12:58:31.736292 15255 net.cpp:67] Creating Layer data
I1104 12:58:31.736300 15255 net.cpp:356] data -> data
I1104 12:58:31.736315 15255 net.cpp:356] data -> label
I1104 12:58:31.736332 15255 net.cpp:96] Setting up data
I1104 12:58:31.736340 15255 image_data_layer.cpp:30] Opening file /data/ad6813/caffe/data/clamp/train.txt
I1104 12:58:31.744472 15255 image_data_layer.cpp:45] A total of 23495 images.
I1104 12:58:31.755813 15255 image_data_layer.cpp:73] output data size: 10,3,227,227
I1104 12:58:31.755849 15255 base_data_layer.cpp:36] Loading mean file from/homes/ad6813/data/controlpoint_mean_256-227.binaryproto
I1104 12:58:31.759541 15255 net.cpp:103] Top shape: 10 3 227 227 (1545870)
I1104 12:58:31.759558 15255 net.cpp:103] Top shape: 10 1 1 1 (10)
I1104 12:58:31.759585 15255 net.cpp:67] Creating Layer conv1
I1104 12:58:31.759590 15255 net.cpp:394] conv1 <- data
I1104 12:58:31.759603 15255 net.cpp:356] conv1 -> conv1
I1104 12:58:31.759613 15255 net.cpp:96] Setting up conv1
I1104 12:58:31.775455 15255 net.cpp:103] Top shape: 10 96 55 55 (2904000)
I1104 12:58:31.775502 15255 net.cpp:67] Creating Layer relu1
I1104 12:58:31.775508 15255 net.cpp:394] relu1 <- conv1
I1104 12:58:31.775514 15255 net.cpp:345] relu1 -> conv1 (in-place)
I1104 12:58:31.775523 15255 net.cpp:96] Setting up relu1
I1104 12:58:31.775532 15255 net.cpp:103] Top shape: 10 96 55 55 (2904000)
I1104 12:58:31.775538 15255 net.cpp:67] Creating Layer pool1
I1104 12:58:31.775542 15255 net.cpp:394] pool1 <- conv1
I1104 12:58:31.775547 15255 net.cpp:356] pool1 -> pool1
I1104 12:58:31.775552 15255 net.cpp:96] Setting up pool1
I1104 12:58:31.775567 15255 net.cpp:103] Top shape: 10 96 27 27 (699840)
I1104 12:58:31.775580 15255 net.cpp:67] Creating Layer norm1
I1104 12:58:31.775586 15255 net.cpp:394] norm1 <- pool1
I1104 12:58:31.775590 15255 net.cpp:356] norm1 -> norm1
I1104 12:58:31.775599 15255 net.cpp:96] Setting up norm1
I1104 12:58:31.775605 15255 net.cpp:103] Top shape: 10 96 27 27 (699840)
I1104 12:58:31.775614 15255 net.cpp:67] Creating Layer conv2
I1104 12:58:31.775619 15255 net.cpp:394] conv2 <- norm1
I1104 12:58:31.775624 15255 net.cpp:356] conv2 -> conv2
I1104 12:58:31.775630 15255 net.cpp:96] Setting up conv2
I1104 12:58:31.783432 15255 net.cpp:103] Top shape: 10 256 27 27 (1866240)
I1104 12:58:31.783455 15255 net.cpp:67] Creating Layer relu2
I1104 12:58:31.783460 15255 net.cpp:394] relu2 <- conv2
I1104 12:58:31.783465 15255 net.cpp:345] relu2 -> conv2 (in-place)
I1104 12:58:31.783470 15255 net.cpp:96] Setting up relu2
I1104 12:58:31.783475 15255 net.cpp:103] Top shape: 10 256 27 27 (1866240)
I1104 12:58:31.783490 15255 net.cpp:67] Creating Layer pool2
I1104 12:58:31.783493 15255 net.cpp:394] pool2 <- conv2
I1104 12:58:31.783499 15255 net.cpp:356] pool2 -> pool2
I1104 12:58:31.783504 15255 net.cpp:96] Setting up pool2
I1104 12:58:31.783509 15255 net.cpp:103] Top shape: 10 256 13 13 (432640)
I1104 12:58:31.783520 15255 net.cpp:67] Creating Layer norm2
I1104 12:58:31.783525 15255 net.cpp:394] norm2 <- pool2
I1104 12:58:31.783530 15255 net.cpp:356] norm2 -> norm2
I1104 12:58:31.783535 15255 net.cpp:96] Setting up norm2
I1104 12:58:31.783538 15255 net.cpp:103] Top shape: 10 256 13 13 (432640)
I1104 12:58:31.783545 15255 net.cpp:67] Creating Layer conv3
I1104 12:58:31.783551 15255 net.cpp:394] conv3 <- norm2
I1104 12:58:31.783562 15255 net.cpp:356] conv3 -> conv3
I1104 12:58:31.783570 15255 net.cpp:96] Setting up conv3
I1104 12:58:31.805455 15255 net.cpp:103] Top shape: 10 384 13 13 (648960)
I1104 12:58:31.805490 15255 net.cpp:67] Creating Layer relu3
I1104 12:58:31.805495 15255 net.cpp:394] relu3 <- conv3
I1104 12:58:31.805500 15255 net.cpp:345] relu3 -> conv3 (in-place)
I1104 12:58:31.805507 15255 net.cpp:96] Setting up relu3
I1104 12:58:31.805512 15255 net.cpp:103] Top shape: 10 384 13 13 (648960)
I1104 12:58:31.805519 15255 net.cpp:67] Creating Layer conv4
I1104 12:58:31.805522 15255 net.cpp:394] conv4 <- conv3
I1104 12:58:31.805528 15255 net.cpp:356] conv4 -> conv4
I1104 12:58:31.805533 15255 net.cpp:96] Setting up conv4
I1104 12:58:31.822304 15255 net.cpp:103] Top shape: 10 384 13 13 (648960)
I1104 12:58:31.822330 15255 net.cpp:67] Creating Layer relu4
I1104 12:58:31.822335 15255 net.cpp:394] relu4 <- conv4
I1104 12:58:31.822340 15255 net.cpp:345] relu4 -> conv4 (in-place)
I1104 12:58:31.822346 15255 net.cpp:96] Setting up relu4
I1104 12:58:31.822352 15255 net.cpp:103] Top shape: 10 384 13 13 (648960)
I1104 12:58:31.822360 15255 net.cpp:67] Creating Layer conv5
I1104 12:58:31.822363 15255 net.cpp:394] conv5 <- conv4
I1104 12:58:31.822368 15255 net.cpp:356] conv5 -> conv5
I1104 12:58:31.822373 15255 net.cpp:96] Setting up conv5
I1104 12:58:31.833518 15255 net.cpp:103] Top shape: 10 256 13 13 (432640)
I1104 12:58:31.833545 15255 net.cpp:67] Creating Layer relu5
I1104 12:58:31.833550 15255 net.cpp:394] relu5 <- conv5
I1104 12:58:31.833556 15255 net.cpp:345] relu5 -> conv5 (in-place)
I1104 12:58:31.833562 15255 net.cpp:96] Setting up relu5
I1104 12:58:31.833569 15255 net.cpp:103] Top shape: 10 256 13 13 (432640)
I1104 12:58:31.833575 15255 net.cpp:67] Creating Layer pool5
I1104 12:58:31.833578 15255 net.cpp:394] pool5 <- conv5
I1104 12:58:31.833582 15255 net.cpp:356] pool5 -> pool5
I1104 12:58:31.833588 15255 net.cpp:96] Setting up pool5
I1104 12:58:31.833595 15255 net.cpp:103] Top shape: 10 256 6 6 (92160)
I1104 12:58:31.833605 15255 net.cpp:67] Creating Layer fc6
I1104 12:58:31.833608 15255 net.cpp:394] fc6 <- pool5
I1104 12:58:31.833613 15255 net.cpp:356] fc6 -> fc6
I1104 12:58:31.833618 15255 net.cpp:96] Setting up fc6
I1104 12:58:32.750424 15255 net.cpp:103] Top shape: 10 4096 1 1 (40960)
I1104 12:58:32.750471 15255 net.cpp:67] Creating Layer relu6
I1104 12:58:32.750478 15255 net.cpp:394] relu6 <- fc6
I1104 12:58:32.750483 15255 net.cpp:345] relu6 -> fc6 (in-place)
I1104 12:58:32.750490 15255 net.cpp:96] Setting up relu6
I1104 12:58:32.750504 15255 net.cpp:103] Top shape: 10 4096 1 1 (40960)
I1104 12:58:32.750510 15255 net.cpp:67] Creating Layer drop6
I1104 12:58:32.750514 15255 net.cpp:394] drop6 <- fc6
I1104 12:58:32.750519 15255 net.cpp:345] drop6 -> fc6 (in-place)
I1104 12:58:32.750524 15255 net.cpp:96] Setting up drop6
I1104 12:58:32.750531 15255 net.cpp:103] Top shape: 10 4096 1 1 (40960)
I1104 12:58:32.750538 15255 net.cpp:67] Creating Layer fc7
I1104 12:58:32.750541 15255 net.cpp:394] fc7 <- fc6
I1104 12:58:32.750545 15255 net.cpp:356] fc7 -> fc7
I1104 12:58:32.750551 15255 net.cpp:96] Setting up fc7
I1104 12:58:33.141547 15255 net.cpp:103] Top shape: 10 4096 1 1 (40960)
I1104 12:58:33.141592 15255 net.cpp:67] Creating Layer relu7
I1104 12:58:33.141598 15255 net.cpp:394] relu7 <- fc7
I1104 12:58:33.141605 15255 net.cpp:345] relu7 -> fc7 (in-place)
I1104 12:58:33.141623 15255 net.cpp:96] Setting up relu7
I1104 12:58:33.141638 15255 net.cpp:103] Top shape: 10 4096 1 1 (40960)
I1104 12:58:33.141644 15255 net.cpp:67] Creating Layer drop7
I1104 12:58:33.141648 15255 net.cpp:394] drop7 <- fc7
I1104 12:58:33.141652 15255 net.cpp:345] drop7 -> fc7 (in-place)
I1104 12:58:33.141656 15255 net.cpp:96] Setting up drop7
I1104 12:58:33.141660 15255 net.cpp:103] Top shape: 10 4096 1 1 (40960)
I1104 12:58:33.141667 15255 net.cpp:67] Creating Layer fc8_clamp
I1104 12:58:33.141670 15255 net.cpp:394] fc8_clamp <- fc7
I1104 12:58:33.141675 15255 net.cpp:356] fc8_clamp -> fc8_clamp
I1104 12:58:33.141681 15255 net.cpp:96] Setting up fc8_clamp
I1104 12:58:33.141902 15255 net.cpp:103] Top shape: 10 2 1 1 (20)
I1104 12:58:33.141919 15255 net.cpp:67] Creating Layer loss
I1104 12:58:33.141924 15255 net.cpp:394] loss <- fc8_clamp
I1104 12:58:33.141928 15255 net.cpp:394] loss <- label
I1104 12:58:33.141933 15255 net.cpp:356] loss -> (automatic)
I1104 12:58:33.141937 15255 net.cpp:96] Setting up loss
I1104 12:58:33.141950 15255 net.cpp:103] Top shape: 1 1 1 1 (1)
I1104 12:58:33.141954 15255 net.cpp:109]     with loss weight 1
I1104 12:58:33.141991 15255 net.cpp:170] loss needs backward computation.
I1104 12:58:33.141995 15255 net.cpp:170] fc8_clamp needs backward computation.
I1104 12:58:33.141999 15255 net.cpp:170] drop7 needs backward computation.
I1104 12:58:33.142000 15255 net.cpp:170] relu7 needs backward computation.
I1104 12:58:33.142004 15255 net.cpp:170] fc7 needs backward computation.
…
I1104 12:58:33.142757 15255 net.cpp:275] The NetState phase (1) differed from the phase (0) specified by a rule in layer data
I1104 12:58:33.142925 15255 net.cpp:39] Initializing net from parameters: 
name: "ClampCaffeNet"
layers {
  top: "data"
  top: "label"
  name: "data"
  type: IMAGE_DATA
  image_data_param {
    source: "/data/ad6813/caffe/data/clamp/val.txt"
    batch_size: 1
    new_height: 256
    new_width: 256
  }
  include {
    phase: TEST
  }
  transform_param {
    mirror: true
    crop_size: 227
    mean_file: "/homes/ad6813/data/controlpoint_mean_256-227.binaryproto"
  }
}
layers {
  bottom: "data"
  top: "conv1"
  name: "conv1"
  type: CONVOLUTION
  blobs_lr: 1
  blobs_lr: 2
  weight_decay: 1
  weight_decay: 0
  convolution_param {
    num_output: 96
    kernel_size: 11
    stride: 4
    weight_filler {
      type: "gaussian"
      std: 0.01
    }
    bias_filler {
      type: "constant"
      value: 0
    }
  }
}
layers {
  bottom: "conv1"
  top: "conv1"
  name: "relu1"
  type: RELU
}
layers {
  bottom: "conv1"
  top: "pool1"
  name: "pool1"
  type: POOLING
  pooling_param {
    pool: MAX
    kernel_size: 3
    stride: 2
  }
}
layers {
  bottom: "pool1"
  top: "norm1"
  name: "norm1"
  type: LRN
  lrn_param {
    local_size: 5
    alpha: 0.0001
    beta: 0.75
  }
}
layers {
  bottom: "norm1"
  top: "conv2"
  name: "conv2"
  type: CONVOLUTION
  blobs_lr: 1
  blobs_lr: 2
  weight_decay: 1
  weight_decay: 0
  convolution_param {
    num_output: 256
    pad: 2
    kernel_size: 5
    group: 2
    weight_filler {
      type: "gaussian"
      std: 0.01
    }
    bias_filler {
      type: "constant"
      value: 1
    }
  }
}
layers {
  bottom: "conv2"
  top: "conv2"
  name: "relu2"
  type: RELU
}
layers {
  bottom: "conv2"
  top: "pool2"
  name: "pool2"
  type: POOLING
  pooling_param {
    pool: MAX
    kernel_size: 3
    stride: 2
  }
}
layers {
  bottom: "pool2"
  top: "norm2"
  name: "norm2"
  type: LRN
  lrn_param {
    local_size: 5
    alpha: 0.0001
    beta: 0.75
  }
}
layers {
  bottom: "norm2"
  top: "conv3"
  name: "conv3"
  type: CONVOLUTION
  blobs_lr: 1
  blobs_lr: 2
  weight_decay: 1
  weight_decay: 0
  convolution_param {
    num_output: 384
    pad: 1
    kernel_size: 3
    weight_filler {
      type: "gaussian"
      std: 0.01
    }
    bias_filler {
      type: "constant"
      value: 0
    }
  }
}
layers {
  bottom: "conv3"
  top: "conv3"
  name: "relu3"
  type: RELU
}
layers {
  bottom: "conv3"
  top: "conv4"
  name: "conv4"
  type: CONVOLUTION
  blobs_lr: 1
  blobs_lr: 2
  weight_decay: 1
  weight_decay: 0
  convolution_param {
    num_output: 384
    pad: 1
    kernel_size: 3
    group: 2
    weight_filler {
      type: "gaussian"
      std: 0.01
    }
    bias_filler {
      type: "constant"
      value: 1
    }
  }
}
layers {
  bottom: "conv4"
  top: "conv4"
  name: "relu4"
  type: RELU
}
layers {
  bottom: "conv4"
  top: "conv5"
  name: "conv5"
  type: CONVOLUTION
  blobs_lr: 1
  blobs_lr: 2
  weight_decay: 1
  weight_decay: 0
  convolution_param {
    num_output: 256
    pad: 1
    kernel_size: 3
    group: 2
    weight_filler {
      type: "gaussian"
      std: 0.01
    }
    bias_filler {
      type: "constant"
      value: 1
    }
  }
}
layers {
  bottom: "conv5"
  top: "conv5"
  name: "relu5"
  type: RELU
}
layers {
  bottom: "conv5"
  top: "pool5"
  name: "pool5"
  type: POOLING
  pooling_param {
    pool: MAX
    kernel_size: 3
    stride: 2
  }
}
layers {
  bottom: "pool5"
  top: "fc6"
  name: "fc6"
  type: INNER_PRODUCT
  blobs_lr: 1
  blobs_lr: 2
  weight_decay: 1
  weight_decay: 0
  inner_product_param {
    num_output: 4096
    weight_filler {
      type: "gaussian"
      std: 0.005
    }
    bias_filler {
      type: "constant"
      value: 1
    }
  }
}
layers {
  bottom: "fc6"
  top: "fc6"
  name: "relu6"
  type: RELU
}
layers {
  bottom: "fc6"
  top: "fc6"
  name: "drop6"
  type: DROPOUT
  dropout_param {
    dropout_ratio: 0.5
  }
}
layers {
  bottom: "fc6"
  top: "fc7"
  name: "fc7"
  type: INNER_PRODUCT
  blobs_lr: 1
  blobs_lr: 2
  weight_decay: 1
  weight_decay: 0
  inner_product_param {
    num_output: 4096
    weight_filler {
      type: "gaussian"
      std: 0.005
    }
    bias_filler {
      type: "constant"
      value: 1
    }
  }
}
layers {
  bottom: "fc7"
  top: "fc7"
  name: "relu7"
  type: RELU
}
layers {
  bottom: "fc7"
  top: "fc7"
  name: "drop7"
  type: DROPOUT
  dropout_param {
    dropout_ratio: 0.5
  }
}
layers {
  bottom: "fc7"
  top: "fc8_clamp"
  name: "fc8_clamp"
  type: INNER_PRODUCT
  blobs_lr: 1
  blobs_lr: 2
  weight_decay: 1
  weight_decay: 0
  inner_product_param {
    num_output: 2
    weight_filler {
      type: "gaussian"
      std: 0.01
    }
    bias_filler {
      type: "constant"
      value: 0
    }
  }
}
layers {
  bottom: "fc8_clamp"
  bottom: "label"
  name: "loss"
  type: SOFTMAX_REBALANCED_LOSS
}
layers {
  bottom: "fc8_clamp"
  bottom: "label"
  top: "accuracy"
  name: "accuracy"
  type: PER_CLASS_ACCURACY
  include {
    phase: TEST
  }
}
state {
  phase: TEST
}
I1104 12:58:33.143038 15255 net.cpp:67] Creating Layer data
I1104 12:58:33.143045 15255 net.cpp:356] data -> data
I1104 12:58:33.143057 15255 net.cpp:356] data -> label
I1104 12:58:33.143064 15255 net.cpp:96] Setting up data
I1104 12:58:33.143067 15255 image_data_layer.cpp:30] Opening file /data/ad6813/caffe/data/clamp/val.txt
I1104 12:58:33.143844 15255 image_data_layer.cpp:45] A total of 2006 images.
I1104 12:58:33.150333 15255 image_data_layer.cpp:73] output data size: 1,3,227,227
I1104 12:58:33.150360 15255 base_data_layer.cpp:36] Loading mean file from/homes/ad6813/data/controlpoint_mean_256-227.binaryproto
I1104 12:58:33.151834 15255 net.cpp:103] Top shape: 1 3 227 227 (154587)
I1104 12:58:33.151844 15255 net.cpp:103] Top shape: 1 1 1 1 (1)
I1104 12:58:33.151850 15255 net.cpp:67] Creating Layer label_data_1_split
I1104 12:58:33.151854 15255 net.cpp:394] label_data_1_split <- label
I1104 12:58:33.151859 15255 net.cpp:356] label_data_1_split -> label_data_1_split_0
I1104 12:58:33.151866 15255 net.cpp:356] label_data_1_split -> label_data_1_split_1
I1104 12:58:33.151871 15255 net.cpp:96] Setting up label_data_1_split
I1104 12:58:33.151877 15255 net.cpp:103] Top shape: 1 1 1 1 (1)
I1104 12:58:33.151880 15255 net.cpp:103] Top shape: 1 1 1 1 (1)
I1104 12:58:33.151887 15255 net.cpp:67] Creating Layer conv1
I1104 12:58:33.151890 15255 net.cpp:394] conv1 <- data
I1104 12:58:33.151896 15255 net.cpp:356] conv1 -> conv1
I1104 12:58:33.151902 15255 net.cpp:96] Setting up conv1
I1104 12:58:33.152840 15255 net.cpp:103] Top shape: 1 96 55 55 (290400)
I1104 12:58:33.152855 15255 net.cpp:67] Creating Layer relu1
I1104 12:58:33.152859 15255 net.cpp:394] relu1 <- conv1
I1104 12:58:33.152863 15255 net.cpp:345] relu1 -> conv1 (in-place)
I1104 12:58:33.152868 15255 net.cpp:96] Setting up relu1
I1104 12:58:33.152873 15255 net.cpp:103] Top shape: 1 96 55 55 (290400)
I1104 12:58:33.152878 15255 net.cpp:67] Creating Layer pool1
I1104 12:58:33.152881 15255 net.cpp:394] pool1 <- conv1
I1104 12:58:33.152885 15255 net.cpp:356] pool1 -> pool1
I1104 12:58:33.152890 15255 net.cpp:96] Setting up pool1
I1104 12:58:33.152896 15255 net.cpp:103] Top shape: 1 96 27 27 (69984)
I1104 12:58:33.152901 15255 net.cpp:67] Creating Layer norm1
I1104 12:58:33.152904 15255 net.cpp:394] norm1 <- pool1
I1104 12:58:33.152909 15255 net.cpp:356] norm1 -> norm1
I1104 12:58:33.152914 15255 net.cpp:96] Setting up norm1
I1104 12:58:33.152917 15255 net.cpp:103] Top shape: 1 96 27 27 (69984)
I1104 12:58:33.152921 15255 net.cpp:67] Creating Layer conv2
I1104 12:58:33.152925 15255 net.cpp:394] conv2 <- norm1
I1104 12:58:33.152930 15255 net.cpp:356] conv2 -> conv2
I1104 12:58:33.152933 15255 net.cpp:96] Setting up conv2
I1104 12:58:33.160608 15255 net.cpp:103] Top shape: 1 256 27 27 (186624)
I1104 12:58:33.160627 15255 net.cpp:67] Creating Layer relu2
I1104 12:58:33.160631 15255 net.cpp:394] relu2 <- conv2
I1104 12:58:33.160636 15255 net.cpp:345] relu2 -> conv2 (in-place)
I1104 12:58:33.160642 15255 net.cpp:96] Setting up relu2
I1104 12:58:33.160647 15255 net.cpp:103] Top shape: 1 256 27 27 (186624)
I1104 12:58:33.160653 15255 net.cpp:67] Creating Layer pool2
I1104 12:58:33.160656 15255 net.cpp:394] pool2 <- conv2
I1104 12:58:33.160660 15255 net.cpp:356] pool2 -> pool2
I1104 12:58:33.160665 15255 net.cpp:96] Setting up pool2
I1104 12:58:33.160672 15255 net.cpp:103] Top shape: 1 256 13 13 (43264)
I1104 12:58:33.160677 15255 net.cpp:67] Creating Layer norm2
I1104 12:58:33.160681 15255 net.cpp:394] norm2 <- pool2
I1104 12:58:33.160684 15255 net.cpp:356] norm2 -> norm2
I1104 12:58:33.160688 15255 net.cpp:96] Setting up norm2
I1104 12:58:33.160692 15255 net.cpp:103] Top shape: 1 256 13 13 (43264)
I1104 12:58:33.160697 15255 net.cpp:67] Creating Layer conv3
I1104 12:58:33.160701 15255 net.cpp:394] conv3 <- norm2
I1104 12:58:33.160706 15255 net.cpp:356] conv3 -> conv3
I1104 12:58:33.160717 15255 net.cpp:96] Setting up conv3
I1104 12:58:33.181792 15255 net.cpp:103] Top shape: 1 384 13 13 (64896)
I1104 12:58:33.181818 15255 net.cpp:67] Creating Layer relu3
I1104 12:58:33.181823 15255 net.cpp:394] relu3 <- conv3
I1104 12:58:33.181828 15255 net.cpp:345] relu3 -> conv3 (in-place)
I1104 12:58:33.181833 15255 net.cpp:96] Setting up relu3
I1104 12:58:33.181838 15255 net.cpp:103] Top shape: 1 384 13 13 (64896)
I1104 12:58:33.181845 15255 net.cpp:67] Creating Layer conv4
I1104 12:58:33.181849 15255 net.cpp:394] conv4 <- conv3
I1104 12:58:33.181854 15255 net.cpp:356] conv4 -> conv4
I1104 12:58:33.181859 15255 net.cpp:96] Setting up conv4
I1104 12:58:33.197736 15255 net.cpp:103] Top shape: 1 384 13 13 (64896)
I1104 12:58:33.197763 15255 net.cpp:67] Creating Layer relu4
I1104 12:58:33.197767 15255 net.cpp:394] relu4 <- conv4
I1104 12:58:33.197772 15255 net.cpp:345] relu4 -> conv4 (in-place)
I1104 12:58:33.197777 15255 net.cpp:96] Setting up relu4
I1104 12:58:33.197782 15255 net.cpp:103] Top shape: 1 384 13 13 (64896)
I1104 12:58:33.197789 15255 net.cpp:67] Creating Layer conv5
I1104 12:58:33.197793 15255 net.cpp:394] conv5 <- conv4
I1104 12:58:33.197796 15255 net.cpp:356] conv5 -> conv5
I1104 12:58:33.197801 15255 net.cpp:96] Setting up conv5
I1104 12:58:33.208595 15255 net.cpp:103] Top shape: 1 256 13 13 (43264)
I1104 12:58:33.208623 15255 net.cpp:67] Creating Layer relu5
I1104 12:58:33.208628 15255 net.cpp:394] relu5 <- conv5
I1104 12:58:33.208632 15255 net.cpp:345] relu5 -> conv5 (in-place)
I1104 12:58:33.208637 15255 net.cpp:96] Setting up relu5
I1104 12:58:33.208642 15255 net.cpp:103] Top shape: 1 256 13 13 (43264)
I1104 12:58:33.208649 15255 net.cpp:67] Creating Layer pool5
I1104 12:58:33.208652 15255 net.cpp:394] pool5 <- conv5
I1104 12:58:33.208657 15255 net.cpp:356] pool5 -> pool5
I1104 12:58:33.208662 15255 net.cpp:96] Setting up pool5
I1104 12:58:33.208669 15255 net.cpp:103] Top shape: 1 256 6 6 (9216)
I1104 12:58:33.208678 15255 net.cpp:67] Creating Layer fc6
I1104 12:58:33.208681 15255 net.cpp:394] fc6 <- pool5
I1104 12:58:33.208686 15255 net.cpp:356] fc6 -> fc6
I1104 12:58:33.208691 15255 net.cpp:96] Setting up fc6
I1104 12:58:34.088490 15255 net.cpp:103] Top shape: 1 4096 1 1 (4096)
I1104 12:58:34.088531 15255 net.cpp:67] Creating Layer relu6
I1104 12:58:34.088536 15255 net.cpp:394] relu6 <- fc6
I1104 12:58:34.088544 15255 net.cpp:345] relu6 -> fc6 (in-place)
I1104 12:58:34.088551 15255 net.cpp:96] Setting up relu6
I1104 12:58:34.088565 15255 net.cpp:103] Top shape: 1 4096 1 1 (4096)
I1104 12:58:34.088570 15255 net.cpp:67] Creating Layer drop6
I1104 12:58:34.088573 15255 net.cpp:394] drop6 <- fc6
I1104 12:58:34.088578 15255 net.cpp:345] drop6 -> fc6 (in-place)
I1104 12:58:34.088583 15255 net.cpp:96] Setting up drop6
I1104 12:58:34.088587 15255 net.cpp:103] Top shape: 1 4096 1 1 (4096)
I1104 12:58:34.088593 15255 net.cpp:67] Creating Layer fc7
I1104 12:58:34.088596 15255 net.cpp:394] fc7 <- fc6
I1104 12:58:34.088600 15255 net.cpp:356] fc7 -> fc7
I1104 12:58:34.088606 15255 net.cpp:96] Setting up fc7
I1104 12:58:34.486937 15255 net.cpp:103] Top shape: 1 4096 1 1 (4096)
I1104 12:58:34.486974 15255 net.cpp:67] Creating Layer relu7
I1104 12:58:34.486979 15255 net.cpp:394] relu7 <- fc7
I1104 12:58:34.486986 15255 net.cpp:345] relu7 -> fc7 (in-place)
I1104 12:58:34.486994 15255 net.cpp:96] Setting up relu7
I1104 12:58:34.487009 15255 net.cpp:103] Top shape: 1 4096 1 1 (4096)
I1104 12:58:34.487015 15255 net.cpp:67] Creating Layer drop7
I1104 12:58:34.487018 15255 net.cpp:394] drop7 <- fc7
I1104 12:58:34.487022 15255 net.cpp:345] drop7 -> fc7 (in-place)
I1104 12:58:34.487026 15255 net.cpp:96] Setting up drop7
I1104 12:58:34.487030 15255 net.cpp:103] Top shape: 1 4096 1 1 (4096)
I1104 12:58:34.487036 15255 net.cpp:67] Creating Layer fc8_clamp
I1104 12:58:34.487040 15255 net.cpp:394] fc8_clamp <- fc7
I1104 12:58:34.487046 15255 net.cpp:356] fc8_clamp -> fc8_clamp
I1104 12:58:34.487054 15255 net.cpp:96] Setting up fc8_clamp
I1104 12:58:34.487287 15255 net.cpp:103] Top shape: 1 2 1 1 (2)
I1104 12:58:34.487306 15255 net.cpp:67] Creating Layer fc8_clamp_fc8_clamp_0_split
I1104 12:58:34.487313 15255 net.cpp:394] fc8_clamp_fc8_clamp_0_split <- fc8_clamp
I1104 12:58:34.487318 15255 net.cpp:356] fc8_clamp_fc8_clamp_0_split -> fc8_clamp_fc8_clamp_0_split_0
I1104 12:58:34.487324 15255 net.cpp:356] fc8_clamp_fc8_clamp_0_split -> fc8_clamp_fc8_clamp_0_split_1
I1104 12:58:34.487329 15255 net.cpp:96] Setting up fc8_clamp_fc8_clamp_0_split
I1104 12:58:34.487332 15255 net.cpp:103] Top shape: 1 2 1 1 (2)
I1104 12:58:34.487335 15255 net.cpp:103] Top shape: 1 2 1 1 (2)
I1104 12:58:34.487341 15255 net.cpp:67] Creating Layer loss
I1104 12:58:34.487344 15255 net.cpp:394] loss <- fc8_clamp_fc8_clamp_0_split_0
I1104 12:58:34.487349 15255 net.cpp:394] loss <- label_data_1_split_0
I1104 12:58:34.487354 15255 net.cpp:356] loss -> (automatic)
I1104 12:58:34.487357 15255 net.cpp:96] Setting up loss
I1104 12:58:34.487370 15255 net.cpp:103] Top shape: 1 1 1 1 (1)
I1104 12:58:34.487375 15255 net.cpp:109]     with loss weight 1
I1104 12:58:34.487391 15255 net.cpp:67] Creating Layer accuracy
I1104 12:58:34.487395 15255 net.cpp:394] accuracy <- fc8_clamp_fc8_clamp_0_split_1
I1104 12:58:34.487398 15255 net.cpp:394] accuracy <- label_data_1_split_1
I1104 12:58:34.487403 15255 net.cpp:356] accuracy -> accuracy
I1104 12:58:34.487408 15255 net.cpp:96] Setting up accuracy
I1104 12:58:34.487417 15255 net.cpp:103] Top shape: 1 1 1 4 (4)
I1104 12:58:34.487421 15255 net.cpp:172] accuracy does not need backward computation.
I1104 12:58:34.487424 15255 net.cpp:170] loss needs backward computation.
I1104 12:58:34.487427 15255 net.cpp:170] fc8_clamp_fc8_clamp_0_split needs backward computation.
I1104 12:58:34.487431 15255 net.cpp:170] fc8_clamp needs backward computation.
I1104 12:58:34.487433 15255 net.cpp:170] drop7 needs backward computation.
…
