…
I1031 06:40:12.397124 15629 net.cpp:275] The NetState phase (0) differed from the phase (1) specified by a rule in layer data
I1031 06:40:12.397147 15629 net.cpp:275] The NetState phase (0) differed from the phase (1) specified by a rule in layer accuracy
I1031 06:40:12.397323 15629 net.cpp:39] Initializing net from parameters: 
name: "InadclCaffeNet"
layers {
  top: "data"
  top: "label"
  name: "data"
  type: IMAGE_DATA
  image_data_param {
    source: "data/inadcl/train.txt"
    batch_size: 256
    new_height: 256
    new_width: 256
  }
  include {
    phase: TRAIN
  }
  transform_param {
    mirror: true
    crop_size: 227
    mean_file: "/homes/ad6813/data/controlpoint_mean_256-227.binaryproto"
  }
}
layers {
  bottom: "data"
  top: "conv1"
  name: "conv1"
  type: CONVOLUTION
  blobs_lr: 0
  blobs_lr: 0
  weight_decay: 0
  weight_decay: 0
  convolution_param {
    num_output: 96
    kernel_size: 11
    stride: 4
    weight_filler {
      type: "gaussian"
      std: 0.01
    }
    bias_filler {
      type: "constant"
      value: 0
    }
  }
}
layers {
  bottom: "conv1"
  top: "conv1"
  name: "relu1"
  type: RELU
}
layers {
  bottom: "conv1"
  top: "pool1"
  name: "pool1"
  type: POOLING
  pooling_param {
    pool: MAX
    kernel_size: 3
    stride: 2
  }
}
layers {
  bottom: "pool1"
  top: "norm1"
  name: "norm1"
  type: LRN
  lrn_param {
    local_size: 5
    alpha: 0.0001
    beta: 0.75
  }
}
layers {
  bottom: "norm1"
  top: "conv2"
  name: "conv2"
  type: CONVOLUTION
  blobs_lr: 0
  blobs_lr: 0
  weight_decay: 0
  weight_decay: 0
  convolution_param {
    num_output: 256
    pad: 2
    kernel_size: 5
    group: 2
    weight_filler {
      type: "gaussian"
      std: 0.01
    }
    bias_filler {
      type: "constant"
      value: 1
    }
  }
}
layers {
  bottom: "conv2"
  top: "conv2"
  name: "relu2"
  type: RELU
}
layers {
  bottom: "conv2"
  top: "pool2"
  name: "pool2"
  type: POOLING
  pooling_param {
    pool: MAX
    kernel_size: 3
    stride: 2
  }
}
layers {
  bottom: "pool2"
  top: "norm2"
  name: "norm2"
  type: LRN
  lrn_param {
    local_size: 5
    alpha: 0.0001
    beta: 0.75
  }
}
layers {
  bottom: "norm2"
  top: "conv3"
  name: "conv3"
  type: CONVOLUTION
  blobs_lr: 0
  blobs_lr: 0
  weight_decay: 0
  weight_decay: 0
  convolution_param {
    num_output: 384
    pad: 1
    kernel_size: 3
    weight_filler {
      type: "gaussian"
      std: 0.01
    }
    bias_filler {
      type: "constant"
      value: 0
    }
  }
}
layers {
  bottom: "conv3"
  top: "conv3"
  name: "relu3"
  type: RELU
}
layers {
  bottom: "conv3"
  top: "conv4"
  name: "conv4"
  type: CONVOLUTION
  blobs_lr: 0
  blobs_lr: 0
  weight_decay: 0
  weight_decay: 0
  convolution_param {
    num_output: 384
    pad: 1
    kernel_size: 3
    group: 2
    weight_filler {
      type: "gaussian"
      std: 0.01
    }
    bias_filler {
      type: "constant"
      value: 1
    }
  }
}
layers {
  bottom: "conv4"
  top: "conv4"
  name: "relu4"
  type: RELU
}
layers {
  bottom: "conv4"
  top: "conv5"
  name: "conv5"
  type: CONVOLUTION
  blobs_lr: 0
  blobs_lr: 0
  weight_decay: 0
  weight_decay: 0
  convolution_param {
    num_output: 256
    pad: 1
    kernel_size: 3
    group: 2
    weight_filler {
      type: "gaussian"
      std: 0.01
    }
    bias_filler {
      type: "constant"
      value: 1
    }
  }
}
layers {
  bottom: "conv5"
  top: "conv5"
  name: "relu5"
  type: RELU
}
layers {
  bottom: "conv5"
  top: "pool5"
  name: "pool5"
  type: POOLING
  pooling_param {
    pool: MAX
    kernel_size: 3
    stride: 2
  }
}
layers {
  bottom: "pool5"
  top: "fc6"
  name: "fc6"
  type: INNER_PRODUCT
  blobs_lr: 0
  blobs_lr: 0
  weight_decay: 0
  weight_decay: 0
  inner_product_param {
    num_output: 4096
    weight_filler {
      type: "gaussian"
      std: 0.005
    }
    bias_filler {
      type: "constant"
      value: 1
    }
  }
}
layers {
  bottom: "fc6"
  top: "fc6"
  name: "relu6"
  type: RELU
}
layers {
  bottom: "fc6"
  top: "fc6"
  name: "drop6"
  type: DROPOUT
  dropout_param {
    dropout_ratio: 0.5
  }
}
layers {
  bottom: "fc6"
  top: "fc7"
  name: "fc7"
  type: INNER_PRODUCT
  blobs_lr: 0
  blobs_lr: 0
  weight_decay: 0
  weight_decay: 0
  inner_product_param {
    num_output: 4096
    weight_filler {
      type: "gaussian"
      std: 0.005
    }
    bias_filler {
      type: "constant"
      value: 1
    }
  }
}
layers {
  bottom: "fc7"
  top: "fc7"
  name: "relu7"
  type: RELU
}
layers {
  bottom: "fc7"
  top: "fc7"
  name: "drop7"
  type: DROPOUT
  dropout_param {
    dropout_ratio: 0.5
  }
}
layers {
  bottom: "fc7"
  top: "fc8_inadcl"
  name: "fc8_inadcl"
  type: INNER_PRODUCT
  blobs_lr: 1
  blobs_lr: 2
  weight_decay: 1
  weight_decay: 0
  inner_product_param {
    num_output: 2
    weight_filler {
      type: "gaussian"
      std: 0.01
    }
    bias_filler {
      type: "constant"
      value: 0
    }
  }
}
layers {
  bottom: "fc8_inadcl"
  bottom: "label"
  name: "loss"
  type: SOFTMAX_REBALANCED_LOSS
}
state {
  phase: TRAIN
}
I1031 06:40:12.397423 15629 net.cpp:67] Creating Layer data
I1031 06:40:12.397433 15629 net.cpp:356] data -> data
I1031 06:40:12.397450 15629 net.cpp:356] data -> label
I1031 06:40:12.397464 15629 net.cpp:96] Setting up data
I1031 06:40:12.397472 15629 image_data_layer.cpp:30] Opening file data/inadcl/train.txt
I1031 06:40:12.399584 15629 image_data_layer.cpp:45] A total of 5692 images.
I1031 06:40:12.405797 15629 image_data_layer.cpp:73] output data size: 256,3,227,227
I1031 06:40:12.405823 15629 base_data_layer.cpp:36] Loading mean file from/homes/ad6813/data/controlpoint_mean_256-227.binaryproto
I1031 06:40:12.427513 15629 net.cpp:103] Top shape: 256 3 227 227 (39574272)
I1031 06:40:12.427537 15629 net.cpp:103] Top shape: 256 1 1 1 (256)
I1031 06:40:12.427570 15629 net.cpp:67] Creating Layer conv1
I1031 06:40:12.427578 15629 net.cpp:394] conv1 <- data
I1031 06:40:12.427592 15629 net.cpp:356] conv1 -> conv1
I1031 06:40:12.427603 15629 net.cpp:96] Setting up conv1
I1031 06:40:12.443503 15629 net.cpp:103] Top shape: 256 96 55 55 (74342400)
I1031 06:40:12.443547 15629 net.cpp:67] Creating Layer relu1
I1031 06:40:12.443552 15629 net.cpp:394] relu1 <- conv1
I1031 06:40:12.443559 15629 net.cpp:345] relu1 -> conv1 (in-place)
I1031 06:40:12.443568 15629 net.cpp:96] Setting up relu1
I1031 06:40:12.443578 15629 net.cpp:103] Top shape: 256 96 55 55 (74342400)
I1031 06:40:12.443583 15629 net.cpp:67] Creating Layer pool1
I1031 06:40:12.443586 15629 net.cpp:394] pool1 <- conv1
I1031 06:40:12.443590 15629 net.cpp:356] pool1 -> pool1
I1031 06:40:12.443596 15629 net.cpp:96] Setting up pool1
I1031 06:40:12.443613 15629 net.cpp:103] Top shape: 256 96 27 27 (17915904)
I1031 06:40:12.443621 15629 net.cpp:67] Creating Layer norm1
I1031 06:40:12.443624 15629 net.cpp:394] norm1 <- pool1
I1031 06:40:12.443630 15629 net.cpp:356] norm1 -> norm1
I1031 06:40:12.443636 15629 net.cpp:96] Setting up norm1
I1031 06:40:12.443642 15629 net.cpp:103] Top shape: 256 96 27 27 (17915904)
I1031 06:40:12.443650 15629 net.cpp:67] Creating Layer conv2
I1031 06:40:12.443652 15629 net.cpp:394] conv2 <- norm1
I1031 06:40:12.443658 15629 net.cpp:356] conv2 -> conv2
I1031 06:40:12.443665 15629 net.cpp:96] Setting up conv2
I1031 06:40:12.451481 15629 net.cpp:103] Top shape: 256 256 27 27 (47775744)
I1031 06:40:12.451505 15629 net.cpp:67] Creating Layer relu2
I1031 06:40:12.451510 15629 net.cpp:394] relu2 <- conv2
I1031 06:40:12.451515 15629 net.cpp:345] relu2 -> conv2 (in-place)
I1031 06:40:12.451521 15629 net.cpp:96] Setting up relu2
I1031 06:40:12.451527 15629 net.cpp:103] Top shape: 256 256 27 27 (47775744)
I1031 06:40:12.451534 15629 net.cpp:67] Creating Layer pool2
I1031 06:40:12.451545 15629 net.cpp:394] pool2 <- conv2
I1031 06:40:12.451550 15629 net.cpp:356] pool2 -> pool2
I1031 06:40:12.451555 15629 net.cpp:96] Setting up pool2
I1031 06:40:12.451561 15629 net.cpp:103] Top shape: 256 256 13 13 (11075584)
I1031 06:40:12.451570 15629 net.cpp:67] Creating Layer norm2
I1031 06:40:12.451572 15629 net.cpp:394] norm2 <- pool2
I1031 06:40:12.451576 15629 net.cpp:356] norm2 -> norm2
I1031 06:40:12.451581 15629 net.cpp:96] Setting up norm2
I1031 06:40:12.451586 15629 net.cpp:103] Top shape: 256 256 13 13 (11075584)
I1031 06:40:12.451592 15629 net.cpp:67] Creating Layer conv3
I1031 06:40:12.451596 15629 net.cpp:394] conv3 <- norm2
I1031 06:40:12.451599 15629 net.cpp:356] conv3 -> conv3
I1031 06:40:12.451606 15629 net.cpp:96] Setting up conv3
I1031 06:40:12.473496 15629 net.cpp:103] Top shape: 256 384 13 13 (16613376)
I1031 06:40:12.473532 15629 net.cpp:67] Creating Layer relu3
I1031 06:40:12.473537 15629 net.cpp:394] relu3 <- conv3
I1031 06:40:12.473543 15629 net.cpp:345] relu3 -> conv3 (in-place)
I1031 06:40:12.473551 15629 net.cpp:96] Setting up relu3
I1031 06:40:12.473556 15629 net.cpp:103] Top shape: 256 384 13 13 (16613376)
I1031 06:40:12.473563 15629 net.cpp:67] Creating Layer conv4
I1031 06:40:12.473567 15629 net.cpp:394] conv4 <- conv3
I1031 06:40:12.473572 15629 net.cpp:356] conv4 -> conv4
I1031 06:40:12.473578 15629 net.cpp:96] Setting up conv4
I1031 06:40:12.490368 15629 net.cpp:103] Top shape: 256 384 13 13 (16613376)
I1031 06:40:12.490397 15629 net.cpp:67] Creating Layer relu4
I1031 06:40:12.490402 15629 net.cpp:394] relu4 <- conv4
I1031 06:40:12.490408 15629 net.cpp:345] relu4 -> conv4 (in-place)
I1031 06:40:12.490414 15629 net.cpp:96] Setting up relu4
I1031 06:40:12.490420 15629 net.cpp:103] Top shape: 256 384 13 13 (16613376)
I1031 06:40:12.490428 15629 net.cpp:67] Creating Layer conv5
I1031 06:40:12.490432 15629 net.cpp:394] conv5 <- conv4
I1031 06:40:12.490437 15629 net.cpp:356] conv5 -> conv5
I1031 06:40:12.490442 15629 net.cpp:96] Setting up conv5
I1031 06:40:12.501577 15629 net.cpp:103] Top shape: 256 256 13 13 (11075584)
I1031 06:40:12.501605 15629 net.cpp:67] Creating Layer relu5
I1031 06:40:12.501610 15629 net.cpp:394] relu5 <- conv5
I1031 06:40:12.501616 15629 net.cpp:345] relu5 -> conv5 (in-place)
I1031 06:40:12.501621 15629 net.cpp:96] Setting up relu5
I1031 06:40:12.501626 15629 net.cpp:103] Top shape: 256 256 13 13 (11075584)
I1031 06:40:12.501634 15629 net.cpp:67] Creating Layer pool5
I1031 06:40:12.501637 15629 net.cpp:394] pool5 <- conv5
I1031 06:40:12.501641 15629 net.cpp:356] pool5 -> pool5
I1031 06:40:12.501647 15629 net.cpp:96] Setting up pool5
I1031 06:40:12.501654 15629 net.cpp:103] Top shape: 256 256 6 6 (2359296)
I1031 06:40:12.501664 15629 net.cpp:67] Creating Layer fc6
I1031 06:40:12.501667 15629 net.cpp:394] fc6 <- pool5
I1031 06:40:12.501672 15629 net.cpp:356] fc6 -> fc6
I1031 06:40:12.501678 15629 net.cpp:96] Setting up fc6
I1031 06:40:13.421707 15629 net.cpp:103] Top shape: 256 4096 1 1 (1048576)
I1031 06:40:13.421738 15629 net.cpp:67] Creating Layer relu6
I1031 06:40:13.421743 15629 net.cpp:394] relu6 <- fc6
I1031 06:40:13.421751 15629 net.cpp:345] relu6 -> fc6 (in-place)
I1031 06:40:13.421759 15629 net.cpp:96] Setting up relu6
I1031 06:40:13.421774 15629 net.cpp:103] Top shape: 256 4096 1 1 (1048576)
I1031 06:40:13.421779 15629 net.cpp:67] Creating Layer drop6
I1031 06:40:13.421782 15629 net.cpp:394] drop6 <- fc6
I1031 06:40:13.421787 15629 net.cpp:345] drop6 -> fc6 (in-place)
I1031 06:40:13.421792 15629 net.cpp:96] Setting up drop6
I1031 06:40:13.421798 15629 net.cpp:103] Top shape: 256 4096 1 1 (1048576)
I1031 06:40:13.421803 15629 net.cpp:67] Creating Layer fc7
I1031 06:40:13.421807 15629 net.cpp:394] fc7 <- fc6
I1031 06:40:13.421811 15629 net.cpp:356] fc7 -> fc7
I1031 06:40:13.421818 15629 net.cpp:96] Setting up fc7
I1031 06:40:13.829144 15629 net.cpp:103] Top shape: 256 4096 1 1 (1048576)
I1031 06:40:13.829190 15629 net.cpp:67] Creating Layer relu7
I1031 06:40:13.829195 15629 net.cpp:394] relu7 <- fc7
I1031 06:40:13.829212 15629 net.cpp:345] relu7 -> fc7 (in-place)
I1031 06:40:13.829221 15629 net.cpp:96] Setting up relu7
I1031 06:40:13.829236 15629 net.cpp:103] Top shape: 256 4096 1 1 (1048576)
I1031 06:40:13.829242 15629 net.cpp:67] Creating Layer drop7
I1031 06:40:13.829246 15629 net.cpp:394] drop7 <- fc7
I1031 06:40:13.829249 15629 net.cpp:345] drop7 -> fc7 (in-place)
I1031 06:40:13.829253 15629 net.cpp:96] Setting up drop7
I1031 06:40:13.829257 15629 net.cpp:103] Top shape: 256 4096 1 1 (1048576)
I1031 06:40:13.829263 15629 net.cpp:67] Creating Layer fc8_inadcl
I1031 06:40:13.829267 15629 net.cpp:394] fc8_inadcl <- fc7
I1031 06:40:13.829272 15629 net.cpp:356] fc8_inadcl -> fc8_inadcl
I1031 06:40:13.829278 15629 net.cpp:96] Setting up fc8_inadcl
I1031 06:40:13.829509 15629 net.cpp:103] Top shape: 256 2 1 1 (512)
I1031 06:40:13.829519 15629 net.cpp:67] Creating Layer loss
I1031 06:40:13.829522 15629 net.cpp:394] loss <- fc8_inadcl
I1031 06:40:13.829529 15629 net.cpp:394] loss <- label
I1031 06:40:13.829534 15629 net.cpp:356] loss -> (automatic)
I1031 06:40:13.829537 15629 net.cpp:96] Setting up loss
I1031 06:40:13.829548 15629 net.cpp:103] Top shape: 1 1 1 1 (1)
I1031 06:40:13.829552 15629 net.cpp:109]     with loss weight 1
I1031 06:40:13.829587 15629 net.cpp:170] loss needs backward computation.
I1031 06:40:13.829591 15629 net.cpp:170] fc8_inadcl needs backward computation.
I1031 06:40:13.829594 15629 net.cpp:172] drop7 does not need backward computation.
I1031 06:40:13.829597 15629 net.cpp:172] relu7 does not need backward computation.
I1031 06:40:13.829601 15629 net.cpp:172] fc7 does not need backward computation.
…
I1031 06:40:13.830270 15629 solver.cpp:151] Creating test net (#0) specified by net file: task/inadcl/train_val.prototxt
I1031 06:40:13.830307 15629 net.cpp:275] The NetState phase (1) differed from the phase (0) specified by a rule in layer data
I1031 06:40:13.830515 15629 net.cpp:39] Initializing net from parameters: 
name: "InadclCaffeNet"
layers {
  top: "data"
  top: "label"
  name: "data"
  type: IMAGE_DATA
  image_data_param {
    source: "data/inadcl/val.txt"
    batch_size: 149
    new_height: 256
    new_width: 256
  }
  include {
    phase: TEST
  }
  transform_param {
    mirror: true
    crop_size: 227
    mean_file: "/homes/ad6813/data/controlpoint_mean_256-227.binaryproto"
  }
}
layers {
  bottom: "data"
  top: "conv1"
  name: "conv1"
  type: CONVOLUTION
  blobs_lr: 0
  blobs_lr: 0
  weight_decay: 0
  weight_decay: 0
  convolution_param {
    num_output: 96
    kernel_size: 11
    stride: 4
    weight_filler {
      type: "gaussian"
      std: 0.01
    }
    bias_filler {
      type: "constant"
      value: 0
    }
  }
}
layers {
  bottom: "conv1"
  top: "conv1"
  name: "relu1"
  type: RELU
}
layers {
  bottom: "conv1"
  top: "pool1"
  name: "pool1"
  type: POOLING
  pooling_param {
    pool: MAX
    kernel_size: 3
    stride: 2
  }
}
layers {
  bottom: "pool1"
  top: "norm1"
  name: "norm1"
  type: LRN
  lrn_param {
    local_size: 5
    alpha: 0.0001
    beta: 0.75
  }
}
layers {
  bottom: "norm1"
  top: "conv2"
  name: "conv2"
  type: CONVOLUTION
  blobs_lr: 0
  blobs_lr: 0
  weight_decay: 0
  weight_decay: 0
  convolution_param {
    num_output: 256
    pad: 2
    kernel_size: 5
    group: 2
    weight_filler {
      type: "gaussian"
      std: 0.01
    }
    bias_filler {
      type: "constant"
      value: 1
    }
  }
}
layers {
  bottom: "conv2"
  top: "conv2"
  name: "relu2"
  type: RELU
}
layers {
  bottom: "conv2"
  top: "pool2"
  name: "pool2"
  type: POOLING
  pooling_param {
    pool: MAX
    kernel_size: 3
    stride: 2
  }
}
layers {
  bottom: "pool2"
  top: "norm2"
  name: "norm2"
  type: LRN
  lrn_param {
    local_size: 5
    alpha: 0.0001
    beta: 0.75
  }
}
layers {
  bottom: "norm2"
  top: "conv3"
  name: "conv3"
  type: CONVOLUTION
  blobs_lr: 0
  blobs_lr: 0
  weight_decay: 0
  weight_decay: 0
  convolution_param {
    num_output: 384
    pad: 1
    kernel_size: 3
    weight_filler {
      type: "gaussian"
      std: 0.01
    }
    bias_filler {
      type: "constant"
      value: 0
    }
  }
}
layers {
  bottom: "conv3"
  top: "conv3"
  name: "relu3"
  type: RELU
}
layers {
  bottom: "conv3"
  top: "conv4"
  name: "conv4"
  type: CONVOLUTION
  blobs_lr: 0
  blobs_lr: 0
  weight_decay: 0
  weight_decay: 0
  convolution_param {
    num_output: 384
    pad: 1
    kernel_size: 3
    group: 2
    weight_filler {
      type: "gaussian"
      std: 0.01
    }
    bias_filler {
      type: "constant"
      value: 1
    }
  }
}
layers {
  bottom: "conv4"
  top: "conv4"
  name: "relu4"
  type: RELU
}
layers {
  bottom: "conv4"
  top: "conv5"
  name: "conv5"
  type: CONVOLUTION
  blobs_lr: 0
  blobs_lr: 0
  weight_decay: 0
  weight_decay: 0
  convolution_param {
    num_output: 256
    pad: 1
    kernel_size: 3
    group: 2
    weight_filler {
      type: "gaussian"
      std: 0.01
    }
    bias_filler {
      type: "constant"
      value: 1
    }
  }
}
layers {
  bottom: "conv5"
  top: "conv5"
  name: "relu5"
  type: RELU
}
layers {
  bottom: "conv5"
  top: "pool5"
  name: "pool5"
  type: POOLING
  pooling_param {
    pool: MAX
    kernel_size: 3
    stride: 2
  }
}
layers {
  bottom: "pool5"
  top: "fc6"
  name: "fc6"
  type: INNER_PRODUCT
  blobs_lr: 0
  blobs_lr: 0
  weight_decay: 0
  weight_decay: 0
  inner_product_param {
    num_output: 4096
    weight_filler {
      type: "gaussian"
      std: 0.005
    }
    bias_filler {
      type: "constant"
      value: 1
    }
  }
}
layers {
  bottom: "fc6"
  top: "fc6"
  name: "relu6"
  type: RELU
}
layers {
  bottom: "fc6"
  top: "fc6"
  name: "drop6"
  type: DROPOUT
  dropout_param {
    dropout_ratio: 0.5
  }
}
layers {
  bottom: "fc6"
  top: "fc7"
  name: "fc7"
  type: INNER_PRODUCT
  blobs_lr: 0
  blobs_lr: 0
  weight_decay: 0
  weight_decay: 0
  inner_product_param {
    num_output: 4096
    weight_filler {
      type: "gaussian"
      std: 0.005
    }
    bias_filler {
      type: "constant"
      value: 1
    }
  }
}
layers {
  bottom: "fc7"
  top: "fc7"
  name: "relu7"
  type: RELU
}
layers {
  bottom: "fc7"
  top: "fc7"
  name: "drop7"
  type: DROPOUT
  dropout_param {
    dropout_ratio: 0.5
  }
}
layers {
  bottom: "fc7"
  top: "fc8_inadcl"
  name: "fc8_inadcl"
  type: INNER_PRODUCT
  blobs_lr: 1
  blobs_lr: 2
  weight_decay: 1
  weight_decay: 0
  inner_product_param {
    num_output: 2
    weight_filler {
      type: "gaussian"
      std: 0.01
    }
    bias_filler {
      type: "constant"
      value: 0
    }
  }
}
layers {
  bottom: "fc8_inadcl"
  bottom: "label"
  name: "loss"
  type: SOFTMAX_REBALANCED_LOSS
}
layers {
  bottom: "fc8_inadcl"
  bottom: "label"
  top: "accuracy"
  name: "accuracy"
  type: PER_CLASS_ACCURACY
  include {
    phase: TEST
  }
}
state {
  phase: TEST
}
I1031 06:40:13.830634 15629 net.cpp:67] Creating Layer data
I1031 06:40:13.830641 15629 net.cpp:356] data -> data
I1031 06:40:13.830648 15629 net.cpp:356] data -> label
I1031 06:40:13.830665 15629 net.cpp:96] Setting up data
I1031 06:40:13.830670 15629 image_data_layer.cpp:30] Opening file data/inadcl/val.txt
I1031 06:40:13.830754 15629 image_data_layer.cpp:45] A total of 149 images.
I1031 06:40:13.837501 15629 image_data_layer.cpp:73] output data size: 149,3,227,227
I1031 06:40:13.837527 15629 base_data_layer.cpp:36] Loading mean file from/homes/ad6813/data/controlpoint_mean_256-227.binaryproto
I1031 06:40:13.849364 15629 net.cpp:103] Top shape: 149 3 227 227 (23033463)
I1031 06:40:13.849390 15629 net.cpp:103] Top shape: 149 1 1 1 (149)
I1031 06:40:13.849402 15629 net.cpp:67] Creating Layer label_data_1_split
I1031 06:40:13.849406 15629 net.cpp:394] label_data_1_split <- label
I1031 06:40:13.849413 15629 net.cpp:356] label_data_1_split -> label_data_1_split_0
I1031 06:40:13.849423 15629 net.cpp:356] label_data_1_split -> label_data_1_split_1
I1031 06:40:13.849429 15629 net.cpp:96] Setting up label_data_1_split
I1031 06:40:13.849438 15629 net.cpp:103] Top shape: 149 1 1 1 (149)
I1031 06:40:13.849442 15629 net.cpp:103] Top shape: 149 1 1 1 (149)
I1031 06:40:13.849448 15629 net.cpp:67] Creating Layer conv1
I1031 06:40:13.849452 15629 net.cpp:394] conv1 <- data
I1031 06:40:13.849459 15629 net.cpp:356] conv1 -> conv1
I1031 06:40:13.849465 15629 net.cpp:96] Setting up conv1
I1031 06:40:13.850447 15629 net.cpp:103] Top shape: 149 96 55 55 (43269600)
I1031 06:40:13.850464 15629 net.cpp:67] Creating Layer relu1
I1031 06:40:13.850468 15629 net.cpp:394] relu1 <- conv1
I1031 06:40:13.850472 15629 net.cpp:345] relu1 -> conv1 (in-place)
I1031 06:40:13.850477 15629 net.cpp:96] Setting up relu1
I1031 06:40:13.850482 15629 net.cpp:103] Top shape: 149 96 55 55 (43269600)
I1031 06:40:13.850489 15629 net.cpp:67] Creating Layer pool1
I1031 06:40:13.850492 15629 net.cpp:394] pool1 <- conv1
I1031 06:40:13.850497 15629 net.cpp:356] pool1 -> pool1
I1031 06:40:13.850502 15629 net.cpp:96] Setting up pool1
I1031 06:40:13.850508 15629 net.cpp:103] Top shape: 149 96 27 27 (10427616)
I1031 06:40:13.850513 15629 net.cpp:67] Creating Layer norm1
I1031 06:40:13.850517 15629 net.cpp:394] norm1 <- pool1
I1031 06:40:13.850522 15629 net.cpp:356] norm1 -> norm1
I1031 06:40:13.850525 15629 net.cpp:96] Setting up norm1
I1031 06:40:13.850529 15629 net.cpp:103] Top shape: 149 96 27 27 (10427616)
I1031 06:40:13.850535 15629 net.cpp:67] Creating Layer conv2
I1031 06:40:13.850538 15629 net.cpp:394] conv2 <- norm1
I1031 06:40:13.850543 15629 net.cpp:356] conv2 -> conv2
I1031 06:40:13.850548 15629 net.cpp:96] Setting up conv2
I1031 06:40:13.858271 15629 net.cpp:103] Top shape: 149 256 27 27 (27806976)
I1031 06:40:13.858289 15629 net.cpp:67] Creating Layer relu2
I1031 06:40:13.858294 15629 net.cpp:394] relu2 <- conv2
I1031 06:40:13.858299 15629 net.cpp:345] relu2 -> conv2 (in-place)
I1031 06:40:13.858304 15629 net.cpp:96] Setting up relu2
I1031 06:40:13.858309 15629 net.cpp:103] Top shape: 149 256 27 27 (27806976)
I1031 06:40:13.858314 15629 net.cpp:67] Creating Layer pool2
I1031 06:40:13.858317 15629 net.cpp:394] pool2 <- conv2
I1031 06:40:13.858321 15629 net.cpp:356] pool2 -> pool2
I1031 06:40:13.858327 15629 net.cpp:96] Setting up pool2
I1031 06:40:13.858333 15629 net.cpp:103] Top shape: 149 256 13 13 (6446336)
I1031 06:40:13.858338 15629 net.cpp:67] Creating Layer norm2
I1031 06:40:13.858341 15629 net.cpp:394] norm2 <- pool2
I1031 06:40:13.858345 15629 net.cpp:356] norm2 -> norm2
I1031 06:40:13.858350 15629 net.cpp:96] Setting up norm2
I1031 06:40:13.858361 15629 net.cpp:103] Top shape: 149 256 13 13 (6446336)
I1031 06:40:13.858367 15629 net.cpp:67] Creating Layer conv3
I1031 06:40:13.858371 15629 net.cpp:394] conv3 <- norm2
I1031 06:40:13.858376 15629 net.cpp:356] conv3 -> conv3
I1031 06:40:13.858381 15629 net.cpp:96] Setting up conv3
I1031 06:40:13.880316 15629 net.cpp:103] Top shape: 149 384 13 13 (9669504)
I1031 06:40:13.880348 15629 net.cpp:67] Creating Layer relu3
I1031 06:40:13.880353 15629 net.cpp:394] relu3 <- conv3
I1031 06:40:13.880359 15629 net.cpp:345] relu3 -> conv3 (in-place)
I1031 06:40:13.880367 15629 net.cpp:96] Setting up relu3
I1031 06:40:13.880373 15629 net.cpp:103] Top shape: 149 384 13 13 (9669504)
I1031 06:40:13.880378 15629 net.cpp:67] Creating Layer conv4
I1031 06:40:13.880381 15629 net.cpp:394] conv4 <- conv3
I1031 06:40:13.880388 15629 net.cpp:356] conv4 -> conv4
I1031 06:40:13.880394 15629 net.cpp:96] Setting up conv4
I1031 06:40:13.897054 15629 net.cpp:103] Top shape: 149 384 13 13 (9669504)
I1031 06:40:13.897078 15629 net.cpp:67] Creating Layer relu4
I1031 06:40:13.897083 15629 net.cpp:394] relu4 <- conv4
I1031 06:40:13.897089 15629 net.cpp:345] relu4 -> conv4 (in-place)
I1031 06:40:13.897094 15629 net.cpp:96] Setting up relu4
I1031 06:40:13.897099 15629 net.cpp:103] Top shape: 149 384 13 13 (9669504)
I1031 06:40:13.897107 15629 net.cpp:67] Creating Layer conv5
I1031 06:40:13.897110 15629 net.cpp:394] conv5 <- conv4
I1031 06:40:13.897116 15629 net.cpp:356] conv5 -> conv5
I1031 06:40:13.897121 15629 net.cpp:96] Setting up conv5
I1031 06:40:13.908406 15629 net.cpp:103] Top shape: 149 256 13 13 (6446336)
I1031 06:40:13.908434 15629 net.cpp:67] Creating Layer relu5
I1031 06:40:13.908439 15629 net.cpp:394] relu5 <- conv5
I1031 06:40:13.908444 15629 net.cpp:345] relu5 -> conv5 (in-place)
I1031 06:40:13.908450 15629 net.cpp:96] Setting up relu5
I1031 06:40:13.908455 15629 net.cpp:103] Top shape: 149 256 13 13 (6446336)
I1031 06:40:13.908464 15629 net.cpp:67] Creating Layer pool5
I1031 06:40:13.908468 15629 net.cpp:394] pool5 <- conv5
I1031 06:40:13.908471 15629 net.cpp:356] pool5 -> pool5
I1031 06:40:13.908478 15629 net.cpp:96] Setting up pool5
I1031 06:40:13.908484 15629 net.cpp:103] Top shape: 149 256 6 6 (1373184)
I1031 06:40:13.908493 15629 net.cpp:67] Creating Layer fc6
I1031 06:40:13.908495 15629 net.cpp:394] fc6 <- pool5
I1031 06:40:13.908500 15629 net.cpp:356] fc6 -> fc6
I1031 06:40:13.908505 15629 net.cpp:96] Setting up fc6
I1031 06:40:14.829164 15629 net.cpp:103] Top shape: 149 4096 1 1 (610304)
I1031 06:40:14.829196 15629 net.cpp:67] Creating Layer relu6
I1031 06:40:14.829201 15629 net.cpp:394] relu6 <- fc6
I1031 06:40:14.829208 15629 net.cpp:345] relu6 -> fc6 (in-place)
I1031 06:40:14.829216 15629 net.cpp:96] Setting up relu6
I1031 06:40:14.829229 15629 net.cpp:103] Top shape: 149 4096 1 1 (610304)
I1031 06:40:14.829236 15629 net.cpp:67] Creating Layer drop6
I1031 06:40:14.829239 15629 net.cpp:394] drop6 <- fc6
I1031 06:40:14.829244 15629 net.cpp:345] drop6 -> fc6 (in-place)
I1031 06:40:14.829248 15629 net.cpp:96] Setting up drop6
I1031 06:40:14.829252 15629 net.cpp:103] Top shape: 149 4096 1 1 (610304)
I1031 06:40:14.829258 15629 net.cpp:67] Creating Layer fc7
I1031 06:40:14.829262 15629 net.cpp:394] fc7 <- fc6
I1031 06:40:14.829267 15629 net.cpp:356] fc7 -> fc7
I1031 06:40:14.829272 15629 net.cpp:96] Setting up fc7
I1031 06:40:15.224345 15629 net.cpp:103] Top shape: 149 4096 1 1 (610304)
I1031 06:40:15.224393 15629 net.cpp:67] Creating Layer relu7
I1031 06:40:15.224400 15629 net.cpp:394] relu7 <- fc7
I1031 06:40:15.224406 15629 net.cpp:345] relu7 -> fc7 (in-place)
I1031 06:40:15.224413 15629 net.cpp:96] Setting up relu7
I1031 06:40:15.224428 15629 net.cpp:103] Top shape: 149 4096 1 1 (610304)
I1031 06:40:15.224434 15629 net.cpp:67] Creating Layer drop7
I1031 06:40:15.224437 15629 net.cpp:394] drop7 <- fc7
I1031 06:40:15.224443 15629 net.cpp:345] drop7 -> fc7 (in-place)
I1031 06:40:15.224448 15629 net.cpp:96] Setting up drop7
I1031 06:40:15.224452 15629 net.cpp:103] Top shape: 149 4096 1 1 (610304)
I1031 06:40:15.224458 15629 net.cpp:67] Creating Layer fc8_inadcl
I1031 06:40:15.224472 15629 net.cpp:394] fc8_inadcl <- fc7
I1031 06:40:15.224478 15629 net.cpp:356] fc8_inadcl -> fc8_inadcl
I1031 06:40:15.224488 15629 net.cpp:96] Setting up fc8_inadcl
I1031 06:40:15.224712 15629 net.cpp:103] Top shape: 149 2 1 1 (298)
I1031 06:40:15.224725 15629 net.cpp:67] Creating Layer fc8_inadcl_fc8_inadcl_0_split
I1031 06:40:15.224728 15629 net.cpp:394] fc8_inadcl_fc8_inadcl_0_split <- fc8_inadcl
I1031 06:40:15.224733 15629 net.cpp:356] fc8_inadcl_fc8_inadcl_0_split -> fc8_inadcl_fc8_inadcl_0_split_0
I1031 06:40:15.224738 15629 net.cpp:356] fc8_inadcl_fc8_inadcl_0_split -> fc8_inadcl_fc8_inadcl_0_split_1
I1031 06:40:15.224745 15629 net.cpp:96] Setting up fc8_inadcl_fc8_inadcl_0_split
I1031 06:40:15.224748 15629 net.cpp:103] Top shape: 149 2 1 1 (298)
I1031 06:40:15.224751 15629 net.cpp:103] Top shape: 149 2 1 1 (298)
I1031 06:40:15.224757 15629 net.cpp:67] Creating Layer loss
I1031 06:40:15.224761 15629 net.cpp:394] loss <- fc8_inadcl_fc8_inadcl_0_split_0
I1031 06:40:15.224766 15629 net.cpp:394] loss <- label_data_1_split_0
I1031 06:40:15.224769 15629 net.cpp:356] loss -> (automatic)
I1031 06:40:15.224773 15629 net.cpp:96] Setting up loss
I1031 06:40:15.224781 15629 net.cpp:103] Top shape: 1 1 1 1 (1)
I1031 06:40:15.224784 15629 net.cpp:109]     with loss weight 1
I1031 06:40:15.224804 15629 net.cpp:67] Creating Layer accuracy
I1031 06:40:15.224807 15629 net.cpp:394] accuracy <- fc8_inadcl_fc8_inadcl_0_split_1
I1031 06:40:15.224812 15629 net.cpp:394] accuracy <- label_data_1_split_1
I1031 06:40:15.224815 15629 net.cpp:356] accuracy -> accuracy
I1031 06:40:15.224820 15629 net.cpp:96] Setting up accuracy
I1031 06:40:15.224825 15629 net.cpp:103] Top shape: 1 1 1 4 (4)
I1031 06:40:15.224828 15629 net.cpp:172] accuracy does not need backward computation.
I1031 06:40:15.224831 15629 net.cpp:170] loss needs backward computation.
I1031 06:40:15.224835 15629 net.cpp:170] fc8_inadcl_fc8_inadcl_0_split needs backward computation.
I1031 06:40:15.224843 15629 net.cpp:170] fc8_inadcl needs backward computation.
I1031 06:40:15.224845 15629 net.cpp:172] drop7 does not need backward computation.
…
