…
I1031 02:04:53.348181  2923 net.cpp:275] The NetState phase (0) differed from the phase (1) specified by a rule in layer data
I1031 02:04:53.348202  2923 net.cpp:275] The NetState phase (0) differed from the phase (1) specified by a rule in layer accuracy
I1031 02:04:53.348356  2923 net.cpp:39] Initializing net from parameters: 
name: "InadclCaffeNet"
layers {
  top: "data"
  top: "label"
  name: "data"
  type: IMAGE_DATA
  image_data_param {
    source: "data/inadcl/train.txt"
    batch_size: 256
    new_height: 256
    new_width: 256
  }
  include {
    phase: TRAIN
  }
  transform_param {
    mirror: true
    crop_size: 227
    mean_file: "/homes/ad6813/data/controlpoint_mean_256-227.binaryproto"
  }
}
layers {
  bottom: "data"
  top: "conv1"
  name: "conv1"
  type: CONVOLUTION
  blobs_lr: 0
  blobs_lr: 0
  weight_decay: 0
  weight_decay: 0
  convolution_param {
    num_output: 96
    kernel_size: 11
    stride: 4
    weight_filler {
      type: "gaussian"
      std: 0.01
    }
    bias_filler {
      type: "constant"
      value: 0
    }
  }
}
layers {
  bottom: "conv1"
  top: "conv1"
  name: "relu1"
  type: RELU
}
layers {
  bottom: "conv1"
  top: "pool1"
  name: "pool1"
  type: POOLING
  pooling_param {
    pool: MAX
    kernel_size: 3
    stride: 2
  }
}
layers {
  bottom: "pool1"
  top: "norm1"
  name: "norm1"
  type: LRN
  lrn_param {
    local_size: 5
    alpha: 0.0001
    beta: 0.75
  }
}
layers {
  bottom: "norm1"
  top: "conv2"
  name: "conv2"
  type: CONVOLUTION
  blobs_lr: 0
  blobs_lr: 0
  weight_decay: 0
  weight_decay: 0
  convolution_param {
    num_output: 256
    pad: 2
    kernel_size: 5
    group: 2
    weight_filler {
      type: "gaussian"
      std: 0.01
    }
    bias_filler {
      type: "constant"
      value: 1
    }
  }
}
layers {
  bottom: "conv2"
  top: "conv2"
  name: "relu2"
  type: RELU
}
layers {
  bottom: "conv2"
  top: "pool2"
  name: "pool2"
  type: POOLING
  pooling_param {
    pool: MAX
    kernel_size: 3
    stride: 2
  }
}
layers {
  bottom: "pool2"
  top: "norm2"
  name: "norm2"
  type: LRN
  lrn_param {
    local_size: 5
    alpha: 0.0001
    beta: 0.75
  }
}
layers {
  bottom: "norm2"
  top: "conv3"
  name: "conv3"
  type: CONVOLUTION
  blobs_lr: 0
  blobs_lr: 0
  weight_decay: 0
  weight_decay: 0
  convolution_param {
    num_output: 384
    pad: 1
    kernel_size: 3
    weight_filler {
      type: "gaussian"
      std: 0.01
    }
    bias_filler {
      type: "constant"
      value: 0
    }
  }
}
layers {
  bottom: "conv3"
  top: "conv3"
  name: "relu3"
  type: RELU
}
layers {
  bottom: "conv3"
  top: "conv4"
  name: "conv4"
  type: CONVOLUTION
  blobs_lr: 0
  blobs_lr: 0
  weight_decay: 0
  weight_decay: 0
  convolution_param {
    num_output: 384
    pad: 1
    kernel_size: 3
    group: 2
    weight_filler {
      type: "gaussian"
      std: 0.01
    }
    bias_filler {
      type: "constant"
      value: 1
    }
  }
}
layers {
  bottom: "conv4"
  top: "conv4"
  name: "relu4"
  type: RELU
}
layers {
  bottom: "conv4"
  top: "conv5"
  name: "conv5"
  type: CONVOLUTION
  blobs_lr: 0
  blobs_lr: 0
  weight_decay: 0
  weight_decay: 0
  convolution_param {
    num_output: 256
    pad: 1
    kernel_size: 3
    group: 2
    weight_filler {
      type: "gaussian"
      std: 0.01
    }
    bias_filler {
      type: "constant"
      value: 1
    }
  }
}
layers {
  bottom: "conv5"
  top: "conv5"
  name: "relu5"
  type: RELU
}
layers {
  bottom: "conv5"
  top: "pool5"
  name: "pool5"
  type: POOLING
  pooling_param {
    pool: MAX
    kernel_size: 3
    stride: 2
  }
}
layers {
  bottom: "pool5"
  top: "fc6"
  name: "fc6"
  type: INNER_PRODUCT
  blobs_lr: 0
  blobs_lr: 0
  weight_decay: 0
  weight_decay: 0
  inner_product_param {
    num_output: 4096
    weight_filler {
      type: "gaussian"
      std: 0.005
    }
    bias_filler {
      type: "constant"
      value: 1
    }
  }
}
layers {
  bottom: "fc6"
  top: "fc6"
  name: "relu6"
  type: RELU
}
layers {
  bottom: "fc6"
  top: "fc6"
  name: "drop6"
  type: DROPOUT
  dropout_param {
    dropout_ratio: 0.5
  }
}
layers {
  bottom: "fc6"
  top: "fc7"
  name: "fc7"
  type: INNER_PRODUCT
  blobs_lr: 0
  blobs_lr: 0
  weight_decay: 0
  weight_decay: 0
  inner_product_param {
    num_output: 4096
    weight_filler {
      type: "gaussian"
      std: 0.005
    }
    bias_filler {
      type: "constant"
      value: 1
    }
  }
}
layers {
  bottom: "fc7"
  top: "fc7"
  name: "relu7"
  type: RELU
}
layers {
  bottom: "fc7"
  top: "fc7"
  name: "drop7"
  type: DROPOUT
  dropout_param {
    dropout_ratio: 0.5
  }
}
layers {
  bottom: "fc7"
  top: "fc8_inadcl"
  name: "fc8_inadcl"
  type: INNER_PRODUCT
  blobs_lr: 1
  blobs_lr: 2
  weight_decay: 1
  weight_decay: 0
  inner_product_param {
    num_output: 2
    weight_filler {
      type: "gaussian"
      std: 0.01
    }
    bias_filler {
      type: "constant"
      value: 0
    }
  }
}
layers {
  bottom: "fc8_inadcl"
  bottom: "label"
  name: "loss"
  type: SOFTMAX_REBALANCED_LOSS
}
state {
  phase: TRAIN
}
I1031 02:04:53.348498  2923 net.cpp:67] Creating Layer data
I1031 02:04:53.348526  2923 net.cpp:356] data -> data
I1031 02:04:53.348542  2923 net.cpp:356] data -> label
I1031 02:04:53.348570  2923 net.cpp:96] Setting up data
I1031 02:04:53.348578  2923 image_data_layer.cpp:30] Opening file data/inadcl/train.txt
I1031 02:04:53.351583  2923 image_data_layer.cpp:45] A total of 6746 images.
I1031 02:04:53.357892  2923 image_data_layer.cpp:73] output data size: 256,3,227,227
I1031 02:04:53.357920  2923 base_data_layer.cpp:36] Loading mean file from/homes/ad6813/data/controlpoint_mean_256-227.binaryproto
I1031 02:04:53.379065  2923 net.cpp:103] Top shape: 256 3 227 227 (39574272)
I1031 02:04:53.379094  2923 net.cpp:103] Top shape: 256 1 1 1 (256)
I1031 02:04:53.379112  2923 net.cpp:67] Creating Layer conv1
I1031 02:04:53.379115  2923 net.cpp:394] conv1 <- data
I1031 02:04:53.379128  2923 net.cpp:356] conv1 -> conv1
I1031 02:04:53.379142  2923 net.cpp:96] Setting up conv1
I1031 02:04:53.395205  2923 net.cpp:103] Top shape: 256 96 55 55 (74342400)
I1031 02:04:53.395246  2923 net.cpp:67] Creating Layer relu1
I1031 02:04:53.395252  2923 net.cpp:394] relu1 <- conv1
I1031 02:04:53.395258  2923 net.cpp:345] relu1 -> conv1 (in-place)
I1031 02:04:53.395267  2923 net.cpp:96] Setting up relu1
I1031 02:04:53.395275  2923 net.cpp:103] Top shape: 256 96 55 55 (74342400)
I1031 02:04:53.395282  2923 net.cpp:67] Creating Layer pool1
I1031 02:04:53.395285  2923 net.cpp:394] pool1 <- conv1
I1031 02:04:53.395290  2923 net.cpp:356] pool1 -> pool1
I1031 02:04:53.395297  2923 net.cpp:96] Setting up pool1
I1031 02:04:53.395313  2923 net.cpp:103] Top shape: 256 96 27 27 (17915904)
I1031 02:04:53.395325  2923 net.cpp:67] Creating Layer norm1
I1031 02:04:53.395330  2923 net.cpp:394] norm1 <- pool1
I1031 02:04:53.395335  2923 net.cpp:356] norm1 -> norm1
I1031 02:04:53.395341  2923 net.cpp:96] Setting up norm1
I1031 02:04:53.395347  2923 net.cpp:103] Top shape: 256 96 27 27 (17915904)
I1031 02:04:53.395357  2923 net.cpp:67] Creating Layer conv2
I1031 02:04:53.395362  2923 net.cpp:394] conv2 <- norm1
I1031 02:04:53.395366  2923 net.cpp:356] conv2 -> conv2
I1031 02:04:53.395372  2923 net.cpp:96] Setting up conv2
I1031 02:04:53.403188  2923 net.cpp:103] Top shape: 256 256 27 27 (47775744)
I1031 02:04:53.403208  2923 net.cpp:67] Creating Layer relu2
I1031 02:04:53.403211  2923 net.cpp:394] relu2 <- conv2
I1031 02:04:53.403216  2923 net.cpp:345] relu2 -> conv2 (in-place)
I1031 02:04:53.403221  2923 net.cpp:96] Setting up relu2
I1031 02:04:53.403226  2923 net.cpp:103] Top shape: 256 256 27 27 (47775744)
I1031 02:04:53.403231  2923 net.cpp:67] Creating Layer pool2
I1031 02:04:53.403242  2923 net.cpp:394] pool2 <- conv2
I1031 02:04:53.403249  2923 net.cpp:356] pool2 -> pool2
I1031 02:04:53.403254  2923 net.cpp:96] Setting up pool2
I1031 02:04:53.403259  2923 net.cpp:103] Top shape: 256 256 13 13 (11075584)
I1031 02:04:53.403265  2923 net.cpp:67] Creating Layer norm2
I1031 02:04:53.403269  2923 net.cpp:394] norm2 <- pool2
I1031 02:04:53.403275  2923 net.cpp:356] norm2 -> norm2
I1031 02:04:53.403280  2923 net.cpp:96] Setting up norm2
I1031 02:04:53.403282  2923 net.cpp:103] Top shape: 256 256 13 13 (11075584)
I1031 02:04:53.403290  2923 net.cpp:67] Creating Layer conv3
I1031 02:04:53.403292  2923 net.cpp:394] conv3 <- norm2
I1031 02:04:53.403296  2923 net.cpp:356] conv3 -> conv3
I1031 02:04:53.403302  2923 net.cpp:96] Setting up conv3
I1031 02:04:53.425241  2923 net.cpp:103] Top shape: 256 384 13 13 (16613376)
I1031 02:04:53.425271  2923 net.cpp:67] Creating Layer relu3
I1031 02:04:53.425276  2923 net.cpp:394] relu3 <- conv3
I1031 02:04:53.425283  2923 net.cpp:345] relu3 -> conv3 (in-place)
I1031 02:04:53.425289  2923 net.cpp:96] Setting up relu3
I1031 02:04:53.425295  2923 net.cpp:103] Top shape: 256 384 13 13 (16613376)
I1031 02:04:53.425302  2923 net.cpp:67] Creating Layer conv4
I1031 02:04:53.425304  2923 net.cpp:394] conv4 <- conv3
I1031 02:04:53.425310  2923 net.cpp:356] conv4 -> conv4
I1031 02:04:53.425317  2923 net.cpp:96] Setting up conv4
I1031 02:04:53.442162  2923 net.cpp:103] Top shape: 256 384 13 13 (16613376)
I1031 02:04:53.442185  2923 net.cpp:67] Creating Layer relu4
I1031 02:04:53.442190  2923 net.cpp:394] relu4 <- conv4
I1031 02:04:53.442195  2923 net.cpp:345] relu4 -> conv4 (in-place)
I1031 02:04:53.442203  2923 net.cpp:96] Setting up relu4
I1031 02:04:53.442208  2923 net.cpp:103] Top shape: 256 384 13 13 (16613376)
I1031 02:04:53.442214  2923 net.cpp:67] Creating Layer conv5
I1031 02:04:53.442216  2923 net.cpp:394] conv5 <- conv4
I1031 02:04:53.442221  2923 net.cpp:356] conv5 -> conv5
I1031 02:04:53.442227  2923 net.cpp:96] Setting up conv5
I1031 02:04:53.453402  2923 net.cpp:103] Top shape: 256 256 13 13 (11075584)
I1031 02:04:53.453423  2923 net.cpp:67] Creating Layer relu5
I1031 02:04:53.453428  2923 net.cpp:394] relu5 <- conv5
I1031 02:04:53.453431  2923 net.cpp:345] relu5 -> conv5 (in-place)
I1031 02:04:53.453436  2923 net.cpp:96] Setting up relu5
I1031 02:04:53.453443  2923 net.cpp:103] Top shape: 256 256 13 13 (11075584)
I1031 02:04:53.453449  2923 net.cpp:67] Creating Layer pool5
I1031 02:04:53.453451  2923 net.cpp:394] pool5 <- conv5
I1031 02:04:53.453456  2923 net.cpp:356] pool5 -> pool5
I1031 02:04:53.453462  2923 net.cpp:96] Setting up pool5
I1031 02:04:53.453469  2923 net.cpp:103] Top shape: 256 256 6 6 (2359296)
I1031 02:04:53.453477  2923 net.cpp:67] Creating Layer fc6
I1031 02:04:53.453480  2923 net.cpp:394] fc6 <- pool5
I1031 02:04:53.453487  2923 net.cpp:356] fc6 -> fc6
I1031 02:04:53.453492  2923 net.cpp:96] Setting up fc6
I1031 02:04:54.365635  2923 net.cpp:103] Top shape: 256 4096 1 1 (1048576)
I1031 02:04:54.365684  2923 net.cpp:67] Creating Layer relu6
I1031 02:04:54.365689  2923 net.cpp:394] relu6 <- fc6
I1031 02:04:54.365695  2923 net.cpp:345] relu6 -> fc6 (in-place)
I1031 02:04:54.365701  2923 net.cpp:96] Setting up relu6
I1031 02:04:54.365715  2923 net.cpp:103] Top shape: 256 4096 1 1 (1048576)
I1031 02:04:54.365721  2923 net.cpp:67] Creating Layer drop6
I1031 02:04:54.365725  2923 net.cpp:394] drop6 <- fc6
I1031 02:04:54.365730  2923 net.cpp:345] drop6 -> fc6 (in-place)
I1031 02:04:54.365733  2923 net.cpp:96] Setting up drop6
I1031 02:04:54.365741  2923 net.cpp:103] Top shape: 256 4096 1 1 (1048576)
I1031 02:04:54.365747  2923 net.cpp:67] Creating Layer fc7
I1031 02:04:54.365751  2923 net.cpp:394] fc7 <- fc6
I1031 02:04:54.365756  2923 net.cpp:356] fc7 -> fc7
I1031 02:04:54.365761  2923 net.cpp:96] Setting up fc7
I1031 02:04:54.756075  2923 net.cpp:103] Top shape: 256 4096 1 1 (1048576)
I1031 02:04:54.756125  2923 net.cpp:67] Creating Layer relu7
I1031 02:04:54.756131  2923 net.cpp:394] relu7 <- fc7
I1031 02:04:54.756147  2923 net.cpp:345] relu7 -> fc7 (in-place)
I1031 02:04:54.756155  2923 net.cpp:96] Setting up relu7
I1031 02:04:54.756168  2923 net.cpp:103] Top shape: 256 4096 1 1 (1048576)
I1031 02:04:54.756175  2923 net.cpp:67] Creating Layer drop7
I1031 02:04:54.756180  2923 net.cpp:394] drop7 <- fc7
I1031 02:04:54.756183  2923 net.cpp:345] drop7 -> fc7 (in-place)
I1031 02:04:54.756187  2923 net.cpp:96] Setting up drop7
I1031 02:04:54.756191  2923 net.cpp:103] Top shape: 256 4096 1 1 (1048576)
I1031 02:04:54.756197  2923 net.cpp:67] Creating Layer fc8_inadcl
I1031 02:04:54.756201  2923 net.cpp:394] fc8_inadcl <- fc7
I1031 02:04:54.756206  2923 net.cpp:356] fc8_inadcl -> fc8_inadcl
I1031 02:04:54.756212  2923 net.cpp:96] Setting up fc8_inadcl
I1031 02:04:54.756444  2923 net.cpp:103] Top shape: 256 2 1 1 (512)
I1031 02:04:54.756456  2923 net.cpp:67] Creating Layer loss
I1031 02:04:54.756463  2923 net.cpp:394] loss <- fc8_inadcl
I1031 02:04:54.756466  2923 net.cpp:394] loss <- label
I1031 02:04:54.756474  2923 net.cpp:356] loss -> (automatic)
I1031 02:04:54.756480  2923 net.cpp:96] Setting up loss
I1031 02:04:54.756492  2923 net.cpp:103] Top shape: 1 1 1 1 (1)
I1031 02:04:54.756497  2923 net.cpp:109]     with loss weight 1
I1031 02:04:54.756533  2923 net.cpp:170] loss needs backward computation.
I1031 02:04:54.756537  2923 net.cpp:170] fc8_inadcl needs backward computation.
I1031 02:04:54.756541  2923 net.cpp:172] drop7 does not need backward computation.
I1031 02:04:54.756543  2923 net.cpp:172] relu7 does not need backward computation.
I1031 02:04:54.756546  2923 net.cpp:172] fc7 does not need backward computation.
…
I1031 02:04:54.757256  2923 solver.cpp:151] Creating test net (#0) specified by net file: task/inadcl/train_val.prototxt
I1031 02:04:54.757293  2923 net.cpp:275] The NetState phase (1) differed from the phase (0) specified by a rule in layer data
I1031 02:04:54.757480  2923 net.cpp:39] Initializing net from parameters: 
name: "InadclCaffeNet"
layers {
  top: "data"
  top: "label"
  name: "data"
  type: IMAGE_DATA
  image_data_param {
    source: "data/inadcl/val.txt"
    batch_size: 122
    new_height: 256
    new_width: 256
  }
  include {
    phase: TEST
  }
  transform_param {
    mirror: true
    crop_size: 227
    mean_file: "/homes/ad6813/data/controlpoint_mean_256-227.binaryproto"
  }
}
layers {
  bottom: "data"
  top: "conv1"
  name: "conv1"
  type: CONVOLUTION
  blobs_lr: 0
  blobs_lr: 0
  weight_decay: 0
  weight_decay: 0
  convolution_param {
    num_output: 96
    kernel_size: 11
    stride: 4
    weight_filler {
      type: "gaussian"
      std: 0.01
    }
    bias_filler {
      type: "constant"
      value: 0
    }
  }
}
layers {
  bottom: "conv1"
  top: "conv1"
  name: "relu1"
  type: RELU
}
layers {
  bottom: "conv1"
  top: "pool1"
  name: "pool1"
  type: POOLING
  pooling_param {
    pool: MAX
    kernel_size: 3
    stride: 2
  }
}
layers {
  bottom: "pool1"
  top: "norm1"
  name: "norm1"
  type: LRN
  lrn_param {
    local_size: 5
    alpha: 0.0001
    beta: 0.75
  }
}
layers {
  bottom: "norm1"
  top: "conv2"
  name: "conv2"
  type: CONVOLUTION
  blobs_lr: 0
  blobs_lr: 0
  weight_decay: 0
  weight_decay: 0
  convolution_param {
    num_output: 256
    pad: 2
    kernel_size: 5
    group: 2
    weight_filler {
      type: "gaussian"
      std: 0.01
    }
    bias_filler {
      type: "constant"
      value: 1
    }
  }
}
layers {
  bottom: "conv2"
  top: "conv2"
  name: "relu2"
  type: RELU
}
layers {
  bottom: "conv2"
  top: "pool2"
  name: "pool2"
  type: POOLING
  pooling_param {
    pool: MAX
    kernel_size: 3
    stride: 2
  }
}
layers {
  bottom: "pool2"
  top: "norm2"
  name: "norm2"
  type: LRN
  lrn_param {
    local_size: 5
    alpha: 0.0001
    beta: 0.75
  }
}
layers {
  bottom: "norm2"
  top: "conv3"
  name: "conv3"
  type: CONVOLUTION
  blobs_lr: 0
  blobs_lr: 0
  weight_decay: 0
  weight_decay: 0
  convolution_param {
    num_output: 384
    pad: 1
    kernel_size: 3
    weight_filler {
      type: "gaussian"
      std: 0.01
    }
    bias_filler {
      type: "constant"
      value: 0
    }
  }
}
layers {
  bottom: "conv3"
  top: "conv3"
  name: "relu3"
  type: RELU
}
layers {
  bottom: "conv3"
  top: "conv4"
  name: "conv4"
  type: CONVOLUTION
  blobs_lr: 0
  blobs_lr: 0
  weight_decay: 0
  weight_decay: 0
  convolution_param {
    num_output: 384
    pad: 1
    kernel_size: 3
    group: 2
    weight_filler {
      type: "gaussian"
      std: 0.01
    }
    bias_filler {
      type: "constant"
      value: 1
    }
  }
}
layers {
  bottom: "conv4"
  top: "conv4"
  name: "relu4"
  type: RELU
}
layers {
  bottom: "conv4"
  top: "conv5"
  name: "conv5"
  type: CONVOLUTION
  blobs_lr: 0
  blobs_lr: 0
  weight_decay: 0
  weight_decay: 0
  convolution_param {
    num_output: 256
    pad: 1
    kernel_size: 3
    group: 2
    weight_filler {
      type: "gaussian"
      std: 0.01
    }
    bias_filler {
      type: "constant"
      value: 1
    }
  }
}
layers {
  bottom: "conv5"
  top: "conv5"
  name: "relu5"
  type: RELU
}
layers {
  bottom: "conv5"
  top: "pool5"
  name: "pool5"
  type: POOLING
  pooling_param {
    pool: MAX
    kernel_size: 3
    stride: 2
  }
}
layers {
  bottom: "pool5"
  top: "fc6"
  name: "fc6"
  type: INNER_PRODUCT
  blobs_lr: 0
  blobs_lr: 0
  weight_decay: 0
  weight_decay: 0
  inner_product_param {
    num_output: 4096
    weight_filler {
      type: "gaussian"
      std: 0.005
    }
    bias_filler {
      type: "constant"
      value: 1
    }
  }
}
layers {
  bottom: "fc6"
  top: "fc6"
  name: "relu6"
  type: RELU
}
layers {
  bottom: "fc6"
  top: "fc6"
  name: "drop6"
  type: DROPOUT
  dropout_param {
    dropout_ratio: 0.5
  }
}
layers {
  bottom: "fc6"
  top: "fc7"
  name: "fc7"
  type: INNER_PRODUCT
  blobs_lr: 0
  blobs_lr: 0
  weight_decay: 0
  weight_decay: 0
  inner_product_param {
    num_output: 4096
    weight_filler {
      type: "gaussian"
      std: 0.005
    }
    bias_filler {
      type: "constant"
      value: 1
    }
  }
}
layers {
  bottom: "fc7"
  top: "fc7"
  name: "relu7"
  type: RELU
}
layers {
  bottom: "fc7"
  top: "fc7"
  name: "drop7"
  type: DROPOUT
  dropout_param {
    dropout_ratio: 0.5
  }
}
layers {
  bottom: "fc7"
  top: "fc8_inadcl"
  name: "fc8_inadcl"
  type: INNER_PRODUCT
  blobs_lr: 1
  blobs_lr: 2
  weight_decay: 1
  weight_decay: 0
  inner_product_param {
    num_output: 2
    weight_filler {
      type: "gaussian"
      std: 0.01
    }
    bias_filler {
      type: "constant"
      value: 0
    }
  }
}
layers {
  bottom: "fc8_inadcl"
  bottom: "label"
  name: "loss"
  type: SOFTMAX_REBALANCED_LOSS
}
layers {
  bottom: "fc8_inadcl"
  bottom: "label"
  top: "accuracy"
  name: "accuracy"
  type: PER_CLASS_ACCURACY
  include {
    phase: TEST
  }
}
state {
  phase: TEST
}
I1031 02:04:54.757602  2923 net.cpp:67] Creating Layer data
I1031 02:04:54.757613  2923 net.cpp:356] data -> data
I1031 02:04:54.757622  2923 net.cpp:356] data -> label
I1031 02:04:54.757627  2923 net.cpp:96] Setting up data
I1031 02:04:54.757632  2923 image_data_layer.cpp:30] Opening file data/inadcl/val.txt
I1031 02:04:54.757701  2923 image_data_layer.cpp:45] A total of 122 images.
I1031 02:04:54.759467  2923 image_data_layer.cpp:73] output data size: 122,3,227,227
I1031 02:04:54.759481  2923 base_data_layer.cpp:36] Loading mean file from/homes/ad6813/data/controlpoint_mean_256-227.binaryproto
I1031 02:04:54.769686  2923 net.cpp:103] Top shape: 122 3 227 227 (18859614)
I1031 02:04:54.769713  2923 net.cpp:103] Top shape: 122 1 1 1 (122)
I1031 02:04:54.769724  2923 net.cpp:67] Creating Layer label_data_1_split
I1031 02:04:54.769729  2923 net.cpp:394] label_data_1_split <- label
I1031 02:04:54.769736  2923 net.cpp:356] label_data_1_split -> label_data_1_split_0
I1031 02:04:54.769745  2923 net.cpp:356] label_data_1_split -> label_data_1_split_1
I1031 02:04:54.769750  2923 net.cpp:96] Setting up label_data_1_split
I1031 02:04:54.769758  2923 net.cpp:103] Top shape: 122 1 1 1 (122)
I1031 02:04:54.769762  2923 net.cpp:103] Top shape: 122 1 1 1 (122)
I1031 02:04:54.769769  2923 net.cpp:67] Creating Layer conv1
I1031 02:04:54.769773  2923 net.cpp:394] conv1 <- data
I1031 02:04:54.769780  2923 net.cpp:356] conv1 -> conv1
I1031 02:04:54.769786  2923 net.cpp:96] Setting up conv1
I1031 02:04:54.770761  2923 net.cpp:103] Top shape: 122 96 55 55 (35428800)
I1031 02:04:54.770777  2923 net.cpp:67] Creating Layer relu1
I1031 02:04:54.770781  2923 net.cpp:394] relu1 <- conv1
I1031 02:04:54.770786  2923 net.cpp:345] relu1 -> conv1 (in-place)
I1031 02:04:54.770791  2923 net.cpp:96] Setting up relu1
I1031 02:04:54.770795  2923 net.cpp:103] Top shape: 122 96 55 55 (35428800)
I1031 02:04:54.770802  2923 net.cpp:67] Creating Layer pool1
I1031 02:04:54.770804  2923 net.cpp:394] pool1 <- conv1
I1031 02:04:54.770808  2923 net.cpp:356] pool1 -> pool1
I1031 02:04:54.770813  2923 net.cpp:96] Setting up pool1
I1031 02:04:54.770820  2923 net.cpp:103] Top shape: 122 96 27 27 (8538048)
I1031 02:04:54.770827  2923 net.cpp:67] Creating Layer norm1
I1031 02:04:54.770829  2923 net.cpp:394] norm1 <- pool1
I1031 02:04:54.770833  2923 net.cpp:356] norm1 -> norm1
I1031 02:04:54.770838  2923 net.cpp:96] Setting up norm1
I1031 02:04:54.770841  2923 net.cpp:103] Top shape: 122 96 27 27 (8538048)
I1031 02:04:54.770848  2923 net.cpp:67] Creating Layer conv2
I1031 02:04:54.770850  2923 net.cpp:394] conv2 <- norm1
I1031 02:04:54.770854  2923 net.cpp:356] conv2 -> conv2
I1031 02:04:54.770859  2923 net.cpp:96] Setting up conv2
I1031 02:04:54.778638  2923 net.cpp:103] Top shape: 122 256 27 27 (22768128)
I1031 02:04:54.778656  2923 net.cpp:67] Creating Layer relu2
I1031 02:04:54.778661  2923 net.cpp:394] relu2 <- conv2
I1031 02:04:54.778666  2923 net.cpp:345] relu2 -> conv2 (in-place)
I1031 02:04:54.778671  2923 net.cpp:96] Setting up relu2
I1031 02:04:54.778676  2923 net.cpp:103] Top shape: 122 256 27 27 (22768128)
I1031 02:04:54.778682  2923 net.cpp:67] Creating Layer pool2
I1031 02:04:54.778686  2923 net.cpp:394] pool2 <- conv2
I1031 02:04:54.778691  2923 net.cpp:356] pool2 -> pool2
I1031 02:04:54.778697  2923 net.cpp:96] Setting up pool2
I1031 02:04:54.778703  2923 net.cpp:103] Top shape: 122 256 13 13 (5278208)
I1031 02:04:54.778708  2923 net.cpp:67] Creating Layer norm2
I1031 02:04:54.778712  2923 net.cpp:394] norm2 <- pool2
I1031 02:04:54.778717  2923 net.cpp:356] norm2 -> norm2
I1031 02:04:54.778722  2923 net.cpp:96] Setting up norm2
I1031 02:04:54.778731  2923 net.cpp:103] Top shape: 122 256 13 13 (5278208)
I1031 02:04:54.778738  2923 net.cpp:67] Creating Layer conv3
I1031 02:04:54.778741  2923 net.cpp:394] conv3 <- norm2
I1031 02:04:54.778748  2923 net.cpp:356] conv3 -> conv3
I1031 02:04:54.778753  2923 net.cpp:96] Setting up conv3
I1031 02:04:54.800618  2923 net.cpp:103] Top shape: 122 384 13 13 (7917312)
I1031 02:04:54.800652  2923 net.cpp:67] Creating Layer relu3
I1031 02:04:54.800657  2923 net.cpp:394] relu3 <- conv3
I1031 02:04:54.800662  2923 net.cpp:345] relu3 -> conv3 (in-place)
I1031 02:04:54.800669  2923 net.cpp:96] Setting up relu3
I1031 02:04:54.800674  2923 net.cpp:103] Top shape: 122 384 13 13 (7917312)
I1031 02:04:54.800683  2923 net.cpp:67] Creating Layer conv4
I1031 02:04:54.800685  2923 net.cpp:394] conv4 <- conv3
I1031 02:04:54.800691  2923 net.cpp:356] conv4 -> conv4
I1031 02:04:54.800698  2923 net.cpp:96] Setting up conv4
I1031 02:04:54.817307  2923 net.cpp:103] Top shape: 122 384 13 13 (7917312)
I1031 02:04:54.817335  2923 net.cpp:67] Creating Layer relu4
I1031 02:04:54.817339  2923 net.cpp:394] relu4 <- conv4
I1031 02:04:54.817345  2923 net.cpp:345] relu4 -> conv4 (in-place)
I1031 02:04:54.817351  2923 net.cpp:96] Setting up relu4
I1031 02:04:54.817358  2923 net.cpp:103] Top shape: 122 384 13 13 (7917312)
I1031 02:04:54.817364  2923 net.cpp:67] Creating Layer conv5
I1031 02:04:54.817368  2923 net.cpp:394] conv5 <- conv4
I1031 02:04:54.817373  2923 net.cpp:356] conv5 -> conv5
I1031 02:04:54.817378  2923 net.cpp:96] Setting up conv5
I1031 02:04:54.828619  2923 net.cpp:103] Top shape: 122 256 13 13 (5278208)
I1031 02:04:54.828642  2923 net.cpp:67] Creating Layer relu5
I1031 02:04:54.828647  2923 net.cpp:394] relu5 <- conv5
I1031 02:04:54.828651  2923 net.cpp:345] relu5 -> conv5 (in-place)
I1031 02:04:54.828656  2923 net.cpp:96] Setting up relu5
I1031 02:04:54.828662  2923 net.cpp:103] Top shape: 122 256 13 13 (5278208)
I1031 02:04:54.828670  2923 net.cpp:67] Creating Layer pool5
I1031 02:04:54.828672  2923 net.cpp:394] pool5 <- conv5
I1031 02:04:54.828678  2923 net.cpp:356] pool5 -> pool5
I1031 02:04:54.828685  2923 net.cpp:96] Setting up pool5
I1031 02:04:54.828691  2923 net.cpp:103] Top shape: 122 256 6 6 (1124352)
I1031 02:04:54.828697  2923 net.cpp:67] Creating Layer fc6
I1031 02:04:54.828701  2923 net.cpp:394] fc6 <- pool5
I1031 02:04:54.828707  2923 net.cpp:356] fc6 -> fc6
I1031 02:04:54.828712  2923 net.cpp:96] Setting up fc6
I1031 02:04:55.747547  2923 net.cpp:103] Top shape: 122 4096 1 1 (499712)
I1031 02:04:55.747583  2923 net.cpp:67] Creating Layer relu6
I1031 02:04:55.747588  2923 net.cpp:394] relu6 <- fc6
I1031 02:04:55.747596  2923 net.cpp:345] relu6 -> fc6 (in-place)
I1031 02:04:55.747603  2923 net.cpp:96] Setting up relu6
I1031 02:04:55.747617  2923 net.cpp:103] Top shape: 122 4096 1 1 (499712)
I1031 02:04:55.747627  2923 net.cpp:67] Creating Layer drop6
I1031 02:04:55.747630  2923 net.cpp:394] drop6 <- fc6
I1031 02:04:55.747637  2923 net.cpp:345] drop6 -> fc6 (in-place)
I1031 02:04:55.747642  2923 net.cpp:96] Setting up drop6
I1031 02:04:55.747645  2923 net.cpp:103] Top shape: 122 4096 1 1 (499712)
I1031 02:04:55.747652  2923 net.cpp:67] Creating Layer fc7
I1031 02:04:55.747656  2923 net.cpp:394] fc7 <- fc6
I1031 02:04:55.747661  2923 net.cpp:356] fc7 -> fc7
I1031 02:04:55.747668  2923 net.cpp:96] Setting up fc7
I1031 02:04:56.137441  2923 net.cpp:103] Top shape: 122 4096 1 1 (499712)
I1031 02:04:56.137487  2923 net.cpp:67] Creating Layer relu7
I1031 02:04:56.137493  2923 net.cpp:394] relu7 <- fc7
I1031 02:04:56.137501  2923 net.cpp:345] relu7 -> fc7 (in-place)
I1031 02:04:56.137508  2923 net.cpp:96] Setting up relu7
I1031 02:04:56.137521  2923 net.cpp:103] Top shape: 122 4096 1 1 (499712)
I1031 02:04:56.137527  2923 net.cpp:67] Creating Layer drop7
I1031 02:04:56.137531  2923 net.cpp:394] drop7 <- fc7
I1031 02:04:56.137534  2923 net.cpp:345] drop7 -> fc7 (in-place)
I1031 02:04:56.137538  2923 net.cpp:96] Setting up drop7
I1031 02:04:56.137542  2923 net.cpp:103] Top shape: 122 4096 1 1 (499712)
I1031 02:04:56.137547  2923 net.cpp:67] Creating Layer fc8_inadcl
I1031 02:04:56.137559  2923 net.cpp:394] fc8_inadcl <- fc7
I1031 02:04:56.137568  2923 net.cpp:356] fc8_inadcl -> fc8_inadcl
I1031 02:04:56.137578  2923 net.cpp:96] Setting up fc8_inadcl
I1031 02:04:56.137804  2923 net.cpp:103] Top shape: 122 2 1 1 (244)
I1031 02:04:56.137814  2923 net.cpp:67] Creating Layer fc8_inadcl_fc8_inadcl_0_split
I1031 02:04:56.137817  2923 net.cpp:394] fc8_inadcl_fc8_inadcl_0_split <- fc8_inadcl
I1031 02:04:56.137821  2923 net.cpp:356] fc8_inadcl_fc8_inadcl_0_split -> fc8_inadcl_fc8_inadcl_0_split_0
I1031 02:04:56.137827  2923 net.cpp:356] fc8_inadcl_fc8_inadcl_0_split -> fc8_inadcl_fc8_inadcl_0_split_1
I1031 02:04:56.137832  2923 net.cpp:96] Setting up fc8_inadcl_fc8_inadcl_0_split
I1031 02:04:56.137836  2923 net.cpp:103] Top shape: 122 2 1 1 (244)
I1031 02:04:56.137840  2923 net.cpp:103] Top shape: 122 2 1 1 (244)
I1031 02:04:56.137845  2923 net.cpp:67] Creating Layer loss
I1031 02:04:56.137850  2923 net.cpp:394] loss <- fc8_inadcl_fc8_inadcl_0_split_0
I1031 02:04:56.137852  2923 net.cpp:394] loss <- label_data_1_split_0
I1031 02:04:56.137858  2923 net.cpp:356] loss -> (automatic)
I1031 02:04:56.137862  2923 net.cpp:96] Setting up loss
I1031 02:04:56.137873  2923 net.cpp:103] Top shape: 1 1 1 1 (1)
I1031 02:04:56.137878  2923 net.cpp:109]     with loss weight 1
I1031 02:04:56.137894  2923 net.cpp:67] Creating Layer accuracy
I1031 02:04:56.137897  2923 net.cpp:394] accuracy <- fc8_inadcl_fc8_inadcl_0_split_1
I1031 02:04:56.137902  2923 net.cpp:394] accuracy <- label_data_1_split_1
I1031 02:04:56.137907  2923 net.cpp:356] accuracy -> accuracy
I1031 02:04:56.137912  2923 net.cpp:96] Setting up accuracy
I1031 02:04:56.137925  2923 net.cpp:103] Top shape: 1 1 1 4 (4)
I1031 02:04:56.137930  2923 net.cpp:172] accuracy does not need backward computation.
I1031 02:04:56.137933  2923 net.cpp:170] loss needs backward computation.
I1031 02:04:56.137936  2923 net.cpp:170] fc8_inadcl_fc8_inadcl_0_split needs backward computation.
I1031 02:04:56.137939  2923 net.cpp:170] fc8_inadcl needs backward computation.
I1031 02:04:56.137941  2923 net.cpp:172] drop7 does not need backward computation.
…
