…
I1031 03:20:16.335463 12597 net.cpp:275] The NetState phase (0) differed from the phase (1) specified by a rule in layer data
I1031 03:20:16.335499 12597 net.cpp:275] The NetState phase (0) differed from the phase (1) specified by a rule in layer accuracy
I1031 03:20:16.335674 12597 net.cpp:39] Initializing net from parameters: 
name: "InadclCaffeNet"
layers {
  top: "data"
  top: "label"
  name: "data"
  type: IMAGE_DATA
  image_data_param {
    source: "data/inadcl/train.txt"
    batch_size: 256
    new_height: 256
    new_width: 256
  }
  include {
    phase: TRAIN
  }
  transform_param {
    mirror: true
    crop_size: 227
    mean_file: "/homes/ad6813/data/controlpoint_mean_256-227.binaryproto"
  }
}
layers {
  bottom: "data"
  top: "conv1"
  name: "conv1"
  type: CONVOLUTION
  blobs_lr: 0
  blobs_lr: 0
  weight_decay: 0
  weight_decay: 0
  convolution_param {
    num_output: 96
    kernel_size: 11
    stride: 4
    weight_filler {
      type: "gaussian"
      std: 0.01
    }
    bias_filler {
      type: "constant"
      value: 0
    }
  }
}
layers {
  bottom: "conv1"
  top: "conv1"
  name: "relu1"
  type: RELU
}
layers {
  bottom: "conv1"
  top: "pool1"
  name: "pool1"
  type: POOLING
  pooling_param {
    pool: MAX
    kernel_size: 3
    stride: 2
  }
}
layers {
  bottom: "pool1"
  top: "norm1"
  name: "norm1"
  type: LRN
  lrn_param {
    local_size: 5
    alpha: 0.0001
    beta: 0.75
  }
}
layers {
  bottom: "norm1"
  top: "conv2"
  name: "conv2"
  type: CONVOLUTION
  blobs_lr: 0
  blobs_lr: 0
  weight_decay: 0
  weight_decay: 0
  convolution_param {
    num_output: 256
    pad: 2
    kernel_size: 5
    group: 2
    weight_filler {
      type: "gaussian"
      std: 0.01
    }
    bias_filler {
      type: "constant"
      value: 1
    }
  }
}
layers {
  bottom: "conv2"
  top: "conv2"
  name: "relu2"
  type: RELU
}
layers {
  bottom: "conv2"
  top: "pool2"
  name: "pool2"
  type: POOLING
  pooling_param {
    pool: MAX
    kernel_size: 3
    stride: 2
  }
}
layers {
  bottom: "pool2"
  top: "norm2"
  name: "norm2"
  type: LRN
  lrn_param {
    local_size: 5
    alpha: 0.0001
    beta: 0.75
  }
}
layers {
  bottom: "norm2"
  top: "conv3"
  name: "conv3"
  type: CONVOLUTION
  blobs_lr: 0
  blobs_lr: 0
  weight_decay: 0
  weight_decay: 0
  convolution_param {
    num_output: 384
    pad: 1
    kernel_size: 3
    weight_filler {
      type: "gaussian"
      std: 0.01
    }
    bias_filler {
      type: "constant"
      value: 0
    }
  }
}
layers {
  bottom: "conv3"
  top: "conv3"
  name: "relu3"
  type: RELU
}
layers {
  bottom: "conv3"
  top: "conv4"
  name: "conv4"
  type: CONVOLUTION
  blobs_lr: 0
  blobs_lr: 0
  weight_decay: 0
  weight_decay: 0
  convolution_param {
    num_output: 384
    pad: 1
    kernel_size: 3
    group: 2
    weight_filler {
      type: "gaussian"
      std: 0.01
    }
    bias_filler {
      type: "constant"
      value: 1
    }
  }
}
layers {
  bottom: "conv4"
  top: "conv4"
  name: "relu4"
  type: RELU
}
layers {
  bottom: "conv4"
  top: "conv5"
  name: "conv5"
  type: CONVOLUTION
  blobs_lr: 0
  blobs_lr: 0
  weight_decay: 0
  weight_decay: 0
  convolution_param {
    num_output: 256
    pad: 1
    kernel_size: 3
    group: 2
    weight_filler {
      type: "gaussian"
      std: 0.01
    }
    bias_filler {
      type: "constant"
      value: 1
    }
  }
}
layers {
  bottom: "conv5"
  top: "conv5"
  name: "relu5"
  type: RELU
}
layers {
  bottom: "conv5"
  top: "pool5"
  name: "pool5"
  type: POOLING
  pooling_param {
    pool: MAX
    kernel_size: 3
    stride: 2
  }
}
layers {
  bottom: "pool5"
  top: "fc6"
  name: "fc6"
  type: INNER_PRODUCT
  blobs_lr: 0
  blobs_lr: 0
  weight_decay: 0
  weight_decay: 0
  inner_product_param {
    num_output: 4096
    weight_filler {
      type: "gaussian"
      std: 0.005
    }
    bias_filler {
      type: "constant"
      value: 1
    }
  }
}
layers {
  bottom: "fc6"
  top: "fc6"
  name: "relu6"
  type: RELU
}
layers {
  bottom: "fc6"
  top: "fc6"
  name: "drop6"
  type: DROPOUT
  dropout_param {
    dropout_ratio: 0.5
  }
}
layers {
  bottom: "fc6"
  top: "fc7"
  name: "fc7"
  type: INNER_PRODUCT
  blobs_lr: 0
  blobs_lr: 0
  weight_decay: 0
  weight_decay: 0
  inner_product_param {
    num_output: 4096
    weight_filler {
      type: "gaussian"
      std: 0.005
    }
    bias_filler {
      type: "constant"
      value: 1
    }
  }
}
layers {
  bottom: "fc7"
  top: "fc7"
  name: "relu7"
  type: RELU
}
layers {
  bottom: "fc7"
  top: "fc7"
  name: "drop7"
  type: DROPOUT
  dropout_param {
    dropout_ratio: 0.5
  }
}
layers {
  bottom: "fc7"
  top: "fc8_inadcl"
  name: "fc8_inadcl"
  type: INNER_PRODUCT
  blobs_lr: 1
  blobs_lr: 2
  weight_decay: 1
  weight_decay: 0
  inner_product_param {
    num_output: 2
    weight_filler {
      type: "gaussian"
      std: 0.01
    }
    bias_filler {
      type: "constant"
      value: 0
    }
  }
}
layers {
  bottom: "fc8_inadcl"
  bottom: "label"
  name: "loss"
  type: SOFTMAX_REBALANCED_LOSS
}
state {
  phase: TRAIN
}
I1031 03:20:16.335870 12597 net.cpp:67] Creating Layer data
I1031 03:20:16.335885 12597 net.cpp:356] data -> data
I1031 03:20:16.335922 12597 net.cpp:356] data -> label
I1031 03:20:16.335942 12597 net.cpp:96] Setting up data
I1031 03:20:16.335952 12597 image_data_layer.cpp:30] Opening file data/inadcl/train.txt
I1031 03:20:16.339128 12597 image_data_layer.cpp:45] A total of 6746 images.
I1031 03:20:16.345316 12597 image_data_layer.cpp:73] output data size: 256,3,227,227
I1031 03:20:16.345350 12597 base_data_layer.cpp:36] Loading mean file from/homes/ad6813/data/controlpoint_mean_256-227.binaryproto
I1031 03:20:16.364683 12597 net.cpp:103] Top shape: 256 3 227 227 (39574272)
I1031 03:20:16.364713 12597 net.cpp:103] Top shape: 256 1 1 1 (256)
I1031 03:20:16.364734 12597 net.cpp:67] Creating Layer conv1
I1031 03:20:16.364742 12597 net.cpp:394] conv1 <- data
I1031 03:20:16.364760 12597 net.cpp:356] conv1 -> conv1
I1031 03:20:16.364776 12597 net.cpp:96] Setting up conv1
I1031 03:20:16.380513 12597 net.cpp:103] Top shape: 256 96 55 55 (74342400)
I1031 03:20:16.380564 12597 net.cpp:67] Creating Layer relu1
I1031 03:20:16.380573 12597 net.cpp:394] relu1 <- conv1
I1031 03:20:16.380583 12597 net.cpp:345] relu1 -> conv1 (in-place)
I1031 03:20:16.380596 12597 net.cpp:96] Setting up relu1
I1031 03:20:16.380610 12597 net.cpp:103] Top shape: 256 96 55 55 (74342400)
I1031 03:20:16.380622 12597 net.cpp:67] Creating Layer pool1
I1031 03:20:16.380630 12597 net.cpp:394] pool1 <- conv1
I1031 03:20:16.380641 12597 net.cpp:356] pool1 -> pool1
I1031 03:20:16.380655 12597 net.cpp:96] Setting up pool1
I1031 03:20:16.380679 12597 net.cpp:103] Top shape: 256 96 27 27 (17915904)
I1031 03:20:16.380704 12597 net.cpp:67] Creating Layer norm1
I1031 03:20:16.380712 12597 net.cpp:394] norm1 <- pool1
I1031 03:20:16.380722 12597 net.cpp:356] norm1 -> norm1
I1031 03:20:16.380731 12597 net.cpp:96] Setting up norm1
I1031 03:20:16.380749 12597 net.cpp:103] Top shape: 256 96 27 27 (17915904)
I1031 03:20:16.380765 12597 net.cpp:67] Creating Layer conv2
I1031 03:20:16.380774 12597 net.cpp:394] conv2 <- norm1
I1031 03:20:16.380785 12597 net.cpp:356] conv2 -> conv2
I1031 03:20:16.380802 12597 net.cpp:96] Setting up conv2
I1031 03:20:16.388614 12597 net.cpp:103] Top shape: 256 256 27 27 (47775744)
I1031 03:20:16.388639 12597 net.cpp:67] Creating Layer relu2
I1031 03:20:16.388649 12597 net.cpp:394] relu2 <- conv2
I1031 03:20:16.388659 12597 net.cpp:345] relu2 -> conv2 (in-place)
I1031 03:20:16.388669 12597 net.cpp:96] Setting up relu2
I1031 03:20:16.388677 12597 net.cpp:103] Top shape: 256 256 27 27 (47775744)
I1031 03:20:16.388687 12597 net.cpp:67] Creating Layer pool2
I1031 03:20:16.388701 12597 net.cpp:394] pool2 <- conv2
I1031 03:20:16.388710 12597 net.cpp:356] pool2 -> pool2
I1031 03:20:16.388720 12597 net.cpp:96] Setting up pool2
I1031 03:20:16.388737 12597 net.cpp:103] Top shape: 256 256 13 13 (11075584)
I1031 03:20:16.388753 12597 net.cpp:67] Creating Layer norm2
I1031 03:20:16.388761 12597 net.cpp:394] norm2 <- pool2
I1031 03:20:16.388772 12597 net.cpp:356] norm2 -> norm2
I1031 03:20:16.388788 12597 net.cpp:96] Setting up norm2
I1031 03:20:16.388797 12597 net.cpp:103] Top shape: 256 256 13 13 (11075584)
I1031 03:20:16.388808 12597 net.cpp:67] Creating Layer conv3
I1031 03:20:16.388818 12597 net.cpp:394] conv3 <- norm2
I1031 03:20:16.388829 12597 net.cpp:356] conv3 -> conv3
I1031 03:20:16.388850 12597 net.cpp:96] Setting up conv3
I1031 03:20:16.411006 12597 net.cpp:103] Top shape: 256 384 13 13 (16613376)
I1031 03:20:16.411041 12597 net.cpp:67] Creating Layer relu3
I1031 03:20:16.411047 12597 net.cpp:394] relu3 <- conv3
I1031 03:20:16.411056 12597 net.cpp:345] relu3 -> conv3 (in-place)
I1031 03:20:16.411065 12597 net.cpp:96] Setting up relu3
I1031 03:20:16.411077 12597 net.cpp:103] Top shape: 256 384 13 13 (16613376)
I1031 03:20:16.411090 12597 net.cpp:67] Creating Layer conv4
I1031 03:20:16.411098 12597 net.cpp:394] conv4 <- conv3
I1031 03:20:16.411108 12597 net.cpp:356] conv4 -> conv4
I1031 03:20:16.411118 12597 net.cpp:96] Setting up conv4
I1031 03:20:16.427929 12597 net.cpp:103] Top shape: 256 384 13 13 (16613376)
I1031 03:20:16.427958 12597 net.cpp:67] Creating Layer relu4
I1031 03:20:16.427968 12597 net.cpp:394] relu4 <- conv4
I1031 03:20:16.427978 12597 net.cpp:345] relu4 -> conv4 (in-place)
I1031 03:20:16.427989 12597 net.cpp:96] Setting up relu4
I1031 03:20:16.427999 12597 net.cpp:103] Top shape: 256 384 13 13 (16613376)
I1031 03:20:16.428015 12597 net.cpp:67] Creating Layer conv5
I1031 03:20:16.428025 12597 net.cpp:394] conv5 <- conv4
I1031 03:20:16.428038 12597 net.cpp:356] conv5 -> conv5
I1031 03:20:16.428051 12597 net.cpp:96] Setting up conv5
I1031 03:20:16.439180 12597 net.cpp:103] Top shape: 256 256 13 13 (11075584)
I1031 03:20:16.439206 12597 net.cpp:67] Creating Layer relu5
I1031 03:20:16.439213 12597 net.cpp:394] relu5 <- conv5
I1031 03:20:16.439224 12597 net.cpp:345] relu5 -> conv5 (in-place)
I1031 03:20:16.439234 12597 net.cpp:96] Setting up relu5
I1031 03:20:16.439244 12597 net.cpp:103] Top shape: 256 256 13 13 (11075584)
I1031 03:20:16.439260 12597 net.cpp:67] Creating Layer pool5
I1031 03:20:16.439268 12597 net.cpp:394] pool5 <- conv5
I1031 03:20:16.439277 12597 net.cpp:356] pool5 -> pool5
I1031 03:20:16.439287 12597 net.cpp:96] Setting up pool5
I1031 03:20:16.439309 12597 net.cpp:103] Top shape: 256 256 6 6 (2359296)
I1031 03:20:16.439327 12597 net.cpp:67] Creating Layer fc6
I1031 03:20:16.439333 12597 net.cpp:394] fc6 <- pool5
I1031 03:20:16.439345 12597 net.cpp:356] fc6 -> fc6
I1031 03:20:16.439364 12597 net.cpp:96] Setting up fc6
I1031 03:20:17.351508 12597 net.cpp:103] Top shape: 256 4096 1 1 (1048576)
I1031 03:20:17.351550 12597 net.cpp:67] Creating Layer relu6
I1031 03:20:17.351569 12597 net.cpp:394] relu6 <- fc6
I1031 03:20:17.351580 12597 net.cpp:345] relu6 -> fc6 (in-place)
I1031 03:20:17.351591 12597 net.cpp:96] Setting up relu6
I1031 03:20:17.351610 12597 net.cpp:103] Top shape: 256 4096 1 1 (1048576)
I1031 03:20:17.351624 12597 net.cpp:67] Creating Layer drop6
I1031 03:20:17.351634 12597 net.cpp:394] drop6 <- fc6
I1031 03:20:17.351644 12597 net.cpp:345] drop6 -> fc6 (in-place)
I1031 03:20:17.351652 12597 net.cpp:96] Setting up drop6
I1031 03:20:17.351667 12597 net.cpp:103] Top shape: 256 4096 1 1 (1048576)
I1031 03:20:17.351680 12597 net.cpp:67] Creating Layer fc7
I1031 03:20:17.351690 12597 net.cpp:394] fc7 <- fc6
I1031 03:20:17.351701 12597 net.cpp:356] fc7 -> fc7
I1031 03:20:17.351722 12597 net.cpp:96] Setting up fc7
I1031 03:20:17.742100 12597 net.cpp:103] Top shape: 256 4096 1 1 (1048576)
I1031 03:20:17.742138 12597 net.cpp:67] Creating Layer relu7
I1031 03:20:17.742158 12597 net.cpp:394] relu7 <- fc7
I1031 03:20:17.742179 12597 net.cpp:345] relu7 -> fc7 (in-place)
I1031 03:20:17.742190 12597 net.cpp:96] Setting up relu7
I1031 03:20:17.742208 12597 net.cpp:103] Top shape: 256 4096 1 1 (1048576)
I1031 03:20:17.742221 12597 net.cpp:67] Creating Layer drop7
I1031 03:20:17.742230 12597 net.cpp:394] drop7 <- fc7
I1031 03:20:17.742243 12597 net.cpp:345] drop7 -> fc7 (in-place)
I1031 03:20:17.742254 12597 net.cpp:96] Setting up drop7
I1031 03:20:17.742264 12597 net.cpp:103] Top shape: 256 4096 1 1 (1048576)
I1031 03:20:17.742274 12597 net.cpp:67] Creating Layer fc8_inadcl
I1031 03:20:17.742283 12597 net.cpp:394] fc8_inadcl <- fc7
I1031 03:20:17.742306 12597 net.cpp:356] fc8_inadcl -> fc8_inadcl
I1031 03:20:17.742317 12597 net.cpp:96] Setting up fc8_inadcl
I1031 03:20:17.742545 12597 net.cpp:103] Top shape: 256 2 1 1 (512)
I1031 03:20:17.742563 12597 net.cpp:67] Creating Layer loss
I1031 03:20:17.742571 12597 net.cpp:394] loss <- fc8_inadcl
I1031 03:20:17.742579 12597 net.cpp:394] loss <- label
I1031 03:20:17.742588 12597 net.cpp:356] loss -> (automatic)
I1031 03:20:17.742595 12597 net.cpp:96] Setting up loss
I1031 03:20:17.742614 12597 net.cpp:103] Top shape: 1 1 1 1 (1)
I1031 03:20:17.742622 12597 net.cpp:109]     with loss weight 1
I1031 03:20:17.742658 12597 net.cpp:170] loss needs backward computation.
I1031 03:20:17.742666 12597 net.cpp:170] fc8_inadcl needs backward computation.
I1031 03:20:17.742671 12597 net.cpp:172] drop7 does not need backward computation.
I1031 03:20:17.742676 12597 net.cpp:172] relu7 does not need backward computation.
I1031 03:20:17.742682 12597 net.cpp:172] fc7 does not need backward computation.
…
I1031 03:20:17.743497 12597 solver.cpp:151] Creating test net (#0) specified by net file: task/inadcl/train_val.prototxt
I1031 03:20:17.743543 12597 net.cpp:275] The NetState phase (1) differed from the phase (0) specified by a rule in layer data
I1031 03:20:17.743722 12597 net.cpp:39] Initializing net from parameters: 
name: "InadclCaffeNet"
layers {
  top: "data"
  top: "label"
  name: "data"
  type: IMAGE_DATA
  image_data_param {
    source: "data/inadcl/val.txt"
    batch_size: 122
    new_height: 256
    new_width: 256
  }
  include {
    phase: TEST
  }
  transform_param {
    mirror: true
    crop_size: 227
    mean_file: "/homes/ad6813/data/controlpoint_mean_256-227.binaryproto"
  }
}
layers {
  bottom: "data"
  top: "conv1"
  name: "conv1"
  type: CONVOLUTION
  blobs_lr: 0
  blobs_lr: 0
  weight_decay: 0
  weight_decay: 0
  convolution_param {
    num_output: 96
    kernel_size: 11
    stride: 4
    weight_filler {
      type: "gaussian"
      std: 0.01
    }
    bias_filler {
      type: "constant"
      value: 0
    }
  }
}
layers {
  bottom: "conv1"
  top: "conv1"
  name: "relu1"
  type: RELU
}
layers {
  bottom: "conv1"
  top: "pool1"
  name: "pool1"
  type: POOLING
  pooling_param {
    pool: MAX
    kernel_size: 3
    stride: 2
  }
}
layers {
  bottom: "pool1"
  top: "norm1"
  name: "norm1"
  type: LRN
  lrn_param {
    local_size: 5
    alpha: 0.0001
    beta: 0.75
  }
}
layers {
  bottom: "norm1"
  top: "conv2"
  name: "conv2"
  type: CONVOLUTION
  blobs_lr: 0
  blobs_lr: 0
  weight_decay: 0
  weight_decay: 0
  convolution_param {
    num_output: 256
    pad: 2
    kernel_size: 5
    group: 2
    weight_filler {
      type: "gaussian"
      std: 0.01
    }
    bias_filler {
      type: "constant"
      value: 1
    }
  }
}
layers {
  bottom: "conv2"
  top: "conv2"
  name: "relu2"
  type: RELU
}
layers {
  bottom: "conv2"
  top: "pool2"
  name: "pool2"
  type: POOLING
  pooling_param {
    pool: MAX
    kernel_size: 3
    stride: 2
  }
}
layers {
  bottom: "pool2"
  top: "norm2"
  name: "norm2"
  type: LRN
  lrn_param {
    local_size: 5
    alpha: 0.0001
    beta: 0.75
  }
}
layers {
  bottom: "norm2"
  top: "conv3"
  name: "conv3"
  type: CONVOLUTION
  blobs_lr: 0
  blobs_lr: 0
  weight_decay: 0
  weight_decay: 0
  convolution_param {
    num_output: 384
    pad: 1
    kernel_size: 3
    weight_filler {
      type: "gaussian"
      std: 0.01
    }
    bias_filler {
      type: "constant"
      value: 0
    }
  }
}
layers {
  bottom: "conv3"
  top: "conv3"
  name: "relu3"
  type: RELU
}
layers {
  bottom: "conv3"
  top: "conv4"
  name: "conv4"
  type: CONVOLUTION
  blobs_lr: 0
  blobs_lr: 0
  weight_decay: 0
  weight_decay: 0
  convolution_param {
    num_output: 384
    pad: 1
    kernel_size: 3
    group: 2
    weight_filler {
      type: "gaussian"
      std: 0.01
    }
    bias_filler {
      type: "constant"
      value: 1
    }
  }
}
layers {
  bottom: "conv4"
  top: "conv4"
  name: "relu4"
  type: RELU
}
layers {
  bottom: "conv4"
  top: "conv5"
  name: "conv5"
  type: CONVOLUTION
  blobs_lr: 0
  blobs_lr: 0
  weight_decay: 0
  weight_decay: 0
  convolution_param {
    num_output: 256
    pad: 1
    kernel_size: 3
    group: 2
    weight_filler {
      type: "gaussian"
      std: 0.01
    }
    bias_filler {
      type: "constant"
      value: 1
    }
  }
}
layers {
  bottom: "conv5"
  top: "conv5"
  name: "relu5"
  type: RELU
}
layers {
  bottom: "conv5"
  top: "pool5"
  name: "pool5"
  type: POOLING
  pooling_param {
    pool: MAX
    kernel_size: 3
    stride: 2
  }
}
layers {
  bottom: "pool5"
  top: "fc6"
  name: "fc6"
  type: INNER_PRODUCT
  blobs_lr: 0
  blobs_lr: 0
  weight_decay: 0
  weight_decay: 0
  inner_product_param {
    num_output: 4096
    weight_filler {
      type: "gaussian"
      std: 0.005
    }
    bias_filler {
      type: "constant"
      value: 1
    }
  }
}
layers {
  bottom: "fc6"
  top: "fc6"
  name: "relu6"
  type: RELU
}
layers {
  bottom: "fc6"
  top: "fc6"
  name: "drop6"
  type: DROPOUT
  dropout_param {
    dropout_ratio: 0.5
  }
}
layers {
  bottom: "fc6"
  top: "fc7"
  name: "fc7"
  type: INNER_PRODUCT
  blobs_lr: 0
  blobs_lr: 0
  weight_decay: 0
  weight_decay: 0
  inner_product_param {
    num_output: 4096
    weight_filler {
      type: "gaussian"
      std: 0.005
    }
    bias_filler {
      type: "constant"
      value: 1
    }
  }
}
layers {
  bottom: "fc7"
  top: "fc7"
  name: "relu7"
  type: RELU
}
layers {
  bottom: "fc7"
  top: "fc7"
  name: "drop7"
  type: DROPOUT
  dropout_param {
    dropout_ratio: 0.5
  }
}
layers {
  bottom: "fc7"
  top: "fc8_inadcl"
  name: "fc8_inadcl"
  type: INNER_PRODUCT
  blobs_lr: 1
  blobs_lr: 2
  weight_decay: 1
  weight_decay: 0
  inner_product_param {
    num_output: 2
    weight_filler {
      type: "gaussian"
      std: 0.01
    }
    bias_filler {
      type: "constant"
      value: 0
    }
  }
}
layers {
  bottom: "fc8_inadcl"
  bottom: "label"
  name: "loss"
  type: SOFTMAX_REBALANCED_LOSS
}
layers {
  bottom: "fc8_inadcl"
  bottom: "label"
  top: "accuracy"
  name: "accuracy"
  type: PER_CLASS_ACCURACY
  include {
    phase: TEST
  }
}
state {
  phase: TEST
}
I1031 03:20:17.743932 12597 net.cpp:67] Creating Layer data
I1031 03:20:17.743944 12597 net.cpp:356] data -> data
I1031 03:20:17.743963 12597 net.cpp:356] data -> label
I1031 03:20:17.743975 12597 net.cpp:96] Setting up data
I1031 03:20:17.743981 12597 image_data_layer.cpp:30] Opening file data/inadcl/val.txt
I1031 03:20:17.744101 12597 image_data_layer.cpp:45] A total of 122 images.
I1031 03:20:17.746110 12597 image_data_layer.cpp:73] output data size: 122,3,227,227
I1031 03:20:17.746129 12597 base_data_layer.cpp:36] Loading mean file from/homes/ad6813/data/controlpoint_mean_256-227.binaryproto
I1031 03:20:17.757200 12597 net.cpp:103] Top shape: 122 3 227 227 (18859614)
I1031 03:20:17.757226 12597 net.cpp:103] Top shape: 122 1 1 1 (122)
I1031 03:20:17.757242 12597 net.cpp:67] Creating Layer label_data_1_split
I1031 03:20:17.757249 12597 net.cpp:394] label_data_1_split <- label
I1031 03:20:17.757259 12597 net.cpp:356] label_data_1_split -> label_data_1_split_0
I1031 03:20:17.757277 12597 net.cpp:356] label_data_1_split -> label_data_1_split_1
I1031 03:20:17.757287 12597 net.cpp:96] Setting up label_data_1_split
I1031 03:20:17.757302 12597 net.cpp:103] Top shape: 122 1 1 1 (122)
I1031 03:20:17.757308 12597 net.cpp:103] Top shape: 122 1 1 1 (122)
I1031 03:20:17.757323 12597 net.cpp:67] Creating Layer conv1
I1031 03:20:17.757334 12597 net.cpp:394] conv1 <- data
I1031 03:20:17.757345 12597 net.cpp:356] conv1 -> conv1
I1031 03:20:17.757362 12597 net.cpp:96] Setting up conv1
I1031 03:20:17.758390 12597 net.cpp:103] Top shape: 122 96 55 55 (35428800)
I1031 03:20:17.758412 12597 net.cpp:67] Creating Layer relu1
I1031 03:20:17.758424 12597 net.cpp:394] relu1 <- conv1
I1031 03:20:17.758432 12597 net.cpp:345] relu1 -> conv1 (in-place)
I1031 03:20:17.758442 12597 net.cpp:96] Setting up relu1
I1031 03:20:17.758453 12597 net.cpp:103] Top shape: 122 96 55 55 (35428800)
I1031 03:20:17.758467 12597 net.cpp:67] Creating Layer pool1
I1031 03:20:17.758477 12597 net.cpp:394] pool1 <- conv1
I1031 03:20:17.758487 12597 net.cpp:356] pool1 -> pool1
I1031 03:20:17.758504 12597 net.cpp:96] Setting up pool1
I1031 03:20:17.758518 12597 net.cpp:103] Top shape: 122 96 27 27 (8538048)
I1031 03:20:17.758533 12597 net.cpp:67] Creating Layer norm1
I1031 03:20:17.758538 12597 net.cpp:394] norm1 <- pool1
I1031 03:20:17.758553 12597 net.cpp:356] norm1 -> norm1
I1031 03:20:17.758563 12597 net.cpp:96] Setting up norm1
I1031 03:20:17.758574 12597 net.cpp:103] Top shape: 122 96 27 27 (8538048)
I1031 03:20:17.758584 12597 net.cpp:67] Creating Layer conv2
I1031 03:20:17.758592 12597 net.cpp:394] conv2 <- norm1
I1031 03:20:17.758610 12597 net.cpp:356] conv2 -> conv2
I1031 03:20:17.758622 12597 net.cpp:96] Setting up conv2
I1031 03:20:17.766502 12597 net.cpp:103] Top shape: 122 256 27 27 (22768128)
I1031 03:20:17.766525 12597 net.cpp:67] Creating Layer relu2
I1031 03:20:17.766532 12597 net.cpp:394] relu2 <- conv2
I1031 03:20:17.766541 12597 net.cpp:345] relu2 -> conv2 (in-place)
I1031 03:20:17.766551 12597 net.cpp:96] Setting up relu2
I1031 03:20:17.766582 12597 net.cpp:103] Top shape: 122 256 27 27 (22768128)
I1031 03:20:17.766598 12597 net.cpp:67] Creating Layer pool2
I1031 03:20:17.766607 12597 net.cpp:394] pool2 <- conv2
I1031 03:20:17.766616 12597 net.cpp:356] pool2 -> pool2
I1031 03:20:17.766638 12597 net.cpp:96] Setting up pool2
I1031 03:20:17.766652 12597 net.cpp:103] Top shape: 122 256 13 13 (5278208)
I1031 03:20:17.766664 12597 net.cpp:67] Creating Layer norm2
I1031 03:20:17.766676 12597 net.cpp:394] norm2 <- pool2
I1031 03:20:17.766688 12597 net.cpp:356] norm2 -> norm2
I1031 03:20:17.766698 12597 net.cpp:96] Setting up norm2
I1031 03:20:17.766713 12597 net.cpp:103] Top shape: 122 256 13 13 (5278208)
I1031 03:20:17.766734 12597 net.cpp:67] Creating Layer conv3
I1031 03:20:17.766742 12597 net.cpp:394] conv3 <- norm2
I1031 03:20:17.766753 12597 net.cpp:356] conv3 -> conv3
I1031 03:20:17.766764 12597 net.cpp:96] Setting up conv3
I1031 03:20:17.788683 12597 net.cpp:103] Top shape: 122 384 13 13 (7917312)
I1031 03:20:17.788724 12597 net.cpp:67] Creating Layer relu3
I1031 03:20:17.788733 12597 net.cpp:394] relu3 <- conv3
I1031 03:20:17.788743 12597 net.cpp:345] relu3 -> conv3 (in-place)
I1031 03:20:17.788753 12597 net.cpp:96] Setting up relu3
I1031 03:20:17.788763 12597 net.cpp:103] Top shape: 122 384 13 13 (7917312)
I1031 03:20:17.788777 12597 net.cpp:67] Creating Layer conv4
I1031 03:20:17.788786 12597 net.cpp:394] conv4 <- conv3
I1031 03:20:17.788796 12597 net.cpp:356] conv4 -> conv4
I1031 03:20:17.788807 12597 net.cpp:96] Setting up conv4
I1031 03:20:17.805461 12597 net.cpp:103] Top shape: 122 384 13 13 (7917312)
I1031 03:20:17.805496 12597 net.cpp:67] Creating Layer relu4
I1031 03:20:17.805505 12597 net.cpp:394] relu4 <- conv4
I1031 03:20:17.805512 12597 net.cpp:345] relu4 -> conv4 (in-place)
I1031 03:20:17.805522 12597 net.cpp:96] Setting up relu4
I1031 03:20:17.805533 12597 net.cpp:103] Top shape: 122 384 13 13 (7917312)
I1031 03:20:17.805544 12597 net.cpp:67] Creating Layer conv5
I1031 03:20:17.805551 12597 net.cpp:394] conv5 <- conv4
I1031 03:20:17.805562 12597 net.cpp:356] conv5 -> conv5
I1031 03:20:17.805577 12597 net.cpp:96] Setting up conv5
I1031 03:20:17.816846 12597 net.cpp:103] Top shape: 122 256 13 13 (5278208)
I1031 03:20:17.816872 12597 net.cpp:67] Creating Layer relu5
I1031 03:20:17.816880 12597 net.cpp:394] relu5 <- conv5
I1031 03:20:17.816889 12597 net.cpp:345] relu5 -> conv5 (in-place)
I1031 03:20:17.816898 12597 net.cpp:96] Setting up relu5
I1031 03:20:17.816907 12597 net.cpp:103] Top shape: 122 256 13 13 (5278208)
I1031 03:20:17.816928 12597 net.cpp:67] Creating Layer pool5
I1031 03:20:17.816936 12597 net.cpp:394] pool5 <- conv5
I1031 03:20:17.816947 12597 net.cpp:356] pool5 -> pool5
I1031 03:20:17.816957 12597 net.cpp:96] Setting up pool5
I1031 03:20:17.816980 12597 net.cpp:103] Top shape: 122 256 6 6 (1124352)
I1031 03:20:17.816993 12597 net.cpp:67] Creating Layer fc6
I1031 03:20:17.816999 12597 net.cpp:394] fc6 <- pool5
I1031 03:20:17.817009 12597 net.cpp:356] fc6 -> fc6
I1031 03:20:17.817025 12597 net.cpp:96] Setting up fc6
I1031 03:20:18.701789 12597 net.cpp:103] Top shape: 122 4096 1 1 (499712)
I1031 03:20:18.701828 12597 net.cpp:67] Creating Layer relu6
I1031 03:20:18.701848 12597 net.cpp:394] relu6 <- fc6
I1031 03:20:18.701860 12597 net.cpp:345] relu6 -> fc6 (in-place)
I1031 03:20:18.701871 12597 net.cpp:96] Setting up relu6
I1031 03:20:18.701890 12597 net.cpp:103] Top shape: 122 4096 1 1 (499712)
I1031 03:20:18.701903 12597 net.cpp:67] Creating Layer drop6
I1031 03:20:18.701913 12597 net.cpp:394] drop6 <- fc6
I1031 03:20:18.701922 12597 net.cpp:345] drop6 -> fc6 (in-place)
I1031 03:20:18.701931 12597 net.cpp:96] Setting up drop6
I1031 03:20:18.701942 12597 net.cpp:103] Top shape: 122 4096 1 1 (499712)
I1031 03:20:18.701956 12597 net.cpp:67] Creating Layer fc7
I1031 03:20:18.701964 12597 net.cpp:394] fc7 <- fc6
I1031 03:20:18.701974 12597 net.cpp:356] fc7 -> fc7
I1031 03:20:18.701995 12597 net.cpp:96] Setting up fc7
I1031 03:20:19.091740 12597 net.cpp:103] Top shape: 122 4096 1 1 (499712)
I1031 03:20:19.091785 12597 net.cpp:67] Creating Layer relu7
I1031 03:20:19.091794 12597 net.cpp:394] relu7 <- fc7
I1031 03:20:19.091815 12597 net.cpp:345] relu7 -> fc7 (in-place)
I1031 03:20:19.091826 12597 net.cpp:96] Setting up relu7
I1031 03:20:19.091845 12597 net.cpp:103] Top shape: 122 4096 1 1 (499712)
I1031 03:20:19.091858 12597 net.cpp:67] Creating Layer drop7
I1031 03:20:19.091866 12597 net.cpp:394] drop7 <- fc7
I1031 03:20:19.091876 12597 net.cpp:345] drop7 -> fc7 (in-place)
I1031 03:20:19.091887 12597 net.cpp:96] Setting up drop7
I1031 03:20:19.091894 12597 net.cpp:103] Top shape: 122 4096 1 1 (499712)
I1031 03:20:19.091905 12597 net.cpp:67] Creating Layer fc8_inadcl
I1031 03:20:19.091927 12597 net.cpp:394] fc8_inadcl <- fc7
I1031 03:20:19.091948 12597 net.cpp:356] fc8_inadcl -> fc8_inadcl
I1031 03:20:19.091965 12597 net.cpp:96] Setting up fc8_inadcl
I1031 03:20:19.092202 12597 net.cpp:103] Top shape: 122 2 1 1 (244)
I1031 03:20:19.092219 12597 net.cpp:67] Creating Layer fc8_inadcl_fc8_inadcl_0_split
I1031 03:20:19.092229 12597 net.cpp:394] fc8_inadcl_fc8_inadcl_0_split <- fc8_inadcl
I1031 03:20:19.092239 12597 net.cpp:356] fc8_inadcl_fc8_inadcl_0_split -> fc8_inadcl_fc8_inadcl_0_split_0
I1031 03:20:19.092250 12597 net.cpp:356] fc8_inadcl_fc8_inadcl_0_split -> fc8_inadcl_fc8_inadcl_0_split_1
I1031 03:20:19.092262 12597 net.cpp:96] Setting up fc8_inadcl_fc8_inadcl_0_split
I1031 03:20:19.092270 12597 net.cpp:103] Top shape: 122 2 1 1 (244)
I1031 03:20:19.092277 12597 net.cpp:103] Top shape: 122 2 1 1 (244)
I1031 03:20:19.092288 12597 net.cpp:67] Creating Layer loss
I1031 03:20:19.092296 12597 net.cpp:394] loss <- fc8_inadcl_fc8_inadcl_0_split_0
I1031 03:20:19.092304 12597 net.cpp:394] loss <- label_data_1_split_0
I1031 03:20:19.092313 12597 net.cpp:356] loss -> (automatic)
I1031 03:20:19.092320 12597 net.cpp:96] Setting up loss
I1031 03:20:19.092332 12597 net.cpp:103] Top shape: 1 1 1 1 (1)
I1031 03:20:19.092339 12597 net.cpp:109]     with loss weight 1
I1031 03:20:19.092361 12597 net.cpp:67] Creating Layer accuracy
I1031 03:20:19.092368 12597 net.cpp:394] accuracy <- fc8_inadcl_fc8_inadcl_0_split_1
I1031 03:20:19.092375 12597 net.cpp:394] accuracy <- label_data_1_split_1
I1031 03:20:19.092386 12597 net.cpp:356] accuracy -> accuracy
I1031 03:20:19.092396 12597 net.cpp:96] Setting up accuracy
I1031 03:20:19.092404 12597 net.cpp:103] Top shape: 1 1 1 4 (4)
I1031 03:20:19.092411 12597 net.cpp:172] accuracy does not need backward computation.
I1031 03:20:19.092418 12597 net.cpp:170] loss needs backward computation.
I1031 03:20:19.092424 12597 net.cpp:170] fc8_inadcl_fc8_inadcl_0_split needs backward computation.
I1031 03:20:19.092430 12597 net.cpp:170] fc8_inadcl needs backward computation.
I1031 03:20:19.092437 12597 net.cpp:172] drop7 does not need backward computation.
…
