…
I1014 04:53:35.282379 28399 net.cpp:275] The NetState phase (0) differed from the phase (1) specified by a rule in layer accuracy
I1014 04:53:35.282547 28399 net.cpp:39] Initializing net from parameters: 
name: "ClampdetCaffeNet"
layers {
  top: "data"
  top: "label"
  name: "data"
  type: IMAGE_DATA
  image_data_param {
    source: "data/clampdet/train.txt"
    batch_size: 256
    new_height: 256
    new_width: 256
  }
  include {
    phase: TRAIN
  }
  transform_param {
    mirror: true
    crop_size: 227
    mean_file: "/homes/ad6813/data/controlpoint_mean_256-227.binaryproto"
  }
}
layers {
  bottom: "data"
  top: "conv1"
  name: "conv1"
  type: CONVOLUTION
  blobs_lr: 0
  blobs_lr: 0
  weight_decay: 0
  weight_decay: 0
  convolution_param {
    num_output: 96
    kernel_size: 11
    stride: 4
    weight_filler {
      type: "gaussian"
      std: 0.01
    }
    bias_filler {
      type: "constant"
      value: 0
    }
  }
}
layers {
  bottom: "conv1"
  top: "conv1"
  name: "relu1"
  type: RELU
}
layers {
  bottom: "conv1"
  top: "pool1"
  name: "pool1"
  type: POOLING
  pooling_param {
    pool: MAX
    kernel_size: 3
    stride: 2
  }
}
layers {
  bottom: "pool1"
  top: "norm1"
  name: "norm1"
  type: LRN
  lrn_param {
    local_size: 5
    alpha: 0.0001
    beta: 0.75
  }
}
layers {
  bottom: "norm1"
  top: "conv2"
  name: "conv2"
  type: CONVOLUTION
  blobs_lr: 0
  blobs_lr: 0
  weight_decay: 0
  weight_decay: 0
  convolution_param {
    num_output: 256
    pad: 2
    kernel_size: 5
    group: 2
    weight_filler {
      type: "gaussian"
      std: 0.01
    }
    bias_filler {
      type: "constant"
      value: 1
    }
  }
}
layers {
  bottom: "conv2"
  top: "conv2"
  name: "relu2"
  type: RELU
}
layers {
  bottom: "conv2"
  top: "pool2"
  name: "pool2"
  type: POOLING
  pooling_param {
    pool: MAX
    kernel_size: 3
    stride: 2
  }
}
layers {
  bottom: "pool2"
  top: "norm2"
  name: "norm2"
  type: LRN
  lrn_param {
    local_size: 5
    alpha: 0.0001
    beta: 0.75
  }
}
layers {
  bottom: "norm2"
  top: "conv3"
  name: "conv3"
  type: CONVOLUTION
  blobs_lr: 0
  blobs_lr: 0
  weight_decay: 0
  weight_decay: 0
  convolution_param {
    num_output: 384
    pad: 1
    kernel_size: 3
    weight_filler {
      type: "gaussian"
      std: 0.01
    }
    bias_filler {
      type: "constant"
      value: 0
    }
  }
}
layers {
  bottom: "conv3"
  top: "conv3"
  name: "relu3"
  type: RELU
}
layers {
  bottom: "conv3"
  top: "conv4"
  name: "conv4"
  type: CONVOLUTION
  blobs_lr: 0
  blobs_lr: 0
  weight_decay: 0
  weight_decay: 0
  convolution_param {
    num_output: 384
    pad: 1
    kernel_size: 3
    group: 2
    weight_filler {
      type: "gaussian"
      std: 0.01
    }
    bias_filler {
      type: "constant"
      value: 1
    }
  }
}
layers {
  bottom: "conv4"
  top: "conv4"
  name: "relu4"
  type: RELU
}
layers {
  bottom: "conv4"
  top: "conv5"
  name: "conv5"
  type: CONVOLUTION
  blobs_lr: 0
  blobs_lr: 0
  weight_decay: 0
  weight_decay: 0
  convolution_param {
    num_output: 256
    pad: 1
    kernel_size: 3
    group: 2
    weight_filler {
      type: "gaussian"
      std: 0.01
    }
    bias_filler {
      type: "constant"
      value: 1
    }
  }
}
layers {
  bottom: "conv5"
  top: "conv5"
  name: "relu5"
  type: RELU
}
layers {
  bottom: "conv5"
  top: "pool5"
  name: "pool5"
  type: POOLING
  pooling_param {
    pool: MAX
    kernel_size: 3
    stride: 2
  }
}
layers {
  bottom: "pool5"
  top: "fc6"
  name: "fc6"
  type: INNER_PRODUCT
  blobs_lr: 0
  blobs_lr: 0
  weight_decay: 0
  weight_decay: 0
  inner_product_param {
    num_output: 4096
    weight_filler {
      type: "gaussian"
      std: 0.005
    }
    bias_filler {
      type: "constant"
      value: 1
    }
  }
}
layers {
  bottom: "fc6"
  top: "fc6"
  name: "relu6"
  type: RELU
}
layers {
  bottom: "fc6"
  top: "fc6"
  name: "drop6"
  type: DROPOUT
  dropout_param {
    dropout_ratio: 0.5
  }
}
layers {
  bottom: "fc6"
  top: "fc7"
  name: "fc7"
  type: INNER_PRODUCT
  blobs_lr: 0
  blobs_lr: 0
  weight_decay: 0
  weight_decay: 0
  inner_product_param {
    num_output: 4096
    weight_filler {
      type: "gaussian"
      std: 0.005
    }
    bias_filler {
      type: "constant"
      value: 1
    }
  }
}
layers {
  bottom: "fc7"
  top: "fc7"
  name: "relu7"
  type: RELU
}
layers {
  bottom: "fc7"
  top: "fc7"
  name: "drop7"
  type: DROPOUT
  dropout_param {
    dropout_ratio: 0.5
  }
}
layers {
  bottom: "fc7"
  top: "fc8_clampdet"
  name: "fc8_clampdet"
  type: INNER_PRODUCT
  blobs_lr: 1
  blobs_lr: 2
  weight_decay: 1
  weight_decay: 0
  inner_product_param {
    num_output: 2
    weight_filler {
      type: "gaussian"
      std: 0.01
    }
    bias_filler {
      type: "constant"
      value: 0
    }
  }
}
layers {
  bottom: "fc8_clampdet"
  bottom: "label"
  name: "loss"
  type: SOFTMAX_LOSS
}
state {
  phase: TRAIN
}
I1014 04:53:35.282640 28399 net.cpp:67] Creating Layer data
I1014 04:53:35.282650 28399 net.cpp:356] data -> data
I1014 04:53:35.282667 28399 net.cpp:356] data -> label
I1014 04:53:35.282681 28399 net.cpp:96] Setting up data
I1014 04:53:35.282690 28399 image_data_layer.cpp:30] Opening file data/clampdet/train.txt
I1014 04:53:35.282749 28399 image_data_layer.cpp:35] label: 0
I1014 04:53:35.282758 28399 image_data_layer.cpp:35] label: 1
I1014 04:53:35.282764 28399 image_data_layer.cpp:35] label: 1
I1014 04:53:35.282773 28399 image_data_layer.cpp:35] label: 0
I1014 04:53:35.282778 28399 image_data_layer.cpp:35] label: 0
I1014 04:53:35.282781 28399 image_data_layer.cpp:35] label: 0
I1014 04:53:35.282788 28399 image_data_layer.cpp:46] A total of 6 images.
I1014 04:53:35.288828 28399 image_data_layer.cpp:74] output data size: 256,3,227,227
I1014 04:53:35.288857 28399 base_data_layer.cpp:36] Loading mean file from/homes/ad6813/data/controlpoint_mean_256-227.binaryproto
I1014 04:53:35.310396 28399 net.cpp:103] Top shape: 256 3 227 227 (39574272)
I1014 04:53:35.310423 28399 net.cpp:103] Top shape: 256 1 1 1 (256)
I1014 04:53:35.310458 28399 net.cpp:67] Creating Layer conv1
I1014 04:53:35.310463 28399 net.cpp:394] conv1 <- data
I1014 04:53:35.310477 28399 net.cpp:356] conv1 -> conv1
I1014 04:53:35.310490 28399 net.cpp:96] Setting up conv1
I1014 04:53:35.311406 28399 net.cpp:103] Top shape: 256 96 55 55 (74342400)
I1014 04:53:35.311427 28399 net.cpp:67] Creating Layer relu1
I1014 04:53:35.311431 28399 net.cpp:394] relu1 <- conv1
I1014 04:53:35.311435 28399 net.cpp:345] relu1 -> conv1 (in-place)
I1014 04:53:35.311440 28399 net.cpp:96] Setting up relu1
I1014 04:53:35.311445 28399 net.cpp:103] Top shape: 256 96 55 55 (74342400)
I1014 04:53:35.311453 28399 net.cpp:67] Creating Layer pool1
I1014 04:53:35.311456 28399 net.cpp:394] pool1 <- conv1
I1014 04:53:35.311461 28399 net.cpp:356] pool1 -> pool1
I1014 04:53:35.311466 28399 net.cpp:96] Setting up pool1
I1014 04:53:35.311475 28399 net.cpp:103] Top shape: 256 96 27 27 (17915904)
I1014 04:53:35.311482 28399 net.cpp:67] Creating Layer norm1
I1014 04:53:35.311486 28399 net.cpp:394] norm1 <- pool1
I1014 04:53:35.311489 28399 net.cpp:356] norm1 -> norm1
I1014 04:53:35.311497 28399 net.cpp:96] Setting up norm1
I1014 04:53:35.311503 28399 net.cpp:103] Top shape: 256 96 27 27 (17915904)
I1014 04:53:35.311511 28399 net.cpp:67] Creating Layer conv2
I1014 04:53:35.311516 28399 net.cpp:394] conv2 <- norm1
I1014 04:53:35.311521 28399 net.cpp:356] conv2 -> conv2
I1014 04:53:35.311527 28399 net.cpp:96] Setting up conv2
I1014 04:53:35.319042 28399 net.cpp:103] Top shape: 256 256 27 27 (47775744)
I1014 04:53:35.319064 28399 net.cpp:67] Creating Layer relu2
I1014 04:53:35.319068 28399 net.cpp:394] relu2 <- conv2
I1014 04:53:35.319072 28399 net.cpp:345] relu2 -> conv2 (in-place)
I1014 04:53:35.319077 28399 net.cpp:96] Setting up relu2
I1014 04:53:35.319080 28399 net.cpp:103] Top shape: 256 256 27 27 (47775744)
I1014 04:53:35.319085 28399 net.cpp:67] Creating Layer pool2
I1014 04:53:35.319088 28399 net.cpp:394] pool2 <- conv2
I1014 04:53:35.319093 28399 net.cpp:356] pool2 -> pool2
I1014 04:53:35.319097 28399 net.cpp:96] Setting up pool2
I1014 04:53:35.319104 28399 net.cpp:103] Top shape: 256 256 13 13 (11075584)
I1014 04:53:35.319110 28399 net.cpp:67] Creating Layer norm2
I1014 04:53:35.319113 28399 net.cpp:394] norm2 <- pool2
I1014 04:53:35.319118 28399 net.cpp:356] norm2 -> norm2
I1014 04:53:35.319123 28399 net.cpp:96] Setting up norm2
I1014 04:53:35.319125 28399 net.cpp:103] Top shape: 256 256 13 13 (11075584)
I1014 04:53:35.319131 28399 net.cpp:67] Creating Layer conv3
I1014 04:53:35.319134 28399 net.cpp:394] conv3 <- norm2
I1014 04:53:35.319139 28399 net.cpp:356] conv3 -> conv3
I1014 04:53:35.319147 28399 net.cpp:96] Setting up conv3
I1014 04:53:35.340801 28399 net.cpp:103] Top shape: 256 384 13 13 (16613376)
I1014 04:53:35.340831 28399 net.cpp:67] Creating Layer relu3
I1014 04:53:35.340834 28399 net.cpp:394] relu3 <- conv3
I1014 04:53:35.340839 28399 net.cpp:345] relu3 -> conv3 (in-place)
I1014 04:53:35.340847 28399 net.cpp:96] Setting up relu3
I1014 04:53:35.340849 28399 net.cpp:103] Top shape: 256 384 13 13 (16613376)
I1014 04:53:35.340855 28399 net.cpp:67] Creating Layer conv4
I1014 04:53:35.340858 28399 net.cpp:394] conv4 <- conv3
I1014 04:53:35.340863 28399 net.cpp:356] conv4 -> conv4
I1014 04:53:35.340868 28399 net.cpp:96] Setting up conv4
I1014 04:53:35.357280 28399 net.cpp:103] Top shape: 256 384 13 13 (16613376)
I1014 04:53:35.357300 28399 net.cpp:67] Creating Layer relu4
I1014 04:53:35.357305 28399 net.cpp:394] relu4 <- conv4
I1014 04:53:35.357309 28399 net.cpp:345] relu4 -> conv4 (in-place)
I1014 04:53:35.357314 28399 net.cpp:96] Setting up relu4
I1014 04:53:35.357317 28399 net.cpp:103] Top shape: 256 384 13 13 (16613376)
I1014 04:53:35.357322 28399 net.cpp:67] Creating Layer conv5
I1014 04:53:35.357326 28399 net.cpp:394] conv5 <- conv4
I1014 04:53:35.357331 28399 net.cpp:356] conv5 -> conv5
I1014 04:53:35.357336 28399 net.cpp:96] Setting up conv5
I1014 04:53:35.368135 28399 net.cpp:103] Top shape: 256 256 13 13 (11075584)
I1014 04:53:35.368155 28399 net.cpp:67] Creating Layer relu5
I1014 04:53:35.368158 28399 net.cpp:394] relu5 <- conv5
I1014 04:53:35.368163 28399 net.cpp:345] relu5 -> conv5 (in-place)
I1014 04:53:35.368168 28399 net.cpp:96] Setting up relu5
I1014 04:53:35.368171 28399 net.cpp:103] Top shape: 256 256 13 13 (11075584)
I1014 04:53:35.368176 28399 net.cpp:67] Creating Layer pool5
I1014 04:53:35.368180 28399 net.cpp:394] pool5 <- conv5
I1014 04:53:35.368185 28399 net.cpp:356] pool5 -> pool5
I1014 04:53:35.368193 28399 net.cpp:96] Setting up pool5
I1014 04:53:35.368198 28399 net.cpp:103] Top shape: 256 256 6 6 (2359296)
I1014 04:53:35.368206 28399 net.cpp:67] Creating Layer fc6
I1014 04:53:35.368209 28399 net.cpp:394] fc6 <- pool5
I1014 04:53:35.368216 28399 net.cpp:356] fc6 -> fc6
I1014 04:53:35.368221 28399 net.cpp:96] Setting up fc6
I1014 04:53:36.278117 28399 net.cpp:103] Top shape: 256 4096 1 1 (1048576)
I1014 04:53:36.278162 28399 net.cpp:67] Creating Layer relu6
I1014 04:53:36.278167 28399 net.cpp:394] relu6 <- fc6
I1014 04:53:36.278172 28399 net.cpp:345] relu6 -> fc6 (in-place)
I1014 04:53:36.278179 28399 net.cpp:96] Setting up relu6
I1014 04:53:36.278182 28399 net.cpp:103] Top shape: 256 4096 1 1 (1048576)
I1014 04:53:36.278188 28399 net.cpp:67] Creating Layer drop6
I1014 04:53:36.278190 28399 net.cpp:394] drop6 <- fc6
I1014 04:53:36.278197 28399 net.cpp:345] drop6 -> fc6 (in-place)
I1014 04:53:36.278201 28399 net.cpp:96] Setting up drop6
I1014 04:53:36.278211 28399 net.cpp:103] Top shape: 256 4096 1 1 (1048576)
I1014 04:53:36.278218 28399 net.cpp:67] Creating Layer fc7
I1014 04:53:36.278229 28399 net.cpp:394] fc7 <- fc6
I1014 04:53:36.278234 28399 net.cpp:356] fc7 -> fc7
I1014 04:53:36.278240 28399 net.cpp:96] Setting up fc7
I1014 04:53:36.664922 28399 net.cpp:103] Top shape: 256 4096 1 1 (1048576)
I1014 04:53:36.664966 28399 net.cpp:67] Creating Layer relu7
I1014 04:53:36.664971 28399 net.cpp:394] relu7 <- fc7
I1014 04:53:36.664978 28399 net.cpp:345] relu7 -> fc7 (in-place)
I1014 04:53:36.664984 28399 net.cpp:96] Setting up relu7
I1014 04:53:36.664988 28399 net.cpp:103] Top shape: 256 4096 1 1 (1048576)
I1014 04:53:36.664993 28399 net.cpp:67] Creating Layer drop7
I1014 04:53:36.664995 28399 net.cpp:394] drop7 <- fc7
I1014 04:53:36.665001 28399 net.cpp:345] drop7 -> fc7 (in-place)
I1014 04:53:36.665005 28399 net.cpp:96] Setting up drop7
I1014 04:53:36.665014 28399 net.cpp:103] Top shape: 256 4096 1 1 (1048576)
I1014 04:53:36.665019 28399 net.cpp:67] Creating Layer fc8_clampdet
I1014 04:53:36.665022 28399 net.cpp:394] fc8_clampdet <- fc7
I1014 04:53:36.665026 28399 net.cpp:356] fc8_clampdet -> fc8_clampdet
I1014 04:53:36.665032 28399 net.cpp:96] Setting up fc8_clampdet
I1014 04:53:36.665253 28399 net.cpp:103] Top shape: 256 2 1 1 (512)
I1014 04:53:36.665266 28399 net.cpp:67] Creating Layer loss
I1014 04:53:36.665271 28399 net.cpp:394] loss <- fc8_clampdet
I1014 04:53:36.665274 28399 net.cpp:394] loss <- label
I1014 04:53:36.665282 28399 net.cpp:356] loss -> (automatic)
I1014 04:53:36.665285 28399 net.cpp:96] Setting up loss
I1014 04:53:36.665297 28399 net.cpp:103] Top shape: 1 1 1 1 (1)
I1014 04:53:36.665302 28399 net.cpp:109]     with loss weight 1
I1014 04:53:36.665335 28399 net.cpp:170] loss needs backward computation.
I1014 04:53:36.665339 28399 net.cpp:170] fc8_clampdet needs backward computation.
I1014 04:53:36.665344 28399 net.cpp:172] drop7 does not need backward computation.
I1014 04:53:36.665348 28399 net.cpp:172] relu7 does not need backward computation.
I1014 04:53:36.665349 28399 net.cpp:172] fc7 does not need backward computation.
…
I1014 04:53:36.666120 28399 solver.cpp:151] Creating test net (#0) specified by net file: task/clamp/train_val.prototxt
I1014 04:53:36.666153 28399 net.cpp:275] The NetState phase (1) differed from the phase (0) specified by a rule in layer data
I1014 04:53:36.666331 28399 net.cpp:39] Initializing net from parameters: 
name: "ClampdetCaffeNet"
layers {
  top: "data"
  top: "label"
  name: "data"
  type: IMAGE_DATA
  image_data_param {
    source: "data/clampdet/val.txt"
    batch_size: 251
    new_height: 256
    new_width: 256
  }
  include {
    phase: TEST
  }
  transform_param {
    mirror: false
    crop_size: 227
    mean_file: "/homes/ad6813/data/controlpoint_mean_256-227.binaryproto"
  }
}
layers {
  bottom: "data"
  top: "conv1"
  name: "conv1"
  type: CONVOLUTION
  blobs_lr: 0
  blobs_lr: 0
  weight_decay: 0
  weight_decay: 0
  convolution_param {
    num_output: 96
    kernel_size: 11
    stride: 4
    weight_filler {
      type: "gaussian"
      std: 0.01
    }
    bias_filler {
      type: "constant"
      value: 0
    }
  }
}
layers {
  bottom: "conv1"
  top: "conv1"
  name: "relu1"
  type: RELU
}
layers {
  bottom: "conv1"
  top: "pool1"
  name: "pool1"
  type: POOLING
  pooling_param {
    pool: MAX
    kernel_size: 3
    stride: 2
  }
}
layers {
  bottom: "pool1"
  top: "norm1"
  name: "norm1"
  type: LRN
  lrn_param {
    local_size: 5
    alpha: 0.0001
    beta: 0.75
  }
}
layers {
  bottom: "norm1"
  top: "conv2"
  name: "conv2"
  type: CONVOLUTION
  blobs_lr: 0
  blobs_lr: 0
  weight_decay: 0
  weight_decay: 0
  convolution_param {
    num_output: 256
    pad: 2
    kernel_size: 5
    group: 2
    weight_filler {
      type: "gaussian"
      std: 0.01
    }
    bias_filler {
      type: "constant"
      value: 1
    }
  }
}
layers {
  bottom: "conv2"
  top: "conv2"
  name: "relu2"
  type: RELU
}
layers {
  bottom: "conv2"
  top: "pool2"
  name: "pool2"
  type: POOLING
  pooling_param {
    pool: MAX
    kernel_size: 3
    stride: 2
  }
}
layers {
  bottom: "pool2"
  top: "norm2"
  name: "norm2"
  type: LRN
  lrn_param {
    local_size: 5
    alpha: 0.0001
    beta: 0.75
  }
}
layers {
  bottom: "norm2"
  top: "conv3"
  name: "conv3"
  type: CONVOLUTION
  blobs_lr: 0
  blobs_lr: 0
  weight_decay: 0
  weight_decay: 0
  convolution_param {
    num_output: 384
    pad: 1
    kernel_size: 3
    weight_filler {
      type: "gaussian"
      std: 0.01
    }
    bias_filler {
      type: "constant"
      value: 0
    }
  }
}
layers {
  bottom: "conv3"
  top: "conv3"
  name: "relu3"
  type: RELU
}
layers {
  bottom: "conv3"
  top: "conv4"
  name: "conv4"
  type: CONVOLUTION
  blobs_lr: 0
  blobs_lr: 0
  weight_decay: 0
  weight_decay: 0
  convolution_param {
    num_output: 384
    pad: 1
    kernel_size: 3
    group: 2
    weight_filler {
      type: "gaussian"
      std: 0.01
    }
    bias_filler {
      type: "constant"
      value: 1
    }
  }
}
layers {
  bottom: "conv4"
  top: "conv4"
  name: "relu4"
  type: RELU
}
layers {
  bottom: "conv4"
  top: "conv5"
  name: "conv5"
  type: CONVOLUTION
  blobs_lr: 0
  blobs_lr: 0
  weight_decay: 0
  weight_decay: 0
  convolution_param {
    num_output: 256
    pad: 1
    kernel_size: 3
    group: 2
    weight_filler {
      type: "gaussian"
      std: 0.01
    }
    bias_filler {
      type: "constant"
      value: 1
    }
  }
}
layers {
  bottom: "conv5"
  top: "conv5"
  name: "relu5"
  type: RELU
}
layers {
  bottom: "conv5"
  top: "pool5"
  name: "pool5"
  type: POOLING
  pooling_param {
    pool: MAX
    kernel_size: 3
    stride: 2
  }
}
layers {
  bottom: "pool5"
  top: "fc6"
  name: "fc6"
  type: INNER_PRODUCT
  blobs_lr: 0
  blobs_lr: 0
  weight_decay: 0
  weight_decay: 0
  inner_product_param {
    num_output: 4096
    weight_filler {
      type: "gaussian"
      std: 0.005
    }
    bias_filler {
      type: "constant"
      value: 1
    }
  }
}
layers {
  bottom: "fc6"
  top: "fc6"
  name: "relu6"
  type: RELU
}
layers {
  bottom: "fc6"
  top: "fc6"
  name: "drop6"
  type: DROPOUT
  dropout_param {
    dropout_ratio: 0.5
  }
}
layers {
  bottom: "fc6"
  top: "fc7"
  name: "fc7"
  type: INNER_PRODUCT
  blobs_lr: 0
  blobs_lr: 0
  weight_decay: 0
  weight_decay: 0
  inner_product_param {
    num_output: 4096
    weight_filler {
      type: "gaussian"
      std: 0.005
    }
    bias_filler {
      type: "constant"
      value: 1
    }
  }
}
layers {
  bottom: "fc7"
  top: "fc7"
  name: "relu7"
  type: RELU
}
layers {
  bottom: "fc7"
  top: "fc7"
  name: "drop7"
  type: DROPOUT
  dropout_param {
    dropout_ratio: 0.5
  }
}
layers {
  bottom: "fc7"
  top: "fc8_clampdet"
  name: "fc8_clampdet"
  type: INNER_PRODUCT
  blobs_lr: 1
  blobs_lr: 2
  weight_decay: 1
  weight_decay: 0
  inner_product_param {
    num_output: 2
    weight_filler {
      type: "gaussian"
      std: 0.01
    }
    bias_filler {
      type: "constant"
      value: 0
    }
  }
}
layers {
  bottom: "fc8_clampdet"
  bottom: "label"
  name: "loss"
  type: SOFTMAX_LOSS
}
layers {
  bottom: "fc8_clampdet"
  bottom: "label"
  top: "accuracy"
  name: "accuracy"
  type: ACCURACY
  include {
    phase: TEST
  }
}
state {
  phase: TEST
}
I1014 04:53:36.666438 28399 net.cpp:67] Creating Layer data
I1014 04:53:36.666446 28399 net.cpp:356] data -> data
I1014 04:53:36.666456 28399 net.cpp:356] data -> label
I1014 04:53:36.666463 28399 net.cpp:96] Setting up data
I1014 04:53:36.666468 28399 image_data_layer.cpp:30] Opening file data/clampdet/val.txt
I1014 04:53:36.666492 28399 image_data_layer.cpp:35] label: 0
I1014 04:53:36.666498 28399 image_data_layer.cpp:35] label: 1
I1014 04:53:36.666504 28399 image_data_layer.cpp:35] label: 0
I1014 04:53:36.666508 28399 image_data_layer.cpp:46] A total of 3 images.
I1014 04:53:36.669792 28399 image_data_layer.cpp:74] output data size: 251,3,227,227
I1014 04:53:36.669806 28399 base_data_layer.cpp:36] Loading mean file from/homes/ad6813/data/controlpoint_mean_256-227.binaryproto
I1014 04:53:36.687537 28399 net.cpp:103] Top shape: 251 3 227 227 (38801337)
I1014 04:53:36.687566 28399 net.cpp:103] Top shape: 251 1 1 1 (251)
I1014 04:53:36.687577 28399 net.cpp:67] Creating Layer label_data_1_split
I1014 04:53:36.687589 28399 net.cpp:394] label_data_1_split <- label
I1014 04:53:36.687597 28399 net.cpp:356] label_data_1_split -> label_data_1_split_0
I1014 04:53:36.687608 28399 net.cpp:356] label_data_1_split -> label_data_1_split_1
I1014 04:53:36.687613 28399 net.cpp:96] Setting up label_data_1_split
I1014 04:53:36.687620 28399 net.cpp:103] Top shape: 251 1 1 1 (251)
I1014 04:53:36.687628 28399 net.cpp:103] Top shape: 251 1 1 1 (251)
I1014 04:53:36.687635 28399 net.cpp:67] Creating Layer conv1
I1014 04:53:36.687638 28399 net.cpp:394] conv1 <- data
I1014 04:53:36.687644 28399 net.cpp:356] conv1 -> conv1
I1014 04:53:36.687655 28399 net.cpp:96] Setting up conv1
I1014 04:53:36.688552 28399 net.cpp:103] Top shape: 251 96 55 55 (72890400)
I1014 04:53:36.688568 28399 net.cpp:67] Creating Layer relu1
I1014 04:53:36.688571 28399 net.cpp:394] relu1 <- conv1
I1014 04:53:36.688575 28399 net.cpp:345] relu1 -> conv1 (in-place)
I1014 04:53:36.688580 28399 net.cpp:96] Setting up relu1
I1014 04:53:36.688583 28399 net.cpp:103] Top shape: 251 96 55 55 (72890400)
I1014 04:53:36.688590 28399 net.cpp:67] Creating Layer pool1
I1014 04:53:36.688592 28399 net.cpp:394] pool1 <- conv1
I1014 04:53:36.688596 28399 net.cpp:356] pool1 -> pool1
I1014 04:53:36.688603 28399 net.cpp:96] Setting up pool1
I1014 04:53:36.688608 28399 net.cpp:103] Top shape: 251 96 27 27 (17565984)
I1014 04:53:36.688614 28399 net.cpp:67] Creating Layer norm1
I1014 04:53:36.688617 28399 net.cpp:394] norm1 <- pool1
I1014 04:53:36.688621 28399 net.cpp:356] norm1 -> norm1
I1014 04:53:36.688626 28399 net.cpp:96] Setting up norm1
I1014 04:53:36.688630 28399 net.cpp:103] Top shape: 251 96 27 27 (17565984)
I1014 04:53:36.688635 28399 net.cpp:67] Creating Layer conv2
I1014 04:53:36.688640 28399 net.cpp:394] conv2 <- norm1
I1014 04:53:36.688644 28399 net.cpp:356] conv2 -> conv2
I1014 04:53:36.688650 28399 net.cpp:96] Setting up conv2
I1014 04:53:36.696377 28399 net.cpp:103] Top shape: 251 256 27 27 (46842624)
I1014 04:53:36.696393 28399 net.cpp:67] Creating Layer relu2
I1014 04:53:36.696398 28399 net.cpp:394] relu2 <- conv2
I1014 04:53:36.696401 28399 net.cpp:345] relu2 -> conv2 (in-place)
I1014 04:53:36.696406 28399 net.cpp:96] Setting up relu2
I1014 04:53:36.696409 28399 net.cpp:103] Top shape: 251 256 27 27 (46842624)
I1014 04:53:36.696425 28399 net.cpp:67] Creating Layer pool2
I1014 04:53:36.696429 28399 net.cpp:394] pool2 <- conv2
I1014 04:53:36.696432 28399 net.cpp:356] pool2 -> pool2
I1014 04:53:36.696440 28399 net.cpp:96] Setting up pool2
I1014 04:53:36.696447 28399 net.cpp:103] Top shape: 251 256 13 13 (10859264)
I1014 04:53:36.696452 28399 net.cpp:67] Creating Layer norm2
I1014 04:53:36.696455 28399 net.cpp:394] norm2 <- pool2
I1014 04:53:36.696460 28399 net.cpp:356] norm2 -> norm2
I1014 04:53:36.696466 28399 net.cpp:96] Setting up norm2
I1014 04:53:36.696470 28399 net.cpp:103] Top shape: 251 256 13 13 (10859264)
I1014 04:53:36.696478 28399 net.cpp:67] Creating Layer conv3
I1014 04:53:36.696483 28399 net.cpp:394] conv3 <- norm2
I1014 04:53:36.696490 28399 net.cpp:356] conv3 -> conv3
I1014 04:53:36.696496 28399 net.cpp:96] Setting up conv3
I1014 04:53:36.718375 28399 net.cpp:103] Top shape: 251 384 13 13 (16288896)
I1014 04:53:36.718402 28399 net.cpp:67] Creating Layer relu3
I1014 04:53:36.718407 28399 net.cpp:394] relu3 <- conv3
I1014 04:53:36.718415 28399 net.cpp:345] relu3 -> conv3 (in-place)
I1014 04:53:36.718420 28399 net.cpp:96] Setting up relu3
I1014 04:53:36.718425 28399 net.cpp:103] Top shape: 251 384 13 13 (16288896)
I1014 04:53:36.718431 28399 net.cpp:67] Creating Layer conv4
I1014 04:53:36.718435 28399 net.cpp:394] conv4 <- conv3
I1014 04:53:36.718438 28399 net.cpp:356] conv4 -> conv4
I1014 04:53:36.718444 28399 net.cpp:96] Setting up conv4
I1014 04:53:36.734871 28399 net.cpp:103] Top shape: 251 384 13 13 (16288896)
I1014 04:53:36.734890 28399 net.cpp:67] Creating Layer relu4
I1014 04:53:36.734894 28399 net.cpp:394] relu4 <- conv4
I1014 04:53:36.734899 28399 net.cpp:345] relu4 -> conv4 (in-place)
I1014 04:53:36.734904 28399 net.cpp:96] Setting up relu4
I1014 04:53:36.734906 28399 net.cpp:103] Top shape: 251 384 13 13 (16288896)
I1014 04:53:36.734915 28399 net.cpp:67] Creating Layer conv5
I1014 04:53:36.734917 28399 net.cpp:394] conv5 <- conv4
I1014 04:53:36.734922 28399 net.cpp:356] conv5 -> conv5
I1014 04:53:36.734928 28399 net.cpp:96] Setting up conv5
I1014 04:53:36.745910 28399 net.cpp:103] Top shape: 251 256 13 13 (10859264)
I1014 04:53:36.745932 28399 net.cpp:67] Creating Layer relu5
I1014 04:53:36.745936 28399 net.cpp:394] relu5 <- conv5
I1014 04:53:36.745942 28399 net.cpp:345] relu5 -> conv5 (in-place)
I1014 04:53:36.745949 28399 net.cpp:96] Setting up relu5
I1014 04:53:36.745951 28399 net.cpp:103] Top shape: 251 256 13 13 (10859264)
I1014 04:53:36.745959 28399 net.cpp:67] Creating Layer pool5
I1014 04:53:36.745961 28399 net.cpp:394] pool5 <- conv5
I1014 04:53:36.745965 28399 net.cpp:356] pool5 -> pool5
I1014 04:53:36.745973 28399 net.cpp:96] Setting up pool5
I1014 04:53:36.745978 28399 net.cpp:103] Top shape: 251 256 6 6 (2313216)
I1014 04:53:36.745985 28399 net.cpp:67] Creating Layer fc6
I1014 04:53:36.745990 28399 net.cpp:394] fc6 <- pool5
I1014 04:53:36.745995 28399 net.cpp:356] fc6 -> fc6
I1014 04:53:36.746006 28399 net.cpp:96] Setting up fc6
I1014 04:53:37.654806 28399 net.cpp:103] Top shape: 251 4096 1 1 (1028096)
I1014 04:53:37.654844 28399 net.cpp:67] Creating Layer relu6
I1014 04:53:37.654851 28399 net.cpp:394] relu6 <- fc6
I1014 04:53:37.654860 28399 net.cpp:345] relu6 -> fc6 (in-place)
I1014 04:53:37.654870 28399 net.cpp:96] Setting up relu6
I1014 04:53:37.654891 28399 net.cpp:103] Top shape: 251 4096 1 1 (1028096)
I1014 04:53:37.654901 28399 net.cpp:67] Creating Layer drop6
I1014 04:53:37.654904 28399 net.cpp:394] drop6 <- fc6
I1014 04:53:37.654908 28399 net.cpp:345] drop6 -> fc6 (in-place)
I1014 04:53:37.654914 28399 net.cpp:96] Setting up drop6
I1014 04:53:37.654918 28399 net.cpp:103] Top shape: 251 4096 1 1 (1028096)
I1014 04:53:37.654927 28399 net.cpp:67] Creating Layer fc7
I1014 04:53:37.654929 28399 net.cpp:394] fc7 <- fc6
I1014 04:53:37.654933 28399 net.cpp:356] fc7 -> fc7
I1014 04:53:37.654939 28399 net.cpp:96] Setting up fc7
I1014 04:53:38.061978 28399 net.cpp:103] Top shape: 251 4096 1 1 (1028096)
I1014 04:53:38.062013 28399 net.cpp:67] Creating Layer relu7
I1014 04:53:38.062018 28399 net.cpp:394] relu7 <- fc7
I1014 04:53:38.062036 28399 net.cpp:345] relu7 -> fc7 (in-place)
I1014 04:53:38.062043 28399 net.cpp:96] Setting up relu7
I1014 04:53:38.062047 28399 net.cpp:103] Top shape: 251 4096 1 1 (1028096)
I1014 04:53:38.062053 28399 net.cpp:67] Creating Layer drop7
I1014 04:53:38.062057 28399 net.cpp:394] drop7 <- fc7
I1014 04:53:38.062060 28399 net.cpp:345] drop7 -> fc7 (in-place)
I1014 04:53:38.062065 28399 net.cpp:96] Setting up drop7
I1014 04:53:38.062069 28399 net.cpp:103] Top shape: 251 4096 1 1 (1028096)
I1014 04:53:38.062077 28399 net.cpp:67] Creating Layer fc8_clampdet
I1014 04:53:38.062080 28399 net.cpp:394] fc8_clampdet <- fc7
I1014 04:53:38.062088 28399 net.cpp:356] fc8_clampdet -> fc8_clampdet
I1014 04:53:38.062098 28399 net.cpp:96] Setting up fc8_clampdet
I1014 04:53:38.062322 28399 net.cpp:103] Top shape: 251 2 1 1 (502)
I1014 04:53:38.062332 28399 net.cpp:67] Creating Layer fc8_clampdet_fc8_clampdet_0_split
I1014 04:53:38.062337 28399 net.cpp:394] fc8_clampdet_fc8_clampdet_0_split <- fc8_clampdet
I1014 04:53:38.062341 28399 net.cpp:356] fc8_clampdet_fc8_clampdet_0_split -> fc8_clampdet_fc8_clampdet_0_split_0
I1014 04:53:38.062350 28399 net.cpp:356] fc8_clampdet_fc8_clampdet_0_split -> fc8_clampdet_fc8_clampdet_0_split_1
I1014 04:53:38.062356 28399 net.cpp:96] Setting up fc8_clampdet_fc8_clampdet_0_split
I1014 04:53:38.062361 28399 net.cpp:103] Top shape: 251 2 1 1 (502)
I1014 04:53:38.062365 28399 net.cpp:103] Top shape: 251 2 1 1 (502)
I1014 04:53:38.062372 28399 net.cpp:67] Creating Layer loss
I1014 04:53:38.062376 28399 net.cpp:394] loss <- fc8_clampdet_fc8_clampdet_0_split_0
I1014 04:53:38.062381 28399 net.cpp:394] loss <- label_data_1_split_0
I1014 04:53:38.062393 28399 net.cpp:356] loss -> (automatic)
I1014 04:53:38.062399 28399 net.cpp:96] Setting up loss
I1014 04:53:38.062407 28399 net.cpp:103] Top shape: 1 1 1 1 (1)
I1014 04:53:38.062412 28399 net.cpp:109]     with loss weight 1
I1014 04:53:38.062427 28399 net.cpp:67] Creating Layer accuracy
I1014 04:53:38.062433 28399 net.cpp:394] accuracy <- fc8_clampdet_fc8_clampdet_0_split_1
I1014 04:53:38.062440 28399 net.cpp:394] accuracy <- label_data_1_split_1
I1014 04:53:38.062448 28399 net.cpp:356] accuracy -> accuracy
I1014 04:53:38.062455 28399 net.cpp:96] Setting up accuracy
I1014 04:53:38.062463 28399 net.cpp:103] Top shape: 1 1 1 1 (1)
I1014 04:53:38.062468 28399 net.cpp:172] accuracy does not need backward computation.
I1014 04:53:38.062470 28399 net.cpp:170] loss needs backward computation.
I1014 04:53:38.062474 28399 net.cpp:170] fc8_clampdet_fc8_clampdet_0_split needs backward computation.
I1014 04:53:38.062479 28399 net.cpp:170] fc8_clampdet needs backward computation.
I1014 04:53:38.062481 28399 net.cpp:172] drop7 does not need backward computation.
…
