…
I1017 12:34:22.119583 14169 net.cpp:275] The NetState phase (0) differed from the phase (1) specified by a rule in layer data
I1017 12:34:22.119624 14169 net.cpp:275] The NetState phase (0) differed from the phase (1) specified by a rule in layer accuracy
I1017 12:34:22.119875 14169 net.cpp:39] Initializing net from parameters: 
name: "ClampCaffeNet"
layers {
  top: "data"
  top: "label"
  name: "data"
  type: IMAGE_DATA
  image_data_param {
    source: "data/clamp/train.txt"
    batch_size: 256
    new_height: 256
    new_width: 256
  }
  include {
    phase: TRAIN
  }
  transform_param {
    mirror: true
    crop_size: 227
    mean_file: "/homes/ad6813/data/controlpoint_mean_256-227.binaryproto"
  }
}
layers {
  bottom: "data"
  top: "conv1"
  name: "conv1"
  type: CONVOLUTION
  blobs_lr: 1
  blobs_lr: 2
  weight_decay: 1
  weight_decay: 0
  convolution_param {
    num_output: 96
    kernel_size: 11
    stride: 4
    weight_filler {
      type: "gaussian"
      std: 0.01
    }
    bias_filler {
      type: "constant"
      value: 0
    }
  }
}
layers {
  bottom: "conv1"
  top: "conv1"
  name: "relu1"
  type: RELU
}
layers {
  bottom: "conv1"
  top: "pool1"
  name: "pool1"
  type: POOLING
  pooling_param {
    pool: MAX
    kernel_size: 3
    stride: 2
  }
}
layers {
  bottom: "pool1"
  top: "norm1"
  name: "norm1"
  type: LRN
  lrn_param {
    local_size: 5
    alpha: 0.0001
    beta: 0.75
  }
}
layers {
  bottom: "norm1"
  top: "conv2"
  name: "conv2"
  type: CONVOLUTION
  blobs_lr: 1
  blobs_lr: 2
  weight_decay: 1
  weight_decay: 0
  convolution_param {
    num_output: 256
    pad: 2
    kernel_size: 5
    group: 2
    weight_filler {
      type: "gaussian"
      std: 0.01
    }
    bias_filler {
      type: "constant"
      value: 1
    }
  }
}
layers {
  bottom: "conv2"
  top: "conv2"
  name: "relu2"
  type: RELU
}
layers {
  bottom: "conv2"
  top: "pool2"
  name: "pool2"
  type: POOLING
  pooling_param {
    pool: MAX
    kernel_size: 3
    stride: 2
  }
}
layers {
  bottom: "pool2"
  top: "norm2"
  name: "norm2"
  type: LRN
  lrn_param {
    local_size: 5
    alpha: 0.0001
    beta: 0.75
  }
}
layers {
  bottom: "norm2"
  top: "conv3"
  name: "conv3"
  type: CONVOLUTION
  blobs_lr: 1
  blobs_lr: 2
  weight_decay: 1
  weight_decay: 0
  convolution_param {
    num_output: 384
    pad: 1
    kernel_size: 3
    weight_filler {
      type: "gaussian"
      std: 0.01
    }
    bias_filler {
      type: "constant"
      value: 0
    }
  }
}
layers {
  bottom: "conv3"
  top: "conv3"
  name: "relu3"
  type: RELU
}
layers {
  bottom: "conv3"
  top: "conv4"
  name: "conv4"
  type: CONVOLUTION
  blobs_lr: 1
  blobs_lr: 2
  weight_decay: 1
  weight_decay: 0
  convolution_param {
    num_output: 384
    pad: 1
    kernel_size: 3
    group: 2
    weight_filler {
      type: "gaussian"
      std: 0.01
    }
    bias_filler {
      type: "constant"
      value: 1
    }
  }
}
layers {
  bottom: "conv4"
  top: "conv4"
  name: "relu4"
  type: RELU
}
layers {
  bottom: "conv4"
  top: "conv5"
  name: "conv5"
  type: CONVOLUTION
  blobs_lr: 1
  blobs_lr: 2
  weight_decay: 1
  weight_decay: 0
  convolution_param {
    num_output: 256
    pad: 1
    kernel_size: 3
    group: 2
    weight_filler {
      type: "gaussian"
      std: 0.01
    }
    bias_filler {
      type: "constant"
      value: 1
    }
  }
}
layers {
  bottom: "conv5"
  top: "conv5"
  name: "relu5"
  type: RELU
}
layers {
  bottom: "conv5"
  top: "pool5"
  name: "pool5"
  type: POOLING
  pooling_param {
    pool: MAX
    kernel_size: 3
    stride: 2
  }
}
layers {
  bottom: "pool5"
  top: "fc6"
  name: "fc6"
  type: INNER_PRODUCT
  blobs_lr: 1
  blobs_lr: 2
  weight_decay: 1
  weight_decay: 0
  inner_product_param {
    num_output: 4096
    weight_filler {
      type: "gaussian"
      std: 0.005
    }
    bias_filler {
      type: "constant"
      value: 1
    }
  }
}
layers {
  bottom: "fc6"
  top: "fc6"
  name: "relu6"
  type: RELU
}
layers {
  bottom: "fc6"
  top: "fc6"
  name: "drop6"
  type: DROPOUT
  dropout_param {
    dropout_ratio: 0.5
  }
}
layers {
  bottom: "fc6"
  top: "fc7"
  name: "fc7"
  type: INNER_PRODUCT
  blobs_lr: 1
  blobs_lr: 2
  weight_decay: 1
  weight_decay: 0
  inner_product_param {
    num_output: 4096
    weight_filler {
      type: "gaussian"
      std: 0.005
    }
    bias_filler {
      type: "constant"
      value: 1
    }
  }
}
layers {
  bottom: "fc7"
  top: "fc7"
  name: "relu7"
  type: RELU
}
layers {
  bottom: "fc7"
  top: "fc7"
  name: "drop7"
  type: DROPOUT
  dropout_param {
    dropout_ratio: 0.5
  }
}
layers {
  bottom: "fc7"
  top: "fc8_clamp"
  name: "fc8_clamp"
  type: INNER_PRODUCT
  blobs_lr: 1
  blobs_lr: 2
  weight_decay: 1
  weight_decay: 0
  inner_product_param {
    num_output: 2
    weight_filler {
      type: "gaussian"
      std: 0.01
    }
    bias_filler {
      type: "constant"
      value: 0
    }
  }
}
layers {
  bottom: "fc8_clamp"
  bottom: "label"
  name: "loss"
  type: MULTINOMIAL_LOGISTIC_LOSS
}
state {
  phase: TRAIN
}
I1017 12:34:22.120023 14169 net.cpp:67] Creating Layer data
I1017 12:34:22.120038 14169 net.cpp:356] data -> data
I1017 12:34:22.120059 14169 net.cpp:356] data -> label
I1017 12:34:22.120082 14169 net.cpp:96] Setting up data
I1017 12:34:22.120092 14169 image_data_layer.cpp:30] Opening file data/clamp/train.txt
I1017 12:34:22.133940 14169 image_data_layer.cpp:45] A total of 23495 images.
I1017 12:34:22.140811 14169 image_data_layer.cpp:73] output data size: 256,3,227,227
I1017 12:34:22.140852 14169 base_data_layer.cpp:36] Loading mean file from/homes/ad6813/data/controlpoint_mean_256-227.binaryproto
I1017 12:34:22.180397 14169 net.cpp:103] Top shape: 256 3 227 227 (39574272)
I1017 12:34:22.180441 14169 net.cpp:103] Top shape: 256 1 1 1 (256)
I1017 12:34:22.180464 14169 net.cpp:67] Creating Layer conv1
I1017 12:34:22.180471 14169 net.cpp:394] conv1 <- data
I1017 12:34:22.180490 14169 net.cpp:356] conv1 -> conv1
I1017 12:34:22.180505 14169 net.cpp:96] Setting up conv1
I1017 12:34:22.183182 14169 net.cpp:103] Top shape: 256 96 55 55 (74342400)
I1017 12:34:22.183253 14169 net.cpp:67] Creating Layer relu1
I1017 12:34:22.183265 14169 net.cpp:394] relu1 <- conv1
I1017 12:34:22.183282 14169 net.cpp:345] relu1 -> conv1 (in-place)
I1017 12:34:22.183305 14169 net.cpp:96] Setting up relu1
I1017 12:34:22.183318 14169 net.cpp:103] Top shape: 256 96 55 55 (74342400)
I1017 12:34:22.183347 14169 net.cpp:67] Creating Layer pool1
I1017 12:34:22.183353 14169 net.cpp:394] pool1 <- conv1
I1017 12:34:22.183361 14169 net.cpp:356] pool1 -> pool1
I1017 12:34:22.183368 14169 net.cpp:96] Setting up pool1
I1017 12:34:22.183383 14169 net.cpp:103] Top shape: 256 96 27 27 (17915904)
I1017 12:34:22.183393 14169 net.cpp:67] Creating Layer norm1
I1017 12:34:22.183398 14169 net.cpp:394] norm1 <- pool1
I1017 12:34:22.183405 14169 net.cpp:356] norm1 -> norm1
I1017 12:34:22.183413 14169 net.cpp:96] Setting up norm1
I1017 12:34:22.183423 14169 net.cpp:103] Top shape: 256 96 27 27 (17915904)
I1017 12:34:22.183432 14169 net.cpp:67] Creating Layer conv2
I1017 12:34:22.183437 14169 net.cpp:394] conv2 <- norm1
I1017 12:34:22.183445 14169 net.cpp:356] conv2 -> conv2
I1017 12:34:22.183454 14169 net.cpp:96] Setting up conv2
I1017 12:34:22.197629 14169 net.cpp:103] Top shape: 256 256 27 27 (47775744)
I1017 12:34:22.197653 14169 net.cpp:67] Creating Layer relu2
I1017 12:34:22.197659 14169 net.cpp:394] relu2 <- conv2
I1017 12:34:22.197665 14169 net.cpp:345] relu2 -> conv2 (in-place)
I1017 12:34:22.197674 14169 net.cpp:96] Setting up relu2
I1017 12:34:22.197679 14169 net.cpp:103] Top shape: 256 256 27 27 (47775744)
I1017 12:34:22.197685 14169 net.cpp:67] Creating Layer pool2
I1017 12:34:22.197702 14169 net.cpp:394] pool2 <- conv2
I1017 12:34:22.197710 14169 net.cpp:356] pool2 -> pool2
I1017 12:34:22.197718 14169 net.cpp:96] Setting up pool2
I1017 12:34:22.197726 14169 net.cpp:103] Top shape: 256 256 13 13 (11075584)
I1017 12:34:22.197733 14169 net.cpp:67] Creating Layer norm2
I1017 12:34:22.197738 14169 net.cpp:394] norm2 <- pool2
I1017 12:34:22.197746 14169 net.cpp:356] norm2 -> norm2
I1017 12:34:22.197752 14169 net.cpp:96] Setting up norm2
I1017 12:34:22.197758 14169 net.cpp:103] Top shape: 256 256 13 13 (11075584)
I1017 12:34:22.197767 14169 net.cpp:67] Creating Layer conv3
I1017 12:34:22.197772 14169 net.cpp:394] conv3 <- norm2
I1017 12:34:22.197778 14169 net.cpp:356] conv3 -> conv3
I1017 12:34:22.197788 14169 net.cpp:96] Setting up conv3
I1017 12:34:22.232719 14169 net.cpp:103] Top shape: 256 384 13 13 (16613376)
I1017 12:34:22.232759 14169 net.cpp:67] Creating Layer relu3
I1017 12:34:22.232766 14169 net.cpp:394] relu3 <- conv3
I1017 12:34:22.232774 14169 net.cpp:345] relu3 -> conv3 (in-place)
I1017 12:34:22.232784 14169 net.cpp:96] Setting up relu3
I1017 12:34:22.232789 14169 net.cpp:103] Top shape: 256 384 13 13 (16613376)
I1017 12:34:22.232799 14169 net.cpp:67] Creating Layer conv4
I1017 12:34:22.232803 14169 net.cpp:394] conv4 <- conv3
I1017 12:34:22.232810 14169 net.cpp:356] conv4 -> conv4
I1017 12:34:22.232820 14169 net.cpp:96] Setting up conv4
I1017 12:34:22.259310 14169 net.cpp:103] Top shape: 256 384 13 13 (16613376)
I1017 12:34:22.259341 14169 net.cpp:67] Creating Layer relu4
I1017 12:34:22.259347 14169 net.cpp:394] relu4 <- conv4
I1017 12:34:22.259356 14169 net.cpp:345] relu4 -> conv4 (in-place)
I1017 12:34:22.259366 14169 net.cpp:96] Setting up relu4
I1017 12:34:22.259371 14169 net.cpp:103] Top shape: 256 384 13 13 (16613376)
I1017 12:34:22.259379 14169 net.cpp:67] Creating Layer conv5
I1017 12:34:22.259384 14169 net.cpp:394] conv5 <- conv4
I1017 12:34:22.259392 14169 net.cpp:356] conv5 -> conv5
I1017 12:34:22.259400 14169 net.cpp:96] Setting up conv5
I1017 12:34:22.276888 14169 net.cpp:103] Top shape: 256 256 13 13 (11075584)
I1017 12:34:22.276916 14169 net.cpp:67] Creating Layer relu5
I1017 12:34:22.276921 14169 net.cpp:394] relu5 <- conv5
I1017 12:34:22.276929 14169 net.cpp:345] relu5 -> conv5 (in-place)
I1017 12:34:22.276938 14169 net.cpp:96] Setting up relu5
I1017 12:34:22.276943 14169 net.cpp:103] Top shape: 256 256 13 13 (11075584)
I1017 12:34:22.276952 14169 net.cpp:67] Creating Layer pool5
I1017 12:34:22.276955 14169 net.cpp:394] pool5 <- conv5
I1017 12:34:22.276964 14169 net.cpp:356] pool5 -> pool5
I1017 12:34:22.276973 14169 net.cpp:96] Setting up pool5
I1017 12:34:22.276979 14169 net.cpp:103] Top shape: 256 256 6 6 (2359296)
I1017 12:34:22.276991 14169 net.cpp:67] Creating Layer fc6
I1017 12:34:22.276995 14169 net.cpp:394] fc6 <- pool5
I1017 12:34:22.277005 14169 net.cpp:356] fc6 -> fc6
I1017 12:34:22.277014 14169 net.cpp:96] Setting up fc6
I1017 12:34:23.754008 14169 net.cpp:103] Top shape: 256 4096 1 1 (1048576)
I1017 12:34:23.754055 14169 net.cpp:67] Creating Layer relu6
I1017 12:34:23.754061 14169 net.cpp:394] relu6 <- fc6
I1017 12:34:23.754071 14169 net.cpp:345] relu6 -> fc6 (in-place)
I1017 12:34:23.754081 14169 net.cpp:96] Setting up relu6
I1017 12:34:23.754086 14169 net.cpp:103] Top shape: 256 4096 1 1 (1048576)
I1017 12:34:23.754093 14169 net.cpp:67] Creating Layer drop6
I1017 12:34:23.754098 14169 net.cpp:394] drop6 <- fc6
I1017 12:34:23.754107 14169 net.cpp:345] drop6 -> fc6 (in-place)
I1017 12:34:23.754114 14169 net.cpp:96] Setting up drop6
I1017 12:34:23.754124 14169 net.cpp:103] Top shape: 256 4096 1 1 (1048576)
I1017 12:34:23.754133 14169 net.cpp:67] Creating Layer fc7
I1017 12:34:23.754138 14169 net.cpp:394] fc7 <- fc6
I1017 12:34:23.754147 14169 net.cpp:356] fc7 -> fc7
I1017 12:34:23.754155 14169 net.cpp:96] Setting up fc7
I1017 12:34:24.410251 14169 net.cpp:103] Top shape: 256 4096 1 1 (1048576)
I1017 12:34:24.410293 14169 net.cpp:67] Creating Layer relu7
I1017 12:34:24.410300 14169 net.cpp:394] relu7 <- fc7
I1017 12:34:24.410325 14169 net.cpp:345] relu7 -> fc7 (in-place)
I1017 12:34:24.410334 14169 net.cpp:96] Setting up relu7
I1017 12:34:24.410341 14169 net.cpp:103] Top shape: 256 4096 1 1 (1048576)
I1017 12:34:24.410348 14169 net.cpp:67] Creating Layer drop7
I1017 12:34:24.410352 14169 net.cpp:394] drop7 <- fc7
I1017 12:34:24.410362 14169 net.cpp:345] drop7 -> fc7 (in-place)
I1017 12:34:24.410368 14169 net.cpp:96] Setting up drop7
I1017 12:34:24.410373 14169 net.cpp:103] Top shape: 256 4096 1 1 (1048576)
I1017 12:34:24.410382 14169 net.cpp:67] Creating Layer fc8_clamp
I1017 12:34:24.410387 14169 net.cpp:394] fc8_clamp <- fc7
I1017 12:34:24.410394 14169 net.cpp:356] fc8_clamp -> fc8_clamp
I1017 12:34:24.410403 14169 net.cpp:96] Setting up fc8_clamp
I1017 12:34:24.410740 14169 net.cpp:103] Top shape: 256 2 1 1 (512)
I1017 12:34:24.410758 14169 net.cpp:67] Creating Layer loss
I1017 12:34:24.410763 14169 net.cpp:394] loss <- fc8_clamp
I1017 12:34:24.410769 14169 net.cpp:394] loss <- label
I1017 12:34:24.410778 14169 net.cpp:356] loss -> (automatic)
I1017 12:34:24.410784 14169 net.cpp:96] Setting up loss
I1017 12:34:24.410801 14169 net.cpp:103] Top shape: 1 1 1 1 (1)
I1017 12:34:24.410807 14169 net.cpp:109]     with loss weight 1
I1017 12:34:24.410848 14169 net.cpp:170] loss needs backward computation.
I1017 12:34:24.410855 14169 net.cpp:170] fc8_clamp needs backward computation.
I1017 12:34:24.410859 14169 net.cpp:170] drop7 needs backward computation.
I1017 12:34:24.410863 14169 net.cpp:170] relu7 needs backward computation.
I1017 12:34:24.410867 14169 net.cpp:170] fc7 needs backward computation.
…
I1017 12:34:24.411901 14169 solver.cpp:151] Creating test net (#0) specified by net file: task/clamp/train_val.prototxt
I1017 12:34:24.411960 14169 net.cpp:275] The NetState phase (1) differed from the phase (0) specified by a rule in layer data
I1017 12:34:24.412231 14169 net.cpp:39] Initializing net from parameters: 
name: "ClampCaffeNet"
layers {
  top: "data"
  top: "label"
  name: "data"
  type: IMAGE_DATA
  image_data_param {
    source: "data/clamp/val.txt"
    batch_size: 251
    new_height: 256
    new_width: 256
  }
  include {
    phase: TEST
  }
  transform_param {
    mirror: false
    crop_size: 227
    mean_file: "/homes/ad6813/data/controlpoint_mean_256-227.binaryproto"
  }
}
layers {
  bottom: "data"
  top: "conv1"
  name: "conv1"
  type: CONVOLUTION
  blobs_lr: 1
  blobs_lr: 2
  weight_decay: 1
  weight_decay: 0
  convolution_param {
    num_output: 96
    kernel_size: 11
    stride: 4
    weight_filler {
      type: "gaussian"
      std: 0.01
    }
    bias_filler {
      type: "constant"
      value: 0
    }
  }
}
layers {
  bottom: "conv1"
  top: "conv1"
  name: "relu1"
  type: RELU
}
layers {
  bottom: "conv1"
  top: "pool1"
  name: "pool1"
  type: POOLING
  pooling_param {
    pool: MAX
    kernel_size: 3
    stride: 2
  }
}
layers {
  bottom: "pool1"
  top: "norm1"
  name: "norm1"
  type: LRN
  lrn_param {
    local_size: 5
    alpha: 0.0001
    beta: 0.75
  }
}
layers {
  bottom: "norm1"
  top: "conv2"
  name: "conv2"
  type: CONVOLUTION
  blobs_lr: 1
  blobs_lr: 2
  weight_decay: 1
  weight_decay: 0
  convolution_param {
    num_output: 256
    pad: 2
    kernel_size: 5
    group: 2
    weight_filler {
      type: "gaussian"
      std: 0.01
    }
    bias_filler {
      type: "constant"
      value: 1
    }
  }
}
layers {
  bottom: "conv2"
  top: "conv2"
  name: "relu2"
  type: RELU
}
layers {
  bottom: "conv2"
  top: "pool2"
  name: "pool2"
  type: POOLING
  pooling_param {
    pool: MAX
    kernel_size: 3
    stride: 2
  }
}
layers {
  bottom: "pool2"
  top: "norm2"
  name: "norm2"
  type: LRN
  lrn_param {
    local_size: 5
    alpha: 0.0001
    beta: 0.75
  }
}
layers {
  bottom: "norm2"
  top: "conv3"
  name: "conv3"
  type: CONVOLUTION
  blobs_lr: 1
  blobs_lr: 2
  weight_decay: 1
  weight_decay: 0
  convolution_param {
    num_output: 384
    pad: 1
    kernel_size: 3
    weight_filler {
      type: "gaussian"
      std: 0.01
    }
    bias_filler {
      type: "constant"
      value: 0
    }
  }
}
layers {
  bottom: "conv3"
  top: "conv3"
  name: "relu3"
  type: RELU
}
layers {
  bottom: "conv3"
  top: "conv4"
  name: "conv4"
  type: CONVOLUTION
  blobs_lr: 1
  blobs_lr: 2
  weight_decay: 1
  weight_decay: 0
  convolution_param {
    num_output: 384
    pad: 1
    kernel_size: 3
    group: 2
    weight_filler {
      type: "gaussian"
      std: 0.01
    }
    bias_filler {
      type: "constant"
      value: 1
    }
  }
}
layers {
  bottom: "conv4"
  top: "conv4"
  name: "relu4"
  type: RELU
}
layers {
  bottom: "conv4"
  top: "conv5"
  name: "conv5"
  type: CONVOLUTION
  blobs_lr: 1
  blobs_lr: 2
  weight_decay: 1
  weight_decay: 0
  convolution_param {
    num_output: 256
    pad: 1
    kernel_size: 3
    group: 2
    weight_filler {
      type: "gaussian"
      std: 0.01
    }
    bias_filler {
      type: "constant"
      value: 1
    }
  }
}
layers {
  bottom: "conv5"
  top: "conv5"
  name: "relu5"
  type: RELU
}
layers {
  bottom: "conv5"
  top: "pool5"
  name: "pool5"
  type: POOLING
  pooling_param {
    pool: MAX
    kernel_size: 3
    stride: 2
  }
}
layers {
  bottom: "pool5"
  top: "fc6"
  name: "fc6"
  type: INNER_PRODUCT
  blobs_lr: 1
  blobs_lr: 2
  weight_decay: 1
  weight_decay: 0
  inner_product_param {
    num_output: 4096
    weight_filler {
      type: "gaussian"
      std: 0.005
    }
    bias_filler {
      type: "constant"
      value: 1
    }
  }
}
layers {
  bottom: "fc6"
  top: "fc6"
  name: "relu6"
  type: RELU
}
layers {
  bottom: "fc6"
  top: "fc6"
  name: "drop6"
  type: DROPOUT
  dropout_param {
    dropout_ratio: 0.5
  }
}
layers {
  bottom: "fc6"
  top: "fc7"
  name: "fc7"
  type: INNER_PRODUCT
  blobs_lr: 1
  blobs_lr: 2
  weight_decay: 1
  weight_decay: 0
  inner_product_param {
    num_output: 4096
    weight_filler {
      type: "gaussian"
      std: 0.005
    }
    bias_filler {
      type: "constant"
      value: 1
    }
  }
}
layers {
  bottom: "fc7"
  top: "fc7"
  name: "relu7"
  type: RELU
}
layers {
  bottom: "fc7"
  top: "fc7"
  name: "drop7"
  type: DROPOUT
  dropout_param {
    dropout_ratio: 0.5
  }
}
layers {
  bottom: "fc7"
  top: "fc8_clamp"
  name: "fc8_clamp"
  type: INNER_PRODUCT
  blobs_lr: 1
  blobs_lr: 2
  weight_decay: 1
  weight_decay: 0
  inner_product_param {
    num_output: 2
    weight_filler {
      type: "gaussian"
      std: 0.01
    }
    bias_filler {
      type: "constant"
      value: 0
    }
  }
}
layers {
  bottom: "fc8_clamp"
  bottom: "label"
  name: "loss"
  type: MULTINOMIAL_LOGISTIC_LOSS
}
layers {
  bottom: "fc8_clamp"
  bottom: "label"
  top: "accuracy"
  name: "accuracy"
  type: ACCURACY
  include {
    phase: TEST
  }
}
state {
  phase: TEST
}
I1017 12:34:24.412417 14169 net.cpp:67] Creating Layer data
I1017 12:34:24.412428 14169 net.cpp:356] data -> data
I1017 12:34:24.412441 14169 net.cpp:356] data -> label
I1017 12:34:24.412451 14169 net.cpp:96] Setting up data
I1017 12:34:24.412456 14169 image_data_layer.cpp:30] Opening file data/clamp/val.txt
I1017 12:34:24.413645 14169 image_data_layer.cpp:45] A total of 2006 images.
I1017 12:34:24.416154 14169 image_data_layer.cpp:73] output data size: 251,3,227,227
I1017 12:34:24.416177 14169 base_data_layer.cpp:36] Loading mean file from/homes/ad6813/data/controlpoint_mean_256-227.binaryproto
I1017 12:34:24.446960 14169 net.cpp:103] Top shape: 251 3 227 227 (38801337)
I1017 12:34:24.446997 14169 net.cpp:103] Top shape: 251 1 1 1 (251)
I1017 12:34:24.447021 14169 net.cpp:67] Creating Layer label_data_1_split
I1017 12:34:24.447031 14169 net.cpp:394] label_data_1_split <- label
I1017 12:34:24.447047 14169 net.cpp:356] label_data_1_split -> label_data_1_split_0
I1017 12:34:24.447070 14169 net.cpp:356] label_data_1_split -> label_data_1_split_1
I1017 12:34:24.447089 14169 net.cpp:96] Setting up label_data_1_split
I1017 12:34:24.447116 14169 net.cpp:103] Top shape: 251 1 1 1 (251)
I1017 12:34:24.447130 14169 net.cpp:103] Top shape: 251 1 1 1 (251)
I1017 12:34:24.447150 14169 net.cpp:67] Creating Layer conv1
I1017 12:34:24.447178 14169 net.cpp:394] conv1 <- data
I1017 12:34:24.447199 14169 net.cpp:356] conv1 -> conv1
I1017 12:34:24.447232 14169 net.cpp:96] Setting up conv1
I1017 12:34:24.448683 14169 net.cpp:103] Top shape: 251 96 55 55 (72890400)
I1017 12:34:24.448715 14169 net.cpp:67] Creating Layer relu1
I1017 12:34:24.448726 14169 net.cpp:394] relu1 <- conv1
I1017 12:34:24.448740 14169 net.cpp:345] relu1 -> conv1 (in-place)
I1017 12:34:24.448755 14169 net.cpp:96] Setting up relu1
I1017 12:34:24.448772 14169 net.cpp:103] Top shape: 251 96 55 55 (72890400)
I1017 12:34:24.448799 14169 net.cpp:67] Creating Layer pool1
I1017 12:34:24.448812 14169 net.cpp:394] pool1 <- conv1
I1017 12:34:24.448827 14169 net.cpp:356] pool1 -> pool1
I1017 12:34:24.448849 14169 net.cpp:96] Setting up pool1
I1017 12:34:24.448864 14169 net.cpp:103] Top shape: 251 96 27 27 (17565984)
I1017 12:34:24.448879 14169 net.cpp:67] Creating Layer norm1
I1017 12:34:24.448899 14169 net.cpp:394] norm1 <- pool1
I1017 12:34:24.448914 14169 net.cpp:356] norm1 -> norm1
I1017 12:34:24.448930 14169 net.cpp:96] Setting up norm1
I1017 12:34:24.448951 14169 net.cpp:103] Top shape: 251 96 27 27 (17565984)
I1017 12:34:24.448966 14169 net.cpp:67] Creating Layer conv2
I1017 12:34:24.448979 14169 net.cpp:394] conv2 <- norm1
I1017 12:34:24.449007 14169 net.cpp:356] conv2 -> conv2
I1017 12:34:24.449026 14169 net.cpp:96] Setting up conv2
I1017 12:34:24.461207 14169 net.cpp:103] Top shape: 251 256 27 27 (46842624)
I1017 12:34:24.461238 14169 net.cpp:67] Creating Layer relu2
I1017 12:34:24.461249 14169 net.cpp:394] relu2 <- conv2
I1017 12:34:24.461263 14169 net.cpp:345] relu2 -> conv2 (in-place)
I1017 12:34:24.461277 14169 net.cpp:96] Setting up relu2
I1017 12:34:24.461288 14169 net.cpp:103] Top shape: 251 256 27 27 (46842624)
I1017 12:34:24.461324 14169 net.cpp:67] Creating Layer pool2
I1017 12:34:24.461338 14169 net.cpp:394] pool2 <- conv2
I1017 12:34:24.461352 14169 net.cpp:356] pool2 -> pool2
I1017 12:34:24.461376 14169 net.cpp:96] Setting up pool2
I1017 12:34:24.461395 14169 net.cpp:103] Top shape: 251 256 13 13 (10859264)
I1017 12:34:24.461426 14169 net.cpp:67] Creating Layer norm2
I1017 12:34:24.461441 14169 net.cpp:394] norm2 <- pool2
I1017 12:34:24.461454 14169 net.cpp:356] norm2 -> norm2
I1017 12:34:24.461477 14169 net.cpp:96] Setting up norm2
I1017 12:34:24.461493 14169 net.cpp:103] Top shape: 251 256 13 13 (10859264)
I1017 12:34:24.461514 14169 net.cpp:67] Creating Layer conv3
I1017 12:34:24.461532 14169 net.cpp:394] conv3 <- norm2
I1017 12:34:24.461565 14169 net.cpp:356] conv3 -> conv3
I1017 12:34:24.461596 14169 net.cpp:96] Setting up conv3
I1017 12:34:24.497093 14169 net.cpp:103] Top shape: 251 384 13 13 (16288896)
I1017 12:34:24.497143 14169 net.cpp:67] Creating Layer relu3
I1017 12:34:24.497155 14169 net.cpp:394] relu3 <- conv3
I1017 12:34:24.497172 14169 net.cpp:345] relu3 -> conv3 (in-place)
I1017 12:34:24.497189 14169 net.cpp:96] Setting up relu3
I1017 12:34:24.497200 14169 net.cpp:103] Top shape: 251 384 13 13 (16288896)
I1017 12:34:24.497217 14169 net.cpp:67] Creating Layer conv4
I1017 12:34:24.497227 14169 net.cpp:394] conv4 <- conv3
I1017 12:34:24.497242 14169 net.cpp:356] conv4 -> conv4
I1017 12:34:24.497259 14169 net.cpp:96] Setting up conv4
I1017 12:34:24.523463 14169 net.cpp:103] Top shape: 251 384 13 13 (16288896)
I1017 12:34:24.523504 14169 net.cpp:67] Creating Layer relu4
I1017 12:34:24.523514 14169 net.cpp:394] relu4 <- conv4
I1017 12:34:24.523529 14169 net.cpp:345] relu4 -> conv4 (in-place)
I1017 12:34:24.523543 14169 net.cpp:96] Setting up relu4
I1017 12:34:24.523553 14169 net.cpp:103] Top shape: 251 384 13 13 (16288896)
I1017 12:34:24.523578 14169 net.cpp:67] Creating Layer conv5
I1017 12:34:24.523593 14169 net.cpp:394] conv5 <- conv4
I1017 12:34:24.523610 14169 net.cpp:356] conv5 -> conv5
I1017 12:34:24.523638 14169 net.cpp:96] Setting up conv5
I1017 12:34:24.541435 14169 net.cpp:103] Top shape: 251 256 13 13 (10859264)
I1017 12:34:24.541473 14169 net.cpp:67] Creating Layer relu5
I1017 12:34:24.541486 14169 net.cpp:394] relu5 <- conv5
I1017 12:34:24.541501 14169 net.cpp:345] relu5 -> conv5 (in-place)
I1017 12:34:24.541515 14169 net.cpp:96] Setting up relu5
I1017 12:34:24.541534 14169 net.cpp:103] Top shape: 251 256 13 13 (10859264)
I1017 12:34:24.541568 14169 net.cpp:67] Creating Layer pool5
I1017 12:34:24.541579 14169 net.cpp:394] pool5 <- conv5
I1017 12:34:24.541594 14169 net.cpp:356] pool5 -> pool5
I1017 12:34:24.541616 14169 net.cpp:96] Setting up pool5
I1017 12:34:24.541631 14169 net.cpp:103] Top shape: 251 256 6 6 (2313216)
I1017 12:34:24.541647 14169 net.cpp:67] Creating Layer fc6
I1017 12:34:24.541671 14169 net.cpp:394] fc6 <- pool5
I1017 12:34:24.541697 14169 net.cpp:356] fc6 -> fc6
I1017 12:34:24.541725 14169 net.cpp:96] Setting up fc6
I1017 12:34:26.019179 14169 net.cpp:103] Top shape: 251 4096 1 1 (1028096)
I1017 12:34:26.019237 14169 net.cpp:67] Creating Layer relu6
I1017 12:34:26.019249 14169 net.cpp:394] relu6 <- fc6
I1017 12:34:26.019265 14169 net.cpp:345] relu6 -> fc6 (in-place)
I1017 12:34:26.019281 14169 net.cpp:96] Setting up relu6
I1017 12:34:26.019292 14169 net.cpp:103] Top shape: 251 4096 1 1 (1028096)
I1017 12:34:26.019314 14169 net.cpp:67] Creating Layer drop6
I1017 12:34:26.019330 14169 net.cpp:394] drop6 <- fc6
I1017 12:34:26.019345 14169 net.cpp:345] drop6 -> fc6 (in-place)
I1017 12:34:26.019361 14169 net.cpp:96] Setting up drop6
I1017 12:34:26.019374 14169 net.cpp:103] Top shape: 251 4096 1 1 (1028096)
I1017 12:34:26.019392 14169 net.cpp:67] Creating Layer fc7
I1017 12:34:26.019417 14169 net.cpp:394] fc7 <- fc6
I1017 12:34:26.019436 14169 net.cpp:356] fc7 -> fc7
I1017 12:34:26.019460 14169 net.cpp:96] Setting up fc7
I1017 12:34:26.675631 14169 net.cpp:103] Top shape: 251 4096 1 1 (1028096)
I1017 12:34:26.675683 14169 net.cpp:67] Creating Layer relu7
I1017 12:34:26.675695 14169 net.cpp:394] relu7 <- fc7
I1017 12:34:26.675709 14169 net.cpp:345] relu7 -> fc7 (in-place)
I1017 12:34:26.675726 14169 net.cpp:96] Setting up relu7
I1017 12:34:26.675736 14169 net.cpp:103] Top shape: 251 4096 1 1 (1028096)
I1017 12:34:26.675755 14169 net.cpp:67] Creating Layer drop7
I1017 12:34:26.675765 14169 net.cpp:394] drop7 <- fc7
I1017 12:34:26.675778 14169 net.cpp:345] drop7 -> fc7 (in-place)
I1017 12:34:26.675792 14169 net.cpp:96] Setting up drop7
I1017 12:34:26.675812 14169 net.cpp:103] Top shape: 251 4096 1 1 (1028096)
I1017 12:34:26.675828 14169 net.cpp:67] Creating Layer fc8_clamp
I1017 12:34:26.675848 14169 net.cpp:394] fc8_clamp <- fc7
I1017 12:34:26.675868 14169 net.cpp:356] fc8_clamp -> fc8_clamp
I1017 12:34:26.675916 14169 net.cpp:96] Setting up fc8_clamp
I1017 12:34:26.676280 14169 net.cpp:103] Top shape: 251 2 1 1 (502)
I1017 12:34:26.676304 14169 net.cpp:67] Creating Layer fc8_clamp_fc8_clamp_0_split
I1017 12:34:26.676321 14169 net.cpp:394] fc8_clamp_fc8_clamp_0_split <- fc8_clamp
I1017 12:34:26.676348 14169 net.cpp:356] fc8_clamp_fc8_clamp_0_split -> fc8_clamp_fc8_clamp_0_split_0
I1017 12:34:26.676367 14169 net.cpp:356] fc8_clamp_fc8_clamp_0_split -> fc8_clamp_fc8_clamp_0_split_1
I1017 12:34:26.676383 14169 net.cpp:96] Setting up fc8_clamp_fc8_clamp_0_split
I1017 12:34:26.676395 14169 net.cpp:103] Top shape: 251 2 1 1 (502)
I1017 12:34:26.676405 14169 net.cpp:103] Top shape: 251 2 1 1 (502)
I1017 12:34:26.676424 14169 net.cpp:67] Creating Layer loss
I1017 12:34:26.676434 14169 net.cpp:394] loss <- fc8_clamp_fc8_clamp_0_split_0
I1017 12:34:26.676446 14169 net.cpp:394] loss <- label_data_1_split_0
I1017 12:34:26.676517 14169 net.cpp:356] loss -> (automatic)
I1017 12:34:26.676535 14169 net.cpp:96] Setting up loss
I1017 12:34:26.676561 14169 net.cpp:103] Top shape: 1 1 1 1 (1)
I1017 12:34:26.676575 14169 net.cpp:109]     with loss weight 1
I1017 12:34:26.676614 14169 net.cpp:67] Creating Layer accuracy
I1017 12:34:26.676628 14169 net.cpp:394] accuracy <- fc8_clamp_fc8_clamp_0_split_1
I1017 12:34:26.676640 14169 net.cpp:394] accuracy <- label_data_1_split_1
I1017 12:34:26.676659 14169 net.cpp:356] accuracy -> accuracy
I1017 12:34:26.676687 14169 net.cpp:96] Setting up accuracy
I1017 12:34:26.676710 14169 net.cpp:103] Top shape: 1 1 1 4 (4)
I1017 12:34:26.676730 14169 net.cpp:172] accuracy does not need backward computation.
I1017 12:34:26.676740 14169 net.cpp:170] loss needs backward computation.
I1017 12:34:26.676750 14169 net.cpp:170] fc8_clamp_fc8_clamp_0_split needs backward computation.
I1017 12:34:26.676760 14169 net.cpp:170] fc8_clamp needs backward computation.
I1017 12:34:26.676776 14169 net.cpp:170] drop7 needs backward computation.
…
