…
I1110 04:09:51.649802   489 net.cpp:275] The NetState phase (0) differed from the phase (1) specified by a rule in layer accuracy
I1110 04:09:51.650085   489 net.cpp:39] Initializing net from parameters: 
name: "ClampCaffeNet"
layers {
  top: "data"
  top: "label"
  name: "data"
  type: IMAGE_DATA
  image_data_param {
    source: "data/scrape_blue/train.txt"
    batch_size: 128
    new_height: 256
    new_width: 256
  }
  include {
    phase: TRAIN
  }
  transform_param {
    mirror: true
    crop_size: 227
    mean_file: "/homes/ad6813/data/controlpoint_mean_256-227.binaryproto"
  }
}
layers {
  bottom: "data"
  top: "conv1"
  name: "conv1"
  type: CONVOLUTION
  blobs_lr: 1
  blobs_lr: 2
  weight_decay: 1
  weight_decay: 0
  convolution_param {
    num_output: 96
    kernel_size: 11
    stride: 4
    weight_filler {
      type: "gaussian"
      std: 0.01
    }
    bias_filler {
      type: "constant"
      value: 0
    }
  }
}
layers {
  bottom: "conv1"
  top: "conv1"
  name: "relu1"
  type: RELU
}
layers {
  bottom: "conv1"
  top: "pool1"
  name: "pool1"
  type: POOLING
  pooling_param {
    pool: MAX
    kernel_size: 3
    stride: 2
  }
}
layers {
  bottom: "pool1"
  top: "norm1"
  name: "norm1"
  type: LRN
  lrn_param {
    local_size: 5
    alpha: 0.0001
    beta: 0.75
  }
}
layers {
  bottom: "norm1"
  top: "conv2"
  name: "conv2"
  type: CONVOLUTION
  blobs_lr: 1
  blobs_lr: 2
  weight_decay: 1
  weight_decay: 0
  convolution_param {
    num_output: 256
    pad: 2
    kernel_size: 5
    group: 2
    weight_filler {
      type: "gaussian"
      std: 0.01
    }
    bias_filler {
      type: "constant"
      value: 1
    }
  }
}
layers {
  bottom: "conv2"
  top: "conv2"
  name: "relu2"
  type: RELU
}
layers {
  bottom: "conv2"
  top: "pool2"
  name: "pool2"
  type: POOLING
  pooling_param {
    pool: MAX
    kernel_size: 3
    stride: 2
  }
}
layers {
  bottom: "pool2"
  top: "norm2"
  name: "norm2"
  type: LRN
  lrn_param {
    local_size: 5
    alpha: 0.0001
    beta: 0.75
  }
}
layers {
  bottom: "norm2"
  top: "conv3"
  name: "conv3"
  type: CONVOLUTION
  blobs_lr: 1
  blobs_lr: 2
  weight_decay: 1
  weight_decay: 0
  convolution_param {
    num_output: 384
    pad: 1
    kernel_size: 3
    weight_filler {
      type: "gaussian"
      std: 0.01
    }
    bias_filler {
      type: "constant"
      value: 0
    }
  }
}
layers {
  bottom: "conv3"
  top: "conv3"
  name: "relu3"
  type: RELU
}
layers {
  bottom: "conv3"
  top: "conv4"
  name: "conv4"
  type: CONVOLUTION
  blobs_lr: 1
  blobs_lr: 2
  weight_decay: 1
  weight_decay: 0
  convolution_param {
    num_output: 384
    pad: 1
    kernel_size: 3
    group: 2
    weight_filler {
      type: "gaussian"
      std: 0.01
    }
    bias_filler {
      type: "constant"
      value: 1
    }
  }
}
layers {
  bottom: "conv4"
  top: "conv4"
  name: "relu4"
  type: RELU
}
layers {
  bottom: "conv4"
  top: "conv5"
  name: "conv5"
  type: CONVOLUTION
  blobs_lr: 1
  blobs_lr: 2
  weight_decay: 1
  weight_decay: 0
  convolution_param {
    num_output: 256
    pad: 1
    kernel_size: 3
    group: 2
    weight_filler {
      type: "gaussian"
      std: 0.01
    }
    bias_filler {
      type: "constant"
      value: 1
    }
  }
}
layers {
  bottom: "conv5"
  top: "conv5"
  name: "relu5"
  type: RELU
}
layers {
  bottom: "conv5"
  top: "pool5"
  name: "pool5"
  type: POOLING
  pooling_param {
    pool: MAX
    kernel_size: 3
    stride: 2
  }
}
layers {
  bottom: "pool5"
  top: "fc6"
  name: "fc6"
  type: INNER_PRODUCT
  blobs_lr: 1
  blobs_lr: 2
  weight_decay: 1
  weight_decay: 0
  inner_product_param {
    num_output: 4096
    weight_filler {
      type: "gaussian"
      std: 0.005
    }
    bias_filler {
      type: "constant"
      value: 1
    }
  }
}
layers {
  bottom: "fc6"
  top: "fc6"
  name: "relu6"
  type: RELU
}
layers {
  bottom: "fc6"
  top: "fc6"
  name: "drop6"
  type: DROPOUT
  dropout_param {
    dropout_ratio: 0.5
  }
}
layers {
  bottom: "fc6"
  top: "fc7"
  name: "fc7"
  type: INNER_PRODUCT
  blobs_lr: 1
  blobs_lr: 2
  weight_decay: 1
  weight_decay: 0
  inner_product_param {
    num_output: 4096
    weight_filler {
      type: "gaussian"
      std: 0.005
    }
    bias_filler {
      type: "constant"
      value: 1
    }
  }
}
layers {
  bottom: "fc7"
  top: "fc7"
  name: "relu7"
  type: RELU
}
layers {
  bottom: "fc7"
  top: "fc7"
  name: "drop7"
  type: DROPOUT
  dropout_param {
    dropout_ratio: 0.5
  }
}
layers {
  bottom: "fc7"
  top: "fc8_scrape_blue"
  name: "fc8_scrape_blue"
  type: INNER_PRODUCT
  blobs_lr: 1
  blobs_lr: 2
  weight_decay: 1
  weight_decay: 0
  inner_product_param {
    num_output: 2
    weight_filler {
      type: "gaussian"
      std: 0.01
    }
    bias_filler {
      type: "constant"
      value: 0
    }
  }
}
layers {
  bottom: "fc8_scrape_blue"
  bottom: "label"
  name: "loss"
  type: SOFTMAX_LOSS
}
state {
  phase: TRAIN
}
I1110 04:09:51.650271   489 net.cpp:67] Creating Layer data
I1110 04:09:51.650288   489 net.cpp:356] data -> data
I1110 04:09:51.650313   489 net.cpp:356] data -> label
I1110 04:09:51.650333   489 net.cpp:96] Setting up data
I1110 04:09:51.650346   489 image_data_layer.cpp:30] Opening file data/scrape_blue/train.txt
I1110 04:09:51.676126   489 image_data_layer.cpp:45] A total of 40401 images.
I1110 04:09:51.695590   489 image_data_layer.cpp:73] output data size: 128,3,227,227
I1110 04:09:51.695646   489 base_data_layer.cpp:36] Loading mean file from/homes/ad6813/data/controlpoint_mean_256-227.binaryproto
I1110 04:09:51.724098   489 net.cpp:103] Top shape: 128 3 227 227 (19787136)
I1110 04:09:51.724135   489 net.cpp:103] Top shape: 128 1 1 1 (128)
I1110 04:09:51.724159   489 net.cpp:67] Creating Layer conv1
I1110 04:09:51.724166   489 net.cpp:394] conv1 <- data
I1110 04:09:51.724185   489 net.cpp:356] conv1 -> conv1
I1110 04:09:51.724201   489 net.cpp:96] Setting up conv1
I1110 04:09:51.725960   489 net.cpp:103] Top shape: 128 96 55 55 (37171200)
I1110 04:09:51.725996   489 net.cpp:67] Creating Layer relu1
I1110 04:09:51.726002   489 net.cpp:394] relu1 <- conv1
I1110 04:09:51.726011   489 net.cpp:345] relu1 -> conv1 (in-place)
I1110 04:09:51.726021   489 net.cpp:96] Setting up relu1
I1110 04:09:51.726028   489 net.cpp:103] Top shape: 128 96 55 55 (37171200)
I1110 04:09:51.726039   489 net.cpp:67] Creating Layer pool1
I1110 04:09:51.726045   489 net.cpp:394] pool1 <- conv1
I1110 04:09:51.726052   489 net.cpp:356] pool1 -> pool1
I1110 04:09:51.726061   489 net.cpp:96] Setting up pool1
I1110 04:09:51.726078   489 net.cpp:103] Top shape: 128 96 27 27 (8957952)
I1110 04:09:51.726089   489 net.cpp:67] Creating Layer norm1
I1110 04:09:51.726094   489 net.cpp:394] norm1 <- pool1
I1110 04:09:51.726102   489 net.cpp:356] norm1 -> norm1
I1110 04:09:51.726111   489 net.cpp:96] Setting up norm1
I1110 04:09:51.726122   489 net.cpp:103] Top shape: 128 96 27 27 (8957952)
I1110 04:09:51.726132   489 net.cpp:67] Creating Layer conv2
I1110 04:09:51.726138   489 net.cpp:394] conv2 <- norm1
I1110 04:09:51.726147   489 net.cpp:356] conv2 -> conv2
I1110 04:09:51.726156   489 net.cpp:96] Setting up conv2
I1110 04:09:51.740906   489 net.cpp:103] Top shape: 128 256 27 27 (23887872)
I1110 04:09:51.740947   489 net.cpp:67] Creating Layer relu2
I1110 04:09:51.740954   489 net.cpp:394] relu2 <- conv2
I1110 04:09:51.740963   489 net.cpp:345] relu2 -> conv2 (in-place)
I1110 04:09:51.740974   489 net.cpp:96] Setting up relu2
I1110 04:09:51.740979   489 net.cpp:103] Top shape: 128 256 27 27 (23887872)
I1110 04:09:51.740988   489 net.cpp:67] Creating Layer pool2
I1110 04:09:51.741008   489 net.cpp:394] pool2 <- conv2
I1110 04:09:51.741017   489 net.cpp:356] pool2 -> pool2
I1110 04:09:51.741026   489 net.cpp:96] Setting up pool2
I1110 04:09:51.741034   489 net.cpp:103] Top shape: 128 256 13 13 (5537792)
I1110 04:09:51.741044   489 net.cpp:67] Creating Layer norm2
I1110 04:09:51.741050   489 net.cpp:394] norm2 <- pool2
I1110 04:09:51.741058   489 net.cpp:356] norm2 -> norm2
I1110 04:09:51.741066   489 net.cpp:96] Setting up norm2
I1110 04:09:51.741073   489 net.cpp:103] Top shape: 128 256 13 13 (5537792)
I1110 04:09:51.741085   489 net.cpp:67] Creating Layer conv3
I1110 04:09:51.741091   489 net.cpp:394] conv3 <- norm2
I1110 04:09:51.741098   489 net.cpp:356] conv3 -> conv3
I1110 04:09:51.741109   489 net.cpp:96] Setting up conv3
I1110 04:09:51.783957   489 net.cpp:103] Top shape: 128 384 13 13 (8306688)
I1110 04:09:51.784005   489 net.cpp:67] Creating Layer relu3
I1110 04:09:51.784013   489 net.cpp:394] relu3 <- conv3
I1110 04:09:51.784024   489 net.cpp:345] relu3 -> conv3 (in-place)
I1110 04:09:51.784034   489 net.cpp:96] Setting up relu3
I1110 04:09:51.784040   489 net.cpp:103] Top shape: 128 384 13 13 (8306688)
I1110 04:09:51.784051   489 net.cpp:67] Creating Layer conv4
I1110 04:09:51.784056   489 net.cpp:394] conv4 <- conv3
I1110 04:09:51.784067   489 net.cpp:356] conv4 -> conv4
I1110 04:09:51.784077   489 net.cpp:96] Setting up conv4
I1110 04:09:51.816315   489 net.cpp:103] Top shape: 128 384 13 13 (8306688)
I1110 04:09:51.816355   489 net.cpp:67] Creating Layer relu4
I1110 04:09:51.816364   489 net.cpp:394] relu4 <- conv4
I1110 04:09:51.816373   489 net.cpp:345] relu4 -> conv4 (in-place)
I1110 04:09:51.816383   489 net.cpp:96] Setting up relu4
I1110 04:09:51.816390   489 net.cpp:103] Top shape: 128 384 13 13 (8306688)
I1110 04:09:51.816398   489 net.cpp:67] Creating Layer conv5
I1110 04:09:51.816404   489 net.cpp:394] conv5 <- conv4
I1110 04:09:51.816413   489 net.cpp:356] conv5 -> conv5
I1110 04:09:51.816422   489 net.cpp:96] Setting up conv5
I1110 04:09:51.838052   489 net.cpp:103] Top shape: 128 256 13 13 (5537792)
I1110 04:09:51.838098   489 net.cpp:67] Creating Layer relu5
I1110 04:09:51.838105   489 net.cpp:394] relu5 <- conv5
I1110 04:09:51.838114   489 net.cpp:345] relu5 -> conv5 (in-place)
I1110 04:09:51.838125   489 net.cpp:96] Setting up relu5
I1110 04:09:51.838131   489 net.cpp:103] Top shape: 128 256 13 13 (5537792)
I1110 04:09:51.838140   489 net.cpp:67] Creating Layer pool5
I1110 04:09:51.838145   489 net.cpp:394] pool5 <- conv5
I1110 04:09:51.838153   489 net.cpp:356] pool5 -> pool5
I1110 04:09:51.838163   489 net.cpp:96] Setting up pool5
I1110 04:09:51.838171   489 net.cpp:103] Top shape: 128 256 6 6 (1179648)
I1110 04:09:51.838183   489 net.cpp:67] Creating Layer fc6
I1110 04:09:51.838208   489 net.cpp:394] fc6 <- pool5
I1110 04:09:51.838222   489 net.cpp:356] fc6 -> fc6
I1110 04:09:51.838232   489 net.cpp:96] Setting up fc6
I1110 04:09:53.646417   489 net.cpp:103] Top shape: 128 4096 1 1 (524288)
I1110 04:09:53.646466   489 net.cpp:67] Creating Layer relu6
I1110 04:09:53.646474   489 net.cpp:394] relu6 <- fc6
I1110 04:09:53.646484   489 net.cpp:345] relu6 -> fc6 (in-place)
I1110 04:09:53.646495   489 net.cpp:96] Setting up relu6
I1110 04:09:53.646502   489 net.cpp:103] Top shape: 128 4096 1 1 (524288)
I1110 04:09:53.646510   489 net.cpp:67] Creating Layer drop6
I1110 04:09:53.646515   489 net.cpp:394] drop6 <- fc6
I1110 04:09:53.646523   489 net.cpp:345] drop6 -> fc6 (in-place)
I1110 04:09:53.646531   489 net.cpp:96] Setting up drop6
I1110 04:09:53.646540   489 net.cpp:103] Top shape: 128 4096 1 1 (524288)
I1110 04:09:53.646550   489 net.cpp:67] Creating Layer fc7
I1110 04:09:53.646555   489 net.cpp:394] fc7 <- fc6
I1110 04:09:53.646564   489 net.cpp:356] fc7 -> fc7
I1110 04:09:53.646575   489 net.cpp:96] Setting up fc7
I1110 04:09:54.447139   489 net.cpp:103] Top shape: 128 4096 1 1 (524288)
I1110 04:09:54.447186   489 net.cpp:67] Creating Layer relu7
I1110 04:09:54.447195   489 net.cpp:394] relu7 <- fc7
I1110 04:09:54.447221   489 net.cpp:345] relu7 -> fc7 (in-place)
I1110 04:09:54.447232   489 net.cpp:96] Setting up relu7
I1110 04:09:54.447237   489 net.cpp:103] Top shape: 128 4096 1 1 (524288)
I1110 04:09:54.447247   489 net.cpp:67] Creating Layer drop7
I1110 04:09:54.447252   489 net.cpp:394] drop7 <- fc7
I1110 04:09:54.447259   489 net.cpp:345] drop7 -> fc7 (in-place)
I1110 04:09:54.447268   489 net.cpp:96] Setting up drop7
I1110 04:09:54.447273   489 net.cpp:103] Top shape: 128 4096 1 1 (524288)
I1110 04:09:54.447283   489 net.cpp:67] Creating Layer fc8_scrape_blue
I1110 04:09:54.447288   489 net.cpp:394] fc8_scrape_blue <- fc7
I1110 04:09:54.447298   489 net.cpp:356] fc8_scrape_blue -> fc8_scrape_blue
I1110 04:09:54.447309   489 net.cpp:96] Setting up fc8_scrape_blue
I1110 04:09:54.447728   489 net.cpp:103] Top shape: 128 2 1 1 (256)
I1110 04:09:54.447748   489 net.cpp:67] Creating Layer loss
I1110 04:09:54.447756   489 net.cpp:394] loss <- fc8_scrape_blue
I1110 04:09:54.447762   489 net.cpp:394] loss <- label
I1110 04:09:54.447770   489 net.cpp:356] loss -> (automatic)
I1110 04:09:54.447778   489 net.cpp:96] Setting up loss
I1110 04:09:54.447795   489 net.cpp:103] Top shape: 1 1 1 1 (1)
I1110 04:09:54.447801   489 net.cpp:109]     with loss weight 1
I1110 04:09:54.447882   489 net.cpp:170] loss needs backward computation.
I1110 04:09:54.447890   489 net.cpp:170] fc8_scrape_blue needs backward computation.
I1110 04:09:54.447896   489 net.cpp:170] drop7 needs backward computation.
I1110 04:09:54.447901   489 net.cpp:170] relu7 needs backward computation.
I1110 04:09:54.447906   489 net.cpp:170] fc7 needs backward computation.
…
I1110 04:09:54.449218   489 solver.cpp:151] Creating test net (#0) specified by net file: task/scrape_blue/train_val.prototxt
I1110 04:09:54.449287   489 net.cpp:275] The NetState phase (1) differed from the phase (0) specified by a rule in layer data
I1110 04:09:54.449599   489 net.cpp:39] Initializing net from parameters: 
name: "ClampCaffeNet"
layers {
  top: "data"
  top: "label"
  name: "data"
  type: IMAGE_DATA
  image_data_param {
    source: "data/scrape_blue/val.txt"
    batch_size: 20
    new_height: 256
    new_width: 256
  }
  include {
    phase: TEST
  }
  transform_param {
    mirror: true
    crop_size: 227
    mean_file: "/homes/ad6813/data/controlpoint_mean_256-227.binaryproto"
  }
}
layers {
  bottom: "data"
  top: "conv1"
  name: "conv1"
  type: CONVOLUTION
  blobs_lr: 1
  blobs_lr: 2
  weight_decay: 1
  weight_decay: 0
  convolution_param {
    num_output: 96
    kernel_size: 11
    stride: 4
    weight_filler {
      type: "gaussian"
      std: 0.01
    }
    bias_filler {
      type: "constant"
      value: 0
    }
  }
}
layers {
  bottom: "conv1"
  top: "conv1"
  name: "relu1"
  type: RELU
}
layers {
  bottom: "conv1"
  top: "pool1"
  name: "pool1"
  type: POOLING
  pooling_param {
    pool: MAX
    kernel_size: 3
    stride: 2
  }
}
layers {
  bottom: "pool1"
  top: "norm1"
  name: "norm1"
  type: LRN
  lrn_param {
    local_size: 5
    alpha: 0.0001
    beta: 0.75
  }
}
layers {
  bottom: "norm1"
  top: "conv2"
  name: "conv2"
  type: CONVOLUTION
  blobs_lr: 1
  blobs_lr: 2
  weight_decay: 1
  weight_decay: 0
  convolution_param {
    num_output: 256
    pad: 2
    kernel_size: 5
    group: 2
    weight_filler {
      type: "gaussian"
      std: 0.01
    }
    bias_filler {
      type: "constant"
      value: 1
    }
  }
}
layers {
  bottom: "conv2"
  top: "conv2"
  name: "relu2"
  type: RELU
}
layers {
  bottom: "conv2"
  top: "pool2"
  name: "pool2"
  type: POOLING
  pooling_param {
    pool: MAX
    kernel_size: 3
    stride: 2
  }
}
layers {
  bottom: "pool2"
  top: "norm2"
  name: "norm2"
  type: LRN
  lrn_param {
    local_size: 5
    alpha: 0.0001
    beta: 0.75
  }
}
layers {
  bottom: "norm2"
  top: "conv3"
  name: "conv3"
  type: CONVOLUTION
  blobs_lr: 1
  blobs_lr: 2
  weight_decay: 1
  weight_decay: 0
  convolution_param {
    num_output: 384
    pad: 1
    kernel_size: 3
    weight_filler {
      type: "gaussian"
      std: 0.01
    }
    bias_filler {
      type: "constant"
      value: 0
    }
  }
}
layers {
  bottom: "conv3"
  top: "conv3"
  name: "relu3"
  type: RELU
}
layers {
  bottom: "conv3"
  top: "conv4"
  name: "conv4"
  type: CONVOLUTION
  blobs_lr: 1
  blobs_lr: 2
  weight_decay: 1
  weight_decay: 0
  convolution_param {
    num_output: 384
    pad: 1
    kernel_size: 3
    group: 2
    weight_filler {
      type: "gaussian"
      std: 0.01
    }
    bias_filler {
      type: "constant"
      value: 1
    }
  }
}
layers {
  bottom: "conv4"
  top: "conv4"
  name: "relu4"
  type: RELU
}
layers {
  bottom: "conv4"
  top: "conv5"
  name: "conv5"
  type: CONVOLUTION
  blobs_lr: 1
  blobs_lr: 2
  weight_decay: 1
  weight_decay: 0
  convolution_param {
    num_output: 256
    pad: 1
    kernel_size: 3
    group: 2
    weight_filler {
      type: "gaussian"
      std: 0.01
    }
    bias_filler {
      type: "constant"
      value: 1
    }
  }
}
layers {
  bottom: "conv5"
  top: "conv5"
  name: "relu5"
  type: RELU
}
layers {
  bottom: "conv5"
  top: "pool5"
  name: "pool5"
  type: POOLING
  pooling_param {
    pool: MAX
    kernel_size: 3
    stride: 2
  }
}
layers {
  bottom: "pool5"
  top: "fc6"
  name: "fc6"
  type: INNER_PRODUCT
  blobs_lr: 1
  blobs_lr: 2
  weight_decay: 1
  weight_decay: 0
  inner_product_param {
    num_output: 4096
    weight_filler {
      type: "gaussian"
      std: 0.005
    }
    bias_filler {
      type: "constant"
      value: 1
    }
  }
}
layers {
  bottom: "fc6"
  top: "fc6"
  name: "relu6"
  type: RELU
}
layers {
  bottom: "fc6"
  top: "fc6"
  name: "drop6"
  type: DROPOUT
  dropout_param {
    dropout_ratio: 0.5
  }
}
layers {
  bottom: "fc6"
  top: "fc7"
  name: "fc7"
  type: INNER_PRODUCT
  blobs_lr: 1
  blobs_lr: 2
  weight_decay: 1
  weight_decay: 0
  inner_product_param {
    num_output: 4096
    weight_filler {
      type: "gaussian"
      std: 0.005
    }
    bias_filler {
      type: "constant"
      value: 1
    }
  }
}
layers {
  bottom: "fc7"
  top: "fc7"
  name: "relu7"
  type: RELU
}
layers {
  bottom: "fc7"
  top: "fc7"
  name: "drop7"
  type: DROPOUT
  dropout_param {
    dropout_ratio: 0.5
  }
}
layers {
  bottom: "fc7"
  top: "fc8_scrape_blue"
  name: "fc8_scrape_blue"
  type: INNER_PRODUCT
  blobs_lr: 1
  blobs_lr: 2
  weight_decay: 1
  weight_decay: 0
  inner_product_param {
    num_output: 2
    weight_filler {
      type: "gaussian"
      std: 0.01
    }
    bias_filler {
      type: "constant"
      value: 0
    }
  }
}
layers {
  bottom: "fc8_scrape_blue"
  bottom: "label"
  name: "loss"
  type: SOFTMAX_LOSS
}
layers {
  bottom: "fc8_scrape_blue"
  bottom: "label"
  top: "accuracy"
  name: "accuracy"
  type: PER_CLASS_ACCURACY
  include {
    phase: TEST
  }
}
state {
  phase: TEST
}
I1110 04:09:54.449789   489 net.cpp:67] Creating Layer data
I1110 04:09:54.449800   489 net.cpp:356] data -> data
I1110 04:09:54.449813   489 net.cpp:356] data -> label
I1110 04:09:54.449825   489 net.cpp:96] Setting up data
I1110 04:09:54.449831   489 image_data_layer.cpp:30] Opening file data/scrape_blue/val.txt
I1110 04:09:54.452600   489 image_data_layer.cpp:45] A total of 3963 images.
I1110 04:09:54.467504   489 image_data_layer.cpp:73] output data size: 20,3,227,227
I1110 04:09:54.467535   489 base_data_layer.cpp:36] Loading mean file from/homes/ad6813/data/controlpoint_mean_256-227.binaryproto
I1110 04:09:54.473314   489 net.cpp:103] Top shape: 20 3 227 227 (3091740)
I1110 04:09:54.473350   489 net.cpp:103] Top shape: 20 1 1 1 (20)
I1110 04:09:54.473366   489 net.cpp:67] Creating Layer label_data_1_split
I1110 04:09:54.473374   489 net.cpp:394] label_data_1_split <- label
I1110 04:09:54.473386   489 net.cpp:356] label_data_1_split -> label_data_1_split_0
I1110 04:09:54.473400   489 net.cpp:356] label_data_1_split -> label_data_1_split_1
I1110 04:09:54.473409   489 net.cpp:96] Setting up label_data_1_split
I1110 04:09:54.473438   489 net.cpp:103] Top shape: 20 1 1 1 (20)
I1110 04:09:54.473445   489 net.cpp:103] Top shape: 20 1 1 1 (20)
I1110 04:09:54.473458   489 net.cpp:67] Creating Layer conv1
I1110 04:09:54.473464   489 net.cpp:394] conv1 <- data
I1110 04:09:54.473472   489 net.cpp:356] conv1 -> conv1
I1110 04:09:54.473485   489 net.cpp:96] Setting up conv1
I1110 04:09:54.475301   489 net.cpp:103] Top shape: 20 96 55 55 (5808000)
I1110 04:09:54.475334   489 net.cpp:67] Creating Layer relu1
I1110 04:09:54.475342   489 net.cpp:394] relu1 <- conv1
I1110 04:09:54.475349   489 net.cpp:345] relu1 -> conv1 (in-place)
I1110 04:09:54.475358   489 net.cpp:96] Setting up relu1
I1110 04:09:54.475364   489 net.cpp:103] Top shape: 20 96 55 55 (5808000)
I1110 04:09:54.475373   489 net.cpp:67] Creating Layer pool1
I1110 04:09:54.475379   489 net.cpp:394] pool1 <- conv1
I1110 04:09:54.475389   489 net.cpp:356] pool1 -> pool1
I1110 04:09:54.475399   489 net.cpp:96] Setting up pool1
I1110 04:09:54.475406   489 net.cpp:103] Top shape: 20 96 27 27 (1399680)
I1110 04:09:54.475415   489 net.cpp:67] Creating Layer norm1
I1110 04:09:54.475421   489 net.cpp:394] norm1 <- pool1
I1110 04:09:54.475431   489 net.cpp:356] norm1 -> norm1
I1110 04:09:54.475440   489 net.cpp:96] Setting up norm1
I1110 04:09:54.475447   489 net.cpp:103] Top shape: 20 96 27 27 (1399680)
I1110 04:09:54.475456   489 net.cpp:67] Creating Layer conv2
I1110 04:09:54.475461   489 net.cpp:394] conv2 <- norm1
I1110 04:09:54.475472   489 net.cpp:356] conv2 -> conv2
I1110 04:09:54.475482   489 net.cpp:96] Setting up conv2
I1110 04:09:54.490521   489 net.cpp:103] Top shape: 20 256 27 27 (3732480)
I1110 04:09:54.490566   489 net.cpp:67] Creating Layer relu2
I1110 04:09:54.490574   489 net.cpp:394] relu2 <- conv2
I1110 04:09:54.490586   489 net.cpp:345] relu2 -> conv2 (in-place)
I1110 04:09:54.490597   489 net.cpp:96] Setting up relu2
I1110 04:09:54.490602   489 net.cpp:103] Top shape: 20 256 27 27 (3732480)
I1110 04:09:54.490613   489 net.cpp:67] Creating Layer pool2
I1110 04:09:54.490618   489 net.cpp:394] pool2 <- conv2
I1110 04:09:54.490627   489 net.cpp:356] pool2 -> pool2
I1110 04:09:54.490636   489 net.cpp:96] Setting up pool2
I1110 04:09:54.490645   489 net.cpp:103] Top shape: 20 256 13 13 (865280)
I1110 04:09:54.490658   489 net.cpp:67] Creating Layer norm2
I1110 04:09:54.490664   489 net.cpp:394] norm2 <- pool2
I1110 04:09:54.490672   489 net.cpp:356] norm2 -> norm2
I1110 04:09:54.490681   489 net.cpp:96] Setting up norm2
I1110 04:09:54.490689   489 net.cpp:103] Top shape: 20 256 13 13 (865280)
I1110 04:09:54.490700   489 net.cpp:67] Creating Layer conv3
I1110 04:09:54.490716   489 net.cpp:394] conv3 <- norm2
I1110 04:09:54.490726   489 net.cpp:356] conv3 -> conv3
I1110 04:09:54.490736   489 net.cpp:96] Setting up conv3
I1110 04:09:54.533432   489 net.cpp:103] Top shape: 20 384 13 13 (1297920)
I1110 04:09:54.533483   489 net.cpp:67] Creating Layer relu3
I1110 04:09:54.533491   489 net.cpp:394] relu3 <- conv3
I1110 04:09:54.533504   489 net.cpp:345] relu3 -> conv3 (in-place)
I1110 04:09:54.533514   489 net.cpp:96] Setting up relu3
I1110 04:09:54.533520   489 net.cpp:103] Top shape: 20 384 13 13 (1297920)
I1110 04:09:54.533534   489 net.cpp:67] Creating Layer conv4
I1110 04:09:54.533538   489 net.cpp:394] conv4 <- conv3
I1110 04:09:54.533550   489 net.cpp:356] conv4 -> conv4
I1110 04:09:54.533560   489 net.cpp:96] Setting up conv4
I1110 04:09:54.565912   489 net.cpp:103] Top shape: 20 384 13 13 (1297920)
I1110 04:09:54.565954   489 net.cpp:67] Creating Layer relu4
I1110 04:09:54.565963   489 net.cpp:394] relu4 <- conv4
I1110 04:09:54.565978   489 net.cpp:345] relu4 -> conv4 (in-place)
I1110 04:09:54.565987   489 net.cpp:96] Setting up relu4
I1110 04:09:54.565994   489 net.cpp:103] Top shape: 20 384 13 13 (1297920)
I1110 04:09:54.566004   489 net.cpp:67] Creating Layer conv5
I1110 04:09:54.566009   489 net.cpp:394] conv5 <- conv4
I1110 04:09:54.566018   489 net.cpp:356] conv5 -> conv5
I1110 04:09:54.566028   489 net.cpp:96] Setting up conv5
I1110 04:09:54.587615   489 net.cpp:103] Top shape: 20 256 13 13 (865280)
I1110 04:09:54.587657   489 net.cpp:67] Creating Layer relu5
I1110 04:09:54.587666   489 net.cpp:394] relu5 <- conv5
I1110 04:09:54.587674   489 net.cpp:345] relu5 -> conv5 (in-place)
I1110 04:09:54.587684   489 net.cpp:96] Setting up relu5
I1110 04:09:54.587690   489 net.cpp:103] Top shape: 20 256 13 13 (865280)
I1110 04:09:54.587705   489 net.cpp:67] Creating Layer pool5
I1110 04:09:54.587712   489 net.cpp:394] pool5 <- conv5
I1110 04:09:54.587719   489 net.cpp:356] pool5 -> pool5
I1110 04:09:54.587728   489 net.cpp:96] Setting up pool5
I1110 04:09:54.587736   489 net.cpp:103] Top shape: 20 256 6 6 (184320)
I1110 04:09:54.587749   489 net.cpp:67] Creating Layer fc6
I1110 04:09:54.587754   489 net.cpp:394] fc6 <- pool5
I1110 04:09:54.587762   489 net.cpp:356] fc6 -> fc6
I1110 04:09:54.587771   489 net.cpp:96] Setting up fc6
I1110 04:09:56.393470   489 net.cpp:103] Top shape: 20 4096 1 1 (81920)
I1110 04:09:56.393522   489 net.cpp:67] Creating Layer relu6
I1110 04:09:56.393532   489 net.cpp:394] relu6 <- fc6
I1110 04:09:56.393543   489 net.cpp:345] relu6 -> fc6 (in-place)
I1110 04:09:56.393553   489 net.cpp:96] Setting up relu6
I1110 04:09:56.393559   489 net.cpp:103] Top shape: 20 4096 1 1 (81920)
I1110 04:09:56.393568   489 net.cpp:67] Creating Layer drop6
I1110 04:09:56.393573   489 net.cpp:394] drop6 <- fc6
I1110 04:09:56.393582   489 net.cpp:345] drop6 -> fc6 (in-place)
I1110 04:09:56.393591   489 net.cpp:96] Setting up drop6
I1110 04:09:56.393597   489 net.cpp:103] Top shape: 20 4096 1 1 (81920)
I1110 04:09:56.393607   489 net.cpp:67] Creating Layer fc7
I1110 04:09:56.393612   489 net.cpp:394] fc7 <- fc6
I1110 04:09:56.393621   489 net.cpp:356] fc7 -> fc7
I1110 04:09:56.393631   489 net.cpp:96] Setting up fc7
I1110 04:09:57.194385   489 net.cpp:103] Top shape: 20 4096 1 1 (81920)
I1110 04:09:57.194437   489 net.cpp:67] Creating Layer relu7
I1110 04:09:57.194444   489 net.cpp:394] relu7 <- fc7
I1110 04:09:57.194458   489 net.cpp:345] relu7 -> fc7 (in-place)
I1110 04:09:57.194469   489 net.cpp:96] Setting up relu7
I1110 04:09:57.194475   489 net.cpp:103] Top shape: 20 4096 1 1 (81920)
I1110 04:09:57.194483   489 net.cpp:67] Creating Layer drop7
I1110 04:09:57.194489   489 net.cpp:394] drop7 <- fc7
I1110 04:09:57.194495   489 net.cpp:345] drop7 -> fc7 (in-place)
I1110 04:09:57.194504   489 net.cpp:96] Setting up drop7
I1110 04:09:57.194509   489 net.cpp:103] Top shape: 20 4096 1 1 (81920)
I1110 04:09:57.194519   489 net.cpp:67] Creating Layer fc8_scrape_blue
I1110 04:09:57.194525   489 net.cpp:394] fc8_scrape_blue <- fc7
I1110 04:09:57.194536   489 net.cpp:356] fc8_scrape_blue -> fc8_scrape_blue
I1110 04:09:57.194566   489 net.cpp:96] Setting up fc8_scrape_blue
I1110 04:09:57.194984   489 net.cpp:103] Top shape: 20 2 1 1 (40)
I1110 04:09:57.195008   489 net.cpp:67] Creating Layer fc8_scrape_blue_fc8_scrape_blue_0_split
I1110 04:09:57.195015   489 net.cpp:394] fc8_scrape_blue_fc8_scrape_blue_0_split <- fc8_scrape_blue
I1110 04:09:57.195024   489 net.cpp:356] fc8_scrape_blue_fc8_scrape_blue_0_split -> fc8_scrape_blue_fc8_scrape_blue_0_split_0
I1110 04:09:57.195034   489 net.cpp:356] fc8_scrape_blue_fc8_scrape_blue_0_split -> fc8_scrape_blue_fc8_scrape_blue_0_split_1
I1110 04:09:57.195042   489 net.cpp:96] Setting up fc8_scrape_blue_fc8_scrape_blue_0_split
I1110 04:09:57.195050   489 net.cpp:103] Top shape: 20 2 1 1 (40)
I1110 04:09:57.195055   489 net.cpp:103] Top shape: 20 2 1 1 (40)
I1110 04:09:57.195065   489 net.cpp:67] Creating Layer loss
I1110 04:09:57.195071   489 net.cpp:394] loss <- fc8_scrape_blue_fc8_scrape_blue_0_split_0
I1110 04:09:57.195077   489 net.cpp:394] loss <- label_data_1_split_0
I1110 04:09:57.195086   489 net.cpp:356] loss -> (automatic)
I1110 04:09:57.195093   489 net.cpp:96] Setting up loss
I1110 04:09:57.195108   489 net.cpp:103] Top shape: 1 1 1 1 (1)
I1110 04:09:57.195114   489 net.cpp:109]     with loss weight 1
I1110 04:09:57.195137   489 net.cpp:67] Creating Layer accuracy
I1110 04:09:57.195142   489 net.cpp:394] accuracy <- fc8_scrape_blue_fc8_scrape_blue_0_split_1
I1110 04:09:57.195148   489 net.cpp:394] accuracy <- label_data_1_split_1
I1110 04:09:57.195157   489 net.cpp:356] accuracy -> accuracy
I1110 04:09:57.195165   489 net.cpp:96] Setting up accuracy
I1110 04:09:57.195178   489 net.cpp:103] Top shape: 1 1 1 4 (4)
I1110 04:09:57.195184   489 net.cpp:172] accuracy does not need backward computation.
I1110 04:09:57.195189   489 net.cpp:170] loss needs backward computation.
I1110 04:09:57.195195   489 net.cpp:170] fc8_scrape_blue_fc8_scrape_blue_0_split needs backward computation.
I1110 04:09:57.195200   489 net.cpp:170] fc8_scrape_blue needs backward computation.
I1110 04:09:57.195205   489 net.cpp:170] drop7 needs backward computation.
…
