…
I1110 01:50:11.889641 24204 net.cpp:275] The NetState phase (0) differed from the phase (1) specified by a rule in layer data
I1110 01:50:11.889686 24204 net.cpp:275] The NetState phase (0) differed from the phase (1) specified by a rule in layer accuracy
I1110 01:50:11.889966 24204 net.cpp:39] Initializing net from parameters: 
name: "ClampCaffeNet"
layers {
  top: "data"
  top: "label"
  name: "data"
  type: IMAGE_DATA
  image_data_param {
    source: "data/scrape_o/train.txt"
    batch_size: 48
    new_height: 256
    new_width: 256
  }
  include {
    phase: TRAIN
  }
  transform_param {
    mirror: true
    crop_size: 227
    mean_file: "/homes/ad6813/data/controlpoint_mean_256-227.binaryproto"
  }
}
layers {
  bottom: "data"
  top: "conv1"
  name: "conv1"
  type: CONVOLUTION
  blobs_lr: 1
  blobs_lr: 2
  weight_decay: 1
  weight_decay: 0
  convolution_param {
    num_output: 96
    kernel_size: 11
    stride: 4
    weight_filler {
      type: "gaussian"
      std: 0.01
    }
    bias_filler {
      type: "constant"
      value: 0
    }
  }
}
layers {
  bottom: "conv1"
  top: "conv1"
  name: "relu1"
  type: RELU
}
layers {
  bottom: "conv1"
  top: "pool1"
  name: "pool1"
  type: POOLING
  pooling_param {
    pool: MAX
    kernel_size: 3
    stride: 2
  }
}
layers {
  bottom: "pool1"
  top: "norm1"
  name: "norm1"
  type: LRN
  lrn_param {
    local_size: 5
    alpha: 0.0001
    beta: 0.75
  }
}
layers {
  bottom: "norm1"
  top: "conv2"
  name: "conv2"
  type: CONVOLUTION
  blobs_lr: 1
  blobs_lr: 2
  weight_decay: 1
  weight_decay: 0
  convolution_param {
    num_output: 256
    pad: 2
    kernel_size: 5
    group: 2
    weight_filler {
      type: "gaussian"
      std: 0.01
    }
    bias_filler {
      type: "constant"
      value: 1
    }
  }
}
layers {
  bottom: "conv2"
  top: "conv2"
  name: "relu2"
  type: RELU
}
layers {
  bottom: "conv2"
  top: "pool2"
  name: "pool2"
  type: POOLING
  pooling_param {
    pool: MAX
    kernel_size: 3
    stride: 2
  }
}
layers {
  bottom: "pool2"
  top: "norm2"
  name: "norm2"
  type: LRN
  lrn_param {
    local_size: 5
    alpha: 0.0001
    beta: 0.75
  }
}
layers {
  bottom: "norm2"
  top: "conv3"
  name: "conv3"
  type: CONVOLUTION
  blobs_lr: 1
  blobs_lr: 2
  weight_decay: 1
  weight_decay: 0
  convolution_param {
    num_output: 384
    pad: 1
    kernel_size: 3
    weight_filler {
      type: "gaussian"
      std: 0.01
    }
    bias_filler {
      type: "constant"
      value: 0
    }
  }
}
layers {
  bottom: "conv3"
  top: "conv3"
  name: "relu3"
  type: RELU
}
layers {
  bottom: "conv3"
  top: "conv4"
  name: "conv4"
  type: CONVOLUTION
  blobs_lr: 1
  blobs_lr: 2
  weight_decay: 1
  weight_decay: 0
  convolution_param {
    num_output: 384
    pad: 1
    kernel_size: 3
    group: 2
    weight_filler {
      type: "gaussian"
      std: 0.01
    }
    bias_filler {
      type: "constant"
      value: 1
    }
  }
}
layers {
  bottom: "conv4"
  top: "conv4"
  name: "relu4"
  type: RELU
}
layers {
  bottom: "conv4"
  top: "conv5"
  name: "conv5"
  type: CONVOLUTION
  blobs_lr: 1
  blobs_lr: 2
  weight_decay: 1
  weight_decay: 0
  convolution_param {
    num_output: 256
    pad: 1
    kernel_size: 3
    group: 2
    weight_filler {
      type: "gaussian"
      std: 0.01
    }
    bias_filler {
      type: "constant"
      value: 1
    }
  }
}
layers {
  bottom: "conv5"
  top: "conv5"
  name: "relu5"
  type: RELU
}
layers {
  bottom: "conv5"
  top: "pool5"
  name: "pool5"
  type: POOLING
  pooling_param {
    pool: MAX
    kernel_size: 3
    stride: 2
  }
}
layers {
  bottom: "pool5"
  top: "fc6"
  name: "fc6"
  type: INNER_PRODUCT
  blobs_lr: 1
  blobs_lr: 2
  weight_decay: 1
  weight_decay: 0
  inner_product_param {
    num_output: 4096
    weight_filler {
      type: "gaussian"
      std: 0.005
    }
    bias_filler {
      type: "constant"
      value: 1
    }
  }
}
layers {
  bottom: "fc6"
  top: "fc6"
  name: "relu6"
  type: RELU
}
layers {
  bottom: "fc6"
  top: "fc6"
  name: "drop6"
  type: DROPOUT
  dropout_param {
    dropout_ratio: 0.5
  }
}
layers {
  bottom: "fc6"
  top: "fc7"
  name: "fc7"
  type: INNER_PRODUCT
  blobs_lr: 1
  blobs_lr: 2
  weight_decay: 1
  weight_decay: 0
  inner_product_param {
    num_output: 4096
    weight_filler {
      type: "gaussian"
      std: 0.005
    }
    bias_filler {
      type: "constant"
      value: 1
    }
  }
}
layers {
  bottom: "fc7"
  top: "fc7"
  name: "relu7"
  type: RELU
}
layers {
  bottom: "fc7"
  top: "fc7"
  name: "drop7"
  type: DROPOUT
  dropout_param {
    dropout_ratio: 0.5
  }
}
layers {
  bottom: "fc7"
  top: "fc8_clamp"
  name: "fc8_clamp"
  type: INNER_PRODUCT
  blobs_lr: 1
  blobs_lr: 2
  weight_decay: 1
  weight_decay: 0
  inner_product_param {
    num_output: 2
    weight_filler {
      type: "gaussian"
      std: 0.01
    }
    bias_filler {
      type: "constant"
      value: 0
    }
  }
}
layers {
  bottom: "fc8_clamp"
  bottom: "label"
  name: "loss"
  type: SOFTMAX_LOSS
}
state {
  phase: TRAIN
}
I1110 01:50:11.890130 24204 net.cpp:67] Creating Layer data
I1110 01:50:11.890147 24204 net.cpp:356] data -> data
I1110 01:50:11.890172 24204 net.cpp:356] data -> label
I1110 01:50:11.890192 24204 net.cpp:96] Setting up data
I1110 01:50:11.890202 24204 image_data_layer.cpp:30] Opening file data/scrape_o/train.txt
I1110 01:50:12.043225 24204 image_data_layer.cpp:45] A total of 230287 images.
I1110 01:50:12.065103 24204 image_data_layer.cpp:73] output data size: 48,3,227,227
I1110 01:50:12.065165 24204 base_data_layer.cpp:36] Loading mean file from/homes/ad6813/data/controlpoint_mean_256-227.binaryproto
I1110 01:50:12.080349 24204 net.cpp:103] Top shape: 48 3 227 227 (7420176)
I1110 01:50:12.080385 24204 net.cpp:103] Top shape: 48 1 1 1 (48)
I1110 01:50:12.080411 24204 net.cpp:67] Creating Layer conv1
I1110 01:50:12.080420 24204 net.cpp:394] conv1 <- data
I1110 01:50:12.080441 24204 net.cpp:356] conv1 -> conv1
I1110 01:50:12.080457 24204 net.cpp:96] Setting up conv1
I1110 01:50:12.111511 24204 net.cpp:103] Top shape: 48 96 55 55 (13939200)
I1110 01:50:12.111574 24204 net.cpp:67] Creating Layer relu1
I1110 01:50:12.111584 24204 net.cpp:394] relu1 <- conv1
I1110 01:50:12.111594 24204 net.cpp:345] relu1 -> conv1 (in-place)
I1110 01:50:12.111608 24204 net.cpp:96] Setting up relu1
I1110 01:50:12.111623 24204 net.cpp:103] Top shape: 48 96 55 55 (13939200)
I1110 01:50:12.111634 24204 net.cpp:67] Creating Layer pool1
I1110 01:50:12.111639 24204 net.cpp:394] pool1 <- conv1
I1110 01:50:12.111646 24204 net.cpp:356] pool1 -> pool1
I1110 01:50:12.111655 24204 net.cpp:96] Setting up pool1
I1110 01:50:12.111690 24204 net.cpp:103] Top shape: 48 96 27 27 (3359232)
I1110 01:50:12.111706 24204 net.cpp:67] Creating Layer norm1
I1110 01:50:12.111711 24204 net.cpp:394] norm1 <- pool1
I1110 01:50:12.111719 24204 net.cpp:356] norm1 -> norm1
I1110 01:50:12.111729 24204 net.cpp:96] Setting up norm1
I1110 01:50:12.111740 24204 net.cpp:103] Top shape: 48 96 27 27 (3359232)
I1110 01:50:12.111754 24204 net.cpp:67] Creating Layer conv2
I1110 01:50:12.111760 24204 net.cpp:394] conv2 <- norm1
I1110 01:50:12.111770 24204 net.cpp:356] conv2 -> conv2
I1110 01:50:12.111781 24204 net.cpp:96] Setting up conv2
I1110 01:50:12.127022 24204 net.cpp:103] Top shape: 48 256 27 27 (8957952)
I1110 01:50:12.127073 24204 net.cpp:67] Creating Layer relu2
I1110 01:50:12.127081 24204 net.cpp:394] relu2 <- conv2
I1110 01:50:12.127090 24204 net.cpp:345] relu2 -> conv2 (in-place)
I1110 01:50:12.127099 24204 net.cpp:96] Setting up relu2
I1110 01:50:12.127110 24204 net.cpp:103] Top shape: 48 256 27 27 (8957952)
I1110 01:50:12.127120 24204 net.cpp:67] Creating Layer pool2
I1110 01:50:12.127137 24204 net.cpp:394] pool2 <- conv2
I1110 01:50:12.127148 24204 net.cpp:356] pool2 -> pool2
I1110 01:50:12.127158 24204 net.cpp:96] Setting up pool2
I1110 01:50:12.127169 24204 net.cpp:103] Top shape: 48 256 13 13 (2076672)
I1110 01:50:12.127182 24204 net.cpp:67] Creating Layer norm2
I1110 01:50:12.127188 24204 net.cpp:394] norm2 <- pool2
I1110 01:50:12.127195 24204 net.cpp:356] norm2 -> norm2
I1110 01:50:12.127203 24204 net.cpp:96] Setting up norm2
I1110 01:50:12.127210 24204 net.cpp:103] Top shape: 48 256 13 13 (2076672)
I1110 01:50:12.127221 24204 net.cpp:67] Creating Layer conv3
I1110 01:50:12.127228 24204 net.cpp:394] conv3 <- norm2
I1110 01:50:12.127235 24204 net.cpp:356] conv3 -> conv3
I1110 01:50:12.127249 24204 net.cpp:96] Setting up conv3
I1110 01:50:12.170238 24204 net.cpp:103] Top shape: 48 384 13 13 (3115008)
I1110 01:50:12.170290 24204 net.cpp:67] Creating Layer relu3
I1110 01:50:12.170299 24204 net.cpp:394] relu3 <- conv3
I1110 01:50:12.170311 24204 net.cpp:345] relu3 -> conv3 (in-place)
I1110 01:50:12.170322 24204 net.cpp:96] Setting up relu3
I1110 01:50:12.170333 24204 net.cpp:103] Top shape: 48 384 13 13 (3115008)
I1110 01:50:12.170346 24204 net.cpp:67] Creating Layer conv4
I1110 01:50:12.170351 24204 net.cpp:394] conv4 <- conv3
I1110 01:50:12.170361 24204 net.cpp:356] conv4 -> conv4
I1110 01:50:12.170372 24204 net.cpp:96] Setting up conv4
I1110 01:50:12.203263 24204 net.cpp:103] Top shape: 48 384 13 13 (3115008)
I1110 01:50:12.203310 24204 net.cpp:67] Creating Layer relu4
I1110 01:50:12.203318 24204 net.cpp:394] relu4 <- conv4
I1110 01:50:12.203328 24204 net.cpp:345] relu4 -> conv4 (in-place)
I1110 01:50:12.203338 24204 net.cpp:96] Setting up relu4
I1110 01:50:12.203348 24204 net.cpp:103] Top shape: 48 384 13 13 (3115008)
I1110 01:50:12.203362 24204 net.cpp:67] Creating Layer conv5
I1110 01:50:12.203367 24204 net.cpp:394] conv5 <- conv4
I1110 01:50:12.203377 24204 net.cpp:356] conv5 -> conv5
I1110 01:50:12.203387 24204 net.cpp:96] Setting up conv5
I1110 01:50:12.225231 24204 net.cpp:103] Top shape: 48 256 13 13 (2076672)
I1110 01:50:12.225280 24204 net.cpp:67] Creating Layer relu5
I1110 01:50:12.225288 24204 net.cpp:394] relu5 <- conv5
I1110 01:50:12.225296 24204 net.cpp:345] relu5 -> conv5 (in-place)
I1110 01:50:12.225306 24204 net.cpp:96] Setting up relu5
I1110 01:50:12.225317 24204 net.cpp:103] Top shape: 48 256 13 13 (2076672)
I1110 01:50:12.225327 24204 net.cpp:67] Creating Layer pool5
I1110 01:50:12.225332 24204 net.cpp:394] pool5 <- conv5
I1110 01:50:12.225342 24204 net.cpp:356] pool5 -> pool5
I1110 01:50:12.225353 24204 net.cpp:96] Setting up pool5
I1110 01:50:12.225364 24204 net.cpp:103] Top shape: 48 256 6 6 (442368)
I1110 01:50:12.225379 24204 net.cpp:67] Creating Layer fc6
I1110 01:50:12.225385 24204 net.cpp:394] fc6 <- pool5
I1110 01:50:12.225394 24204 net.cpp:356] fc6 -> fc6
I1110 01:50:12.225404 24204 net.cpp:96] Setting up fc6
I1110 01:50:14.041046 24204 net.cpp:103] Top shape: 48 4096 1 1 (196608)
I1110 01:50:14.041100 24204 net.cpp:67] Creating Layer relu6
I1110 01:50:14.041110 24204 net.cpp:394] relu6 <- fc6
I1110 01:50:14.041120 24204 net.cpp:345] relu6 -> fc6 (in-place)
I1110 01:50:14.041131 24204 net.cpp:96] Setting up relu6
I1110 01:50:14.041152 24204 net.cpp:103] Top shape: 48 4096 1 1 (196608)
I1110 01:50:14.041163 24204 net.cpp:67] Creating Layer drop6
I1110 01:50:14.041168 24204 net.cpp:394] drop6 <- fc6
I1110 01:50:14.041177 24204 net.cpp:345] drop6 -> fc6 (in-place)
I1110 01:50:14.041184 24204 net.cpp:96] Setting up drop6
I1110 01:50:14.041195 24204 net.cpp:103] Top shape: 48 4096 1 1 (196608)
I1110 01:50:14.041210 24204 net.cpp:67] Creating Layer fc7
I1110 01:50:14.041215 24204 net.cpp:394] fc7 <- fc6
I1110 01:50:14.041226 24204 net.cpp:356] fc7 -> fc7
I1110 01:50:14.041237 24204 net.cpp:96] Setting up fc7
I1110 01:50:14.847084 24204 net.cpp:103] Top shape: 48 4096 1 1 (196608)
I1110 01:50:14.847134 24204 net.cpp:67] Creating Layer relu7
I1110 01:50:14.847142 24204 net.cpp:394] relu7 <- fc7
I1110 01:50:14.847156 24204 net.cpp:345] relu7 -> fc7 (in-place)
I1110 01:50:14.847182 24204 net.cpp:96] Setting up relu7
I1110 01:50:14.847203 24204 net.cpp:103] Top shape: 48 4096 1 1 (196608)
I1110 01:50:14.847213 24204 net.cpp:67] Creating Layer drop7
I1110 01:50:14.847218 24204 net.cpp:394] drop7 <- fc7
I1110 01:50:14.847224 24204 net.cpp:345] drop7 -> fc7 (in-place)
I1110 01:50:14.847232 24204 net.cpp:96] Setting up drop7
I1110 01:50:14.847239 24204 net.cpp:103] Top shape: 48 4096 1 1 (196608)
I1110 01:50:14.847251 24204 net.cpp:67] Creating Layer fc8_clamp
I1110 01:50:14.847257 24204 net.cpp:394] fc8_clamp <- fc7
I1110 01:50:14.847266 24204 net.cpp:356] fc8_clamp -> fc8_clamp
I1110 01:50:14.847276 24204 net.cpp:96] Setting up fc8_clamp
I1110 01:50:14.847705 24204 net.cpp:103] Top shape: 48 2 1 1 (96)
I1110 01:50:14.847725 24204 net.cpp:67] Creating Layer loss
I1110 01:50:14.847731 24204 net.cpp:394] loss <- fc8_clamp
I1110 01:50:14.847738 24204 net.cpp:394] loss <- label
I1110 01:50:14.847749 24204 net.cpp:356] loss -> (automatic)
I1110 01:50:14.847758 24204 net.cpp:96] Setting up loss
I1110 01:50:14.847775 24204 net.cpp:103] Top shape: 1 1 1 1 (1)
I1110 01:50:14.847781 24204 net.cpp:109]     with loss weight 1
I1110 01:50:14.847826 24204 net.cpp:170] loss needs backward computation.
I1110 01:50:14.847832 24204 net.cpp:170] fc8_clamp needs backward computation.
I1110 01:50:14.847838 24204 net.cpp:170] drop7 needs backward computation.
I1110 01:50:14.847843 24204 net.cpp:170] relu7 needs backward computation.
I1110 01:50:14.847848 24204 net.cpp:170] fc7 needs backward computation.
…
I1110 01:50:14.849159 24204 solver.cpp:151] Creating test net (#0) specified by net file: task/scrape_o/train_val.prototxt
I1110 01:50:14.849230 24204 net.cpp:275] The NetState phase (1) differed from the phase (0) specified by a rule in layer data
I1110 01:50:14.849536 24204 net.cpp:39] Initializing net from parameters: 
name: "ClampCaffeNet"
layers {
  top: "data"
  top: "label"
  name: "data"
  type: IMAGE_DATA
  image_data_param {
    source: "data/scrape_o/val.txt"
    batch_size: 100
    new_height: 256
    new_width: 256
  }
  include {
    phase: TEST
  }
  transform_param {
    mirror: true
    crop_size: 227
    mean_file: "/homes/ad6813/data/controlpoint_mean_256-227.binaryproto"
  }
}
layers {
  bottom: "data"
  top: "conv1"
  name: "conv1"
  type: CONVOLUTION
  blobs_lr: 1
  blobs_lr: 2
  weight_decay: 1
  weight_decay: 0
  convolution_param {
    num_output: 96
    kernel_size: 11
    stride: 4
    weight_filler {
      type: "gaussian"
      std: 0.01
    }
    bias_filler {
      type: "constant"
      value: 0
    }
  }
}
layers {
  bottom: "conv1"
  top: "conv1"
  name: "relu1"
  type: RELU
}
layers {
  bottom: "conv1"
  top: "pool1"
  name: "pool1"
  type: POOLING
  pooling_param {
    pool: MAX
    kernel_size: 3
    stride: 2
  }
}
layers {
  bottom: "pool1"
  top: "norm1"
  name: "norm1"
  type: LRN
  lrn_param {
    local_size: 5
    alpha: 0.0001
    beta: 0.75
  }
}
layers {
  bottom: "norm1"
  top: "conv2"
  name: "conv2"
  type: CONVOLUTION
  blobs_lr: 1
  blobs_lr: 2
  weight_decay: 1
  weight_decay: 0
  convolution_param {
    num_output: 256
    pad: 2
    kernel_size: 5
    group: 2
    weight_filler {
      type: "gaussian"
      std: 0.01
    }
    bias_filler {
      type: "constant"
      value: 1
    }
  }
}
layers {
  bottom: "conv2"
  top: "conv2"
  name: "relu2"
  type: RELU
}
layers {
  bottom: "conv2"
  top: "pool2"
  name: "pool2"
  type: POOLING
  pooling_param {
    pool: MAX
    kernel_size: 3
    stride: 2
  }
}
layers {
  bottom: "pool2"
  top: "norm2"
  name: "norm2"
  type: LRN
  lrn_param {
    local_size: 5
    alpha: 0.0001
    beta: 0.75
  }
}
layers {
  bottom: "norm2"
  top: "conv3"
  name: "conv3"
  type: CONVOLUTION
  blobs_lr: 1
  blobs_lr: 2
  weight_decay: 1
  weight_decay: 0
  convolution_param {
    num_output: 384
    pad: 1
    kernel_size: 3
    weight_filler {
      type: "gaussian"
      std: 0.01
    }
    bias_filler {
      type: "constant"
      value: 0
    }
  }
}
layers {
  bottom: "conv3"
  top: "conv3"
  name: "relu3"
  type: RELU
}
layers {
  bottom: "conv3"
  top: "conv4"
  name: "conv4"
  type: CONVOLUTION
  blobs_lr: 1
  blobs_lr: 2
  weight_decay: 1
  weight_decay: 0
  convolution_param {
    num_output: 384
    pad: 1
    kernel_size: 3
    group: 2
    weight_filler {
      type: "gaussian"
      std: 0.01
    }
    bias_filler {
      type: "constant"
      value: 1
    }
  }
}
layers {
  bottom: "conv4"
  top: "conv4"
  name: "relu4"
  type: RELU
}
layers {
  bottom: "conv4"
  top: "conv5"
  name: "conv5"
  type: CONVOLUTION
  blobs_lr: 1
  blobs_lr: 2
  weight_decay: 1
  weight_decay: 0
  convolution_param {
    num_output: 256
    pad: 1
    kernel_size: 3
    group: 2
    weight_filler {
      type: "gaussian"
      std: 0.01
    }
    bias_filler {
      type: "constant"
      value: 1
    }
  }
}
layers {
  bottom: "conv5"
  top: "conv5"
  name: "relu5"
  type: RELU
}
layers {
  bottom: "conv5"
  top: "pool5"
  name: "pool5"
  type: POOLING
  pooling_param {
    pool: MAX
    kernel_size: 3
    stride: 2
  }
}
layers {
  bottom: "pool5"
  top: "fc6"
  name: "fc6"
  type: INNER_PRODUCT
  blobs_lr: 1
  blobs_lr: 2
  weight_decay: 1
  weight_decay: 0
  inner_product_param {
    num_output: 4096
    weight_filler {
      type: "gaussian"
      std: 0.005
    }
    bias_filler {
      type: "constant"
      value: 1
    }
  }
}
layers {
  bottom: "fc6"
  top: "fc6"
  name: "relu6"
  type: RELU
}
layers {
  bottom: "fc6"
  top: "fc6"
  name: "drop6"
  type: DROPOUT
  dropout_param {
    dropout_ratio: 0.5
  }
}
layers {
  bottom: "fc6"
  top: "fc7"
  name: "fc7"
  type: INNER_PRODUCT
  blobs_lr: 1
  blobs_lr: 2
  weight_decay: 1
  weight_decay: 0
  inner_product_param {
    num_output: 4096
    weight_filler {
      type: "gaussian"
      std: 0.005
    }
    bias_filler {
      type: "constant"
      value: 1
    }
  }
}
layers {
  bottom: "fc7"
  top: "fc7"
  name: "relu7"
  type: RELU
}
layers {
  bottom: "fc7"
  top: "fc7"
  name: "drop7"
  type: DROPOUT
  dropout_param {
    dropout_ratio: 0.5
  }
}
layers {
  bottom: "fc7"
  top: "fc8_clamp"
  name: "fc8_clamp"
  type: INNER_PRODUCT
  blobs_lr: 1
  blobs_lr: 2
  weight_decay: 1
  weight_decay: 0
  inner_product_param {
    num_output: 2
    weight_filler {
      type: "gaussian"
      std: 0.01
    }
    bias_filler {
      type: "constant"
      value: 0
    }
  }
}
layers {
  bottom: "fc8_clamp"
  bottom: "label"
  name: "loss"
  type: SOFTMAX_LOSS
}
layers {
  bottom: "fc8_clamp"
  bottom: "label"
  top: "accuracy"
  name: "accuracy"
  type: PER_CLASS_ACCURACY
  include {
    phase: TEST
  }
}
state {
  phase: TEST
}
I1110 01:50:14.849720 24204 net.cpp:67] Creating Layer data
I1110 01:50:14.849732 24204 net.cpp:356] data -> data
I1110 01:50:14.849745 24204 net.cpp:356] data -> label
I1110 01:50:14.849756 24204 net.cpp:96] Setting up data
I1110 01:50:14.849762 24204 image_data_layer.cpp:30] Opening file data/scrape_o/val.txt
I1110 01:50:14.850395 24204 image_data_layer.cpp:45] A total of 800 images.
I1110 01:50:14.866291 24204 image_data_layer.cpp:73] output data size: 100,3,227,227
I1110 01:50:14.866322 24204 base_data_layer.cpp:36] Loading mean file from/homes/ad6813/data/controlpoint_mean_256-227.binaryproto
I1110 01:50:14.884681 24204 net.cpp:103] Top shape: 100 3 227 227 (15458700)
I1110 01:50:14.884718 24204 net.cpp:103] Top shape: 100 1 1 1 (100)
I1110 01:50:14.884737 24204 net.cpp:67] Creating Layer label_data_1_split
I1110 01:50:14.884747 24204 net.cpp:394] label_data_1_split <- label
I1110 01:50:14.884758 24204 net.cpp:356] label_data_1_split -> label_data_1_split_0
I1110 01:50:14.884773 24204 net.cpp:356] label_data_1_split -> label_data_1_split_1
I1110 01:50:14.884783 24204 net.cpp:96] Setting up label_data_1_split
I1110 01:50:14.884804 24204 net.cpp:103] Top shape: 100 1 1 1 (100)
I1110 01:50:14.884810 24204 net.cpp:103] Top shape: 100 1 1 1 (100)
I1110 01:50:14.884824 24204 net.cpp:67] Creating Layer conv1
I1110 01:50:14.884829 24204 net.cpp:394] conv1 <- data
I1110 01:50:14.884838 24204 net.cpp:356] conv1 -> conv1
I1110 01:50:14.884860 24204 net.cpp:96] Setting up conv1
I1110 01:50:14.886744 24204 net.cpp:103] Top shape: 100 96 55 55 (29040000)
I1110 01:50:14.886775 24204 net.cpp:67] Creating Layer relu1
I1110 01:50:14.886782 24204 net.cpp:394] relu1 <- conv1
I1110 01:50:14.886790 24204 net.cpp:345] relu1 -> conv1 (in-place)
I1110 01:50:14.886800 24204 net.cpp:96] Setting up relu1
I1110 01:50:14.886809 24204 net.cpp:103] Top shape: 100 96 55 55 (29040000)
I1110 01:50:14.886821 24204 net.cpp:67] Creating Layer pool1
I1110 01:50:14.886826 24204 net.cpp:394] pool1 <- conv1
I1110 01:50:14.886833 24204 net.cpp:356] pool1 -> pool1
I1110 01:50:14.886842 24204 net.cpp:96] Setting up pool1
I1110 01:50:14.886853 24204 net.cpp:103] Top shape: 100 96 27 27 (6998400)
I1110 01:50:14.886863 24204 net.cpp:67] Creating Layer norm1
I1110 01:50:14.886868 24204 net.cpp:394] norm1 <- pool1
I1110 01:50:14.886876 24204 net.cpp:356] norm1 -> norm1
I1110 01:50:14.886884 24204 net.cpp:96] Setting up norm1
I1110 01:50:14.886891 24204 net.cpp:103] Top shape: 100 96 27 27 (6998400)
I1110 01:50:14.886901 24204 net.cpp:67] Creating Layer conv2
I1110 01:50:14.886906 24204 net.cpp:394] conv2 <- norm1
I1110 01:50:14.886914 24204 net.cpp:356] conv2 -> conv2
I1110 01:50:14.886924 24204 net.cpp:96] Setting up conv2
I1110 01:50:14.902151 24204 net.cpp:103] Top shape: 100 256 27 27 (18662400)
I1110 01:50:14.902199 24204 net.cpp:67] Creating Layer relu2
I1110 01:50:14.902207 24204 net.cpp:394] relu2 <- conv2
I1110 01:50:14.902217 24204 net.cpp:345] relu2 -> conv2 (in-place)
I1110 01:50:14.902228 24204 net.cpp:96] Setting up relu2
I1110 01:50:14.902238 24204 net.cpp:103] Top shape: 100 256 27 27 (18662400)
I1110 01:50:14.902252 24204 net.cpp:67] Creating Layer pool2
I1110 01:50:14.902257 24204 net.cpp:394] pool2 <- conv2
I1110 01:50:14.902266 24204 net.cpp:356] pool2 -> pool2
I1110 01:50:14.902276 24204 net.cpp:96] Setting up pool2
I1110 01:50:14.902288 24204 net.cpp:103] Top shape: 100 256 13 13 (4326400)
I1110 01:50:14.902297 24204 net.cpp:67] Creating Layer norm2
I1110 01:50:14.902303 24204 net.cpp:394] norm2 <- pool2
I1110 01:50:14.902310 24204 net.cpp:356] norm2 -> norm2
I1110 01:50:14.902319 24204 net.cpp:96] Setting up norm2
I1110 01:50:14.902326 24204 net.cpp:103] Top shape: 100 256 13 13 (4326400)
I1110 01:50:14.902338 24204 net.cpp:67] Creating Layer conv3
I1110 01:50:14.902343 24204 net.cpp:394] conv3 <- norm2
I1110 01:50:14.902351 24204 net.cpp:356] conv3 -> conv3
I1110 01:50:14.902360 24204 net.cpp:96] Setting up conv3
I1110 01:50:14.945590 24204 net.cpp:103] Top shape: 100 384 13 13 (6489600)
I1110 01:50:14.945641 24204 net.cpp:67] Creating Layer relu3
I1110 01:50:14.945648 24204 net.cpp:394] relu3 <- conv3
I1110 01:50:14.945662 24204 net.cpp:345] relu3 -> conv3 (in-place)
I1110 01:50:14.945672 24204 net.cpp:96] Setting up relu3
I1110 01:50:14.945683 24204 net.cpp:103] Top shape: 100 384 13 13 (6489600)
I1110 01:50:14.945694 24204 net.cpp:67] Creating Layer conv4
I1110 01:50:14.945700 24204 net.cpp:394] conv4 <- conv3
I1110 01:50:14.945710 24204 net.cpp:356] conv4 -> conv4
I1110 01:50:14.945721 24204 net.cpp:96] Setting up conv4
I1110 01:50:14.978516 24204 net.cpp:103] Top shape: 100 384 13 13 (6489600)
I1110 01:50:14.978564 24204 net.cpp:67] Creating Layer relu4
I1110 01:50:14.978572 24204 net.cpp:394] relu4 <- conv4
I1110 01:50:14.978585 24204 net.cpp:345] relu4 -> conv4 (in-place)
I1110 01:50:14.978596 24204 net.cpp:96] Setting up relu4
I1110 01:50:14.978607 24204 net.cpp:103] Top shape: 100 384 13 13 (6489600)
I1110 01:50:14.978618 24204 net.cpp:67] Creating Layer conv5
I1110 01:50:14.978624 24204 net.cpp:394] conv5 <- conv4
I1110 01:50:14.978633 24204 net.cpp:356] conv5 -> conv5
I1110 01:50:14.978643 24204 net.cpp:96] Setting up conv5
I1110 01:50:15.000921 24204 net.cpp:103] Top shape: 100 256 13 13 (4326400)
I1110 01:50:15.000975 24204 net.cpp:67] Creating Layer relu5
I1110 01:50:15.000984 24204 net.cpp:394] relu5 <- conv5
I1110 01:50:15.000994 24204 net.cpp:345] relu5 -> conv5 (in-place)
I1110 01:50:15.001004 24204 net.cpp:96] Setting up relu5
I1110 01:50:15.001016 24204 net.cpp:103] Top shape: 100 256 13 13 (4326400)
I1110 01:50:15.001031 24204 net.cpp:67] Creating Layer pool5
I1110 01:50:15.001037 24204 net.cpp:394] pool5 <- conv5
I1110 01:50:15.001046 24204 net.cpp:356] pool5 -> pool5
I1110 01:50:15.001055 24204 net.cpp:96] Setting up pool5
I1110 01:50:15.001068 24204 net.cpp:103] Top shape: 100 256 6 6 (921600)
I1110 01:50:15.001083 24204 net.cpp:67] Creating Layer fc6
I1110 01:50:15.001090 24204 net.cpp:394] fc6 <- pool5
I1110 01:50:15.001099 24204 net.cpp:356] fc6 -> fc6
I1110 01:50:15.001109 24204 net.cpp:96] Setting up fc6
I1110 01:50:16.819502 24204 net.cpp:103] Top shape: 100 4096 1 1 (409600)
I1110 01:50:16.819557 24204 net.cpp:67] Creating Layer relu6
I1110 01:50:16.819566 24204 net.cpp:394] relu6 <- fc6
I1110 01:50:16.819576 24204 net.cpp:345] relu6 -> fc6 (in-place)
I1110 01:50:16.819586 24204 net.cpp:96] Setting up relu6
I1110 01:50:16.819607 24204 net.cpp:103] Top shape: 100 4096 1 1 (409600)
I1110 01:50:16.819619 24204 net.cpp:67] Creating Layer drop6
I1110 01:50:16.819624 24204 net.cpp:394] drop6 <- fc6
I1110 01:50:16.819633 24204 net.cpp:345] drop6 -> fc6 (in-place)
I1110 01:50:16.819640 24204 net.cpp:96] Setting up drop6
I1110 01:50:16.819648 24204 net.cpp:103] Top shape: 100 4096 1 1 (409600)
I1110 01:50:16.819658 24204 net.cpp:67] Creating Layer fc7
I1110 01:50:16.819663 24204 net.cpp:394] fc7 <- fc6
I1110 01:50:16.819674 24204 net.cpp:356] fc7 -> fc7
I1110 01:50:16.819684 24204 net.cpp:96] Setting up fc7
I1110 01:50:17.625242 24204 net.cpp:103] Top shape: 100 4096 1 1 (409600)
I1110 01:50:17.625294 24204 net.cpp:67] Creating Layer relu7
I1110 01:50:17.625304 24204 net.cpp:394] relu7 <- fc7
I1110 01:50:17.625314 24204 net.cpp:345] relu7 -> fc7 (in-place)
I1110 01:50:17.625324 24204 net.cpp:96] Setting up relu7
I1110 01:50:17.625345 24204 net.cpp:103] Top shape: 100 4096 1 1 (409600)
I1110 01:50:17.625355 24204 net.cpp:67] Creating Layer drop7
I1110 01:50:17.625360 24204 net.cpp:394] drop7 <- fc7
I1110 01:50:17.625367 24204 net.cpp:345] drop7 -> fc7 (in-place)
I1110 01:50:17.625375 24204 net.cpp:96] Setting up drop7
I1110 01:50:17.625382 24204 net.cpp:103] Top shape: 100 4096 1 1 (409600)
I1110 01:50:17.625394 24204 net.cpp:67] Creating Layer fc8_clamp
I1110 01:50:17.625401 24204 net.cpp:394] fc8_clamp <- fc7
I1110 01:50:17.625408 24204 net.cpp:356] fc8_clamp -> fc8_clamp
I1110 01:50:17.625422 24204 net.cpp:96] Setting up fc8_clamp
I1110 01:50:17.625854 24204 net.cpp:103] Top shape: 100 2 1 1 (200)
I1110 01:50:17.625885 24204 net.cpp:67] Creating Layer fc8_clamp_fc8_clamp_0_split
I1110 01:50:17.625892 24204 net.cpp:394] fc8_clamp_fc8_clamp_0_split <- fc8_clamp
I1110 01:50:17.625903 24204 net.cpp:356] fc8_clamp_fc8_clamp_0_split -> fc8_clamp_fc8_clamp_0_split_0
I1110 01:50:17.625916 24204 net.cpp:356] fc8_clamp_fc8_clamp_0_split -> fc8_clamp_fc8_clamp_0_split_1
I1110 01:50:17.625924 24204 net.cpp:96] Setting up fc8_clamp_fc8_clamp_0_split
I1110 01:50:17.625931 24204 net.cpp:103] Top shape: 100 2 1 1 (200)
I1110 01:50:17.625936 24204 net.cpp:103] Top shape: 100 2 1 1 (200)
I1110 01:50:17.625947 24204 net.cpp:67] Creating Layer loss
I1110 01:50:17.625953 24204 net.cpp:394] loss <- fc8_clamp_fc8_clamp_0_split_0
I1110 01:50:17.625960 24204 net.cpp:394] loss <- label_data_1_split_0
I1110 01:50:17.625968 24204 net.cpp:356] loss -> (automatic)
I1110 01:50:17.625974 24204 net.cpp:96] Setting up loss
I1110 01:50:17.625984 24204 net.cpp:103] Top shape: 1 1 1 1 (1)
I1110 01:50:17.625990 24204 net.cpp:109]     with loss weight 1
I1110 01:50:17.626046 24204 net.cpp:67] Creating Layer accuracy
I1110 01:50:17.626060 24204 net.cpp:394] accuracy <- fc8_clamp_fc8_clamp_0_split_1
I1110 01:50:17.626067 24204 net.cpp:394] accuracy <- label_data_1_split_1
I1110 01:50:17.626076 24204 net.cpp:356] accuracy -> accuracy
I1110 01:50:17.626085 24204 net.cpp:96] Setting up accuracy
I1110 01:50:17.626094 24204 net.cpp:103] Top shape: 1 1 1 4 (4)
I1110 01:50:17.626101 24204 net.cpp:172] accuracy does not need backward computation.
I1110 01:50:17.626106 24204 net.cpp:170] loss needs backward computation.
I1110 01:50:17.626111 24204 net.cpp:170] fc8_clamp_fc8_clamp_0_split needs backward computation.
I1110 01:50:17.626117 24204 net.cpp:170] fc8_clamp needs backward computation.
I1110 01:50:17.626122 24204 net.cpp:170] drop7 needs backward computation.
…
