…
I1029 04:43:30.431481  3803 net.cpp:275] The NetState phase (0) differed from the phase (1) specified by a rule in layer data
I1029 04:43:30.431520  3803 net.cpp:275] The NetState phase (0) differed from the phase (1) specified by a rule in layer accuracy
I1029 04:43:30.431803  3803 net.cpp:39] Initializing net from parameters: 
name: "MisalCaffeNet"
layers {
  top: "data"
  top: "label"
  name: "data"
  type: IMAGE_DATA
  image_data_param {
    source: "data/misal/train.txt"
    batch_size: 128
    new_height: 256
    new_width: 256
  }
  include {
    phase: TRAIN
  }
  transform_param {
    mirror: true
    crop_size: 227
    mean_file: "/homes/ad6813/data/controlpoint_mean_256-227.binaryproto"
  }
}
layers {
  bottom: "data"
  top: "conv1"
  name: "conv1"
  type: CONVOLUTION
  blobs_lr: 0
  blobs_lr: 0
  weight_decay: 0
  weight_decay: 0
  convolution_param {
    num_output: 96
    kernel_size: 11
    stride: 4
    weight_filler {
      type: "gaussian"
      std: 0.01
    }
    bias_filler {
      type: "constant"
      value: 0
    }
  }
}
layers {
  bottom: "conv1"
  top: "conv1"
  name: "relu1"
  type: RELU
}
layers {
  bottom: "conv1"
  top: "pool1"
  name: "pool1"
  type: POOLING
  pooling_param {
    pool: MAX
    kernel_size: 3
    stride: 2
  }
}
layers {
  bottom: "pool1"
  top: "norm1"
  name: "norm1"
  type: LRN
  lrn_param {
    local_size: 5
    alpha: 0.0001
    beta: 0.75
  }
}
layers {
  bottom: "norm1"
  top: "conv2"
  name: "conv2"
  type: CONVOLUTION
  blobs_lr: 0
  blobs_lr: 0
  weight_decay: 0
  weight_decay: 0
  convolution_param {
    num_output: 256
    pad: 2
    kernel_size: 5
    group: 2
    weight_filler {
      type: "gaussian"
      std: 0.01
    }
    bias_filler {
      type: "constant"
      value: 1
    }
  }
}
layers {
  bottom: "conv2"
  top: "conv2"
  name: "relu2"
  type: RELU
}
layers {
  bottom: "conv2"
  top: "pool2"
  name: "pool2"
  type: POOLING
  pooling_param {
    pool: MAX
    kernel_size: 3
    stride: 2
  }
}
layers {
  bottom: "pool2"
  top: "norm2"
  name: "norm2"
  type: LRN
  lrn_param {
    local_size: 5
    alpha: 0.0001
    beta: 0.75
  }
}
layers {
  bottom: "norm2"
  top: "conv3"
  name: "conv3"
  type: CONVOLUTION
  blobs_lr: 0
  blobs_lr: 0
  weight_decay: 0
  weight_decay: 0
  convolution_param {
    num_output: 384
    pad: 1
    kernel_size: 3
    weight_filler {
      type: "gaussian"
      std: 0.01
    }
    bias_filler {
      type: "constant"
      value: 0
    }
  }
}
layers {
  bottom: "conv3"
  top: "conv3"
  name: "relu3"
  type: RELU
}
layers {
  bottom: "conv3"
  top: "conv4"
  name: "conv4"
  type: CONVOLUTION
  blobs_lr: 0
  blobs_lr: 0
  weight_decay: 0
  weight_decay: 0
  convolution_param {
    num_output: 384
    pad: 1
    kernel_size: 3
    group: 2
    weight_filler {
      type: "gaussian"
      std: 0.01
    }
    bias_filler {
      type: "constant"
      value: 1
    }
  }
}
layers {
  bottom: "conv4"
  top: "conv4"
  name: "relu4"
  type: RELU
}
layers {
  bottom: "conv4"
  top: "conv5"
  name: "conv5"
  type: CONVOLUTION
  blobs_lr: 0
  blobs_lr: 0
  weight_decay: 0
  weight_decay: 0
  convolution_param {
    num_output: 256
    pad: 1
    kernel_size: 3
    group: 2
    weight_filler {
      type: "gaussian"
      std: 0.01
    }
    bias_filler {
      type: "constant"
      value: 1
    }
  }
}
layers {
  bottom: "conv5"
  top: "conv5"
  name: "relu5"
  type: RELU
}
layers {
  bottom: "conv5"
  top: "pool5"
  name: "pool5"
  type: POOLING
  pooling_param {
    pool: MAX
    kernel_size: 3
    stride: 2
  }
}
layers {
  bottom: "pool5"
  top: "fc6"
  name: "fc6"
  type: INNER_PRODUCT
  blobs_lr: 0
  blobs_lr: 0
  weight_decay: 0
  weight_decay: 0
  inner_product_param {
    num_output: 4096
    weight_filler {
      type: "gaussian"
      std: 0.005
    }
    bias_filler {
      type: "constant"
      value: 1
    }
  }
}
layers {
  bottom: "fc6"
  top: "fc6"
  name: "relu6"
  type: RELU
}
layers {
  bottom: "fc6"
  top: "fc6"
  name: "drop6"
  type: DROPOUT
  dropout_param {
    dropout_ratio: 0.5
  }
}
layers {
  bottom: "fc6"
  top: "fc7"
  name: "fc7"
  type: INNER_PRODUCT
  blobs_lr: 0
  blobs_lr: 0
  weight_decay: 0
  weight_decay: 0
  inner_product_param {
    num_output: 4096
    weight_filler {
      type: "gaussian"
      std: 0.005
    }
    bias_filler {
      type: "constant"
      value: 1
    }
  }
}
layers {
  bottom: "fc7"
  top: "fc7"
  name: "relu7"
  type: RELU
}
layers {
  bottom: "fc7"
  top: "fc7"
  name: "drop7"
  type: DROPOUT
  dropout_param {
    dropout_ratio: 0.5
  }
}
layers {
  bottom: "fc7"
  top: "fc8_misal"
  name: "fc8_misal"
  type: INNER_PRODUCT
  blobs_lr: 1
  blobs_lr: 2
  weight_decay: 1
  weight_decay: 0
  inner_product_param {
    num_output: 2
    weight_filler {
      type: "gaussian"
      std: 0.01
    }
    bias_filler {
      type: "constant"
      value: 0
    }
  }
}
layers {
  bottom: "fc8_misal"
  bottom: "label"
  name: "loss"
  type: SOFTMAX_LOSS
}
state {
  phase: TRAIN
}
I1029 04:43:30.431946  3803 net.cpp:67] Creating Layer data
I1029 04:43:30.431965  3803 net.cpp:356] data -> data
I1029 04:43:30.431988  3803 net.cpp:356] data -> label
I1029 04:43:30.432025  3803 net.cpp:96] Setting up data
I1029 04:43:30.432039  3803 image_data_layer.cpp:30] Opening file data/misal/train.txt
I1029 04:43:30.433637  3803 image_data_layer.cpp:45] A total of 2465 images.
I1029 04:43:30.443048  3803 image_data_layer.cpp:73] output data size: 128,3,227,227
I1029 04:43:30.443089  3803 base_data_layer.cpp:36] Loading mean file from/homes/ad6813/data/controlpoint_mean_256-227.binaryproto
I1029 04:43:30.460600  3803 net.cpp:103] Top shape: 128 3 227 227 (19787136)
I1029 04:43:30.460633  3803 net.cpp:103] Top shape: 128 1 1 1 (128)
I1029 04:43:30.460677  3803 net.cpp:67] Creating Layer conv1
I1029 04:43:30.460685  3803 net.cpp:394] conv1 <- data
I1029 04:43:30.460710  3803 net.cpp:356] conv1 -> conv1
I1029 04:43:30.460724  3803 net.cpp:96] Setting up conv1
I1029 04:43:30.462185  3803 net.cpp:103] Top shape: 128 96 55 55 (37171200)
I1029 04:43:30.462215  3803 net.cpp:67] Creating Layer relu1
I1029 04:43:30.462221  3803 net.cpp:394] relu1 <- conv1
I1029 04:43:30.462229  3803 net.cpp:345] relu1 -> conv1 (in-place)
I1029 04:43:30.462236  3803 net.cpp:96] Setting up relu1
I1029 04:43:30.462244  3803 net.cpp:103] Top shape: 128 96 55 55 (37171200)
I1029 04:43:30.462256  3803 net.cpp:67] Creating Layer pool1
I1029 04:43:30.462261  3803 net.cpp:394] pool1 <- conv1
I1029 04:43:30.462268  3803 net.cpp:356] pool1 -> pool1
I1029 04:43:30.462276  3803 net.cpp:96] Setting up pool1
I1029 04:43:30.462290  3803 net.cpp:103] Top shape: 128 96 27 27 (8957952)
I1029 04:43:30.462298  3803 net.cpp:67] Creating Layer norm1
I1029 04:43:30.462307  3803 net.cpp:394] norm1 <- pool1
I1029 04:43:30.462314  3803 net.cpp:356] norm1 -> norm1
I1029 04:43:30.462323  3803 net.cpp:96] Setting up norm1
I1029 04:43:30.462333  3803 net.cpp:103] Top shape: 128 96 27 27 (8957952)
I1029 04:43:30.462352  3803 net.cpp:67] Creating Layer conv2
I1029 04:43:30.462359  3803 net.cpp:394] conv2 <- norm1
I1029 04:43:30.462368  3803 net.cpp:356] conv2 -> conv2
I1029 04:43:30.462375  3803 net.cpp:96] Setting up conv2
I1029 04:43:30.474450  3803 net.cpp:103] Top shape: 128 256 27 27 (23887872)
I1029 04:43:30.474472  3803 net.cpp:67] Creating Layer relu2
I1029 04:43:30.474478  3803 net.cpp:394] relu2 <- conv2
I1029 04:43:30.474485  3803 net.cpp:345] relu2 -> conv2 (in-place)
I1029 04:43:30.474493  3803 net.cpp:96] Setting up relu2
I1029 04:43:30.474498  3803 net.cpp:103] Top shape: 128 256 27 27 (23887872)
I1029 04:43:30.474505  3803 net.cpp:67] Creating Layer pool2
I1029 04:43:30.474521  3803 net.cpp:394] pool2 <- conv2
I1029 04:43:30.474529  3803 net.cpp:356] pool2 -> pool2
I1029 04:43:30.474540  3803 net.cpp:96] Setting up pool2
I1029 04:43:30.474546  3803 net.cpp:103] Top shape: 128 256 13 13 (5537792)
I1029 04:43:30.474555  3803 net.cpp:67] Creating Layer norm2
I1029 04:43:30.474560  3803 net.cpp:394] norm2 <- pool2
I1029 04:43:30.474566  3803 net.cpp:356] norm2 -> norm2
I1029 04:43:30.474573  3803 net.cpp:96] Setting up norm2
I1029 04:43:30.474578  3803 net.cpp:103] Top shape: 128 256 13 13 (5537792)
I1029 04:43:30.474586  3803 net.cpp:67] Creating Layer conv3
I1029 04:43:30.474594  3803 net.cpp:394] conv3 <- norm2
I1029 04:43:30.474601  3803 net.cpp:356] conv3 -> conv3
I1029 04:43:30.474614  3803 net.cpp:96] Setting up conv3
I1029 04:43:30.509635  3803 net.cpp:103] Top shape: 128 384 13 13 (8306688)
I1029 04:43:30.509678  3803 net.cpp:67] Creating Layer relu3
I1029 04:43:30.509685  3803 net.cpp:394] relu3 <- conv3
I1029 04:43:30.509693  3803 net.cpp:345] relu3 -> conv3 (in-place)
I1029 04:43:30.509702  3803 net.cpp:96] Setting up relu3
I1029 04:43:30.509707  3803 net.cpp:103] Top shape: 128 384 13 13 (8306688)
I1029 04:43:30.509716  3803 net.cpp:67] Creating Layer conv4
I1029 04:43:30.509721  3803 net.cpp:394] conv4 <- conv3
I1029 04:43:30.509727  3803 net.cpp:356] conv4 -> conv4
I1029 04:43:30.509739  3803 net.cpp:96] Setting up conv4
I1029 04:43:30.536272  3803 net.cpp:103] Top shape: 128 384 13 13 (8306688)
I1029 04:43:30.536298  3803 net.cpp:67] Creating Layer relu4
I1029 04:43:30.536304  3803 net.cpp:394] relu4 <- conv4
I1029 04:43:30.536314  3803 net.cpp:345] relu4 -> conv4 (in-place)
I1029 04:43:30.536321  3803 net.cpp:96] Setting up relu4
I1029 04:43:30.536325  3803 net.cpp:103] Top shape: 128 384 13 13 (8306688)
I1029 04:43:30.536334  3803 net.cpp:67] Creating Layer conv5
I1029 04:43:30.536339  3803 net.cpp:394] conv5 <- conv4
I1029 04:43:30.536346  3803 net.cpp:356] conv5 -> conv5
I1029 04:43:30.536358  3803 net.cpp:96] Setting up conv5
I1029 04:43:30.553726  3803 net.cpp:103] Top shape: 128 256 13 13 (5537792)
I1029 04:43:30.553755  3803 net.cpp:67] Creating Layer relu5
I1029 04:43:30.553761  3803 net.cpp:394] relu5 <- conv5
I1029 04:43:30.553769  3803 net.cpp:345] relu5 -> conv5 (in-place)
I1029 04:43:30.553777  3803 net.cpp:96] Setting up relu5
I1029 04:43:30.553782  3803 net.cpp:103] Top shape: 128 256 13 13 (5537792)
I1029 04:43:30.553789  3803 net.cpp:67] Creating Layer pool5
I1029 04:43:30.553794  3803 net.cpp:394] pool5 <- conv5
I1029 04:43:30.553807  3803 net.cpp:356] pool5 -> pool5
I1029 04:43:30.553815  3803 net.cpp:96] Setting up pool5
I1029 04:43:30.553822  3803 net.cpp:103] Top shape: 128 256 6 6 (1179648)
I1029 04:43:30.553834  3803 net.cpp:67] Creating Layer fc6
I1029 04:43:30.553838  3803 net.cpp:394] fc6 <- pool5
I1029 04:43:30.553848  3803 net.cpp:356] fc6 -> fc6
I1029 04:43:30.553866  3803 net.cpp:96] Setting up fc6
I1029 04:43:32.031319  3803 net.cpp:103] Top shape: 128 4096 1 1 (524288)
I1029 04:43:32.031375  3803 net.cpp:67] Creating Layer relu6
I1029 04:43:32.031386  3803 net.cpp:394] relu6 <- fc6
I1029 04:43:32.031401  3803 net.cpp:345] relu6 -> fc6 (in-place)
I1029 04:43:32.031421  3803 net.cpp:96] Setting up relu6
I1029 04:43:32.031430  3803 net.cpp:103] Top shape: 128 4096 1 1 (524288)
I1029 04:43:32.031437  3803 net.cpp:67] Creating Layer drop6
I1029 04:43:32.031442  3803 net.cpp:394] drop6 <- fc6
I1029 04:43:32.031448  3803 net.cpp:345] drop6 -> fc6 (in-place)
I1029 04:43:32.031456  3803 net.cpp:96] Setting up drop6
I1029 04:43:32.031466  3803 net.cpp:103] Top shape: 128 4096 1 1 (524288)
I1029 04:43:32.031481  3803 net.cpp:67] Creating Layer fc7
I1029 04:43:32.031486  3803 net.cpp:394] fc7 <- fc6
I1029 04:43:32.031493  3803 net.cpp:356] fc7 -> fc7
I1029 04:43:32.031502  3803 net.cpp:96] Setting up fc7
I1029 04:43:32.687649  3803 net.cpp:103] Top shape: 128 4096 1 1 (524288)
I1029 04:43:32.687692  3803 net.cpp:67] Creating Layer relu7
I1029 04:43:32.687700  3803 net.cpp:394] relu7 <- fc7
I1029 04:43:32.687708  3803 net.cpp:345] relu7 -> fc7 (in-place)
I1029 04:43:32.687731  3803 net.cpp:96] Setting up relu7
I1029 04:43:32.687736  3803 net.cpp:103] Top shape: 128 4096 1 1 (524288)
I1029 04:43:32.687746  3803 net.cpp:67] Creating Layer drop7
I1029 04:43:32.687749  3803 net.cpp:394] drop7 <- fc7
I1029 04:43:32.687757  3803 net.cpp:345] drop7 -> fc7 (in-place)
I1029 04:43:32.687770  3803 net.cpp:96] Setting up drop7
I1029 04:43:32.687777  3803 net.cpp:103] Top shape: 128 4096 1 1 (524288)
I1029 04:43:32.687784  3803 net.cpp:67] Creating Layer fc8_misal
I1029 04:43:32.687788  3803 net.cpp:394] fc8_misal <- fc7
I1029 04:43:32.687798  3803 net.cpp:356] fc8_misal -> fc8_misal
I1029 04:43:32.687808  3803 net.cpp:96] Setting up fc8_misal
I1029 04:43:32.688150  3803 net.cpp:103] Top shape: 128 2 1 1 (256)
I1029 04:43:32.688169  3803 net.cpp:67] Creating Layer loss
I1029 04:43:32.688174  3803 net.cpp:394] loss <- fc8_misal
I1029 04:43:32.688179  3803 net.cpp:394] loss <- label
I1029 04:43:32.688189  3803 net.cpp:356] loss -> (automatic)
I1029 04:43:32.688196  3803 net.cpp:96] Setting up loss
I1029 04:43:32.688212  3803 net.cpp:103] Top shape: 1 1 1 1 (1)
I1029 04:43:32.688220  3803 net.cpp:109]     with loss weight 1
I1029 04:43:32.688261  3803 net.cpp:170] loss needs backward computation.
I1029 04:43:32.688266  3803 net.cpp:170] fc8_misal needs backward computation.
I1029 04:43:32.688273  3803 net.cpp:172] drop7 does not need backward computation.
I1029 04:43:32.688277  3803 net.cpp:172] relu7 does not need backward computation.
I1029 04:43:32.688282  3803 net.cpp:172] fc7 does not need backward computation.
…
I1029 04:43:32.689465  3803 solver.cpp:151] Creating test net (#0) specified by net file: task/misal/train_val.prototxt
I1029 04:43:32.689524  3803 net.cpp:275] The NetState phase (1) differed from the phase (0) specified by a rule in layer data
I1029 04:43:32.689796  3803 net.cpp:39] Initializing net from parameters: 
name: "MisalCaffeNet"
layers {
  top: "data"
  top: "label"
  name: "data"
  type: IMAGE_DATA
  image_data_param {
    source: "data/misal/val.txt"
    batch_size: 57
    new_height: 256
    new_width: 256
  }
  include {
    phase: TEST
  }
  transform_param {
    mirror: true
    crop_size: 227
    mean_file: "/homes/ad6813/data/controlpoint_mean_256-227.binaryproto"
  }
}
layers {
  bottom: "data"
  top: "conv1"
  name: "conv1"
  type: CONVOLUTION
  blobs_lr: 0
  blobs_lr: 0
  weight_decay: 0
  weight_decay: 0
  convolution_param {
    num_output: 96
    kernel_size: 11
    stride: 4
    weight_filler {
      type: "gaussian"
      std: 0.01
    }
    bias_filler {
      type: "constant"
      value: 0
    }
  }
}
layers {
  bottom: "conv1"
  top: "conv1"
  name: "relu1"
  type: RELU
}
layers {
  bottom: "conv1"
  top: "pool1"
  name: "pool1"
  type: POOLING
  pooling_param {
    pool: MAX
    kernel_size: 3
    stride: 2
  }
}
layers {
  bottom: "pool1"
  top: "norm1"
  name: "norm1"
  type: LRN
  lrn_param {
    local_size: 5
    alpha: 0.0001
    beta: 0.75
  }
}
layers {
  bottom: "norm1"
  top: "conv2"
  name: "conv2"
  type: CONVOLUTION
  blobs_lr: 0
  blobs_lr: 0
  weight_decay: 0
  weight_decay: 0
  convolution_param {
    num_output: 256
    pad: 2
    kernel_size: 5
    group: 2
    weight_filler {
      type: "gaussian"
      std: 0.01
    }
    bias_filler {
      type: "constant"
      value: 1
    }
  }
}
layers {
  bottom: "conv2"
  top: "conv2"
  name: "relu2"
  type: RELU
}
layers {
  bottom: "conv2"
  top: "pool2"
  name: "pool2"
  type: POOLING
  pooling_param {
    pool: MAX
    kernel_size: 3
    stride: 2
  }
}
layers {
  bottom: "pool2"
  top: "norm2"
  name: "norm2"
  type: LRN
  lrn_param {
    local_size: 5
    alpha: 0.0001
    beta: 0.75
  }
}
layers {
  bottom: "norm2"
  top: "conv3"
  name: "conv3"
  type: CONVOLUTION
  blobs_lr: 0
  blobs_lr: 0
  weight_decay: 0
  weight_decay: 0
  convolution_param {
    num_output: 384
    pad: 1
    kernel_size: 3
    weight_filler {
      type: "gaussian"
      std: 0.01
    }
    bias_filler {
      type: "constant"
      value: 0
    }
  }
}
layers {
  bottom: "conv3"
  top: "conv3"
  name: "relu3"
  type: RELU
}
layers {
  bottom: "conv3"
  top: "conv4"
  name: "conv4"
  type: CONVOLUTION
  blobs_lr: 0
  blobs_lr: 0
  weight_decay: 0
  weight_decay: 0
  convolution_param {
    num_output: 384
    pad: 1
    kernel_size: 3
    group: 2
    weight_filler {
      type: "gaussian"
      std: 0.01
    }
    bias_filler {
      type: "constant"
      value: 1
    }
  }
}
layers {
  bottom: "conv4"
  top: "conv4"
  name: "relu4"
  type: RELU
}
layers {
  bottom: "conv4"
  top: "conv5"
  name: "conv5"
  type: CONVOLUTION
  blobs_lr: 0
  blobs_lr: 0
  weight_decay: 0
  weight_decay: 0
  convolution_param {
    num_output: 256
    pad: 1
    kernel_size: 3
    group: 2
    weight_filler {
      type: "gaussian"
      std: 0.01
    }
    bias_filler {
      type: "constant"
      value: 1
    }
  }
}
layers {
  bottom: "conv5"
  top: "conv5"
  name: "relu5"
  type: RELU
}
layers {
  bottom: "conv5"
  top: "pool5"
  name: "pool5"
  type: POOLING
  pooling_param {
    pool: MAX
    kernel_size: 3
    stride: 2
  }
}
layers {
  bottom: "pool5"
  top: "fc6"
  name: "fc6"
  type: INNER_PRODUCT
  blobs_lr: 0
  blobs_lr: 0
  weight_decay: 0
  weight_decay: 0
  inner_product_param {
    num_output: 4096
    weight_filler {
      type: "gaussian"
      std: 0.005
    }
    bias_filler {
      type: "constant"
      value: 1
    }
  }
}
layers {
  bottom: "fc6"
  top: "fc6"
  name: "relu6"
  type: RELU
}
layers {
  bottom: "fc6"
  top: "fc6"
  name: "drop6"
  type: DROPOUT
  dropout_param {
    dropout_ratio: 0.5
  }
}
layers {
  bottom: "fc6"
  top: "fc7"
  name: "fc7"
  type: INNER_PRODUCT
  blobs_lr: 0
  blobs_lr: 0
  weight_decay: 0
  weight_decay: 0
  inner_product_param {
    num_output: 4096
    weight_filler {
      type: "gaussian"
      std: 0.005
    }
    bias_filler {
      type: "constant"
      value: 1
    }
  }
}
layers {
  bottom: "fc7"
  top: "fc7"
  name: "relu7"
  type: RELU
}
layers {
  bottom: "fc7"
  top: "fc7"
  name: "drop7"
  type: DROPOUT
  dropout_param {
    dropout_ratio: 0.5
  }
}
layers {
  bottom: "fc7"
  top: "fc8_misal"
  name: "fc8_misal"
  type: INNER_PRODUCT
  blobs_lr: 1
  blobs_lr: 2
  weight_decay: 1
  weight_decay: 0
  inner_product_param {
    num_output: 2
    weight_filler {
      type: "gaussian"
      std: 0.01
    }
    bias_filler {
      type: "constant"
      value: 0
    }
  }
}
layers {
  bottom: "fc8_misal"
  bottom: "label"
  name: "loss"
  type: SOFTMAX_LOSS
}
layers {
  bottom: "fc8_misal"
  bottom: "label"
  top: "accuracy"
  name: "accuracy"
  type: ACCURACY
  include {
    phase: TEST
  }
}
state {
  phase: TEST
}
I1029 04:43:32.689957  3803 net.cpp:67] Creating Layer data
I1029 04:43:32.689967  3803 net.cpp:356] data -> data
I1029 04:43:32.690001  3803 net.cpp:356] data -> label
I1029 04:43:32.690012  3803 net.cpp:96] Setting up data
I1029 04:43:32.690021  3803 image_data_layer.cpp:30] Opening file data/misal/val.txt
I1029 04:43:32.690086  3803 image_data_layer.cpp:45] A total of 57 images.
I1029 04:43:32.692657  3803 image_data_layer.cpp:73] output data size: 57,3,227,227
I1029 04:43:32.692679  3803 base_data_layer.cpp:36] Loading mean file from/homes/ad6813/data/controlpoint_mean_256-227.binaryproto
I1029 04:43:32.701666  3803 net.cpp:103] Top shape: 57 3 227 227 (8811459)
I1029 04:43:32.701699  3803 net.cpp:103] Top shape: 57 1 1 1 (57)
I1029 04:43:32.701714  3803 net.cpp:67] Creating Layer label_data_1_split
I1029 04:43:32.701719  3803 net.cpp:394] label_data_1_split <- label
I1029 04:43:32.701730  3803 net.cpp:356] label_data_1_split -> label_data_1_split_0
I1029 04:43:32.701743  3803 net.cpp:356] label_data_1_split -> label_data_1_split_1
I1029 04:43:32.701751  3803 net.cpp:96] Setting up label_data_1_split
I1029 04:43:32.701762  3803 net.cpp:103] Top shape: 57 1 1 1 (57)
I1029 04:43:32.701767  3803 net.cpp:103] Top shape: 57 1 1 1 (57)
I1029 04:43:32.701778  3803 net.cpp:67] Creating Layer conv1
I1029 04:43:32.701783  3803 net.cpp:394] conv1 <- data
I1029 04:43:32.701793  3803 net.cpp:356] conv1 -> conv1
I1029 04:43:32.701803  3803 net.cpp:96] Setting up conv1
I1029 04:43:32.703230  3803 net.cpp:103] Top shape: 57 96 55 55 (16552800)
I1029 04:43:32.703254  3803 net.cpp:67] Creating Layer relu1
I1029 04:43:32.703259  3803 net.cpp:394] relu1 <- conv1
I1029 04:43:32.703266  3803 net.cpp:345] relu1 -> conv1 (in-place)
I1029 04:43:32.703274  3803 net.cpp:96] Setting up relu1
I1029 04:43:32.703279  3803 net.cpp:103] Top shape: 57 96 55 55 (16552800)
I1029 04:43:32.703287  3803 net.cpp:67] Creating Layer pool1
I1029 04:43:32.703292  3803 net.cpp:394] pool1 <- conv1
I1029 04:43:32.703299  3803 net.cpp:356] pool1 -> pool1
I1029 04:43:32.703305  3803 net.cpp:96] Setting up pool1
I1029 04:43:32.703313  3803 net.cpp:103] Top shape: 57 96 27 27 (3989088)
I1029 04:43:32.703320  3803 net.cpp:67] Creating Layer norm1
I1029 04:43:32.703325  3803 net.cpp:394] norm1 <- pool1
I1029 04:43:32.703332  3803 net.cpp:356] norm1 -> norm1
I1029 04:43:32.703340  3803 net.cpp:96] Setting up norm1
I1029 04:43:32.703346  3803 net.cpp:103] Top shape: 57 96 27 27 (3989088)
I1029 04:43:32.703352  3803 net.cpp:67] Creating Layer conv2
I1029 04:43:32.703357  3803 net.cpp:394] conv2 <- norm1
I1029 04:43:32.703364  3803 net.cpp:356] conv2 -> conv2
I1029 04:43:32.703379  3803 net.cpp:96] Setting up conv2
I1029 04:43:32.715515  3803 net.cpp:103] Top shape: 57 256 27 27 (10637568)
I1029 04:43:32.715538  3803 net.cpp:67] Creating Layer relu2
I1029 04:43:32.715544  3803 net.cpp:394] relu2 <- conv2
I1029 04:43:32.715551  3803 net.cpp:345] relu2 -> conv2 (in-place)
I1029 04:43:32.715559  3803 net.cpp:96] Setting up relu2
I1029 04:43:32.715564  3803 net.cpp:103] Top shape: 57 256 27 27 (10637568)
I1029 04:43:32.715574  3803 net.cpp:67] Creating Layer pool2
I1029 04:43:32.715579  3803 net.cpp:394] pool2 <- conv2
I1029 04:43:32.715586  3803 net.cpp:356] pool2 -> pool2
I1029 04:43:32.715595  3803 net.cpp:96] Setting up pool2
I1029 04:43:32.715601  3803 net.cpp:103] Top shape: 57 256 13 13 (2466048)
I1029 04:43:32.715610  3803 net.cpp:67] Creating Layer norm2
I1029 04:43:32.715615  3803 net.cpp:394] norm2 <- pool2
I1029 04:43:32.715621  3803 net.cpp:356] norm2 -> norm2
I1029 04:43:32.715628  3803 net.cpp:96] Setting up norm2
I1029 04:43:32.715634  3803 net.cpp:103] Top shape: 57 256 13 13 (2466048)
I1029 04:43:32.715665  3803 net.cpp:67] Creating Layer conv3
I1029 04:43:32.715682  3803 net.cpp:394] conv3 <- norm2
I1029 04:43:32.715697  3803 net.cpp:356] conv3 -> conv3
I1029 04:43:32.715704  3803 net.cpp:96] Setting up conv3
I1029 04:43:32.750671  3803 net.cpp:103] Top shape: 57 384 13 13 (3699072)
I1029 04:43:32.750715  3803 net.cpp:67] Creating Layer relu3
I1029 04:43:32.750721  3803 net.cpp:394] relu3 <- conv3
I1029 04:43:32.750730  3803 net.cpp:345] relu3 -> conv3 (in-place)
I1029 04:43:32.750742  3803 net.cpp:96] Setting up relu3
I1029 04:43:32.750747  3803 net.cpp:103] Top shape: 57 384 13 13 (3699072)
I1029 04:43:32.750756  3803 net.cpp:67] Creating Layer conv4
I1029 04:43:32.750761  3803 net.cpp:394] conv4 <- conv3
I1029 04:43:32.750768  3803 net.cpp:356] conv4 -> conv4
I1029 04:43:32.750777  3803 net.cpp:96] Setting up conv4
I1029 04:43:32.777309  3803 net.cpp:103] Top shape: 57 384 13 13 (3699072)
I1029 04:43:32.777345  3803 net.cpp:67] Creating Layer relu4
I1029 04:43:32.777351  3803 net.cpp:394] relu4 <- conv4
I1029 04:43:32.777360  3803 net.cpp:345] relu4 -> conv4 (in-place)
I1029 04:43:32.777369  3803 net.cpp:96] Setting up relu4
I1029 04:43:32.777374  3803 net.cpp:103] Top shape: 57 384 13 13 (3699072)
I1029 04:43:32.777385  3803 net.cpp:67] Creating Layer conv5
I1029 04:43:32.777390  3803 net.cpp:394] conv5 <- conv4
I1029 04:43:32.777398  3803 net.cpp:356] conv5 -> conv5
I1029 04:43:32.777406  3803 net.cpp:96] Setting up conv5
I1029 04:43:32.795084  3803 net.cpp:103] Top shape: 57 256 13 13 (2466048)
I1029 04:43:32.795114  3803 net.cpp:67] Creating Layer relu5
I1029 04:43:32.795120  3803 net.cpp:394] relu5 <- conv5
I1029 04:43:32.795128  3803 net.cpp:345] relu5 -> conv5 (in-place)
I1029 04:43:32.795136  3803 net.cpp:96] Setting up relu5
I1029 04:43:32.795141  3803 net.cpp:103] Top shape: 57 256 13 13 (2466048)
I1029 04:43:32.795152  3803 net.cpp:67] Creating Layer pool5
I1029 04:43:32.795157  3803 net.cpp:394] pool5 <- conv5
I1029 04:43:32.795164  3803 net.cpp:356] pool5 -> pool5
I1029 04:43:32.795172  3803 net.cpp:96] Setting up pool5
I1029 04:43:32.795179  3803 net.cpp:103] Top shape: 57 256 6 6 (525312)
I1029 04:43:32.795188  3803 net.cpp:67] Creating Layer fc6
I1029 04:43:32.795192  3803 net.cpp:394] fc6 <- pool5
I1029 04:43:32.795202  3803 net.cpp:356] fc6 -> fc6
I1029 04:43:32.795210  3803 net.cpp:96] Setting up fc6
I1029 04:43:34.271985  3803 net.cpp:103] Top shape: 57 4096 1 1 (233472)
I1029 04:43:34.272030  3803 net.cpp:67] Creating Layer relu6
I1029 04:43:34.272038  3803 net.cpp:394] relu6 <- fc6
I1029 04:43:34.272047  3803 net.cpp:345] relu6 -> fc6 (in-place)
I1029 04:43:34.272058  3803 net.cpp:96] Setting up relu6
I1029 04:43:34.272063  3803 net.cpp:103] Top shape: 57 4096 1 1 (233472)
I1029 04:43:34.272069  3803 net.cpp:67] Creating Layer drop6
I1029 04:43:34.272074  3803 net.cpp:394] drop6 <- fc6
I1029 04:43:34.272084  3803 net.cpp:345] drop6 -> fc6 (in-place)
I1029 04:43:34.272091  3803 net.cpp:96] Setting up drop6
I1029 04:43:34.272097  3803 net.cpp:103] Top shape: 57 4096 1 1 (233472)
I1029 04:43:34.272105  3803 net.cpp:67] Creating Layer fc7
I1029 04:43:34.272110  3803 net.cpp:394] fc7 <- fc6
I1029 04:43:34.272117  3803 net.cpp:356] fc7 -> fc7
I1029 04:43:34.272126  3803 net.cpp:96] Setting up fc7
I1029 04:43:34.928714  3803 net.cpp:103] Top shape: 57 4096 1 1 (233472)
I1029 04:43:34.928755  3803 net.cpp:67] Creating Layer relu7
I1029 04:43:34.928763  3803 net.cpp:394] relu7 <- fc7
I1029 04:43:34.928772  3803 net.cpp:345] relu7 -> fc7 (in-place)
I1029 04:43:34.928781  3803 net.cpp:96] Setting up relu7
I1029 04:43:34.928787  3803 net.cpp:103] Top shape: 57 4096 1 1 (233472)
I1029 04:43:34.928797  3803 net.cpp:67] Creating Layer drop7
I1029 04:43:34.928802  3803 net.cpp:394] drop7 <- fc7
I1029 04:43:34.928807  3803 net.cpp:345] drop7 -> fc7 (in-place)
I1029 04:43:34.928814  3803 net.cpp:96] Setting up drop7
I1029 04:43:34.928820  3803 net.cpp:103] Top shape: 57 4096 1 1 (233472)
I1029 04:43:34.928828  3803 net.cpp:67] Creating Layer fc8_misal
I1029 04:43:34.928833  3803 net.cpp:394] fc8_misal <- fc7
I1029 04:43:34.928853  3803 net.cpp:356] fc8_misal -> fc8_misal
I1029 04:43:34.928866  3803 net.cpp:96] Setting up fc8_misal
I1029 04:43:34.929215  3803 net.cpp:103] Top shape: 57 2 1 1 (114)
I1029 04:43:34.929232  3803 net.cpp:67] Creating Layer fc8_misal_fc8_misal_0_split
I1029 04:43:34.929239  3803 net.cpp:394] fc8_misal_fc8_misal_0_split <- fc8_misal
I1029 04:43:34.929245  3803 net.cpp:356] fc8_misal_fc8_misal_0_split -> fc8_misal_fc8_misal_0_split_0
I1029 04:43:34.929255  3803 net.cpp:356] fc8_misal_fc8_misal_0_split -> fc8_misal_fc8_misal_0_split_1
I1029 04:43:34.929262  3803 net.cpp:96] Setting up fc8_misal_fc8_misal_0_split
I1029 04:43:34.929268  3803 net.cpp:103] Top shape: 57 2 1 1 (114)
I1029 04:43:34.929272  3803 net.cpp:103] Top shape: 57 2 1 1 (114)
I1029 04:43:34.929281  3803 net.cpp:67] Creating Layer loss
I1029 04:43:34.929286  3803 net.cpp:394] loss <- fc8_misal_fc8_misal_0_split_0
I1029 04:43:34.929292  3803 net.cpp:394] loss <- label_data_1_split_0
I1029 04:43:34.929299  3803 net.cpp:356] loss -> (automatic)
I1029 04:43:34.929304  3803 net.cpp:96] Setting up loss
I1029 04:43:34.929313  3803 net.cpp:103] Top shape: 1 1 1 1 (1)
I1029 04:43:34.929318  3803 net.cpp:109]     with loss weight 1
I1029 04:43:34.929340  3803 net.cpp:67] Creating Layer accuracy
I1029 04:43:34.929353  3803 net.cpp:394] accuracy <- fc8_misal_fc8_misal_0_split_1
I1029 04:43:34.929359  3803 net.cpp:394] accuracy <- label_data_1_split_1
I1029 04:43:34.929368  3803 net.cpp:356] accuracy -> accuracy
I1029 04:43:34.929405  3803 net.cpp:96] Setting up accuracy
I1029 04:43:34.929425  3803 net.cpp:103] Top shape: 1 1 1 4 (4)
I1029 04:43:34.929432  3803 net.cpp:172] accuracy does not need backward computation.
I1029 04:43:34.929436  3803 net.cpp:170] loss needs backward computation.
I1029 04:43:34.929442  3803 net.cpp:170] fc8_misal_fc8_misal_0_split needs backward computation.
I1029 04:43:34.929446  3803 net.cpp:170] fc8_misal needs backward computation.
I1029 04:43:34.929451  3803 net.cpp:172] drop7 does not need backward computation.
…
