…
I1031 02:24:38.198760  5233 net.cpp:275] The NetState phase (0) differed from the phase (1) specified by a rule in layer data
I1031 02:24:38.198783  5233 net.cpp:275] The NetState phase (0) differed from the phase (1) specified by a rule in layer accuracy
I1031 02:24:38.198930  5233 net.cpp:39] Initializing net from parameters: 
name: "InadclCaffeNet"
layers {
  top: "data"
  top: "label"
  name: "data"
  type: IMAGE_DATA
  image_data_param {
    source: "data/inadcl/train.txt"
    batch_size: 256
    new_height: 256
    new_width: 256
  }
  include {
    phase: TRAIN
  }
  transform_param {
    mirror: true
    crop_size: 227
    mean_file: "/homes/ad6813/data/controlpoint_mean_256-227.binaryproto"
  }
}
layers {
  bottom: "data"
  top: "conv1"
  name: "conv1"
  type: CONVOLUTION
  blobs_lr: 0
  blobs_lr: 0
  weight_decay: 0
  weight_decay: 0
  convolution_param {
    num_output: 96
    kernel_size: 11
    stride: 4
    weight_filler {
      type: "gaussian"
      std: 0.01
    }
    bias_filler {
      type: "constant"
      value: 0
    }
  }
}
layers {
  bottom: "conv1"
  top: "conv1"
  name: "relu1"
  type: RELU
}
layers {
  bottom: "conv1"
  top: "pool1"
  name: "pool1"
  type: POOLING
  pooling_param {
    pool: MAX
    kernel_size: 3
    stride: 2
  }
}
layers {
  bottom: "pool1"
  top: "norm1"
  name: "norm1"
  type: LRN
  lrn_param {
    local_size: 5
    alpha: 0.0001
    beta: 0.75
  }
}
layers {
  bottom: "norm1"
  top: "conv2"
  name: "conv2"
  type: CONVOLUTION
  blobs_lr: 0
  blobs_lr: 0
  weight_decay: 0
  weight_decay: 0
  convolution_param {
    num_output: 256
    pad: 2
    kernel_size: 5
    group: 2
    weight_filler {
      type: "gaussian"
      std: 0.01
    }
    bias_filler {
      type: "constant"
      value: 1
    }
  }
}
layers {
  bottom: "conv2"
  top: "conv2"
  name: "relu2"
  type: RELU
}
layers {
  bottom: "conv2"
  top: "pool2"
  name: "pool2"
  type: POOLING
  pooling_param {
    pool: MAX
    kernel_size: 3
    stride: 2
  }
}
layers {
  bottom: "pool2"
  top: "norm2"
  name: "norm2"
  type: LRN
  lrn_param {
    local_size: 5
    alpha: 0.0001
    beta: 0.75
  }
}
layers {
  bottom: "norm2"
  top: "conv3"
  name: "conv3"
  type: CONVOLUTION
  blobs_lr: 0
  blobs_lr: 0
  weight_decay: 0
  weight_decay: 0
  convolution_param {
    num_output: 384
    pad: 1
    kernel_size: 3
    weight_filler {
      type: "gaussian"
      std: 0.01
    }
    bias_filler {
      type: "constant"
      value: 0
    }
  }
}
layers {
  bottom: "conv3"
  top: "conv3"
  name: "relu3"
  type: RELU
}
layers {
  bottom: "conv3"
  top: "conv4"
  name: "conv4"
  type: CONVOLUTION
  blobs_lr: 0
  blobs_lr: 0
  weight_decay: 0
  weight_decay: 0
  convolution_param {
    num_output: 384
    pad: 1
    kernel_size: 3
    group: 2
    weight_filler {
      type: "gaussian"
      std: 0.01
    }
    bias_filler {
      type: "constant"
      value: 1
    }
  }
}
layers {
  bottom: "conv4"
  top: "conv4"
  name: "relu4"
  type: RELU
}
layers {
  bottom: "conv4"
  top: "conv5"
  name: "conv5"
  type: CONVOLUTION
  blobs_lr: 0
  blobs_lr: 0
  weight_decay: 0
  weight_decay: 0
  convolution_param {
    num_output: 256
    pad: 1
    kernel_size: 3
    group: 2
    weight_filler {
      type: "gaussian"
      std: 0.01
    }
    bias_filler {
      type: "constant"
      value: 1
    }
  }
}
layers {
  bottom: "conv5"
  top: "conv5"
  name: "relu5"
  type: RELU
}
layers {
  bottom: "conv5"
  top: "pool5"
  name: "pool5"
  type: POOLING
  pooling_param {
    pool: MAX
    kernel_size: 3
    stride: 2
  }
}
layers {
  bottom: "pool5"
  top: "fc6"
  name: "fc6"
  type: INNER_PRODUCT
  blobs_lr: 1
  blobs_lr: 2
  weight_decay: 1
  weight_decay: 0
  inner_product_param {
    num_output: 4096
    weight_filler {
      type: "gaussian"
      std: 0.005
    }
    bias_filler {
      type: "constant"
      value: 1
    }
  }
}
layers {
  bottom: "fc6"
  top: "fc6"
  name: "relu6"
  type: RELU
}
layers {
  bottom: "fc6"
  top: "fc6"
  name: "drop6"
  type: DROPOUT
  dropout_param {
    dropout_ratio: 0.5
  }
}
layers {
  bottom: "fc6"
  top: "fc7"
  name: "fc7"
  type: INNER_PRODUCT
  blobs_lr: 1
  blobs_lr: 2
  weight_decay: 1
  weight_decay: 0
  inner_product_param {
    num_output: 4096
    weight_filler {
      type: "gaussian"
      std: 0.005
    }
    bias_filler {
      type: "constant"
      value: 1
    }
  }
}
layers {
  bottom: "fc7"
  top: "fc7"
  name: "relu7"
  type: RELU
}
layers {
  bottom: "fc7"
  top: "fc7"
  name: "drop7"
  type: DROPOUT
  dropout_param {
    dropout_ratio: 0.5
  }
}
layers {
  bottom: "fc7"
  top: "fc8_inadcl"
  name: "fc8_inadcl"
  type: INNER_PRODUCT
  blobs_lr: 1
  blobs_lr: 2
  weight_decay: 1
  weight_decay: 0
  inner_product_param {
    num_output: 2
    weight_filler {
      type: "gaussian"
      std: 0.01
    }
    bias_filler {
      type: "constant"
      value: 0
    }
  }
}
layers {
  bottom: "fc8_inadcl"
  bottom: "label"
  name: "loss"
  type: SOFTMAX_REBALANCED_LOSS
}
state {
  phase: TRAIN
}
I1031 02:24:38.199028  5233 net.cpp:67] Creating Layer data
I1031 02:24:38.199036  5233 net.cpp:356] data -> data
I1031 02:24:38.199051  5233 net.cpp:356] data -> label
I1031 02:24:38.199064  5233 net.cpp:96] Setting up data
I1031 02:24:38.199069  5233 image_data_layer.cpp:30] Opening file data/inadcl/train.txt
I1031 02:24:38.201629  5233 image_data_layer.cpp:45] A total of 6746 images.
I1031 02:24:38.221376  5233 image_data_layer.cpp:73] output data size: 256,3,227,227
I1031 02:24:38.221407  5233 base_data_layer.cpp:36] Loading mean file from/homes/ad6813/data/controlpoint_mean_256-227.binaryproto
I1031 02:24:38.247360  5233 net.cpp:103] Top shape: 256 3 227 227 (39574272)
I1031 02:24:38.247387  5233 net.cpp:103] Top shape: 256 1 1 1 (256)
I1031 02:24:38.247423  5233 net.cpp:67] Creating Layer conv1
I1031 02:24:38.247428  5233 net.cpp:394] conv1 <- data
I1031 02:24:38.247441  5233 net.cpp:356] conv1 -> conv1
I1031 02:24:38.247452  5233 net.cpp:96] Setting up conv1
I1031 02:24:38.263342  5233 net.cpp:103] Top shape: 256 96 55 55 (74342400)
I1031 02:24:38.263386  5233 net.cpp:67] Creating Layer relu1
I1031 02:24:38.263391  5233 net.cpp:394] relu1 <- conv1
I1031 02:24:38.263396  5233 net.cpp:345] relu1 -> conv1 (in-place)
I1031 02:24:38.263406  5233 net.cpp:96] Setting up relu1
I1031 02:24:38.263414  5233 net.cpp:103] Top shape: 256 96 55 55 (74342400)
I1031 02:24:38.263420  5233 net.cpp:67] Creating Layer pool1
I1031 02:24:38.263423  5233 net.cpp:394] pool1 <- conv1
I1031 02:24:38.263428  5233 net.cpp:356] pool1 -> pool1
I1031 02:24:38.263434  5233 net.cpp:96] Setting up pool1
I1031 02:24:38.263450  5233 net.cpp:103] Top shape: 256 96 27 27 (17915904)
I1031 02:24:38.263463  5233 net.cpp:67] Creating Layer norm1
I1031 02:24:38.263468  5233 net.cpp:394] norm1 <- pool1
I1031 02:24:38.263473  5233 net.cpp:356] norm1 -> norm1
I1031 02:24:38.263479  5233 net.cpp:96] Setting up norm1
I1031 02:24:38.263485  5233 net.cpp:103] Top shape: 256 96 27 27 (17915904)
I1031 02:24:38.263495  5233 net.cpp:67] Creating Layer conv2
I1031 02:24:38.263499  5233 net.cpp:394] conv2 <- norm1
I1031 02:24:38.263505  5233 net.cpp:356] conv2 -> conv2
I1031 02:24:38.263511  5233 net.cpp:96] Setting up conv2
I1031 02:24:38.271320  5233 net.cpp:103] Top shape: 256 256 27 27 (47775744)
I1031 02:24:38.271337  5233 net.cpp:67] Creating Layer relu2
I1031 02:24:38.271342  5233 net.cpp:394] relu2 <- conv2
I1031 02:24:38.271347  5233 net.cpp:345] relu2 -> conv2 (in-place)
I1031 02:24:38.271353  5233 net.cpp:96] Setting up relu2
I1031 02:24:38.271358  5233 net.cpp:103] Top shape: 256 256 27 27 (47775744)
I1031 02:24:38.271363  5233 net.cpp:67] Creating Layer pool2
I1031 02:24:38.271373  5233 net.cpp:394] pool2 <- conv2
I1031 02:24:38.271378  5233 net.cpp:356] pool2 -> pool2
I1031 02:24:38.271384  5233 net.cpp:96] Setting up pool2
I1031 02:24:38.271389  5233 net.cpp:103] Top shape: 256 256 13 13 (11075584)
I1031 02:24:38.271397  5233 net.cpp:67] Creating Layer norm2
I1031 02:24:38.271400  5233 net.cpp:394] norm2 <- pool2
I1031 02:24:38.271405  5233 net.cpp:356] norm2 -> norm2
I1031 02:24:38.271410  5233 net.cpp:96] Setting up norm2
I1031 02:24:38.271414  5233 net.cpp:103] Top shape: 256 256 13 13 (11075584)
I1031 02:24:38.271420  5233 net.cpp:67] Creating Layer conv3
I1031 02:24:38.271422  5233 net.cpp:394] conv3 <- norm2
I1031 02:24:38.271428  5233 net.cpp:356] conv3 -> conv3
I1031 02:24:38.271435  5233 net.cpp:96] Setting up conv3
I1031 02:24:38.293367  5233 net.cpp:103] Top shape: 256 384 13 13 (16613376)
I1031 02:24:38.293398  5233 net.cpp:67] Creating Layer relu3
I1031 02:24:38.293402  5233 net.cpp:394] relu3 <- conv3
I1031 02:24:38.293409  5233 net.cpp:345] relu3 -> conv3 (in-place)
I1031 02:24:38.293416  5233 net.cpp:96] Setting up relu3
I1031 02:24:38.293421  5233 net.cpp:103] Top shape: 256 384 13 13 (16613376)
I1031 02:24:38.293429  5233 net.cpp:67] Creating Layer conv4
I1031 02:24:38.293433  5233 net.cpp:394] conv4 <- conv3
I1031 02:24:38.293437  5233 net.cpp:356] conv4 -> conv4
I1031 02:24:38.293443  5233 net.cpp:96] Setting up conv4
I1031 02:24:38.310287  5233 net.cpp:103] Top shape: 256 384 13 13 (16613376)
I1031 02:24:38.310317  5233 net.cpp:67] Creating Layer relu4
I1031 02:24:38.310322  5233 net.cpp:394] relu4 <- conv4
I1031 02:24:38.310329  5233 net.cpp:345] relu4 -> conv4 (in-place)
I1031 02:24:38.310336  5233 net.cpp:96] Setting up relu4
I1031 02:24:38.310343  5233 net.cpp:103] Top shape: 256 384 13 13 (16613376)
I1031 02:24:38.310349  5233 net.cpp:67] Creating Layer conv5
I1031 02:24:38.310351  5233 net.cpp:394] conv5 <- conv4
I1031 02:24:38.310358  5233 net.cpp:356] conv5 -> conv5
I1031 02:24:38.310364  5233 net.cpp:96] Setting up conv5
I1031 02:24:38.321593  5233 net.cpp:103] Top shape: 256 256 13 13 (11075584)
I1031 02:24:38.321621  5233 net.cpp:67] Creating Layer relu5
I1031 02:24:38.321625  5233 net.cpp:394] relu5 <- conv5
I1031 02:24:38.321631  5233 net.cpp:345] relu5 -> conv5 (in-place)
I1031 02:24:38.321638  5233 net.cpp:96] Setting up relu5
I1031 02:24:38.321643  5233 net.cpp:103] Top shape: 256 256 13 13 (11075584)
I1031 02:24:38.321650  5233 net.cpp:67] Creating Layer pool5
I1031 02:24:38.321651  5233 net.cpp:394] pool5 <- conv5
I1031 02:24:38.321656  5233 net.cpp:356] pool5 -> pool5
I1031 02:24:38.321661  5233 net.cpp:96] Setting up pool5
I1031 02:24:38.321668  5233 net.cpp:103] Top shape: 256 256 6 6 (2359296)
I1031 02:24:38.321677  5233 net.cpp:67] Creating Layer fc6
I1031 02:24:38.321681  5233 net.cpp:394] fc6 <- pool5
I1031 02:24:38.321688  5233 net.cpp:356] fc6 -> fc6
I1031 02:24:38.321694  5233 net.cpp:96] Setting up fc6
I1031 02:24:39.241809  5233 net.cpp:103] Top shape: 256 4096 1 1 (1048576)
I1031 02:24:39.241843  5233 net.cpp:67] Creating Layer relu6
I1031 02:24:39.241848  5233 net.cpp:394] relu6 <- fc6
I1031 02:24:39.241857  5233 net.cpp:345] relu6 -> fc6 (in-place)
I1031 02:24:39.241865  5233 net.cpp:96] Setting up relu6
I1031 02:24:39.241880  5233 net.cpp:103] Top shape: 256 4096 1 1 (1048576)
I1031 02:24:39.241888  5233 net.cpp:67] Creating Layer drop6
I1031 02:24:39.241890  5233 net.cpp:394] drop6 <- fc6
I1031 02:24:39.241894  5233 net.cpp:345] drop6 -> fc6 (in-place)
I1031 02:24:39.241899  5233 net.cpp:96] Setting up drop6
I1031 02:24:39.241906  5233 net.cpp:103] Top shape: 256 4096 1 1 (1048576)
I1031 02:24:39.241915  5233 net.cpp:67] Creating Layer fc7
I1031 02:24:39.241919  5233 net.cpp:394] fc7 <- fc6
I1031 02:24:39.241922  5233 net.cpp:356] fc7 -> fc7
I1031 02:24:39.241929  5233 net.cpp:96] Setting up fc7
I1031 02:24:39.650653  5233 net.cpp:103] Top shape: 256 4096 1 1 (1048576)
I1031 02:24:39.650691  5233 net.cpp:67] Creating Layer relu7
I1031 02:24:39.650696  5233 net.cpp:394] relu7 <- fc7
I1031 02:24:39.650712  5233 net.cpp:345] relu7 -> fc7 (in-place)
I1031 02:24:39.650720  5233 net.cpp:96] Setting up relu7
I1031 02:24:39.650735  5233 net.cpp:103] Top shape: 256 4096 1 1 (1048576)
I1031 02:24:39.650743  5233 net.cpp:67] Creating Layer drop7
I1031 02:24:39.650745  5233 net.cpp:394] drop7 <- fc7
I1031 02:24:39.650749  5233 net.cpp:345] drop7 -> fc7 (in-place)
I1031 02:24:39.650754  5233 net.cpp:96] Setting up drop7
I1031 02:24:39.650758  5233 net.cpp:103] Top shape: 256 4096 1 1 (1048576)
I1031 02:24:39.650766  5233 net.cpp:67] Creating Layer fc8_inadcl
I1031 02:24:39.650769  5233 net.cpp:394] fc8_inadcl <- fc7
I1031 02:24:39.650774  5233 net.cpp:356] fc8_inadcl -> fc8_inadcl
I1031 02:24:39.650779  5233 net.cpp:96] Setting up fc8_inadcl
I1031 02:24:39.651011  5233 net.cpp:103] Top shape: 256 2 1 1 (512)
I1031 02:24:39.651023  5233 net.cpp:67] Creating Layer loss
I1031 02:24:39.651028  5233 net.cpp:394] loss <- fc8_inadcl
I1031 02:24:39.651032  5233 net.cpp:394] loss <- label
I1031 02:24:39.651037  5233 net.cpp:356] loss -> (automatic)
I1031 02:24:39.651041  5233 net.cpp:96] Setting up loss
I1031 02:24:39.651056  5233 net.cpp:103] Top shape: 1 1 1 1 (1)
I1031 02:24:39.651060  5233 net.cpp:109]     with loss weight 1
I1031 02:24:39.651098  5233 net.cpp:170] loss needs backward computation.
I1031 02:24:39.651101  5233 net.cpp:170] fc8_inadcl needs backward computation.
I1031 02:24:39.651104  5233 net.cpp:170] drop7 needs backward computation.
I1031 02:24:39.651106  5233 net.cpp:170] relu7 needs backward computation.
I1031 02:24:39.651109  5233 net.cpp:170] fc7 needs backward computation.
…
I1031 02:24:39.651810  5233 solver.cpp:151] Creating test net (#0) specified by net file: task/inadcl/train_val.prototxt
I1031 02:24:39.651849  5233 net.cpp:275] The NetState phase (1) differed from the phase (0) specified by a rule in layer data
I1031 02:24:39.652019  5233 net.cpp:39] Initializing net from parameters: 
name: "InadclCaffeNet"
layers {
  top: "data"
  top: "label"
  name: "data"
  type: IMAGE_DATA
  image_data_param {
    source: "data/inadcl/val.txt"
    batch_size: 122
    new_height: 256
    new_width: 256
  }
  include {
    phase: TEST
  }
  transform_param {
    mirror: true
    crop_size: 227
    mean_file: "/homes/ad6813/data/controlpoint_mean_256-227.binaryproto"
  }
}
layers {
  bottom: "data"
  top: "conv1"
  name: "conv1"
  type: CONVOLUTION
  blobs_lr: 0
  blobs_lr: 0
  weight_decay: 0
  weight_decay: 0
  convolution_param {
    num_output: 96
    kernel_size: 11
    stride: 4
    weight_filler {
      type: "gaussian"
      std: 0.01
    }
    bias_filler {
      type: "constant"
      value: 0
    }
  }
}
layers {
  bottom: "conv1"
  top: "conv1"
  name: "relu1"
  type: RELU
}
layers {
  bottom: "conv1"
  top: "pool1"
  name: "pool1"
  type: POOLING
  pooling_param {
    pool: MAX
    kernel_size: 3
    stride: 2
  }
}
layers {
  bottom: "pool1"
  top: "norm1"
  name: "norm1"
  type: LRN
  lrn_param {
    local_size: 5
    alpha: 0.0001
    beta: 0.75
  }
}
layers {
  bottom: "norm1"
  top: "conv2"
  name: "conv2"
  type: CONVOLUTION
  blobs_lr: 0
  blobs_lr: 0
  weight_decay: 0
  weight_decay: 0
  convolution_param {
    num_output: 256
    pad: 2
    kernel_size: 5
    group: 2
    weight_filler {
      type: "gaussian"
      std: 0.01
    }
    bias_filler {
      type: "constant"
      value: 1
    }
  }
}
layers {
  bottom: "conv2"
  top: "conv2"
  name: "relu2"
  type: RELU
}
layers {
  bottom: "conv2"
  top: "pool2"
  name: "pool2"
  type: POOLING
  pooling_param {
    pool: MAX
    kernel_size: 3
    stride: 2
  }
}
layers {
  bottom: "pool2"
  top: "norm2"
  name: "norm2"
  type: LRN
  lrn_param {
    local_size: 5
    alpha: 0.0001
    beta: 0.75
  }
}
layers {
  bottom: "norm2"
  top: "conv3"
  name: "conv3"
  type: CONVOLUTION
  blobs_lr: 0
  blobs_lr: 0
  weight_decay: 0
  weight_decay: 0
  convolution_param {
    num_output: 384
    pad: 1
    kernel_size: 3
    weight_filler {
      type: "gaussian"
      std: 0.01
    }
    bias_filler {
      type: "constant"
      value: 0
    }
  }
}
layers {
  bottom: "conv3"
  top: "conv3"
  name: "relu3"
  type: RELU
}
layers {
  bottom: "conv3"
  top: "conv4"
  name: "conv4"
  type: CONVOLUTION
  blobs_lr: 0
  blobs_lr: 0
  weight_decay: 0
  weight_decay: 0
  convolution_param {
    num_output: 384
    pad: 1
    kernel_size: 3
    group: 2
    weight_filler {
      type: "gaussian"
      std: 0.01
    }
    bias_filler {
      type: "constant"
      value: 1
    }
  }
}
layers {
  bottom: "conv4"
  top: "conv4"
  name: "relu4"
  type: RELU
}
layers {
  bottom: "conv4"
  top: "conv5"
  name: "conv5"
  type: CONVOLUTION
  blobs_lr: 0
  blobs_lr: 0
  weight_decay: 0
  weight_decay: 0
  convolution_param {
    num_output: 256
    pad: 1
    kernel_size: 3
    group: 2
    weight_filler {
      type: "gaussian"
      std: 0.01
    }
    bias_filler {
      type: "constant"
      value: 1
    }
  }
}
layers {
  bottom: "conv5"
  top: "conv5"
  name: "relu5"
  type: RELU
}
layers {
  bottom: "conv5"
  top: "pool5"
  name: "pool5"
  type: POOLING
  pooling_param {
    pool: MAX
    kernel_size: 3
    stride: 2
  }
}
layers {
  bottom: "pool5"
  top: "fc6"
  name: "fc6"
  type: INNER_PRODUCT
  blobs_lr: 1
  blobs_lr: 2
  weight_decay: 1
  weight_decay: 0
  inner_product_param {
    num_output: 4096
    weight_filler {
      type: "gaussian"
      std: 0.005
    }
    bias_filler {
      type: "constant"
      value: 1
    }
  }
}
layers {
  bottom: "fc6"
  top: "fc6"
  name: "relu6"
  type: RELU
}
layers {
  bottom: "fc6"
  top: "fc6"
  name: "drop6"
  type: DROPOUT
  dropout_param {
    dropout_ratio: 0.5
  }
}
layers {
  bottom: "fc6"
  top: "fc7"
  name: "fc7"
  type: INNER_PRODUCT
  blobs_lr: 1
  blobs_lr: 2
  weight_decay: 1
  weight_decay: 0
  inner_product_param {
    num_output: 4096
    weight_filler {
      type: "gaussian"
      std: 0.005
    }
    bias_filler {
      type: "constant"
      value: 1
    }
  }
}
layers {
  bottom: "fc7"
  top: "fc7"
  name: "relu7"
  type: RELU
}
layers {
  bottom: "fc7"
  top: "fc7"
  name: "drop7"
  type: DROPOUT
  dropout_param {
    dropout_ratio: 0.5
  }
}
layers {
  bottom: "fc7"
  top: "fc8_inadcl"
  name: "fc8_inadcl"
  type: INNER_PRODUCT
  blobs_lr: 1
  blobs_lr: 2
  weight_decay: 1
  weight_decay: 0
  inner_product_param {
    num_output: 2
    weight_filler {
      type: "gaussian"
      std: 0.01
    }
    bias_filler {
      type: "constant"
      value: 0
    }
  }
}
layers {
  bottom: "fc8_inadcl"
  bottom: "label"
  name: "loss"
  type: SOFTMAX_REBALANCED_LOSS
}
layers {
  bottom: "fc8_inadcl"
  bottom: "label"
  top: "accuracy"
  name: "accuracy"
  type: PER_CLASS_ACCURACY
  include {
    phase: TEST
  }
}
state {
  phase: TEST
}
I1031 02:24:39.652143  5233 net.cpp:67] Creating Layer data
I1031 02:24:39.652150  5233 net.cpp:356] data -> data
I1031 02:24:39.652158  5233 net.cpp:356] data -> label
I1031 02:24:39.652163  5233 net.cpp:96] Setting up data
I1031 02:24:39.652173  5233 image_data_layer.cpp:30] Opening file data/inadcl/val.txt
I1031 02:24:39.652237  5233 image_data_layer.cpp:45] A total of 122 images.
I1031 02:24:39.653913  5233 image_data_layer.cpp:73] output data size: 122,3,227,227
I1031 02:24:39.653928  5233 base_data_layer.cpp:36] Loading mean file from/homes/ad6813/data/controlpoint_mean_256-227.binaryproto
I1031 02:24:39.664397  5233 net.cpp:103] Top shape: 122 3 227 227 (18859614)
I1031 02:24:39.664422  5233 net.cpp:103] Top shape: 122 1 1 1 (122)
I1031 02:24:39.664433  5233 net.cpp:67] Creating Layer label_data_1_split
I1031 02:24:39.664438  5233 net.cpp:394] label_data_1_split <- label
I1031 02:24:39.664443  5233 net.cpp:356] label_data_1_split -> label_data_1_split_0
I1031 02:24:39.664453  5233 net.cpp:356] label_data_1_split -> label_data_1_split_1
I1031 02:24:39.664458  5233 net.cpp:96] Setting up label_data_1_split
I1031 02:24:39.664481  5233 net.cpp:103] Top shape: 122 1 1 1 (122)
I1031 02:24:39.664486  5233 net.cpp:103] Top shape: 122 1 1 1 (122)
I1031 02:24:39.664499  5233 net.cpp:67] Creating Layer conv1
I1031 02:24:39.664502  5233 net.cpp:394] conv1 <- data
I1031 02:24:39.664508  5233 net.cpp:356] conv1 -> conv1
I1031 02:24:39.664515  5233 net.cpp:96] Setting up conv1
I1031 02:24:39.665485  5233 net.cpp:103] Top shape: 122 96 55 55 (35428800)
I1031 02:24:39.665501  5233 net.cpp:67] Creating Layer relu1
I1031 02:24:39.665505  5233 net.cpp:394] relu1 <- conv1
I1031 02:24:39.665509  5233 net.cpp:345] relu1 -> conv1 (in-place)
I1031 02:24:39.665514  5233 net.cpp:96] Setting up relu1
I1031 02:24:39.665519  5233 net.cpp:103] Top shape: 122 96 55 55 (35428800)
I1031 02:24:39.665525  5233 net.cpp:67] Creating Layer pool1
I1031 02:24:39.665529  5233 net.cpp:394] pool1 <- conv1
I1031 02:24:39.665532  5233 net.cpp:356] pool1 -> pool1
I1031 02:24:39.665537  5233 net.cpp:96] Setting up pool1
I1031 02:24:39.665544  5233 net.cpp:103] Top shape: 122 96 27 27 (8538048)
I1031 02:24:39.665550  5233 net.cpp:67] Creating Layer norm1
I1031 02:24:39.665554  5233 net.cpp:394] norm1 <- pool1
I1031 02:24:39.665557  5233 net.cpp:356] norm1 -> norm1
I1031 02:24:39.665561  5233 net.cpp:96] Setting up norm1
I1031 02:24:39.665565  5233 net.cpp:103] Top shape: 122 96 27 27 (8538048)
I1031 02:24:39.665571  5233 net.cpp:67] Creating Layer conv2
I1031 02:24:39.665573  5233 net.cpp:394] conv2 <- norm1
I1031 02:24:39.665578  5233 net.cpp:356] conv2 -> conv2
I1031 02:24:39.665582  5233 net.cpp:96] Setting up conv2
I1031 02:24:39.673380  5233 net.cpp:103] Top shape: 122 256 27 27 (22768128)
I1031 02:24:39.673399  5233 net.cpp:67] Creating Layer relu2
I1031 02:24:39.673403  5233 net.cpp:394] relu2 <- conv2
I1031 02:24:39.673408  5233 net.cpp:345] relu2 -> conv2 (in-place)
I1031 02:24:39.673413  5233 net.cpp:96] Setting up relu2
I1031 02:24:39.673418  5233 net.cpp:103] Top shape: 122 256 27 27 (22768128)
I1031 02:24:39.673425  5233 net.cpp:67] Creating Layer pool2
I1031 02:24:39.673429  5233 net.cpp:394] pool2 <- conv2
I1031 02:24:39.673434  5233 net.cpp:356] pool2 -> pool2
I1031 02:24:39.673439  5233 net.cpp:96] Setting up pool2
I1031 02:24:39.673446  5233 net.cpp:103] Top shape: 122 256 13 13 (5278208)
I1031 02:24:39.673451  5233 net.cpp:67] Creating Layer norm2
I1031 02:24:39.673454  5233 net.cpp:394] norm2 <- pool2
I1031 02:24:39.673459  5233 net.cpp:356] norm2 -> norm2
I1031 02:24:39.673463  5233 net.cpp:96] Setting up norm2
I1031 02:24:39.673466  5233 net.cpp:103] Top shape: 122 256 13 13 (5278208)
I1031 02:24:39.673482  5233 net.cpp:67] Creating Layer conv3
I1031 02:24:39.673485  5233 net.cpp:394] conv3 <- norm2
I1031 02:24:39.673491  5233 net.cpp:356] conv3 -> conv3
I1031 02:24:39.673496  5233 net.cpp:96] Setting up conv3
I1031 02:24:39.695420  5233 net.cpp:103] Top shape: 122 384 13 13 (7917312)
I1031 02:24:39.695454  5233 net.cpp:67] Creating Layer relu3
I1031 02:24:39.695459  5233 net.cpp:394] relu3 <- conv3
I1031 02:24:39.695466  5233 net.cpp:345] relu3 -> conv3 (in-place)
I1031 02:24:39.695472  5233 net.cpp:96] Setting up relu3
I1031 02:24:39.695478  5233 net.cpp:103] Top shape: 122 384 13 13 (7917312)
I1031 02:24:39.695487  5233 net.cpp:67] Creating Layer conv4
I1031 02:24:39.695489  5233 net.cpp:394] conv4 <- conv3
I1031 02:24:39.695494  5233 net.cpp:356] conv4 -> conv4
I1031 02:24:39.695499  5233 net.cpp:96] Setting up conv4
I1031 02:24:39.712244  5233 net.cpp:103] Top shape: 122 384 13 13 (7917312)
I1031 02:24:39.712272  5233 net.cpp:67] Creating Layer relu4
I1031 02:24:39.712276  5233 net.cpp:394] relu4 <- conv4
I1031 02:24:39.712283  5233 net.cpp:345] relu4 -> conv4 (in-place)
I1031 02:24:39.712290  5233 net.cpp:96] Setting up relu4
I1031 02:24:39.712296  5233 net.cpp:103] Top shape: 122 384 13 13 (7917312)
I1031 02:24:39.712303  5233 net.cpp:67] Creating Layer conv5
I1031 02:24:39.712306  5233 net.cpp:394] conv5 <- conv4
I1031 02:24:39.712312  5233 net.cpp:356] conv5 -> conv5
I1031 02:24:39.712318  5233 net.cpp:96] Setting up conv5
I1031 02:24:39.723614  5233 net.cpp:103] Top shape: 122 256 13 13 (5278208)
I1031 02:24:39.723639  5233 net.cpp:67] Creating Layer relu5
I1031 02:24:39.723642  5233 net.cpp:394] relu5 <- conv5
I1031 02:24:39.723647  5233 net.cpp:345] relu5 -> conv5 (in-place)
I1031 02:24:39.723652  5233 net.cpp:96] Setting up relu5
I1031 02:24:39.723659  5233 net.cpp:103] Top shape: 122 256 13 13 (5278208)
I1031 02:24:39.723667  5233 net.cpp:67] Creating Layer pool5
I1031 02:24:39.723670  5233 net.cpp:394] pool5 <- conv5
I1031 02:24:39.723675  5233 net.cpp:356] pool5 -> pool5
I1031 02:24:39.723680  5233 net.cpp:96] Setting up pool5
I1031 02:24:39.723687  5233 net.cpp:103] Top shape: 122 256 6 6 (1124352)
I1031 02:24:39.723695  5233 net.cpp:67] Creating Layer fc6
I1031 02:24:39.723698  5233 net.cpp:394] fc6 <- pool5
I1031 02:24:39.723703  5233 net.cpp:356] fc6 -> fc6
I1031 02:24:39.723708  5233 net.cpp:96] Setting up fc6
I1031 02:24:40.607952  5233 net.cpp:103] Top shape: 122 4096 1 1 (499712)
I1031 02:24:40.607998  5233 net.cpp:67] Creating Layer relu6
I1031 02:24:40.608005  5233 net.cpp:394] relu6 <- fc6
I1031 02:24:40.608016  5233 net.cpp:345] relu6 -> fc6 (in-place)
I1031 02:24:40.608023  5233 net.cpp:96] Setting up relu6
I1031 02:24:40.608038  5233 net.cpp:103] Top shape: 122 4096 1 1 (499712)
I1031 02:24:40.608043  5233 net.cpp:67] Creating Layer drop6
I1031 02:24:40.608047  5233 net.cpp:394] drop6 <- fc6
I1031 02:24:40.608050  5233 net.cpp:345] drop6 -> fc6 (in-place)
I1031 02:24:40.608055  5233 net.cpp:96] Setting up drop6
I1031 02:24:40.608059  5233 net.cpp:103] Top shape: 122 4096 1 1 (499712)
I1031 02:24:40.608065  5233 net.cpp:67] Creating Layer fc7
I1031 02:24:40.608068  5233 net.cpp:394] fc7 <- fc6
I1031 02:24:40.608075  5233 net.cpp:356] fc7 -> fc7
I1031 02:24:40.608081  5233 net.cpp:96] Setting up fc7
I1031 02:24:40.997627  5233 net.cpp:103] Top shape: 122 4096 1 1 (499712)
I1031 02:24:40.997673  5233 net.cpp:67] Creating Layer relu7
I1031 02:24:40.997678  5233 net.cpp:394] relu7 <- fc7
I1031 02:24:40.997685  5233 net.cpp:345] relu7 -> fc7 (in-place)
I1031 02:24:40.997691  5233 net.cpp:96] Setting up relu7
I1031 02:24:40.997705  5233 net.cpp:103] Top shape: 122 4096 1 1 (499712)
I1031 02:24:40.997711  5233 net.cpp:67] Creating Layer drop7
I1031 02:24:40.997714  5233 net.cpp:394] drop7 <- fc7
I1031 02:24:40.997720  5233 net.cpp:345] drop7 -> fc7 (in-place)
I1031 02:24:40.997725  5233 net.cpp:96] Setting up drop7
I1031 02:24:40.997728  5233 net.cpp:103] Top shape: 122 4096 1 1 (499712)
I1031 02:24:40.997735  5233 net.cpp:67] Creating Layer fc8_inadcl
I1031 02:24:40.997750  5233 net.cpp:394] fc8_inadcl <- fc7
I1031 02:24:40.997756  5233 net.cpp:356] fc8_inadcl -> fc8_inadcl
I1031 02:24:40.997764  5233 net.cpp:96] Setting up fc8_inadcl
I1031 02:24:40.998000  5233 net.cpp:103] Top shape: 122 2 1 1 (244)
I1031 02:24:40.998013  5233 net.cpp:67] Creating Layer fc8_inadcl_fc8_inadcl_0_split
I1031 02:24:40.998018  5233 net.cpp:394] fc8_inadcl_fc8_inadcl_0_split <- fc8_inadcl
I1031 02:24:40.998023  5233 net.cpp:356] fc8_inadcl_fc8_inadcl_0_split -> fc8_inadcl_fc8_inadcl_0_split_0
I1031 02:24:40.998028  5233 net.cpp:356] fc8_inadcl_fc8_inadcl_0_split -> fc8_inadcl_fc8_inadcl_0_split_1
I1031 02:24:40.998034  5233 net.cpp:96] Setting up fc8_inadcl_fc8_inadcl_0_split
I1031 02:24:40.998040  5233 net.cpp:103] Top shape: 122 2 1 1 (244)
I1031 02:24:40.998044  5233 net.cpp:103] Top shape: 122 2 1 1 (244)
I1031 02:24:40.998049  5233 net.cpp:67] Creating Layer loss
I1031 02:24:40.998054  5233 net.cpp:394] loss <- fc8_inadcl_fc8_inadcl_0_split_0
I1031 02:24:40.998056  5233 net.cpp:394] loss <- label_data_1_split_0
I1031 02:24:40.998066  5233 net.cpp:356] loss -> (automatic)
I1031 02:24:40.998072  5233 net.cpp:96] Setting up loss
I1031 02:24:40.998078  5233 net.cpp:103] Top shape: 1 1 1 1 (1)
I1031 02:24:40.998085  5233 net.cpp:109]     with loss weight 1
I1031 02:24:40.998102  5233 net.cpp:67] Creating Layer accuracy
I1031 02:24:40.998106  5233 net.cpp:394] accuracy <- fc8_inadcl_fc8_inadcl_0_split_1
I1031 02:24:40.998111  5233 net.cpp:394] accuracy <- label_data_1_split_1
I1031 02:24:40.998121  5233 net.cpp:356] accuracy -> accuracy
I1031 02:24:40.998127  5233 net.cpp:96] Setting up accuracy
I1031 02:24:40.998132  5233 net.cpp:103] Top shape: 1 1 1 4 (4)
I1031 02:24:40.998136  5233 net.cpp:172] accuracy does not need backward computation.
I1031 02:24:40.998139  5233 net.cpp:170] loss needs backward computation.
I1031 02:24:40.998143  5233 net.cpp:170] fc8_inadcl_fc8_inadcl_0_split needs backward computation.
I1031 02:24:40.998147  5233 net.cpp:170] fc8_inadcl needs backward computation.
I1031 02:24:40.998148  5233 net.cpp:170] drop7 needs backward computation.
…
