…
I1111 14:04:14.581881 20106 net.cpp:275] The NetState phase (0) differed from the phase (1) specified by a rule in layer accuracy
I1111 14:04:14.582177 20106 net.cpp:39] Initializing net from parameters: 
name: "ClampCaffeNet"
layers {
  top: "data"
  top: "label"
  name: "data"
  type: IMAGE_DATA
  image_data_param {
    source: "data/soil_high_blue/train.txt"
    batch_size: 128
    new_height: 256
    new_width: 256
  }
  include {
    phase: TRAIN
  }
  transform_param {
    mirror: true
    crop_size: 227
    mean_file: "/homes/ad6813/data/controlpoint_mean_256-227.binaryproto"
  }
}
layers {
  bottom: "data"
  top: "conv1"
  name: "conv1"
  type: CONVOLUTION
  blobs_lr: 1
  blobs_lr: 2
  weight_decay: 1
  weight_decay: 0
  convolution_param {
    num_output: 96
    kernel_size: 11
    stride: 4
    weight_filler {
      type: "gaussian"
      std: 0.01
    }
    bias_filler {
      type: "constant"
      value: 0
    }
  }
}
layers {
  bottom: "conv1"
  top: "conv1"
  name: "relu1"
  type: RELU
}
layers {
  bottom: "conv1"
  top: "pool1"
  name: "pool1"
  type: POOLING
  pooling_param {
    pool: MAX
    kernel_size: 3
    stride: 2
  }
}
layers {
  bottom: "pool1"
  top: "norm1"
  name: "norm1"
  type: LRN
  lrn_param {
    local_size: 5
    alpha: 0.0001
    beta: 0.75
  }
}
layers {
  bottom: "norm1"
  top: "conv2"
  name: "conv2"
  type: CONVOLUTION
  blobs_lr: 1
  blobs_lr: 2
  weight_decay: 1
  weight_decay: 0
  convolution_param {
    num_output: 256
    pad: 2
    kernel_size: 5
    group: 2
    weight_filler {
      type: "gaussian"
      std: 0.01
    }
    bias_filler {
      type: "constant"
      value: 1
    }
  }
}
layers {
  bottom: "conv2"
  top: "conv2"
  name: "relu2"
  type: RELU
}
layers {
  bottom: "conv2"
  top: "pool2"
  name: "pool2"
  type: POOLING
  pooling_param {
    pool: MAX
    kernel_size: 3
    stride: 2
  }
}
layers {
  bottom: "pool2"
  top: "norm2"
  name: "norm2"
  type: LRN
  lrn_param {
    local_size: 5
    alpha: 0.0001
    beta: 0.75
  }
}
layers {
  bottom: "norm2"
  top: "conv3"
  name: "conv3"
  type: CONVOLUTION
  blobs_lr: 1
  blobs_lr: 2
  weight_decay: 1
  weight_decay: 0
  convolution_param {
    num_output: 384
    pad: 1
    kernel_size: 3
    weight_filler {
      type: "gaussian"
      std: 0.01
    }
    bias_filler {
      type: "constant"
      value: 0
    }
  }
}
layers {
  bottom: "conv3"
  top: "conv3"
  name: "relu3"
  type: RELU
}
layers {
  bottom: "conv3"
  top: "conv4"
  name: "conv4"
  type: CONVOLUTION
  blobs_lr: 1
  blobs_lr: 2
  weight_decay: 1
  weight_decay: 0
  convolution_param {
    num_output: 384
    pad: 1
    kernel_size: 3
    group: 2
    weight_filler {
      type: "gaussian"
      std: 0.01
    }
    bias_filler {
      type: "constant"
      value: 1
    }
  }
}
layers {
  bottom: "conv4"
  top: "conv4"
  name: "relu4"
  type: RELU
}
layers {
  bottom: "conv4"
  top: "conv5"
  name: "conv5"
  type: CONVOLUTION
  blobs_lr: 1
  blobs_lr: 2
  weight_decay: 1
  weight_decay: 0
  convolution_param {
    num_output: 256
    pad: 1
    kernel_size: 3
    group: 2
    weight_filler {
      type: "gaussian"
      std: 0.01
    }
    bias_filler {
      type: "constant"
      value: 1
    }
  }
}
layers {
  bottom: "conv5"
  top: "conv5"
  name: "relu5"
  type: RELU
}
layers {
  bottom: "conv5"
  top: "pool5"
  name: "pool5"
  type: POOLING
  pooling_param {
    pool: MAX
    kernel_size: 3
    stride: 2
  }
}
layers {
  bottom: "pool5"
  top: "fc6"
  name: "fc6"
  type: INNER_PRODUCT
  blobs_lr: 1
  blobs_lr: 2
  weight_decay: 1
  weight_decay: 0
  inner_product_param {
    num_output: 4096
    weight_filler {
      type: "gaussian"
      std: 0.005
    }
    bias_filler {
      type: "constant"
      value: 1
    }
  }
}
layers {
  bottom: "fc6"
  top: "fc6"
  name: "relu6"
  type: RELU
}
layers {
  bottom: "fc6"
  top: "fc6"
  name: "drop6"
  type: DROPOUT
  dropout_param {
    dropout_ratio: 0.5
  }
}
layers {
  bottom: "fc6"
  top: "fc7"
  name: "fc7"
  type: INNER_PRODUCT
  blobs_lr: 1
  blobs_lr: 2
  weight_decay: 1
  weight_decay: 0
  inner_product_param {
    num_output: 4096
    weight_filler {
      type: "gaussian"
      std: 0.005
    }
    bias_filler {
      type: "constant"
      value: 1
    }
  }
}
layers {
  bottom: "fc7"
  top: "fc7"
  name: "relu7"
  type: RELU
}
layers {
  bottom: "fc7"
  top: "fc7"
  name: "drop7"
  type: DROPOUT
  dropout_param {
    dropout_ratio: 0.5
  }
}
layers {
  bottom: "fc7"
  top: "fc8_clamp"
  name: "fc8_clamp"
  type: INNER_PRODUCT
  blobs_lr: 1
  blobs_lr: 2
  weight_decay: 1
  weight_decay: 0
  inner_product_param {
    num_output: 2
    weight_filler {
      type: "gaussian"
      std: 0.01
    }
    bias_filler {
      type: "constant"
      value: 0
    }
  }
}
layers {
  bottom: "fc8_clamp"
  bottom: "label"
  name: "loss"
  type: SOFTMAX_LOSS
}
state {
  phase: TRAIN
}
I1111 14:04:14.582340 20106 net.cpp:67] Creating Layer data
I1111 14:04:14.582355 20106 net.cpp:356] data -> data
I1111 14:04:14.582381 20106 net.cpp:356] data -> label
I1111 14:04:14.582401 20106 net.cpp:96] Setting up data
I1111 14:04:14.582412 20106 image_data_layer.cpp:30] Opening file data/soil_high_blue/train.txt
I1111 14:04:14.606259 20106 image_data_layer.cpp:45] A total of 36399 images.
I1111 14:04:14.624691 20106 image_data_layer.cpp:73] output data size: 128,3,227,227
I1111 14:04:14.624748 20106 base_data_layer.cpp:36] Loading mean file from/homes/ad6813/data/controlpoint_mean_256-227.binaryproto
I1111 14:04:14.649319 20106 net.cpp:103] Top shape: 128 3 227 227 (19787136)
I1111 14:04:14.649356 20106 net.cpp:103] Top shape: 128 1 1 1 (128)
I1111 14:04:14.649381 20106 net.cpp:67] Creating Layer conv1
I1111 14:04:14.649389 20106 net.cpp:394] conv1 <- data
I1111 14:04:14.649410 20106 net.cpp:356] conv1 -> conv1
I1111 14:04:14.649426 20106 net.cpp:96] Setting up conv1
I1111 14:04:14.651207 20106 net.cpp:103] Top shape: 128 96 55 55 (37171200)
I1111 14:04:14.651244 20106 net.cpp:67] Creating Layer relu1
I1111 14:04:14.651252 20106 net.cpp:394] relu1 <- conv1
I1111 14:04:14.651262 20106 net.cpp:345] relu1 -> conv1 (in-place)
I1111 14:04:14.651270 20106 net.cpp:96] Setting up relu1
I1111 14:04:14.651278 20106 net.cpp:103] Top shape: 128 96 55 55 (37171200)
I1111 14:04:14.651289 20106 net.cpp:67] Creating Layer pool1
I1111 14:04:14.651295 20106 net.cpp:394] pool1 <- conv1
I1111 14:04:14.651303 20106 net.cpp:356] pool1 -> pool1
I1111 14:04:14.651311 20106 net.cpp:96] Setting up pool1
I1111 14:04:14.651329 20106 net.cpp:103] Top shape: 128 96 27 27 (8957952)
I1111 14:04:14.651340 20106 net.cpp:67] Creating Layer norm1
I1111 14:04:14.651345 20106 net.cpp:394] norm1 <- pool1
I1111 14:04:14.651353 20106 net.cpp:356] norm1 -> norm1
I1111 14:04:14.651365 20106 net.cpp:96] Setting up norm1
I1111 14:04:14.651376 20106 net.cpp:103] Top shape: 128 96 27 27 (8957952)
I1111 14:04:14.651386 20106 net.cpp:67] Creating Layer conv2
I1111 14:04:14.651391 20106 net.cpp:394] conv2 <- norm1
I1111 14:04:14.651399 20106 net.cpp:356] conv2 -> conv2
I1111 14:04:14.651409 20106 net.cpp:96] Setting up conv2
I1111 14:04:14.666156 20106 net.cpp:103] Top shape: 128 256 27 27 (23887872)
I1111 14:04:14.666194 20106 net.cpp:67] Creating Layer relu2
I1111 14:04:14.666201 20106 net.cpp:394] relu2 <- conv2
I1111 14:04:14.666210 20106 net.cpp:345] relu2 -> conv2 (in-place)
I1111 14:04:14.666220 20106 net.cpp:96] Setting up relu2
I1111 14:04:14.666226 20106 net.cpp:103] Top shape: 128 256 27 27 (23887872)
I1111 14:04:14.666234 20106 net.cpp:67] Creating Layer pool2
I1111 14:04:14.666254 20106 net.cpp:394] pool2 <- conv2
I1111 14:04:14.666263 20106 net.cpp:356] pool2 -> pool2
I1111 14:04:14.666272 20106 net.cpp:96] Setting up pool2
I1111 14:04:14.666280 20106 net.cpp:103] Top shape: 128 256 13 13 (5537792)
I1111 14:04:14.666291 20106 net.cpp:67] Creating Layer norm2
I1111 14:04:14.666296 20106 net.cpp:394] norm2 <- pool2
I1111 14:04:14.666304 20106 net.cpp:356] norm2 -> norm2
I1111 14:04:14.666313 20106 net.cpp:96] Setting up norm2
I1111 14:04:14.666321 20106 net.cpp:103] Top shape: 128 256 13 13 (5537792)
I1111 14:04:14.666331 20106 net.cpp:67] Creating Layer conv3
I1111 14:04:14.666337 20106 net.cpp:394] conv3 <- norm2
I1111 14:04:14.666344 20106 net.cpp:356] conv3 -> conv3
I1111 14:04:14.666355 20106 net.cpp:96] Setting up conv3
I1111 14:04:14.709264 20106 net.cpp:103] Top shape: 128 384 13 13 (8306688)
I1111 14:04:14.709314 20106 net.cpp:67] Creating Layer relu3
I1111 14:04:14.709322 20106 net.cpp:394] relu3 <- conv3
I1111 14:04:14.709332 20106 net.cpp:345] relu3 -> conv3 (in-place)
I1111 14:04:14.709343 20106 net.cpp:96] Setting up relu3
I1111 14:04:14.709349 20106 net.cpp:103] Top shape: 128 384 13 13 (8306688)
I1111 14:04:14.709362 20106 net.cpp:67] Creating Layer conv4
I1111 14:04:14.709367 20106 net.cpp:394] conv4 <- conv3
I1111 14:04:14.709375 20106 net.cpp:356] conv4 -> conv4
I1111 14:04:14.709385 20106 net.cpp:96] Setting up conv4
I1111 14:04:14.741721 20106 net.cpp:103] Top shape: 128 384 13 13 (8306688)
I1111 14:04:14.741766 20106 net.cpp:67] Creating Layer relu4
I1111 14:04:14.741775 20106 net.cpp:394] relu4 <- conv4
I1111 14:04:14.741786 20106 net.cpp:345] relu4 -> conv4 (in-place)
I1111 14:04:14.741796 20106 net.cpp:96] Setting up relu4
I1111 14:04:14.741801 20106 net.cpp:103] Top shape: 128 384 13 13 (8306688)
I1111 14:04:14.741811 20106 net.cpp:67] Creating Layer conv5
I1111 14:04:14.741817 20106 net.cpp:394] conv5 <- conv4
I1111 14:04:14.741827 20106 net.cpp:356] conv5 -> conv5
I1111 14:04:14.741837 20106 net.cpp:96] Setting up conv5
I1111 14:04:14.763455 20106 net.cpp:103] Top shape: 128 256 13 13 (5537792)
I1111 14:04:14.763495 20106 net.cpp:67] Creating Layer relu5
I1111 14:04:14.763504 20106 net.cpp:394] relu5 <- conv5
I1111 14:04:14.763514 20106 net.cpp:345] relu5 -> conv5 (in-place)
I1111 14:04:14.763523 20106 net.cpp:96] Setting up relu5
I1111 14:04:14.763530 20106 net.cpp:103] Top shape: 128 256 13 13 (5537792)
I1111 14:04:14.763538 20106 net.cpp:67] Creating Layer pool5
I1111 14:04:14.763543 20106 net.cpp:394] pool5 <- conv5
I1111 14:04:14.763551 20106 net.cpp:356] pool5 -> pool5
I1111 14:04:14.763561 20106 net.cpp:96] Setting up pool5
I1111 14:04:14.763569 20106 net.cpp:103] Top shape: 128 256 6 6 (1179648)
I1111 14:04:14.763582 20106 net.cpp:67] Creating Layer fc6
I1111 14:04:14.763588 20106 net.cpp:394] fc6 <- pool5
I1111 14:04:14.763597 20106 net.cpp:356] fc6 -> fc6
I1111 14:04:14.763607 20106 net.cpp:96] Setting up fc6
I1111 14:04:16.574211 20106 net.cpp:103] Top shape: 128 4096 1 1 (524288)
I1111 14:04:16.574260 20106 net.cpp:67] Creating Layer relu6
I1111 14:04:16.574270 20106 net.cpp:394] relu6 <- fc6
I1111 14:04:16.574280 20106 net.cpp:345] relu6 -> fc6 (in-place)
I1111 14:04:16.574290 20106 net.cpp:96] Setting up relu6
I1111 14:04:16.574297 20106 net.cpp:103] Top shape: 128 4096 1 1 (524288)
I1111 14:04:16.574306 20106 net.cpp:67] Creating Layer drop6
I1111 14:04:16.574311 20106 net.cpp:394] drop6 <- fc6
I1111 14:04:16.574319 20106 net.cpp:345] drop6 -> fc6 (in-place)
I1111 14:04:16.574327 20106 net.cpp:96] Setting up drop6
I1111 14:04:16.574337 20106 net.cpp:103] Top shape: 128 4096 1 1 (524288)
I1111 14:04:16.574347 20106 net.cpp:67] Creating Layer fc7
I1111 14:04:16.574352 20106 net.cpp:394] fc7 <- fc6
I1111 14:04:16.574362 20106 net.cpp:356] fc7 -> fc7
I1111 14:04:16.574372 20106 net.cpp:96] Setting up fc7
I1111 14:04:17.376211 20106 net.cpp:103] Top shape: 128 4096 1 1 (524288)
I1111 14:04:17.376262 20106 net.cpp:67] Creating Layer relu7
I1111 14:04:17.376271 20106 net.cpp:394] relu7 <- fc7
I1111 14:04:17.376302 20106 net.cpp:345] relu7 -> fc7 (in-place)
I1111 14:04:17.376314 20106 net.cpp:96] Setting up relu7
I1111 14:04:17.376322 20106 net.cpp:103] Top shape: 128 4096 1 1 (524288)
I1111 14:04:17.376329 20106 net.cpp:67] Creating Layer drop7
I1111 14:04:17.376335 20106 net.cpp:394] drop7 <- fc7
I1111 14:04:17.376343 20106 net.cpp:345] drop7 -> fc7 (in-place)
I1111 14:04:17.376350 20106 net.cpp:96] Setting up drop7
I1111 14:04:17.376358 20106 net.cpp:103] Top shape: 128 4096 1 1 (524288)
I1111 14:04:17.376368 20106 net.cpp:67] Creating Layer fc8_clamp
I1111 14:04:17.376373 20106 net.cpp:394] fc8_clamp <- fc7
I1111 14:04:17.376381 20106 net.cpp:356] fc8_clamp -> fc8_clamp
I1111 14:04:17.376391 20106 net.cpp:96] Setting up fc8_clamp
I1111 14:04:17.376821 20106 net.cpp:103] Top shape: 128 2 1 1 (256)
I1111 14:04:17.376842 20106 net.cpp:67] Creating Layer loss
I1111 14:04:17.376848 20106 net.cpp:394] loss <- fc8_clamp
I1111 14:04:17.376855 20106 net.cpp:394] loss <- label
I1111 14:04:17.376864 20106 net.cpp:356] loss -> (automatic)
I1111 14:04:17.376873 20106 net.cpp:96] Setting up loss
I1111 14:04:17.376889 20106 net.cpp:103] Top shape: 1 1 1 1 (1)
I1111 14:04:17.376895 20106 net.cpp:109]     with loss weight 1
I1111 14:04:17.376937 20106 net.cpp:170] loss needs backward computation.
I1111 14:04:17.376945 20106 net.cpp:170] fc8_clamp needs backward computation.
I1111 14:04:17.376950 20106 net.cpp:170] drop7 needs backward computation.
I1111 14:04:17.376955 20106 net.cpp:170] relu7 needs backward computation.
I1111 14:04:17.376960 20106 net.cpp:170] fc7 needs backward computation.
…
I1111 14:04:17.378275 20106 solver.cpp:151] Creating test net (#0) specified by net file: task/soil_high_blue/train_val.prototxt
I1111 14:04:17.378348 20106 net.cpp:275] The NetState phase (1) differed from the phase (0) specified by a rule in layer data
I1111 14:04:17.378656 20106 net.cpp:39] Initializing net from parameters: 
name: "ClampCaffeNet"
layers {
  top: "data"
  top: "label"
  name: "data"
  type: IMAGE_DATA
  image_data_param {
    source: "data/soil_high_blue/val.txt"
    batch_size: 150
    new_height: 256
    new_width: 256
  }
  include {
    phase: TEST
  }
  transform_param {
    mirror: true
    crop_size: 227
    mean_file: "/homes/ad6813/data/controlpoint_mean_256-227.binaryproto"
  }
}
layers {
  bottom: "data"
  top: "conv1"
  name: "conv1"
  type: CONVOLUTION
  blobs_lr: 1
  blobs_lr: 2
  weight_decay: 1
  weight_decay: 0
  convolution_param {
    num_output: 96
    kernel_size: 11
    stride: 4
    weight_filler {
      type: "gaussian"
      std: 0.01
    }
    bias_filler {
      type: "constant"
      value: 0
    }
  }
}
layers {
  bottom: "conv1"
  top: "conv1"
  name: "relu1"
  type: RELU
}
layers {
  bottom: "conv1"
  top: "pool1"
  name: "pool1"
  type: POOLING
  pooling_param {
    pool: MAX
    kernel_size: 3
    stride: 2
  }
}
layers {
  bottom: "pool1"
  top: "norm1"
  name: "norm1"
  type: LRN
  lrn_param {
    local_size: 5
    alpha: 0.0001
    beta: 0.75
  }
}
layers {
  bottom: "norm1"
  top: "conv2"
  name: "conv2"
  type: CONVOLUTION
  blobs_lr: 1
  blobs_lr: 2
  weight_decay: 1
  weight_decay: 0
  convolution_param {
    num_output: 256
    pad: 2
    kernel_size: 5
    group: 2
    weight_filler {
      type: "gaussian"
      std: 0.01
    }
    bias_filler {
      type: "constant"
      value: 1
    }
  }
}
layers {
  bottom: "conv2"
  top: "conv2"
  name: "relu2"
  type: RELU
}
layers {
  bottom: "conv2"
  top: "pool2"
  name: "pool2"
  type: POOLING
  pooling_param {
    pool: MAX
    kernel_size: 3
    stride: 2
  }
}
layers {
  bottom: "pool2"
  top: "norm2"
  name: "norm2"
  type: LRN
  lrn_param {
    local_size: 5
    alpha: 0.0001
    beta: 0.75
  }
}
layers {
  bottom: "norm2"
  top: "conv3"
  name: "conv3"
  type: CONVOLUTION
  blobs_lr: 1
  blobs_lr: 2
  weight_decay: 1
  weight_decay: 0
  convolution_param {
    num_output: 384
    pad: 1
    kernel_size: 3
    weight_filler {
      type: "gaussian"
      std: 0.01
    }
    bias_filler {
      type: "constant"
      value: 0
    }
  }
}
layers {
  bottom: "conv3"
  top: "conv3"
  name: "relu3"
  type: RELU
}
layers {
  bottom: "conv3"
  top: "conv4"
  name: "conv4"
  type: CONVOLUTION
  blobs_lr: 1
  blobs_lr: 2
  weight_decay: 1
  weight_decay: 0
  convolution_param {
    num_output: 384
    pad: 1
    kernel_size: 3
    group: 2
    weight_filler {
      type: "gaussian"
      std: 0.01
    }
    bias_filler {
      type: "constant"
      value: 1
    }
  }
}
layers {
  bottom: "conv4"
  top: "conv4"
  name: "relu4"
  type: RELU
}
layers {
  bottom: "conv4"
  top: "conv5"
  name: "conv5"
  type: CONVOLUTION
  blobs_lr: 1
  blobs_lr: 2
  weight_decay: 1
  weight_decay: 0
  convolution_param {
    num_output: 256
    pad: 1
    kernel_size: 3
    group: 2
    weight_filler {
      type: "gaussian"
      std: 0.01
    }
    bias_filler {
      type: "constant"
      value: 1
    }
  }
}
layers {
  bottom: "conv5"
  top: "conv5"
  name: "relu5"
  type: RELU
}
layers {
  bottom: "conv5"
  top: "pool5"
  name: "pool5"
  type: POOLING
  pooling_param {
    pool: MAX
    kernel_size: 3
    stride: 2
  }
}
layers {
  bottom: "pool5"
  top: "fc6"
  name: "fc6"
  type: INNER_PRODUCT
  blobs_lr: 1
  blobs_lr: 2
  weight_decay: 1
  weight_decay: 0
  inner_product_param {
    num_output: 4096
    weight_filler {
      type: "gaussian"
      std: 0.005
    }
    bias_filler {
      type: "constant"
      value: 1
    }
  }
}
layers {
  bottom: "fc6"
  top: "fc6"
  name: "relu6"
  type: RELU
}
layers {
  bottom: "fc6"
  top: "fc6"
  name: "drop6"
  type: DROPOUT
  dropout_param {
    dropout_ratio: 0.5
  }
}
layers {
  bottom: "fc6"
  top: "fc7"
  name: "fc7"
  type: INNER_PRODUCT
  blobs_lr: 1
  blobs_lr: 2
  weight_decay: 1
  weight_decay: 0
  inner_product_param {
    num_output: 4096
    weight_filler {
      type: "gaussian"
      std: 0.005
    }
    bias_filler {
      type: "constant"
      value: 1
    }
  }
}
layers {
  bottom: "fc7"
  top: "fc7"
  name: "relu7"
  type: RELU
}
layers {
  bottom: "fc7"
  top: "fc7"
  name: "drop7"
  type: DROPOUT
  dropout_param {
    dropout_ratio: 0.5
  }
}
layers {
  bottom: "fc7"
  top: "fc8_clamp"
  name: "fc8_clamp"
  type: INNER_PRODUCT
  blobs_lr: 1
  blobs_lr: 2
  weight_decay: 1
  weight_decay: 0
  inner_product_param {
    num_output: 2
    weight_filler {
      type: "gaussian"
      std: 0.01
    }
    bias_filler {
      type: "constant"
      value: 0
    }
  }
}
layers {
  bottom: "fc8_clamp"
  bottom: "label"
  name: "loss"
  type: SOFTMAX_LOSS
}
layers {
  bottom: "fc8_clamp"
  bottom: "label"
  top: "accuracy"
  name: "accuracy"
  type: PER_CLASS_ACCURACY
  include {
    phase: TEST
  }
}
state {
  phase: TEST
}
I1111 14:04:17.378841 20106 net.cpp:67] Creating Layer data
I1111 14:04:17.378854 20106 net.cpp:356] data -> data
I1111 14:04:17.378867 20106 net.cpp:356] data -> label
I1111 14:04:17.378878 20106 net.cpp:96] Setting up data
I1111 14:04:17.378885 20106 image_data_layer.cpp:30] Opening file data/soil_high_blue/val.txt
I1111 14:04:17.381212 20106 image_data_layer.cpp:45] A total of 3311 images.
I1111 14:04:17.394105 20106 image_data_layer.cpp:73] output data size: 150,3,227,227
I1111 14:04:17.394136 20106 base_data_layer.cpp:36] Loading mean file from/homes/ad6813/data/controlpoint_mean_256-227.binaryproto
I1111 14:04:17.425390 20106 net.cpp:103] Top shape: 150 3 227 227 (23188050)
I1111 14:04:17.425427 20106 net.cpp:103] Top shape: 150 1 1 1 (150)
I1111 14:04:17.425446 20106 net.cpp:67] Creating Layer label_data_1_split
I1111 14:04:17.425454 20106 net.cpp:394] label_data_1_split <- label
I1111 14:04:17.425465 20106 net.cpp:356] label_data_1_split -> label_data_1_split_0
I1111 14:04:17.425482 20106 net.cpp:356] label_data_1_split -> label_data_1_split_1
I1111 14:04:17.425492 20106 net.cpp:96] Setting up label_data_1_split
I1111 14:04:17.425524 20106 net.cpp:103] Top shape: 150 1 1 1 (150)
I1111 14:04:17.425532 20106 net.cpp:103] Top shape: 150 1 1 1 (150)
I1111 14:04:17.425545 20106 net.cpp:67] Creating Layer conv1
I1111 14:04:17.425554 20106 net.cpp:394] conv1 <- data
I1111 14:04:17.425564 20106 net.cpp:356] conv1 -> conv1
I1111 14:04:17.425575 20106 net.cpp:96] Setting up conv1
I1111 14:04:17.427269 20106 net.cpp:103] Top shape: 150 96 55 55 (43560000)
I1111 14:04:17.427296 20106 net.cpp:67] Creating Layer relu1
I1111 14:04:17.427304 20106 net.cpp:394] relu1 <- conv1
I1111 14:04:17.427310 20106 net.cpp:345] relu1 -> conv1 (in-place)
I1111 14:04:17.427319 20106 net.cpp:96] Setting up relu1
I1111 14:04:17.427325 20106 net.cpp:103] Top shape: 150 96 55 55 (43560000)
I1111 14:04:17.427335 20106 net.cpp:67] Creating Layer pool1
I1111 14:04:17.427340 20106 net.cpp:394] pool1 <- conv1
I1111 14:04:17.427347 20106 net.cpp:356] pool1 -> pool1
I1111 14:04:17.427356 20106 net.cpp:96] Setting up pool1
I1111 14:04:17.427364 20106 net.cpp:103] Top shape: 150 96 27 27 (10497600)
I1111 14:04:17.427373 20106 net.cpp:67] Creating Layer norm1
I1111 14:04:17.427378 20106 net.cpp:394] norm1 <- pool1
I1111 14:04:17.427386 20106 net.cpp:356] norm1 -> norm1
I1111 14:04:17.427394 20106 net.cpp:96] Setting up norm1
I1111 14:04:17.427402 20106 net.cpp:103] Top shape: 150 96 27 27 (10497600)
I1111 14:04:17.427410 20106 net.cpp:67] Creating Layer conv2
I1111 14:04:17.427417 20106 net.cpp:394] conv2 <- norm1
I1111 14:04:17.427424 20106 net.cpp:356] conv2 -> conv2
I1111 14:04:17.427433 20106 net.cpp:96] Setting up conv2
I1111 14:04:17.442217 20106 net.cpp:103] Top shape: 150 256 27 27 (27993600)
I1111 14:04:17.442263 20106 net.cpp:67] Creating Layer relu2
I1111 14:04:17.442271 20106 net.cpp:394] relu2 <- conv2
I1111 14:04:17.442281 20106 net.cpp:345] relu2 -> conv2 (in-place)
I1111 14:04:17.442291 20106 net.cpp:96] Setting up relu2
I1111 14:04:17.442298 20106 net.cpp:103] Top shape: 150 256 27 27 (27993600)
I1111 14:04:17.442308 20106 net.cpp:67] Creating Layer pool2
I1111 14:04:17.442314 20106 net.cpp:394] pool2 <- conv2
I1111 14:04:17.442323 20106 net.cpp:356] pool2 -> pool2
I1111 14:04:17.442334 20106 net.cpp:96] Setting up pool2
I1111 14:04:17.442343 20106 net.cpp:103] Top shape: 150 256 13 13 (6489600)
I1111 14:04:17.442351 20106 net.cpp:67] Creating Layer norm2
I1111 14:04:17.442358 20106 net.cpp:394] norm2 <- pool2
I1111 14:04:17.442364 20106 net.cpp:356] norm2 -> norm2
I1111 14:04:17.442373 20106 net.cpp:96] Setting up norm2
I1111 14:04:17.442380 20106 net.cpp:103] Top shape: 150 256 13 13 (6489600)
I1111 14:04:17.442391 20106 net.cpp:67] Creating Layer conv3
I1111 14:04:17.442396 20106 net.cpp:394] conv3 <- norm2
I1111 14:04:17.442420 20106 net.cpp:356] conv3 -> conv3
I1111 14:04:17.442430 20106 net.cpp:96] Setting up conv3
I1111 14:04:17.485242 20106 net.cpp:103] Top shape: 150 384 13 13 (9734400)
I1111 14:04:17.485294 20106 net.cpp:67] Creating Layer relu3
I1111 14:04:17.485302 20106 net.cpp:394] relu3 <- conv3
I1111 14:04:17.485312 20106 net.cpp:345] relu3 -> conv3 (in-place)
I1111 14:04:17.485322 20106 net.cpp:96] Setting up relu3
I1111 14:04:17.485328 20106 net.cpp:103] Top shape: 150 384 13 13 (9734400)
I1111 14:04:17.485339 20106 net.cpp:67] Creating Layer conv4
I1111 14:04:17.485344 20106 net.cpp:394] conv4 <- conv3
I1111 14:04:17.485357 20106 net.cpp:356] conv4 -> conv4
I1111 14:04:17.485368 20106 net.cpp:96] Setting up conv4
I1111 14:04:17.518348 20106 net.cpp:103] Top shape: 150 384 13 13 (9734400)
I1111 14:04:17.518401 20106 net.cpp:67] Creating Layer relu4
I1111 14:04:17.518409 20106 net.cpp:394] relu4 <- conv4
I1111 14:04:17.518420 20106 net.cpp:345] relu4 -> conv4 (in-place)
I1111 14:04:17.518430 20106 net.cpp:96] Setting up relu4
I1111 14:04:17.518437 20106 net.cpp:103] Top shape: 150 384 13 13 (9734400)
I1111 14:04:17.518450 20106 net.cpp:67] Creating Layer conv5
I1111 14:04:17.518456 20106 net.cpp:394] conv5 <- conv4
I1111 14:04:17.518465 20106 net.cpp:356] conv5 -> conv5
I1111 14:04:17.518476 20106 net.cpp:96] Setting up conv5
I1111 14:04:17.540062 20106 net.cpp:103] Top shape: 150 256 13 13 (6489600)
I1111 14:04:17.540110 20106 net.cpp:67] Creating Layer relu5
I1111 14:04:17.540118 20106 net.cpp:394] relu5 <- conv5
I1111 14:04:17.540128 20106 net.cpp:345] relu5 -> conv5 (in-place)
I1111 14:04:17.540138 20106 net.cpp:96] Setting up relu5
I1111 14:04:17.540144 20106 net.cpp:103] Top shape: 150 256 13 13 (6489600)
I1111 14:04:17.540155 20106 net.cpp:67] Creating Layer pool5
I1111 14:04:17.540160 20106 net.cpp:394] pool5 <- conv5
I1111 14:04:17.540171 20106 net.cpp:356] pool5 -> pool5
I1111 14:04:17.540180 20106 net.cpp:96] Setting up pool5
I1111 14:04:17.540189 20106 net.cpp:103] Top shape: 150 256 6 6 (1382400)
I1111 14:04:17.540199 20106 net.cpp:67] Creating Layer fc6
I1111 14:04:17.540205 20106 net.cpp:394] fc6 <- pool5
I1111 14:04:17.540215 20106 net.cpp:356] fc6 -> fc6
I1111 14:04:17.540225 20106 net.cpp:96] Setting up fc6
I1111 14:04:19.351119 20106 net.cpp:103] Top shape: 150 4096 1 1 (614400)
I1111 14:04:19.351167 20106 net.cpp:67] Creating Layer relu6
I1111 14:04:19.351176 20106 net.cpp:394] relu6 <- fc6
I1111 14:04:19.351191 20106 net.cpp:345] relu6 -> fc6 (in-place)
I1111 14:04:19.351202 20106 net.cpp:96] Setting up relu6
I1111 14:04:19.351207 20106 net.cpp:103] Top shape: 150 4096 1 1 (614400)
I1111 14:04:19.351217 20106 net.cpp:67] Creating Layer drop6
I1111 14:04:19.351222 20106 net.cpp:394] drop6 <- fc6
I1111 14:04:19.351232 20106 net.cpp:345] drop6 -> fc6 (in-place)
I1111 14:04:19.351240 20106 net.cpp:96] Setting up drop6
I1111 14:04:19.351246 20106 net.cpp:103] Top shape: 150 4096 1 1 (614400)
I1111 14:04:19.351256 20106 net.cpp:67] Creating Layer fc7
I1111 14:04:19.351261 20106 net.cpp:394] fc7 <- fc6
I1111 14:04:19.351269 20106 net.cpp:356] fc7 -> fc7
I1111 14:04:19.351280 20106 net.cpp:96] Setting up fc7
I1111 14:04:20.155514 20106 net.cpp:103] Top shape: 150 4096 1 1 (614400)
I1111 14:04:20.155563 20106 net.cpp:67] Creating Layer relu7
I1111 14:04:20.155572 20106 net.cpp:394] relu7 <- fc7
I1111 14:04:20.155586 20106 net.cpp:345] relu7 -> fc7 (in-place)
I1111 14:04:20.155597 20106 net.cpp:96] Setting up relu7
I1111 14:04:20.155603 20106 net.cpp:103] Top shape: 150 4096 1 1 (614400)
I1111 14:04:20.155612 20106 net.cpp:67] Creating Layer drop7
I1111 14:04:20.155617 20106 net.cpp:394] drop7 <- fc7
I1111 14:04:20.155625 20106 net.cpp:345] drop7 -> fc7 (in-place)
I1111 14:04:20.155633 20106 net.cpp:96] Setting up drop7
I1111 14:04:20.155639 20106 net.cpp:103] Top shape: 150 4096 1 1 (614400)
I1111 14:04:20.155649 20106 net.cpp:67] Creating Layer fc8_clamp
I1111 14:04:20.155654 20106 net.cpp:394] fc8_clamp <- fc7
I1111 14:04:20.155666 20106 net.cpp:356] fc8_clamp -> fc8_clamp
I1111 14:04:20.155696 20106 net.cpp:96] Setting up fc8_clamp
I1111 14:04:20.156116 20106 net.cpp:103] Top shape: 150 2 1 1 (300)
I1111 14:04:20.156134 20106 net.cpp:67] Creating Layer fc8_clamp_fc8_clamp_0_split
I1111 14:04:20.156141 20106 net.cpp:394] fc8_clamp_fc8_clamp_0_split <- fc8_clamp
I1111 14:04:20.156148 20106 net.cpp:356] fc8_clamp_fc8_clamp_0_split -> fc8_clamp_fc8_clamp_0_split_0
I1111 14:04:20.156158 20106 net.cpp:356] fc8_clamp_fc8_clamp_0_split -> fc8_clamp_fc8_clamp_0_split_1
I1111 14:04:20.156167 20106 net.cpp:96] Setting up fc8_clamp_fc8_clamp_0_split
I1111 14:04:20.156174 20106 net.cpp:103] Top shape: 150 2 1 1 (300)
I1111 14:04:20.156179 20106 net.cpp:103] Top shape: 150 2 1 1 (300)
I1111 14:04:20.156190 20106 net.cpp:67] Creating Layer loss
I1111 14:04:20.156198 20106 net.cpp:394] loss <- fc8_clamp_fc8_clamp_0_split_0
I1111 14:04:20.156204 20106 net.cpp:394] loss <- label_data_1_split_0
I1111 14:04:20.156214 20106 net.cpp:356] loss -> (automatic)
I1111 14:04:20.156222 20106 net.cpp:96] Setting up loss
I1111 14:04:20.156231 20106 net.cpp:103] Top shape: 1 1 1 1 (1)
I1111 14:04:20.156237 20106 net.cpp:109]     with loss weight 1
I1111 14:04:20.156260 20106 net.cpp:67] Creating Layer accuracy
I1111 14:04:20.156266 20106 net.cpp:394] accuracy <- fc8_clamp_fc8_clamp_0_split_1
I1111 14:04:20.156272 20106 net.cpp:394] accuracy <- label_data_1_split_1
I1111 14:04:20.156283 20106 net.cpp:356] accuracy -> accuracy
I1111 14:04:20.156292 20106 net.cpp:96] Setting up accuracy
I1111 14:04:20.156306 20106 net.cpp:103] Top shape: 1 1 1 4 (4)
I1111 14:04:20.156311 20106 net.cpp:172] accuracy does not need backward computation.
I1111 14:04:20.156317 20106 net.cpp:170] loss needs backward computation.
I1111 14:04:20.156322 20106 net.cpp:170] fc8_clamp_fc8_clamp_0_split needs backward computation.
I1111 14:04:20.156327 20106 net.cpp:170] fc8_clamp needs backward computation.
I1111 14:04:20.156333 20106 net.cpp:170] drop7 needs backward computation.
…
