…
I1023 03:10:20.253329 25502 net.cpp:275] The NetState phase (0) differed from the phase (1) specified by a rule in layer accuracy
I1023 03:10:20.253520 25502 net.cpp:39] Initializing net from parameters: 
name: "ScrapeCaffeNet"
layers {
  top: "data"
  top: "label"
  name: "data"
  type: IMAGE_DATA
  image_data_param {
    source: "data/scrape/train_balanced_blue.txt"
    batch_size: 128
    new_height: 256
    new_width: 256
  }
  include {
    phase: TRAIN
  }
  transform_param {
    mirror: true
    crop_size: 227
    mean_file: "/homes/ad6813/data/controlpoint_mean_256-227.binaryproto"
  }
}
layers {
  bottom: "data"
  top: "conv1"
  name: "conv1"
  type: CONVOLUTION
  blobs_lr: 1
  blobs_lr: 2
  weight_decay: 1
  weight_decay: 0
  convolution_param {
    num_output: 96
    kernel_size: 11
    stride: 4
    weight_filler {
      type: "gaussian"
      std: 0.01
    }
    bias_filler {
      type: "constant"
      value: 0
    }
  }
}
layers {
  bottom: "conv1"
  top: "conv1"
  name: "relu1"
  type: RELU
}
layers {
  bottom: "conv1"
  top: "pool1"
  name: "pool1"
  type: POOLING
  pooling_param {
    pool: MAX
    kernel_size: 3
    stride: 2
  }
}
layers {
  bottom: "pool1"
  top: "norm1"
  name: "norm1"
  type: LRN
  lrn_param {
    local_size: 5
    alpha: 0.0001
    beta: 0.75
  }
}
layers {
  bottom: "norm1"
  top: "conv2"
  name: "conv2"
  type: CONVOLUTION
  blobs_lr: 1
  blobs_lr: 2
  weight_decay: 1
  weight_decay: 0
  convolution_param {
    num_output: 256
    pad: 2
    kernel_size: 5
    group: 2
    weight_filler {
      type: "gaussian"
      std: 0.01
    }
    bias_filler {
      type: "constant"
      value: 1
    }
  }
}
layers {
  bottom: "conv2"
  top: "conv2"
  name: "relu2"
  type: RELU
}
layers {
  bottom: "conv2"
  top: "pool2"
  name: "pool2"
  type: POOLING
  pooling_param {
    pool: MAX
    kernel_size: 3
    stride: 2
  }
}
layers {
  bottom: "pool2"
  top: "norm2"
  name: "norm2"
  type: LRN
  lrn_param {
    local_size: 5
    alpha: 0.0001
    beta: 0.75
  }
}
layers {
  bottom: "norm2"
  top: "conv3"
  name: "conv3"
  type: CONVOLUTION
  blobs_lr: 0
  blobs_lr: 0
  weight_decay: 0
  weight_decay: 0
  convolution_param {
    num_output: 384
    pad: 1
    kernel_size: 3
    weight_filler {
      type: "gaussian"
      std: 0.01
    }
    bias_filler {
      type: "constant"
      value: 0
    }
  }
}
layers {
  bottom: "conv3"
  top: "conv3"
  name: "relu3"
  type: RELU
}
layers {
  bottom: "conv3"
  top: "conv4"
  name: "conv4"
  type: CONVOLUTION
  blobs_lr: 0
  blobs_lr: 0
  weight_decay: 0
  weight_decay: 0
  convolution_param {
    num_output: 384
    pad: 1
    kernel_size: 3
    group: 2
    weight_filler {
      type: "gaussian"
      std: 0.01
    }
    bias_filler {
      type: "constant"
      value: 1
    }
  }
}
layers {
  bottom: "conv4"
  top: "conv4"
  name: "relu4"
  type: RELU
}
layers {
  bottom: "conv4"
  top: "conv5"
  name: "conv5"
  type: CONVOLUTION
  blobs_lr: 0
  blobs_lr: 0
  weight_decay: 0
  weight_decay: 0
  convolution_param {
    num_output: 256
    pad: 1
    kernel_size: 3
    group: 2
    weight_filler {
      type: "gaussian"
      std: 0.01
    }
    bias_filler {
      type: "constant"
      value: 1
    }
  }
}
layers {
  bottom: "conv5"
  top: "conv5"
  name: "relu5"
  type: RELU
}
layers {
  bottom: "conv5"
  top: "pool5"
  name: "pool5"
  type: POOLING
  pooling_param {
    pool: MAX
    kernel_size: 3
    stride: 2
  }
}
layers {
  bottom: "pool5"
  top: "fc6"
  name: "fc6"
  type: INNER_PRODUCT
  blobs_lr: 0
  blobs_lr: 0
  weight_decay: 0
  weight_decay: 0
  inner_product_param {
    num_output: 4096
    weight_filler {
      type: "gaussian"
      std: 0.005
    }
    bias_filler {
      type: "constant"
      value: 1
    }
  }
}
layers {
  bottom: "fc6"
  top: "fc6"
  name: "relu6"
  type: RELU
}
layers {
  bottom: "fc6"
  top: "fc6"
  name: "drop6"
  type: DROPOUT
  dropout_param {
    dropout_ratio: 0.5
  }
}
layers {
  bottom: "fc6"
  top: "fc7"
  name: "fc7"
  type: INNER_PRODUCT
  blobs_lr: 0
  blobs_lr: 0
  weight_decay: 0
  weight_decay: 0
  inner_product_param {
    num_output: 4096
    weight_filler {
      type: "gaussian"
      std: 0.005
    }
    bias_filler {
      type: "constant"
      value: 1
    }
  }
}
layers {
  bottom: "fc7"
  top: "fc7"
  name: "relu7"
  type: RELU
}
layers {
  bottom: "fc7"
  top: "fc7"
  name: "drop7"
  type: DROPOUT
  dropout_param {
    dropout_ratio: 0.5
  }
}
layers {
  bottom: "fc7"
  top: "fc8_scrape"
  name: "fc8_scrape"
  type: INNER_PRODUCT
  blobs_lr: 1
  blobs_lr: 2
  weight_decay: 1
  weight_decay: 0
  inner_product_param {
    num_output: 2
    weight_filler {
      type: "gaussian"
      std: 0.01
    }
    bias_filler {
      type: "constant"
      value: 0
    }
  }
}
layers {
  bottom: "fc8_scrape"
  bottom: "label"
  name: "loss"
  type: SOFTMAX_LOSS
}
state {
  phase: TRAIN
}
I1023 03:10:20.253618 25502 net.cpp:67] Creating Layer data
I1023 03:10:20.253629 25502 net.cpp:356] data -> data
I1023 03:10:20.253645 25502 net.cpp:356] data -> label
I1023 03:10:20.253659 25502 net.cpp:96] Setting up data
I1023 03:10:20.253665 25502 image_data_layer.cpp:30] Opening file data/scrape/train_balanced_blue.txt
I1023 03:10:20.255658 25502 image_data_layer.cpp:45] A total of 5086 images.
I1023 03:10:20.259980 25502 image_data_layer.cpp:73] output data size: 128,3,227,227
I1023 03:10:20.260005 25502 base_data_layer.cpp:36] Loading mean file from/homes/ad6813/data/controlpoint_mean_256-227.binaryproto
I1023 03:10:20.271898 25502 net.cpp:103] Top shape: 128 3 227 227 (19787136)
I1023 03:10:20.271922 25502 net.cpp:103] Top shape: 128 1 1 1 (128)
I1023 03:10:20.271939 25502 net.cpp:67] Creating Layer conv1
I1023 03:10:20.271944 25502 net.cpp:394] conv1 <- data
I1023 03:10:20.271957 25502 net.cpp:356] conv1 -> conv1
I1023 03:10:20.271975 25502 net.cpp:96] Setting up conv1
I1023 03:10:20.274528 25502 net.cpp:103] Top shape: 128 96 55 55 (37171200)
I1023 03:10:20.274598 25502 net.cpp:67] Creating Layer relu1
I1023 03:10:20.274617 25502 net.cpp:394] relu1 <- conv1
I1023 03:10:20.274632 25502 net.cpp:345] relu1 -> conv1 (in-place)
I1023 03:10:20.274653 25502 net.cpp:96] Setting up relu1
I1023 03:10:20.274679 25502 net.cpp:103] Top shape: 128 96 55 55 (37171200)
I1023 03:10:20.274710 25502 net.cpp:67] Creating Layer pool1
I1023 03:10:20.274736 25502 net.cpp:394] pool1 <- conv1
I1023 03:10:20.274759 25502 net.cpp:356] pool1 -> pool1
I1023 03:10:20.274780 25502 net.cpp:96] Setting up pool1
I1023 03:10:20.274791 25502 net.cpp:103] Top shape: 128 96 27 27 (8957952)
I1023 03:10:20.274801 25502 net.cpp:67] Creating Layer norm1
I1023 03:10:20.274806 25502 net.cpp:394] norm1 <- pool1
I1023 03:10:20.274811 25502 net.cpp:356] norm1 -> norm1
I1023 03:10:20.274818 25502 net.cpp:96] Setting up norm1
I1023 03:10:20.274826 25502 net.cpp:103] Top shape: 128 96 27 27 (8957952)
I1023 03:10:20.274832 25502 net.cpp:67] Creating Layer conv2
I1023 03:10:20.274837 25502 net.cpp:394] conv2 <- norm1
I1023 03:10:20.274842 25502 net.cpp:356] conv2 -> conv2
I1023 03:10:20.274847 25502 net.cpp:96] Setting up conv2
I1023 03:10:20.285197 25502 net.cpp:103] Top shape: 128 256 27 27 (23887872)
I1023 03:10:20.285215 25502 net.cpp:67] Creating Layer relu2
I1023 03:10:20.285218 25502 net.cpp:394] relu2 <- conv2
I1023 03:10:20.285223 25502 net.cpp:345] relu2 -> conv2 (in-place)
I1023 03:10:20.285228 25502 net.cpp:96] Setting up relu2
I1023 03:10:20.285231 25502 net.cpp:103] Top shape: 128 256 27 27 (23887872)
I1023 03:10:20.285244 25502 net.cpp:67] Creating Layer pool2
I1023 03:10:20.285248 25502 net.cpp:394] pool2 <- conv2
I1023 03:10:20.285253 25502 net.cpp:356] pool2 -> pool2
I1023 03:10:20.285256 25502 net.cpp:96] Setting up pool2
I1023 03:10:20.285260 25502 net.cpp:103] Top shape: 128 256 13 13 (5537792)
I1023 03:10:20.285266 25502 net.cpp:67] Creating Layer norm2
I1023 03:10:20.285269 25502 net.cpp:394] norm2 <- pool2
I1023 03:10:20.285274 25502 net.cpp:356] norm2 -> norm2
I1023 03:10:20.285279 25502 net.cpp:96] Setting up norm2
I1023 03:10:20.285282 25502 net.cpp:103] Top shape: 128 256 13 13 (5537792)
I1023 03:10:20.285287 25502 net.cpp:67] Creating Layer conv3
I1023 03:10:20.285290 25502 net.cpp:394] conv3 <- norm2
I1023 03:10:20.285295 25502 net.cpp:356] conv3 -> conv3
I1023 03:10:20.285300 25502 net.cpp:96] Setting up conv3
I1023 03:10:20.307278 25502 net.cpp:103] Top shape: 128 384 13 13 (8306688)
I1023 03:10:20.307312 25502 net.cpp:67] Creating Layer relu3
I1023 03:10:20.307317 25502 net.cpp:394] relu3 <- conv3
I1023 03:10:20.307323 25502 net.cpp:345] relu3 -> conv3 (in-place)
I1023 03:10:20.307330 25502 net.cpp:96] Setting up relu3
I1023 03:10:20.307334 25502 net.cpp:103] Top shape: 128 384 13 13 (8306688)
I1023 03:10:20.307340 25502 net.cpp:67] Creating Layer conv4
I1023 03:10:20.307343 25502 net.cpp:394] conv4 <- conv3
I1023 03:10:20.307348 25502 net.cpp:356] conv4 -> conv4
I1023 03:10:20.307353 25502 net.cpp:96] Setting up conv4
I1023 03:10:20.323601 25502 net.cpp:103] Top shape: 128 384 13 13 (8306688)
I1023 03:10:20.323628 25502 net.cpp:67] Creating Layer relu4
I1023 03:10:20.323632 25502 net.cpp:394] relu4 <- conv4
I1023 03:10:20.323638 25502 net.cpp:345] relu4 -> conv4 (in-place)
I1023 03:10:20.323645 25502 net.cpp:96] Setting up relu4
I1023 03:10:20.323649 25502 net.cpp:103] Top shape: 128 384 13 13 (8306688)
I1023 03:10:20.323654 25502 net.cpp:67] Creating Layer conv5
I1023 03:10:20.323657 25502 net.cpp:394] conv5 <- conv4
I1023 03:10:20.323662 25502 net.cpp:356] conv5 -> conv5
I1023 03:10:20.323668 25502 net.cpp:96] Setting up conv5
I1023 03:10:20.334553 25502 net.cpp:103] Top shape: 128 256 13 13 (5537792)
I1023 03:10:20.334578 25502 net.cpp:67] Creating Layer relu5
I1023 03:10:20.334583 25502 net.cpp:394] relu5 <- conv5
I1023 03:10:20.334589 25502 net.cpp:345] relu5 -> conv5 (in-place)
I1023 03:10:20.334596 25502 net.cpp:96] Setting up relu5
I1023 03:10:20.334599 25502 net.cpp:103] Top shape: 128 256 13 13 (5537792)
I1023 03:10:20.334604 25502 net.cpp:67] Creating Layer pool5
I1023 03:10:20.334607 25502 net.cpp:394] pool5 <- conv5
I1023 03:10:20.334611 25502 net.cpp:356] pool5 -> pool5
I1023 03:10:20.334616 25502 net.cpp:96] Setting up pool5
I1023 03:10:20.334621 25502 net.cpp:103] Top shape: 128 256 6 6 (1179648)
I1023 03:10:20.334630 25502 net.cpp:67] Creating Layer fc6
I1023 03:10:20.334632 25502 net.cpp:394] fc6 <- pool5
I1023 03:10:20.334637 25502 net.cpp:356] fc6 -> fc6
I1023 03:10:20.334642 25502 net.cpp:96] Setting up fc6
I1023 03:10:21.253684 25502 net.cpp:103] Top shape: 128 4096 1 1 (524288)
I1023 03:10:21.253718 25502 net.cpp:67] Creating Layer relu6
I1023 03:10:21.253725 25502 net.cpp:394] relu6 <- fc6
I1023 03:10:21.253732 25502 net.cpp:345] relu6 -> fc6 (in-place)
I1023 03:10:21.253741 25502 net.cpp:96] Setting up relu6
I1023 03:10:21.253743 25502 net.cpp:103] Top shape: 128 4096 1 1 (524288)
I1023 03:10:21.253748 25502 net.cpp:67] Creating Layer drop6
I1023 03:10:21.253751 25502 net.cpp:394] drop6 <- fc6
I1023 03:10:21.253756 25502 net.cpp:345] drop6 -> fc6 (in-place)
I1023 03:10:21.253759 25502 net.cpp:96] Setting up drop6
I1023 03:10:21.253767 25502 net.cpp:103] Top shape: 128 4096 1 1 (524288)
I1023 03:10:21.253772 25502 net.cpp:67] Creating Layer fc7
I1023 03:10:21.253774 25502 net.cpp:394] fc7 <- fc6
I1023 03:10:21.253782 25502 net.cpp:356] fc7 -> fc7
I1023 03:10:21.253787 25502 net.cpp:96] Setting up fc7
I1023 03:10:21.651176 25502 net.cpp:103] Top shape: 128 4096 1 1 (524288)
I1023 03:10:21.651222 25502 net.cpp:67] Creating Layer relu7
I1023 03:10:21.651227 25502 net.cpp:394] relu7 <- fc7
I1023 03:10:21.651244 25502 net.cpp:345] relu7 -> fc7 (in-place)
I1023 03:10:21.651250 25502 net.cpp:96] Setting up relu7
I1023 03:10:21.651254 25502 net.cpp:103] Top shape: 128 4096 1 1 (524288)
I1023 03:10:21.651258 25502 net.cpp:67] Creating Layer drop7
I1023 03:10:21.651262 25502 net.cpp:394] drop7 <- fc7
I1023 03:10:21.651268 25502 net.cpp:345] drop7 -> fc7 (in-place)
I1023 03:10:21.651273 25502 net.cpp:96] Setting up drop7
I1023 03:10:21.651275 25502 net.cpp:103] Top shape: 128 4096 1 1 (524288)
I1023 03:10:21.651281 25502 net.cpp:67] Creating Layer fc8_scrape
I1023 03:10:21.651284 25502 net.cpp:394] fc8_scrape <- fc7
I1023 03:10:21.651290 25502 net.cpp:356] fc8_scrape -> fc8_scrape
I1023 03:10:21.651296 25502 net.cpp:96] Setting up fc8_scrape
I1023 03:10:21.651507 25502 net.cpp:103] Top shape: 128 2 1 1 (256)
I1023 03:10:21.651518 25502 net.cpp:67] Creating Layer loss
I1023 03:10:21.651521 25502 net.cpp:394] loss <- fc8_scrape
I1023 03:10:21.651525 25502 net.cpp:394] loss <- label
I1023 03:10:21.651530 25502 net.cpp:356] loss -> (automatic)
I1023 03:10:21.651535 25502 net.cpp:96] Setting up loss
I1023 03:10:21.651546 25502 net.cpp:103] Top shape: 1 1 1 1 (1)
I1023 03:10:21.651551 25502 net.cpp:109]     with loss weight 1
I1023 03:10:21.651582 25502 net.cpp:170] loss needs backward computation.
I1023 03:10:21.651585 25502 net.cpp:170] fc8_scrape needs backward computation.
I1023 03:10:21.651590 25502 net.cpp:170] drop7 needs backward computation.
I1023 03:10:21.651593 25502 net.cpp:170] relu7 needs backward computation.
I1023 03:10:21.651595 25502 net.cpp:170] fc7 needs backward computation.
…
I1023 03:10:21.652269 25502 solver.cpp:151] Creating test net (#0) specified by net file: task/scrape/train_val.prototxt
I1023 03:10:21.652305 25502 net.cpp:275] The NetState phase (1) differed from the phase (0) specified by a rule in layer data
I1023 03:10:21.652475 25502 net.cpp:39] Initializing net from parameters: 
name: "ScrapeCaffeNet"
layers {
  top: "data"
  top: "label"
  name: "data"
  type: IMAGE_DATA
  image_data_param {
    source: "data/scrape/val_blue.txt"
    batch_size: 120
    new_height: 256
    new_width: 256
  }
  include {
    phase: TEST
  }
  transform_param {
    mirror: false
    crop_size: 227
    mean_file: "/homes/ad6813/data/controlpoint_mean_256-227.binaryproto"
  }
}
layers {
  bottom: "data"
  top: "conv1"
  name: "conv1"
  type: CONVOLUTION
  blobs_lr: 1
  blobs_lr: 2
  weight_decay: 1
  weight_decay: 0
  convolution_param {
    num_output: 96
    kernel_size: 11
    stride: 4
    weight_filler {
      type: "gaussian"
      std: 0.01
    }
    bias_filler {
      type: "constant"
      value: 0
    }
  }
}
layers {
  bottom: "conv1"
  top: "conv1"
  name: "relu1"
  type: RELU
}
layers {
  bottom: "conv1"
  top: "pool1"
  name: "pool1"
  type: POOLING
  pooling_param {
    pool: MAX
    kernel_size: 3
    stride: 2
  }
}
layers {
  bottom: "pool1"
  top: "norm1"
  name: "norm1"
  type: LRN
  lrn_param {
    local_size: 5
    alpha: 0.0001
    beta: 0.75
  }
}
layers {
  bottom: "norm1"
  top: "conv2"
  name: "conv2"
  type: CONVOLUTION
  blobs_lr: 1
  blobs_lr: 2
  weight_decay: 1
  weight_decay: 0
  convolution_param {
    num_output: 256
    pad: 2
    kernel_size: 5
    group: 2
    weight_filler {
      type: "gaussian"
      std: 0.01
    }
    bias_filler {
      type: "constant"
      value: 1
    }
  }
}
layers {
  bottom: "conv2"
  top: "conv2"
  name: "relu2"
  type: RELU
}
layers {
  bottom: "conv2"
  top: "pool2"
  name: "pool2"
  type: POOLING
  pooling_param {
    pool: MAX
    kernel_size: 3
    stride: 2
  }
}
layers {
  bottom: "pool2"
  top: "norm2"
  name: "norm2"
  type: LRN
  lrn_param {
    local_size: 5
    alpha: 0.0001
    beta: 0.75
  }
}
layers {
  bottom: "norm2"
  top: "conv3"
  name: "conv3"
  type: CONVOLUTION
  blobs_lr: 0
  blobs_lr: 0
  weight_decay: 0
  weight_decay: 0
  convolution_param {
    num_output: 384
    pad: 1
    kernel_size: 3
    weight_filler {
      type: "gaussian"
      std: 0.01
    }
    bias_filler {
      type: "constant"
      value: 0
    }
  }
}
layers {
  bottom: "conv3"
  top: "conv3"
  name: "relu3"
  type: RELU
}
layers {
  bottom: "conv3"
  top: "conv4"
  name: "conv4"
  type: CONVOLUTION
  blobs_lr: 0
  blobs_lr: 0
  weight_decay: 0
  weight_decay: 0
  convolution_param {
    num_output: 384
    pad: 1
    kernel_size: 3
    group: 2
    weight_filler {
      type: "gaussian"
      std: 0.01
    }
    bias_filler {
      type: "constant"
      value: 1
    }
  }
}
layers {
  bottom: "conv4"
  top: "conv4"
  name: "relu4"
  type: RELU
}
layers {
  bottom: "conv4"
  top: "conv5"
  name: "conv5"
  type: CONVOLUTION
  blobs_lr: 0
  blobs_lr: 0
  weight_decay: 0
  weight_decay: 0
  convolution_param {
    num_output: 256
    pad: 1
    kernel_size: 3
    group: 2
    weight_filler {
      type: "gaussian"
      std: 0.01
    }
    bias_filler {
      type: "constant"
      value: 1
    }
  }
}
layers {
  bottom: "conv5"
  top: "conv5"
  name: "relu5"
  type: RELU
}
layers {
  bottom: "conv5"
  top: "pool5"
  name: "pool5"
  type: POOLING
  pooling_param {
    pool: MAX
    kernel_size: 3
    stride: 2
  }
}
layers {
  bottom: "pool5"
  top: "fc6"
  name: "fc6"
  type: INNER_PRODUCT
  blobs_lr: 0
  blobs_lr: 0
  weight_decay: 0
  weight_decay: 0
  inner_product_param {
    num_output: 4096
    weight_filler {
      type: "gaussian"
      std: 0.005
    }
    bias_filler {
      type: "constant"
      value: 1
    }
  }
}
layers {
  bottom: "fc6"
  top: "fc6"
  name: "relu6"
  type: RELU
}
layers {
  bottom: "fc6"
  top: "fc6"
  name: "drop6"
  type: DROPOUT
  dropout_param {
    dropout_ratio: 0.5
  }
}
layers {
  bottom: "fc6"
  top: "fc7"
  name: "fc7"
  type: INNER_PRODUCT
  blobs_lr: 0
  blobs_lr: 0
  weight_decay: 0
  weight_decay: 0
  inner_product_param {
    num_output: 4096
    weight_filler {
      type: "gaussian"
      std: 0.005
    }
    bias_filler {
      type: "constant"
      value: 1
    }
  }
}
layers {
  bottom: "fc7"
  top: "fc7"
  name: "relu7"
  type: RELU
}
layers {
  bottom: "fc7"
  top: "fc7"
  name: "drop7"
  type: DROPOUT
  dropout_param {
    dropout_ratio: 0.5
  }
}
layers {
  bottom: "fc7"
  top: "fc8_scrape"
  name: "fc8_scrape"
  type: INNER_PRODUCT
  blobs_lr: 1
  blobs_lr: 2
  weight_decay: 1
  weight_decay: 0
  inner_product_param {
    num_output: 2
    weight_filler {
      type: "gaussian"
      std: 0.01
    }
    bias_filler {
      type: "constant"
      value: 0
    }
  }
}
layers {
  bottom: "fc8_scrape"
  bottom: "label"
  name: "loss"
  type: SOFTMAX_LOSS
}
layers {
  bottom: "fc8_scrape"
  bottom: "label"
  top: "accuracy"
  name: "accuracy"
  type: ACCURACY
  include {
    phase: TEST
  }
}
state {
  phase: TEST
}
I1023 03:10:21.652581 25502 net.cpp:67] Creating Layer data
I1023 03:10:21.652588 25502 net.cpp:356] data -> data
I1023 03:10:21.652595 25502 net.cpp:356] data -> label
I1023 03:10:21.652601 25502 net.cpp:96] Setting up data
I1023 03:10:21.652604 25502 image_data_layer.cpp:30] Opening file data/scrape/val_blue.txt
I1023 03:10:21.653153 25502 image_data_layer.cpp:45] A total of 1433 images.
I1023 03:10:21.654798 25502 image_data_layer.cpp:73] output data size: 120,3,227,227
I1023 03:10:21.654813 25502 base_data_layer.cpp:36] Loading mean file from/homes/ad6813/data/controlpoint_mean_256-227.binaryproto
I1023 03:10:21.664655 25502 net.cpp:103] Top shape: 120 3 227 227 (18550440)
I1023 03:10:21.664681 25502 net.cpp:103] Top shape: 120 1 1 1 (120)
I1023 03:10:21.664692 25502 net.cpp:67] Creating Layer label_data_1_split
I1023 03:10:21.664697 25502 net.cpp:394] label_data_1_split <- label
I1023 03:10:21.664705 25502 net.cpp:356] label_data_1_split -> label_data_1_split_0
I1023 03:10:21.664715 25502 net.cpp:356] label_data_1_split -> label_data_1_split_1
I1023 03:10:21.664719 25502 net.cpp:96] Setting up label_data_1_split
I1023 03:10:21.664732 25502 net.cpp:103] Top shape: 120 1 1 1 (120)
I1023 03:10:21.664736 25502 net.cpp:103] Top shape: 120 1 1 1 (120)
I1023 03:10:21.664744 25502 net.cpp:67] Creating Layer conv1
I1023 03:10:21.664748 25502 net.cpp:394] conv1 <- data
I1023 03:10:21.664753 25502 net.cpp:356] conv1 -> conv1
I1023 03:10:21.664760 25502 net.cpp:96] Setting up conv1
I1023 03:10:21.665653 25502 net.cpp:103] Top shape: 120 96 55 55 (34848000)
I1023 03:10:21.665668 25502 net.cpp:67] Creating Layer relu1
I1023 03:10:21.665673 25502 net.cpp:394] relu1 <- conv1
I1023 03:10:21.665676 25502 net.cpp:345] relu1 -> conv1 (in-place)
I1023 03:10:21.665681 25502 net.cpp:96] Setting up relu1
I1023 03:10:21.665684 25502 net.cpp:103] Top shape: 120 96 55 55 (34848000)
I1023 03:10:21.665689 25502 net.cpp:67] Creating Layer pool1
I1023 03:10:21.665693 25502 net.cpp:394] pool1 <- conv1
I1023 03:10:21.665696 25502 net.cpp:356] pool1 -> pool1
I1023 03:10:21.665701 25502 net.cpp:96] Setting up pool1
I1023 03:10:21.665706 25502 net.cpp:103] Top shape: 120 96 27 27 (8398080)
I1023 03:10:21.665711 25502 net.cpp:67] Creating Layer norm1
I1023 03:10:21.665714 25502 net.cpp:394] norm1 <- pool1
I1023 03:10:21.665719 25502 net.cpp:356] norm1 -> norm1
I1023 03:10:21.665722 25502 net.cpp:96] Setting up norm1
I1023 03:10:21.665726 25502 net.cpp:103] Top shape: 120 96 27 27 (8398080)
I1023 03:10:21.665731 25502 net.cpp:67] Creating Layer conv2
I1023 03:10:21.665735 25502 net.cpp:394] conv2 <- norm1
I1023 03:10:21.665740 25502 net.cpp:356] conv2 -> conv2
I1023 03:10:21.665745 25502 net.cpp:96] Setting up conv2
I1023 03:10:21.673284 25502 net.cpp:103] Top shape: 120 256 27 27 (22394880)
I1023 03:10:21.673297 25502 net.cpp:67] Creating Layer relu2
I1023 03:10:21.673301 25502 net.cpp:394] relu2 <- conv2
I1023 03:10:21.673305 25502 net.cpp:345] relu2 -> conv2 (in-place)
I1023 03:10:21.673310 25502 net.cpp:96] Setting up relu2
I1023 03:10:21.673313 25502 net.cpp:103] Top shape: 120 256 27 27 (22394880)
I1023 03:10:21.673320 25502 net.cpp:67] Creating Layer pool2
I1023 03:10:21.673322 25502 net.cpp:394] pool2 <- conv2
I1023 03:10:21.673327 25502 net.cpp:356] pool2 -> pool2
I1023 03:10:21.673332 25502 net.cpp:96] Setting up pool2
I1023 03:10:21.673336 25502 net.cpp:103] Top shape: 120 256 13 13 (5191680)
I1023 03:10:21.673342 25502 net.cpp:67] Creating Layer norm2
I1023 03:10:21.673346 25502 net.cpp:394] norm2 <- pool2
I1023 03:10:21.673349 25502 net.cpp:356] norm2 -> norm2
I1023 03:10:21.673353 25502 net.cpp:96] Setting up norm2
I1023 03:10:21.673357 25502 net.cpp:103] Top shape: 120 256 13 13 (5191680)
I1023 03:10:21.673363 25502 net.cpp:67] Creating Layer conv3
I1023 03:10:21.673367 25502 net.cpp:394] conv3 <- norm2
I1023 03:10:21.673378 25502 net.cpp:356] conv3 -> conv3
I1023 03:10:21.673383 25502 net.cpp:96] Setting up conv3
I1023 03:10:21.695124 25502 net.cpp:103] Top shape: 120 384 13 13 (7787520)
I1023 03:10:21.695157 25502 net.cpp:67] Creating Layer relu3
I1023 03:10:21.695161 25502 net.cpp:394] relu3 <- conv3
I1023 03:10:21.695168 25502 net.cpp:345] relu3 -> conv3 (in-place)
I1023 03:10:21.695174 25502 net.cpp:96] Setting up relu3
I1023 03:10:21.695178 25502 net.cpp:103] Top shape: 120 384 13 13 (7787520)
I1023 03:10:21.695185 25502 net.cpp:67] Creating Layer conv4
I1023 03:10:21.695188 25502 net.cpp:394] conv4 <- conv3
I1023 03:10:21.695194 25502 net.cpp:356] conv4 -> conv4
I1023 03:10:21.695199 25502 net.cpp:96] Setting up conv4
I1023 03:10:21.711704 25502 net.cpp:103] Top shape: 120 384 13 13 (7787520)
I1023 03:10:21.711731 25502 net.cpp:67] Creating Layer relu4
I1023 03:10:21.711736 25502 net.cpp:394] relu4 <- conv4
I1023 03:10:21.711741 25502 net.cpp:345] relu4 -> conv4 (in-place)
I1023 03:10:21.711747 25502 net.cpp:96] Setting up relu4
I1023 03:10:21.711751 25502 net.cpp:103] Top shape: 120 384 13 13 (7787520)
I1023 03:10:21.711768 25502 net.cpp:67] Creating Layer conv5
I1023 03:10:21.711772 25502 net.cpp:394] conv5 <- conv4
I1023 03:10:21.711777 25502 net.cpp:356] conv5 -> conv5
I1023 03:10:21.711783 25502 net.cpp:96] Setting up conv5
I1023 03:10:21.722792 25502 net.cpp:103] Top shape: 120 256 13 13 (5191680)
I1023 03:10:21.722813 25502 net.cpp:67] Creating Layer relu5
I1023 03:10:21.722817 25502 net.cpp:394] relu5 <- conv5
I1023 03:10:21.722822 25502 net.cpp:345] relu5 -> conv5 (in-place)
I1023 03:10:21.722827 25502 net.cpp:96] Setting up relu5
I1023 03:10:21.722831 25502 net.cpp:103] Top shape: 120 256 13 13 (5191680)
I1023 03:10:21.722838 25502 net.cpp:67] Creating Layer pool5
I1023 03:10:21.722841 25502 net.cpp:394] pool5 <- conv5
I1023 03:10:21.722846 25502 net.cpp:356] pool5 -> pool5
I1023 03:10:21.722851 25502 net.cpp:96] Setting up pool5
I1023 03:10:21.722856 25502 net.cpp:103] Top shape: 120 256 6 6 (1105920)
I1023 03:10:21.722862 25502 net.cpp:67] Creating Layer fc6
I1023 03:10:21.722864 25502 net.cpp:394] fc6 <- pool5
I1023 03:10:21.722870 25502 net.cpp:356] fc6 -> fc6
I1023 03:10:21.722877 25502 net.cpp:96] Setting up fc6
I1023 03:10:22.633744 25502 net.cpp:103] Top shape: 120 4096 1 1 (491520)
I1023 03:10:22.633792 25502 net.cpp:67] Creating Layer relu6
I1023 03:10:22.633797 25502 net.cpp:394] relu6 <- fc6
I1023 03:10:22.633805 25502 net.cpp:345] relu6 -> fc6 (in-place)
I1023 03:10:22.633811 25502 net.cpp:96] Setting up relu6
I1023 03:10:22.633816 25502 net.cpp:103] Top shape: 120 4096 1 1 (491520)
I1023 03:10:22.633821 25502 net.cpp:67] Creating Layer drop6
I1023 03:10:22.633823 25502 net.cpp:394] drop6 <- fc6
I1023 03:10:22.633828 25502 net.cpp:345] drop6 -> fc6 (in-place)
I1023 03:10:22.633832 25502 net.cpp:96] Setting up drop6
I1023 03:10:22.633836 25502 net.cpp:103] Top shape: 120 4096 1 1 (491520)
I1023 03:10:22.633842 25502 net.cpp:67] Creating Layer fc7
I1023 03:10:22.633846 25502 net.cpp:394] fc7 <- fc6
I1023 03:10:22.633849 25502 net.cpp:356] fc7 -> fc7
I1023 03:10:22.633855 25502 net.cpp:96] Setting up fc7
I1023 03:10:23.022686 25502 net.cpp:103] Top shape: 120 4096 1 1 (491520)
I1023 03:10:23.022732 25502 net.cpp:67] Creating Layer relu7
I1023 03:10:23.022737 25502 net.cpp:394] relu7 <- fc7
I1023 03:10:23.022744 25502 net.cpp:345] relu7 -> fc7 (in-place)
I1023 03:10:23.022750 25502 net.cpp:96] Setting up relu7
I1023 03:10:23.022753 25502 net.cpp:103] Top shape: 120 4096 1 1 (491520)
I1023 03:10:23.022760 25502 net.cpp:67] Creating Layer drop7
I1023 03:10:23.022763 25502 net.cpp:394] drop7 <- fc7
I1023 03:10:23.022768 25502 net.cpp:345] drop7 -> fc7 (in-place)
I1023 03:10:23.022771 25502 net.cpp:96] Setting up drop7
I1023 03:10:23.022775 25502 net.cpp:103] Top shape: 120 4096 1 1 (491520)
I1023 03:10:23.022784 25502 net.cpp:67] Creating Layer fc8_scrape
I1023 03:10:23.022788 25502 net.cpp:394] fc8_scrape <- fc7
I1023 03:10:23.022791 25502 net.cpp:356] fc8_scrape -> fc8_scrape
I1023 03:10:23.022809 25502 net.cpp:96] Setting up fc8_scrape
I1023 03:10:23.023031 25502 net.cpp:103] Top shape: 120 2 1 1 (240)
I1023 03:10:23.023041 25502 net.cpp:67] Creating Layer fc8_scrape_fc8_scrape_0_split
I1023 03:10:23.023044 25502 net.cpp:394] fc8_scrape_fc8_scrape_0_split <- fc8_scrape
I1023 03:10:23.023049 25502 net.cpp:356] fc8_scrape_fc8_scrape_0_split -> fc8_scrape_fc8_scrape_0_split_0
I1023 03:10:23.023056 25502 net.cpp:356] fc8_scrape_fc8_scrape_0_split -> fc8_scrape_fc8_scrape_0_split_1
I1023 03:10:23.023066 25502 net.cpp:96] Setting up fc8_scrape_fc8_scrape_0_split
I1023 03:10:23.023068 25502 net.cpp:103] Top shape: 120 2 1 1 (240)
I1023 03:10:23.023072 25502 net.cpp:103] Top shape: 120 2 1 1 (240)
I1023 03:10:23.023077 25502 net.cpp:67] Creating Layer loss
I1023 03:10:23.023079 25502 net.cpp:394] loss <- fc8_scrape_fc8_scrape_0_split_0
I1023 03:10:23.023083 25502 net.cpp:394] loss <- label_data_1_split_0
I1023 03:10:23.023087 25502 net.cpp:356] loss -> (automatic)
I1023 03:10:23.023092 25502 net.cpp:96] Setting up loss
I1023 03:10:23.023105 25502 net.cpp:103] Top shape: 1 1 1 1 (1)
I1023 03:10:23.023110 25502 net.cpp:109]     with loss weight 1
I1023 03:10:23.023126 25502 net.cpp:67] Creating Layer accuracy
I1023 03:10:23.023129 25502 net.cpp:394] accuracy <- fc8_scrape_fc8_scrape_0_split_1
I1023 03:10:23.023133 25502 net.cpp:394] accuracy <- label_data_1_split_1
I1023 03:10:23.023139 25502 net.cpp:356] accuracy -> accuracy
I1023 03:10:23.023149 25502 net.cpp:96] Setting up accuracy
I1023 03:10:23.023159 25502 net.cpp:103] Top shape: 1 1 1 4 (4)
I1023 03:10:23.023164 25502 net.cpp:172] accuracy does not need backward computation.
I1023 03:10:23.023167 25502 net.cpp:170] loss needs backward computation.
I1023 03:10:23.023170 25502 net.cpp:170] fc8_scrape_fc8_scrape_0_split needs backward computation.
I1023 03:10:23.023174 25502 net.cpp:170] fc8_scrape needs backward computation.
I1023 03:10:23.023176 25502 net.cpp:170] drop7 needs backward computation.
…
