…
I1104 17:41:10.597743 14711 net.cpp:275] The NetState phase (0) differed from the phase (1) specified by a rule in layer accuracy
I1104 17:41:10.597892 14711 net.cpp:39] Initializing net from parameters: 
name: "ClampCaffeNet"
layers {
  top: "data"
  top: "label"
  name: "data"
  type: IMAGE_DATA
  image_data_param {
    source: "/data/ad6813/caffe/data/clamp/clampTrain.txt"
    batch_size: 32
    new_height: 256
    new_width: 256
  }
  include {
    phase: TRAIN
  }
  transform_param {
    mirror: true
    crop_size: 227
    mean_file: "/homes/ad6813/data/controlpoint_mean_256-227.binaryproto"
  }
}
layers {
  bottom: "data"
  top: "conv1"
  name: "conv1"
  type: CONVOLUTION
  blobs_lr: 1
  blobs_lr: 2
  weight_decay: 1
  weight_decay: 0
  convolution_param {
    num_output: 96
    kernel_size: 11
    stride: 4
    weight_filler {
      type: "gaussian"
      std: 0.01
    }
    bias_filler {
      type: "constant"
      value: 0
    }
  }
}
layers {
  bottom: "conv1"
  top: "conv1"
  name: "relu1"
  type: RELU
}
layers {
  bottom: "conv1"
  top: "pool1"
  name: "pool1"
  type: POOLING
  pooling_param {
    pool: MAX
    kernel_size: 3
    stride: 2
  }
}
layers {
  bottom: "pool1"
  top: "norm1"
  name: "norm1"
  type: LRN
  lrn_param {
    local_size: 5
    alpha: 0.0001
    beta: 0.75
  }
}
layers {
  bottom: "norm1"
  top: "conv2"
  name: "conv2"
  type: CONVOLUTION
  blobs_lr: 1
  blobs_lr: 2
  weight_decay: 1
  weight_decay: 0
  convolution_param {
    num_output: 256
    pad: 2
    kernel_size: 5
    group: 2
    weight_filler {
      type: "gaussian"
      std: 0.01
    }
    bias_filler {
      type: "constant"
      value: 1
    }
  }
}
layers {
  bottom: "conv2"
  top: "conv2"
  name: "relu2"
  type: RELU
}
layers {
  bottom: "conv2"
  top: "pool2"
  name: "pool2"
  type: POOLING
  pooling_param {
    pool: MAX
    kernel_size: 3
    stride: 2
  }
}
layers {
  bottom: "pool2"
  top: "norm2"
  name: "norm2"
  type: LRN
  lrn_param {
    local_size: 5
    alpha: 0.0001
    beta: 0.75
  }
}
layers {
  bottom: "norm2"
  top: "conv3"
  name: "conv3"
  type: CONVOLUTION
  blobs_lr: 1
  blobs_lr: 2
  weight_decay: 1
  weight_decay: 0
  convolution_param {
    num_output: 384
    pad: 1
    kernel_size: 3
    weight_filler {
      type: "gaussian"
      std: 0.01
    }
    bias_filler {
      type: "constant"
      value: 0
    }
  }
}
layers {
  bottom: "conv3"
  top: "conv3"
  name: "relu3"
  type: RELU
}
layers {
  bottom: "conv3"
  top: "conv4"
  name: "conv4"
  type: CONVOLUTION
  blobs_lr: 1
  blobs_lr: 2
  weight_decay: 1
  weight_decay: 0
  convolution_param {
    num_output: 384
    pad: 1
    kernel_size: 3
    group: 2
    weight_filler {
      type: "gaussian"
      std: 0.01
    }
    bias_filler {
      type: "constant"
      value: 1
    }
  }
}
layers {
  bottom: "conv4"
  top: "conv4"
  name: "relu4"
  type: RELU
}
layers {
  bottom: "conv4"
  top: "conv5"
  name: "conv5"
  type: CONVOLUTION
  blobs_lr: 1
  blobs_lr: 2
  weight_decay: 1
  weight_decay: 0
  convolution_param {
    num_output: 256
    pad: 1
    kernel_size: 3
    group: 2
    weight_filler {
      type: "gaussian"
      std: 0.01
    }
    bias_filler {
      type: "constant"
      value: 1
    }
  }
}
layers {
  bottom: "conv5"
  top: "conv5"
  name: "relu5"
  type: RELU
}
layers {
  bottom: "conv5"
  top: "pool5"
  name: "pool5"
  type: POOLING
  pooling_param {
    pool: MAX
    kernel_size: 3
    stride: 2
  }
}
layers {
  bottom: "pool5"
  top: "fc6"
  name: "fc6"
  type: INNER_PRODUCT
  blobs_lr: 1
  blobs_lr: 2
  weight_decay: 1
  weight_decay: 0
  inner_product_param {
    num_output: 4096
    weight_filler {
      type: "gaussian"
      std: 0.005
    }
    bias_filler {
      type: "constant"
      value: 1
    }
  }
}
layers {
  bottom: "fc6"
  top: "fc6"
  name: "relu6"
  type: RELU
}
layers {
  bottom: "fc6"
  top: "fc6"
  name: "drop6"
  type: DROPOUT
  dropout_param {
    dropout_ratio: 0.5
  }
}
layers {
  bottom: "fc6"
  top: "fc7"
  name: "fc7"
  type: INNER_PRODUCT
  blobs_lr: 1
  blobs_lr: 2
  weight_decay: 1
  weight_decay: 0
  inner_product_param {
    num_output: 4096
    weight_filler {
      type: "gaussian"
      std: 0.005
    }
    bias_filler {
      type: "constant"
      value: 1
    }
  }
}
layers {
  bottom: "fc7"
  top: "fc7"
  name: "relu7"
  type: RELU
}
layers {
  bottom: "fc7"
  top: "fc7"
  name: "drop7"
  type: DROPOUT
  dropout_param {
    dropout_ratio: 0.5
  }
}
layers {
  bottom: "fc7"
  top: "fc8_clamp"
  name: "fc8_clamp"
  type: INNER_PRODUCT
  blobs_lr: 1
  blobs_lr: 2
  weight_decay: 1
  weight_decay: 0
  inner_product_param {
    num_output: 2
    weight_filler {
      type: "gaussian"
      std: 0.01
    }
    bias_filler {
      type: "constant"
      value: 0
    }
  }
}
layers {
  bottom: "fc8_clamp"
  bottom: "label"
  name: "loss"
  type: SOFTMAX_LOSS
}
state {
  phase: TRAIN
}
I1104 17:41:10.597988 14711 net.cpp:67] Creating Layer data
I1104 17:41:10.597997 14711 net.cpp:356] data -> data
I1104 17:41:10.598012 14711 net.cpp:356] data -> label
I1104 17:41:10.598026 14711 net.cpp:96] Setting up data
I1104 17:41:10.598031 14711 image_data_layer.cpp:30] Opening file /data/ad6813/caffe/data/clamp/clampTrain.txt
I1104 17:41:10.606154 14711 image_data_layer.cpp:45] A total of 23494 images.
I1104 17:41:10.617776 14711 image_data_layer.cpp:73] output data size: 32,3,227,227
I1104 17:41:10.617810 14711 base_data_layer.cpp:36] Loading mean file from/homes/ad6813/data/controlpoint_mean_256-227.binaryproto
I1104 17:41:10.628036 14711 net.cpp:103] Top shape: 32 3 227 227 (4946784)
I1104 17:41:10.628062 14711 net.cpp:103] Top shape: 32 1 1 1 (32)
I1104 17:41:10.628077 14711 net.cpp:67] Creating Layer conv1
I1104 17:41:10.628082 14711 net.cpp:394] conv1 <- data
I1104 17:41:10.628095 14711 net.cpp:356] conv1 -> conv1
I1104 17:41:10.628106 14711 net.cpp:96] Setting up conv1
I1104 17:41:10.643445 14711 net.cpp:103] Top shape: 32 96 55 55 (9292800)
I1104 17:41:10.643489 14711 net.cpp:67] Creating Layer relu1
I1104 17:41:10.643494 14711 net.cpp:394] relu1 <- conv1
I1104 17:41:10.643501 14711 net.cpp:345] relu1 -> conv1 (in-place)
I1104 17:41:10.643510 14711 net.cpp:96] Setting up relu1
I1104 17:41:10.643519 14711 net.cpp:103] Top shape: 32 96 55 55 (9292800)
I1104 17:41:10.643525 14711 net.cpp:67] Creating Layer pool1
I1104 17:41:10.643528 14711 net.cpp:394] pool1 <- conv1
I1104 17:41:10.643532 14711 net.cpp:356] pool1 -> pool1
I1104 17:41:10.643538 14711 net.cpp:96] Setting up pool1
I1104 17:41:10.643556 14711 net.cpp:103] Top shape: 32 96 27 27 (2239488)
I1104 17:41:10.643565 14711 net.cpp:67] Creating Layer norm1
I1104 17:41:10.643568 14711 net.cpp:394] norm1 <- pool1
I1104 17:41:10.643574 14711 net.cpp:356] norm1 -> norm1
I1104 17:41:10.643584 14711 net.cpp:96] Setting up norm1
I1104 17:41:10.643590 14711 net.cpp:103] Top shape: 32 96 27 27 (2239488)
I1104 17:41:10.643599 14711 net.cpp:67] Creating Layer conv2
I1104 17:41:10.643604 14711 net.cpp:394] conv2 <- norm1
I1104 17:41:10.643611 14711 net.cpp:356] conv2 -> conv2
I1104 17:41:10.643617 14711 net.cpp:96] Setting up conv2
I1104 17:41:10.651379 14711 net.cpp:103] Top shape: 32 256 27 27 (5971968)
I1104 17:41:10.651402 14711 net.cpp:67] Creating Layer relu2
I1104 17:41:10.651407 14711 net.cpp:394] relu2 <- conv2
I1104 17:41:10.651413 14711 net.cpp:345] relu2 -> conv2 (in-place)
I1104 17:41:10.651419 14711 net.cpp:96] Setting up relu2
I1104 17:41:10.651424 14711 net.cpp:103] Top shape: 32 256 27 27 (5971968)
I1104 17:41:10.651443 14711 net.cpp:67] Creating Layer pool2
I1104 17:41:10.651448 14711 net.cpp:394] pool2 <- conv2
I1104 17:41:10.651453 14711 net.cpp:356] pool2 -> pool2
I1104 17:41:10.651458 14711 net.cpp:96] Setting up pool2
I1104 17:41:10.651463 14711 net.cpp:103] Top shape: 32 256 13 13 (1384448)
I1104 17:41:10.651471 14711 net.cpp:67] Creating Layer norm2
I1104 17:41:10.651475 14711 net.cpp:394] norm2 <- pool2
I1104 17:41:10.651479 14711 net.cpp:356] norm2 -> norm2
I1104 17:41:10.651485 14711 net.cpp:96] Setting up norm2
I1104 17:41:10.651490 14711 net.cpp:103] Top shape: 32 256 13 13 (1384448)
I1104 17:41:10.651496 14711 net.cpp:67] Creating Layer conv3
I1104 17:41:10.651499 14711 net.cpp:394] conv3 <- norm2
I1104 17:41:10.651504 14711 net.cpp:356] conv3 -> conv3
I1104 17:41:10.651510 14711 net.cpp:96] Setting up conv3
I1104 17:41:10.673389 14711 net.cpp:103] Top shape: 32 384 13 13 (2076672)
I1104 17:41:10.673424 14711 net.cpp:67] Creating Layer relu3
I1104 17:41:10.673429 14711 net.cpp:394] relu3 <- conv3
I1104 17:41:10.673435 14711 net.cpp:345] relu3 -> conv3 (in-place)
I1104 17:41:10.673442 14711 net.cpp:96] Setting up relu3
I1104 17:41:10.673449 14711 net.cpp:103] Top shape: 32 384 13 13 (2076672)
I1104 17:41:10.673456 14711 net.cpp:67] Creating Layer conv4
I1104 17:41:10.673460 14711 net.cpp:394] conv4 <- conv3
I1104 17:41:10.673465 14711 net.cpp:356] conv4 -> conv4
I1104 17:41:10.673470 14711 net.cpp:96] Setting up conv4
I1104 17:41:10.690212 14711 net.cpp:103] Top shape: 32 384 13 13 (2076672)
I1104 17:41:10.690237 14711 net.cpp:67] Creating Layer relu4
I1104 17:41:10.690242 14711 net.cpp:394] relu4 <- conv4
I1104 17:41:10.690249 14711 net.cpp:345] relu4 -> conv4 (in-place)
I1104 17:41:10.690255 14711 net.cpp:96] Setting up relu4
I1104 17:41:10.690261 14711 net.cpp:103] Top shape: 32 384 13 13 (2076672)
I1104 17:41:10.690268 14711 net.cpp:67] Creating Layer conv5
I1104 17:41:10.690270 14711 net.cpp:394] conv5 <- conv4
I1104 17:41:10.690275 14711 net.cpp:356] conv5 -> conv5
I1104 17:41:10.690281 14711 net.cpp:96] Setting up conv5
I1104 17:41:10.701393 14711 net.cpp:103] Top shape: 32 256 13 13 (1384448)
I1104 17:41:10.701418 14711 net.cpp:67] Creating Layer relu5
I1104 17:41:10.701423 14711 net.cpp:394] relu5 <- conv5
I1104 17:41:10.701429 14711 net.cpp:345] relu5 -> conv5 (in-place)
I1104 17:41:10.701436 14711 net.cpp:96] Setting up relu5
I1104 17:41:10.701442 14711 net.cpp:103] Top shape: 32 256 13 13 (1384448)
I1104 17:41:10.701447 14711 net.cpp:67] Creating Layer pool5
I1104 17:41:10.701450 14711 net.cpp:394] pool5 <- conv5
I1104 17:41:10.701455 14711 net.cpp:356] pool5 -> pool5
I1104 17:41:10.701460 14711 net.cpp:96] Setting up pool5
I1104 17:41:10.701468 14711 net.cpp:103] Top shape: 32 256 6 6 (294912)
I1104 17:41:10.701478 14711 net.cpp:67] Creating Layer fc6
I1104 17:41:10.701485 14711 net.cpp:394] fc6 <- pool5
I1104 17:41:10.701493 14711 net.cpp:356] fc6 -> fc6
I1104 17:41:10.701498 14711 net.cpp:96] Setting up fc6
I1104 17:41:11.606566 14711 net.cpp:103] Top shape: 32 4096 1 1 (131072)
I1104 17:41:11.606614 14711 net.cpp:67] Creating Layer relu6
I1104 17:41:11.606619 14711 net.cpp:394] relu6 <- fc6
I1104 17:41:11.606627 14711 net.cpp:345] relu6 -> fc6 (in-place)
I1104 17:41:11.606634 14711 net.cpp:96] Setting up relu6
I1104 17:41:11.606649 14711 net.cpp:103] Top shape: 32 4096 1 1 (131072)
I1104 17:41:11.606657 14711 net.cpp:67] Creating Layer drop6
I1104 17:41:11.606659 14711 net.cpp:394] drop6 <- fc6
I1104 17:41:11.606663 14711 net.cpp:345] drop6 -> fc6 (in-place)
I1104 17:41:11.606668 14711 net.cpp:96] Setting up drop6
I1104 17:41:11.606676 14711 net.cpp:103] Top shape: 32 4096 1 1 (131072)
I1104 17:41:11.606683 14711 net.cpp:67] Creating Layer fc7
I1104 17:41:11.606685 14711 net.cpp:394] fc7 <- fc6
I1104 17:41:11.606690 14711 net.cpp:356] fc7 -> fc7
I1104 17:41:11.606698 14711 net.cpp:96] Setting up fc7
I1104 17:41:11.995223 14711 net.cpp:103] Top shape: 32 4096 1 1 (131072)
I1104 17:41:11.995267 14711 net.cpp:67] Creating Layer relu7
I1104 17:41:11.995273 14711 net.cpp:394] relu7 <- fc7
I1104 17:41:11.995292 14711 net.cpp:345] relu7 -> fc7 (in-place)
I1104 17:41:11.995301 14711 net.cpp:96] Setting up relu7
I1104 17:41:11.995316 14711 net.cpp:103] Top shape: 32 4096 1 1 (131072)
I1104 17:41:11.995321 14711 net.cpp:67] Creating Layer drop7
I1104 17:41:11.995324 14711 net.cpp:394] drop7 <- fc7
I1104 17:41:11.995329 14711 net.cpp:345] drop7 -> fc7 (in-place)
I1104 17:41:11.995334 14711 net.cpp:96] Setting up drop7
I1104 17:41:11.995338 14711 net.cpp:103] Top shape: 32 4096 1 1 (131072)
I1104 17:41:11.995344 14711 net.cpp:67] Creating Layer fc8_clamp
I1104 17:41:11.995347 14711 net.cpp:394] fc8_clamp <- fc7
I1104 17:41:11.995352 14711 net.cpp:356] fc8_clamp -> fc8_clamp
I1104 17:41:11.995358 14711 net.cpp:96] Setting up fc8_clamp
I1104 17:41:11.995591 14711 net.cpp:103] Top shape: 32 2 1 1 (64)
I1104 17:41:11.995604 14711 net.cpp:67] Creating Layer loss
I1104 17:41:11.995609 14711 net.cpp:394] loss <- fc8_clamp
I1104 17:41:11.995614 14711 net.cpp:394] loss <- label
I1104 17:41:11.995620 14711 net.cpp:356] loss -> (automatic)
I1104 17:41:11.995623 14711 net.cpp:96] Setting up loss
I1104 17:41:11.995635 14711 net.cpp:103] Top shape: 1 1 1 1 (1)
I1104 17:41:11.995638 14711 net.cpp:109]     with loss weight 1
I1104 17:41:11.995674 14711 net.cpp:170] loss needs backward computation.
I1104 17:41:11.995678 14711 net.cpp:170] fc8_clamp needs backward computation.
I1104 17:41:11.995682 14711 net.cpp:170] drop7 needs backward computation.
I1104 17:41:11.995684 14711 net.cpp:170] relu7 needs backward computation.
I1104 17:41:11.995687 14711 net.cpp:170] fc7 needs backward computation.
…
I1104 17:41:11.996469 14711 net.cpp:275] The NetState phase (1) differed from the phase (0) specified by a rule in layer data
I1104 17:41:11.996649 14711 net.cpp:39] Initializing net from parameters: 
name: "ClampCaffeNet"
layers {
  top: "data"
  top: "label"
  name: "data"
  type: IMAGE_DATA
  image_data_param {
    source: "/data/ad6813/caffe/data/clamp/clampVal.txt"
    batch_size: 8
    new_height: 256
    new_width: 256
  }
  include {
    phase: TEST
  }
  transform_param {
    mirror: true
    crop_size: 227
    mean_file: "/homes/ad6813/data/controlpoint_mean_256-227.binaryproto"
  }
}
layers {
  bottom: "data"
  top: "conv1"
  name: "conv1"
  type: CONVOLUTION
  blobs_lr: 1
  blobs_lr: 2
  weight_decay: 1
  weight_decay: 0
  convolution_param {
    num_output: 96
    kernel_size: 11
    stride: 4
    weight_filler {
      type: "gaussian"
      std: 0.01
    }
    bias_filler {
      type: "constant"
      value: 0
    }
  }
}
layers {
  bottom: "conv1"
  top: "conv1"
  name: "relu1"
  type: RELU
}
layers {
  bottom: "conv1"
  top: "pool1"
  name: "pool1"
  type: POOLING
  pooling_param {
    pool: MAX
    kernel_size: 3
    stride: 2
  }
}
layers {
  bottom: "pool1"
  top: "norm1"
  name: "norm1"
  type: LRN
  lrn_param {
    local_size: 5
    alpha: 0.0001
    beta: 0.75
  }
}
layers {
  bottom: "norm1"
  top: "conv2"
  name: "conv2"
  type: CONVOLUTION
  blobs_lr: 1
  blobs_lr: 2
  weight_decay: 1
  weight_decay: 0
  convolution_param {
    num_output: 256
    pad: 2
    kernel_size: 5
    group: 2
    weight_filler {
      type: "gaussian"
      std: 0.01
    }
    bias_filler {
      type: "constant"
      value: 1
    }
  }
}
layers {
  bottom: "conv2"
  top: "conv2"
  name: "relu2"
  type: RELU
}
layers {
  bottom: "conv2"
  top: "pool2"
  name: "pool2"
  type: POOLING
  pooling_param {
    pool: MAX
    kernel_size: 3
    stride: 2
  }
}
layers {
  bottom: "pool2"
  top: "norm2"
  name: "norm2"
  type: LRN
  lrn_param {
    local_size: 5
    alpha: 0.0001
    beta: 0.75
  }
}
layers {
  bottom: "norm2"
  top: "conv3"
  name: "conv3"
  type: CONVOLUTION
  blobs_lr: 1
  blobs_lr: 2
  weight_decay: 1
  weight_decay: 0
  convolution_param {
    num_output: 384
    pad: 1
    kernel_size: 3
    weight_filler {
      type: "gaussian"
      std: 0.01
    }
    bias_filler {
      type: "constant"
      value: 0
    }
  }
}
layers {
  bottom: "conv3"
  top: "conv3"
  name: "relu3"
  type: RELU
}
layers {
  bottom: "conv3"
  top: "conv4"
  name: "conv4"
  type: CONVOLUTION
  blobs_lr: 1
  blobs_lr: 2
  weight_decay: 1
  weight_decay: 0
  convolution_param {
    num_output: 384
    pad: 1
    kernel_size: 3
    group: 2
    weight_filler {
      type: "gaussian"
      std: 0.01
    }
    bias_filler {
      type: "constant"
      value: 1
    }
  }
}
layers {
  bottom: "conv4"
  top: "conv4"
  name: "relu4"
  type: RELU
}
layers {
  bottom: "conv4"
  top: "conv5"
  name: "conv5"
  type: CONVOLUTION
  blobs_lr: 1
  blobs_lr: 2
  weight_decay: 1
  weight_decay: 0
  convolution_param {
    num_output: 256
    pad: 1
    kernel_size: 3
    group: 2
    weight_filler {
      type: "gaussian"
      std: 0.01
    }
    bias_filler {
      type: "constant"
      value: 1
    }
  }
}
layers {
  bottom: "conv5"
  top: "conv5"
  name: "relu5"
  type: RELU
}
layers {
  bottom: "conv5"
  top: "pool5"
  name: "pool5"
  type: POOLING
  pooling_param {
    pool: MAX
    kernel_size: 3
    stride: 2
  }
}
layers {
  bottom: "pool5"
  top: "fc6"
  name: "fc6"
  type: INNER_PRODUCT
  blobs_lr: 1
  blobs_lr: 2
  weight_decay: 1
  weight_decay: 0
  inner_product_param {
    num_output: 4096
    weight_filler {
      type: "gaussian"
      std: 0.005
    }
    bias_filler {
      type: "constant"
      value: 1
    }
  }
}
layers {
  bottom: "fc6"
  top: "fc6"
  name: "relu6"
  type: RELU
}
layers {
  bottom: "fc6"
  top: "fc6"
  name: "drop6"
  type: DROPOUT
  dropout_param {
    dropout_ratio: 0.5
  }
}
layers {
  bottom: "fc6"
  top: "fc7"
  name: "fc7"
  type: INNER_PRODUCT
  blobs_lr: 1
  blobs_lr: 2
  weight_decay: 1
  weight_decay: 0
  inner_product_param {
    num_output: 4096
    weight_filler {
      type: "gaussian"
      std: 0.005
    }
    bias_filler {
      type: "constant"
      value: 1
    }
  }
}
layers {
  bottom: "fc7"
  top: "fc7"
  name: "relu7"
  type: RELU
}
layers {
  bottom: "fc7"
  top: "fc7"
  name: "drop7"
  type: DROPOUT
  dropout_param {
    dropout_ratio: 0.5
  }
}
layers {
  bottom: "fc7"
  top: "fc8_clamp"
  name: "fc8_clamp"
  type: INNER_PRODUCT
  blobs_lr: 1
  blobs_lr: 2
  weight_decay: 1
  weight_decay: 0
  inner_product_param {
    num_output: 2
    weight_filler {
      type: "gaussian"
      std: 0.01
    }
    bias_filler {
      type: "constant"
      value: 0
    }
  }
}
layers {
  bottom: "fc8_clamp"
  bottom: "label"
  name: "loss"
  type: SOFTMAX_LOSS
}
layers {
  bottom: "fc8_clamp"
  bottom: "label"
  top: "accuracy"
  name: "accuracy"
  type: PER_CLASS_ACCURACY
  include {
    phase: TEST
  }
}
state {
  phase: TEST
}
I1104 17:41:11.996757 14711 net.cpp:67] Creating Layer data
I1104 17:41:11.996763 14711 net.cpp:356] data -> data
I1104 17:41:11.996772 14711 net.cpp:356] data -> label
I1104 17:41:11.996783 14711 net.cpp:96] Setting up data
I1104 17:41:11.996785 14711 image_data_layer.cpp:30] Opening file /data/ad6813/caffe/data/clamp/clampVal.txt
I1104 17:41:11.997568 14711 image_data_layer.cpp:45] A total of 2005 images.
I1104 17:41:12.004050 14711 image_data_layer.cpp:73] output data size: 8,3,227,227
I1104 17:41:12.004076 14711 base_data_layer.cpp:36] Loading mean file from/homes/ad6813/data/controlpoint_mean_256-227.binaryproto
I1104 17:41:12.006810 14711 net.cpp:103] Top shape: 8 3 227 227 (1236696)
I1104 17:41:12.006834 14711 net.cpp:103] Top shape: 8 1 1 1 (8)
I1104 17:41:12.006844 14711 net.cpp:67] Creating Layer label_data_1_split
I1104 17:41:12.006847 14711 net.cpp:394] label_data_1_split <- label
I1104 17:41:12.006853 14711 net.cpp:356] label_data_1_split -> label_data_1_split_0
I1104 17:41:12.006862 14711 net.cpp:356] label_data_1_split -> label_data_1_split_1
I1104 17:41:12.006867 14711 net.cpp:96] Setting up label_data_1_split
I1104 17:41:12.006875 14711 net.cpp:103] Top shape: 8 1 1 1 (8)
I1104 17:41:12.006878 14711 net.cpp:103] Top shape: 8 1 1 1 (8)
I1104 17:41:12.006886 14711 net.cpp:67] Creating Layer conv1
I1104 17:41:12.006889 14711 net.cpp:394] conv1 <- data
I1104 17:41:12.006894 14711 net.cpp:356] conv1 -> conv1
I1104 17:41:12.006901 14711 net.cpp:96] Setting up conv1
I1104 17:41:12.007890 14711 net.cpp:103] Top shape: 8 96 55 55 (2323200)
I1104 17:41:12.007907 14711 net.cpp:67] Creating Layer relu1
I1104 17:41:12.007911 14711 net.cpp:394] relu1 <- conv1
I1104 17:41:12.007916 14711 net.cpp:345] relu1 -> conv1 (in-place)
I1104 17:41:12.007921 14711 net.cpp:96] Setting up relu1
I1104 17:41:12.007927 14711 net.cpp:103] Top shape: 8 96 55 55 (2323200)
I1104 17:41:12.007935 14711 net.cpp:67] Creating Layer pool1
I1104 17:41:12.007937 14711 net.cpp:394] pool1 <- conv1
I1104 17:41:12.007942 14711 net.cpp:356] pool1 -> pool1
I1104 17:41:12.007947 14711 net.cpp:96] Setting up pool1
I1104 17:41:12.007954 14711 net.cpp:103] Top shape: 8 96 27 27 (559872)
I1104 17:41:12.007961 14711 net.cpp:67] Creating Layer norm1
I1104 17:41:12.007963 14711 net.cpp:394] norm1 <- pool1
I1104 17:41:12.007968 14711 net.cpp:356] norm1 -> norm1
I1104 17:41:12.007973 14711 net.cpp:96] Setting up norm1
I1104 17:41:12.007977 14711 net.cpp:103] Top shape: 8 96 27 27 (559872)
I1104 17:41:12.007983 14711 net.cpp:67] Creating Layer conv2
I1104 17:41:12.007987 14711 net.cpp:394] conv2 <- norm1
I1104 17:41:12.007990 14711 net.cpp:356] conv2 -> conv2
I1104 17:41:12.007997 14711 net.cpp:96] Setting up conv2
I1104 17:41:12.016263 14711 net.cpp:103] Top shape: 8 256 27 27 (1492992)
I1104 17:41:12.016283 14711 net.cpp:67] Creating Layer relu2
I1104 17:41:12.016288 14711 net.cpp:394] relu2 <- conv2
I1104 17:41:12.016294 14711 net.cpp:345] relu2 -> conv2 (in-place)
I1104 17:41:12.016299 14711 net.cpp:96] Setting up relu2
I1104 17:41:12.016305 14711 net.cpp:103] Top shape: 8 256 27 27 (1492992)
I1104 17:41:12.016311 14711 net.cpp:67] Creating Layer pool2
I1104 17:41:12.016314 14711 net.cpp:394] pool2 <- conv2
I1104 17:41:12.016319 14711 net.cpp:356] pool2 -> pool2
I1104 17:41:12.016325 14711 net.cpp:96] Setting up pool2
I1104 17:41:12.016332 14711 net.cpp:103] Top shape: 8 256 13 13 (346112)
I1104 17:41:12.016337 14711 net.cpp:67] Creating Layer norm2
I1104 17:41:12.016340 14711 net.cpp:394] norm2 <- pool2
I1104 17:41:12.016345 14711 net.cpp:356] norm2 -> norm2
I1104 17:41:12.016350 14711 net.cpp:96] Setting up norm2
I1104 17:41:12.016355 14711 net.cpp:103] Top shape: 8 256 13 13 (346112)
I1104 17:41:12.016360 14711 net.cpp:67] Creating Layer conv3
I1104 17:41:12.016363 14711 net.cpp:394] conv3 <- norm2
I1104 17:41:12.016368 14711 net.cpp:356] conv3 -> conv3
I1104 17:41:12.016382 14711 net.cpp:96] Setting up conv3
I1104 17:41:12.038995 14711 net.cpp:103] Top shape: 8 384 13 13 (519168)
I1104 17:41:12.039028 14711 net.cpp:67] Creating Layer relu3
I1104 17:41:12.039034 14711 net.cpp:394] relu3 <- conv3
I1104 17:41:12.039041 14711 net.cpp:345] relu3 -> conv3 (in-place)
I1104 17:41:12.039047 14711 net.cpp:96] Setting up relu3
I1104 17:41:12.039053 14711 net.cpp:103] Top shape: 8 384 13 13 (519168)
I1104 17:41:12.039062 14711 net.cpp:67] Creating Layer conv4
I1104 17:41:12.039064 14711 net.cpp:394] conv4 <- conv3
I1104 17:41:12.039069 14711 net.cpp:356] conv4 -> conv4
I1104 17:41:12.039075 14711 net.cpp:96] Setting up conv4
I1104 17:41:12.056017 14711 net.cpp:103] Top shape: 8 384 13 13 (519168)
I1104 17:41:12.056041 14711 net.cpp:67] Creating Layer relu4
I1104 17:41:12.056046 14711 net.cpp:394] relu4 <- conv4
I1104 17:41:12.056053 14711 net.cpp:345] relu4 -> conv4 (in-place)
I1104 17:41:12.056061 14711 net.cpp:96] Setting up relu4
I1104 17:41:12.056066 14711 net.cpp:103] Top shape: 8 384 13 13 (519168)
I1104 17:41:12.056072 14711 net.cpp:67] Creating Layer conv5
I1104 17:41:12.056076 14711 net.cpp:394] conv5 <- conv4
I1104 17:41:12.056082 14711 net.cpp:356] conv5 -> conv5
I1104 17:41:12.056088 14711 net.cpp:96] Setting up conv5
I1104 17:41:12.067267 14711 net.cpp:103] Top shape: 8 256 13 13 (346112)
I1104 17:41:12.067301 14711 net.cpp:67] Creating Layer relu5
I1104 17:41:12.067306 14711 net.cpp:394] relu5 <- conv5
I1104 17:41:12.067311 14711 net.cpp:345] relu5 -> conv5 (in-place)
I1104 17:41:12.067315 14711 net.cpp:96] Setting up relu5
I1104 17:41:12.067322 14711 net.cpp:103] Top shape: 8 256 13 13 (346112)
I1104 17:41:12.067330 14711 net.cpp:67] Creating Layer pool5
I1104 17:41:12.067333 14711 net.cpp:394] pool5 <- conv5
I1104 17:41:12.067338 14711 net.cpp:356] pool5 -> pool5
I1104 17:41:12.067343 14711 net.cpp:96] Setting up pool5
I1104 17:41:12.067350 14711 net.cpp:103] Top shape: 8 256 6 6 (73728)
I1104 17:41:12.067358 14711 net.cpp:67] Creating Layer fc6
I1104 17:41:12.067366 14711 net.cpp:394] fc6 <- pool5
I1104 17:41:12.067371 14711 net.cpp:356] fc6 -> fc6
I1104 17:41:12.067378 14711 net.cpp:96] Setting up fc6
I1104 17:41:12.941193 14711 net.cpp:103] Top shape: 8 4096 1 1 (32768)
I1104 17:41:12.941241 14711 net.cpp:67] Creating Layer relu6
I1104 17:41:12.941246 14711 net.cpp:394] relu6 <- fc6
I1104 17:41:12.941254 14711 net.cpp:345] relu6 -> fc6 (in-place)
I1104 17:41:12.941262 14711 net.cpp:96] Setting up relu6
I1104 17:41:12.941277 14711 net.cpp:103] Top shape: 8 4096 1 1 (32768)
I1104 17:41:12.941285 14711 net.cpp:67] Creating Layer drop6
I1104 17:41:12.941288 14711 net.cpp:394] drop6 <- fc6
I1104 17:41:12.941293 14711 net.cpp:345] drop6 -> fc6 (in-place)
I1104 17:41:12.941298 14711 net.cpp:96] Setting up drop6
I1104 17:41:12.941301 14711 net.cpp:103] Top shape: 8 4096 1 1 (32768)
I1104 17:41:12.941308 14711 net.cpp:67] Creating Layer fc7
I1104 17:41:12.941310 14711 net.cpp:394] fc7 <- fc6
I1104 17:41:12.941316 14711 net.cpp:356] fc7 -> fc7
I1104 17:41:12.941323 14711 net.cpp:96] Setting up fc7
I1104 17:41:13.330147 14711 net.cpp:103] Top shape: 8 4096 1 1 (32768)
I1104 17:41:13.330193 14711 net.cpp:67] Creating Layer relu7
I1104 17:41:13.330199 14711 net.cpp:394] relu7 <- fc7
I1104 17:41:13.330207 14711 net.cpp:345] relu7 -> fc7 (in-place)
I1104 17:41:13.330215 14711 net.cpp:96] Setting up relu7
I1104 17:41:13.330230 14711 net.cpp:103] Top shape: 8 4096 1 1 (32768)
I1104 17:41:13.330235 14711 net.cpp:67] Creating Layer drop7
I1104 17:41:13.330238 14711 net.cpp:394] drop7 <- fc7
I1104 17:41:13.330243 14711 net.cpp:345] drop7 -> fc7 (in-place)
I1104 17:41:13.330247 14711 net.cpp:96] Setting up drop7
I1104 17:41:13.330251 14711 net.cpp:103] Top shape: 8 4096 1 1 (32768)
I1104 17:41:13.330260 14711 net.cpp:67] Creating Layer fc8_clamp
I1104 17:41:13.330262 14711 net.cpp:394] fc8_clamp <- fc7
I1104 17:41:13.330268 14711 net.cpp:356] fc8_clamp -> fc8_clamp
I1104 17:41:13.330277 14711 net.cpp:96] Setting up fc8_clamp
I1104 17:41:13.330504 14711 net.cpp:103] Top shape: 8 2 1 1 (16)
I1104 17:41:13.330523 14711 net.cpp:67] Creating Layer fc8_clamp_fc8_clamp_0_split
I1104 17:41:13.330526 14711 net.cpp:394] fc8_clamp_fc8_clamp_0_split <- fc8_clamp
I1104 17:41:13.330530 14711 net.cpp:356] fc8_clamp_fc8_clamp_0_split -> fc8_clamp_fc8_clamp_0_split_0
I1104 17:41:13.330538 14711 net.cpp:356] fc8_clamp_fc8_clamp_0_split -> fc8_clamp_fc8_clamp_0_split_1
I1104 17:41:13.330545 14711 net.cpp:96] Setting up fc8_clamp_fc8_clamp_0_split
I1104 17:41:13.330549 14711 net.cpp:103] Top shape: 8 2 1 1 (16)
I1104 17:41:13.330553 14711 net.cpp:103] Top shape: 8 2 1 1 (16)
I1104 17:41:13.330559 14711 net.cpp:67] Creating Layer loss
I1104 17:41:13.330565 14711 net.cpp:394] loss <- fc8_clamp_fc8_clamp_0_split_0
I1104 17:41:13.330569 14711 net.cpp:394] loss <- label_data_1_split_0
I1104 17:41:13.330582 14711 net.cpp:356] loss -> (automatic)
I1104 17:41:13.330588 14711 net.cpp:96] Setting up loss
I1104 17:41:13.330595 14711 net.cpp:103] Top shape: 1 1 1 1 (1)
I1104 17:41:13.330597 14711 net.cpp:109]     with loss weight 1
I1104 17:41:13.330615 14711 net.cpp:67] Creating Layer accuracy
I1104 17:41:13.330617 14711 net.cpp:394] accuracy <- fc8_clamp_fc8_clamp_0_split_1
I1104 17:41:13.330621 14711 net.cpp:394] accuracy <- label_data_1_split_1
I1104 17:41:13.330633 14711 net.cpp:356] accuracy -> accuracy
I1104 17:41:13.330639 14711 net.cpp:96] Setting up accuracy
I1104 17:41:13.330646 14711 net.cpp:103] Top shape: 1 1 1 4 (4)
I1104 17:41:13.330649 14711 net.cpp:172] accuracy does not need backward computation.
I1104 17:41:13.330652 14711 net.cpp:170] loss needs backward computation.
I1104 17:41:13.330656 14711 net.cpp:170] fc8_clamp_fc8_clamp_0_split needs backward computation.
I1104 17:41:13.330658 14711 net.cpp:170] fc8_clamp needs backward computation.
I1104 17:41:13.330662 14711 net.cpp:170] drop7 needs backward computation.
…
